ML-Agents/Examples/results/headless_001/MoveToGoal/MoveToGoal-100064.pt (torch, 518461 bytes, 44 tensors)

network_body._body_endoder.seq_layers.0.weight f4 [128, 6]
000000 ff 80 24 bc 69 96 81 3e 31 46 11 bf 43 73 2c bf
       -0.010040521 0.25310066 -0.5674773 -0.67363375
000010 4d 3f 9a 3e 45 b0 bb be ef 9e 28 3f 49 90 00 bf
       0.3012642 -0.3665792 0.65867513 -0.5022016
000020 e1 ba 5f 3d 8f 1c d8 3d 1b 62 71 be c2 6b be be
       0.05462158 0.10552322 -0.2357258 -0.37191588
000030 e4 1a 63 3c ee 4d 1c 3e dd 00 07 bf 49 97 ac be
       0.013861392 0.15264103 -0.5273569 -0.3370917
000040 30 6b df be 5d 64 32 be 89 f5 03 3f 5a a3 6a 3e
       -0.43636465 -0.17421098 0.5154653 0.22913876
000050 2c 50 bb be 0b a9 b4 3e 46 59 e1 3e da 2f fb 3c
       -0.36584604 0.3528522 0.44013423 0.030662466
000060 9c ee aa bd 2e a6 7a 3e 7a 7c be be 6b 38 e4 3d
       -0.083462924 0.24477455 -0.37204343 0.111435734
000070 55 1a e6 3d c1 80 cd 3d 19 4c d7 be b8 4b cb bd
       0.11235491 0.100343235 -0.42050245 -0.099265516
000080 f8 16 55 3e 49 77 0e bf 95 6e 78 3e 26 bd 09 bd
       0.20809543 -0.55650765 0.24260934 -0.03362765
000090 e6 52 ac bf 7b 15 99 3e 76 9f 7b be fa 81 13 3e
       -1.3462799 0.298992 -0.24572548 0.14405051
0000a0 b9 65 3f 3e 5f 22 01 3f 06 9c 10 3f db e2 c7 bc
       0.18691148 0.5044307 0.5648807 -0.024400165
0000b0 ff 2a bc bd c8 bc c1 bd b8 fd c8 3e c4 36 d4 be
       -0.09187888 -0.09459835 0.39256072 -0.41448033
0000c0 38 44 45 3e 8f 56 27 3f 10 74 60 3e 1f 39 0a bf
       0.19264305 0.6536645 0.21919274 -0.5399341
0000d0 80 4d 06 3e 25 5d 45 be ae f6 40 be 72 e2 28 3f
       0.13115501 -0.19273813 -0.18844101 0.6597053
0000e0 18 ce 92 3e 8d 9d 01 bf 92 93 61 3c b4 bf 43 3e
       0.28672862 -0.5063103 0.013768094 0.19116098
0000f0 33 12 4f be 3a c1 d3 3d b2 81 23 3f c0 5b 19 bf
       -0.20221786 0.103395894 0.63869774 -0.59905624
000100 02 e3 0e bf a0 a5 07 3e 34 9a 2a be b8 88 d5 be
       -0.55815136 0.13246775 -0.16660386 -0.4170587
000110 1f 75 90 bd ba 37 7c bd e5 14 e8 be 0e 7e 69 3e
       -0.07053589 -0.061576582 -0.4532844 0.22801992
000120 eb 99 0f bf a0 17 52 3e a0 f7 d3 3e 0f 3f a9 3e
       -0.56094235 0.20516825 0.4139986 0.33055922
000130 4e 41 bb bd bc d0 3c bf 58 03 e0 bd 8a ca 14 3f
       -0.09143315 -0.73756003 -0.10938138 0.5812155
000140 b6 18 0a be 2c 2c 01 3e e3 e9 e7 be 0e ac 77 3f
       -0.13485989 0.12614506 -0.4529563 0.9674691
000150 b4 79 c4 3e 6b a9 21 bf cc 05 2a 3e 18 03 f1 bd
       0.38374102 -0.63149136 0.16603774 -0.11768168
000160 a1 ee 54 3e 41 80 c6 3d c2 17 0b 3f d5 71 87 bf
       0.20794155 0.09692431 0.54333127 -1.0581614
000170 16 be a0 3f 2d 99 84 be 3e bf ce 3c 2f dd 2c 3e
       1.255801 -0.25898114 0.025237676 0.1688125
000180 e2 75 9d be 65 b3 8e be e4 71 a3 bc 6f 78 a2 3d
       -0.30754 -0.27871242 -0.019951768 0.07933127
000190 68 b8 65 bd 4d c2 03 bf 8d e0 a9 3e d4 59 b3 3e
       -0.056084067 -0.51468354 0.3317913 0.3502947
0001a0 01 90 aa 3d 9c a9 46 be aa 08 d7 be 13 a9 97 bd
       0.08328248 -0.19400638 -0.41998798 -0.07405295
0001b0 44 5e ac be ab 9d 0a be c4 dd fd 3e 43 17 2c 3f
       -0.3366567 -0.13536708 0.49583256 0.67222995
0001c0 a5 d6 0e be 81 64 56 3d ff b6 77 3c 3c 8f 22 bf
       -0.13949068 0.05234194 0.015119313 -0.6349981
0001d0 65 97 41 3e 11 52 c2 3e a8 87 91 3e d3 33 4e 3e
       0.18905409 0.37953237 0.2842381 0.20136957
0001e0 79 38 9f bd 36 4f 4a 3f 94 12 6d be 86 25 51 be
       -0.07774443 0.79027116 -0.23151618 -0.2042447
0001f0 41 8a 31 3f 65 6e f8 be 54 02 c7 be cc 16 29 bf
       0.69351584 -0.48521724 -0.38868964 -0.6605041
000200 ea 86 e7 be 1f d3 30 bf e3 16 34 be 8d ec 14 3f
       -0.4522012 -0.69072145 -0.17586856 0.5817345
000210 82 43 e4 bd d8 29 26 be a2 22 07 3e 3f d8 a7 be
       -0.111456886 -0.162269 0.13196805 -0.3278217
000220 17 57 c7 be 53 f9 40 bd 8e 05 26 bd 20 cc 9e be
       -0.38933632 -0.047112774 -0.04053264 -0.3101511
000230 5b 4b 0f 3f 61 ce 2e bd ad e1 dd 3e e4 96 69 bd
       0.5597436 -0.042677287 0.4333624 -0.057028666
000240 bd 35 4a 3e 52 60 fb bc cc 65 03 3f f9 a4 18 bd
       0.19747062 -0.030685578 0.51327205 -0.037266705
000250 81 6b 40 3d 2c 82 25 3e 92 50 03 be ce d4 e8 3e
       0.046977524 0.16162938 -0.12823704 0.45474857
000260 d8 8c 56 3d 08 b3 a9 3e 05 b9 92 3a 70 f3 e2 3e
       0.052380413 0.33144403 0.0011194056 0.44326353
000270 d9 e9 d8 3d e1 e7 8c be 5e 0c ec be a0 27 ba 3e
       0.10591478 -0.2752066 -0.46103185 0.36358356
000280 54 66 10 bf 30 dc a7 be 1b 4c 33 bf 60 ce 64 3e
       -0.5640614 -0.32785177 -0.70038 0.22344351
000290 d4 e7 38 3d d5 26 47 3e 30 33 a6 be 2e 8a 1a 3e
       0.045142964 0.19448407 -0.32460928 0.15091774
0002a0 bc 6d 9e 3d 7a 5a ff bd 29 66 a5 be 6e e9 ce 3d
       0.07735774 -0.12468429 -0.32304505 0.10103117
0002b0 a7 54 06 3f 8d b5 00 3f 06 fc 1d be 98 a3 ef bd
       0.5247292 0.50277025 -0.1542817 -0.11701125
0002c0 8f 49 cb bc 16 d1 9e be f5 2e 90 3e e0 2f 16 3f
       -0.024815349 -0.31018895 0.28160825 0.586668
0002d0 a9 2f 3d 3f 4e 7e 78 bf f2 79 96 3d 2a 52 ed 3d
       0.7390085 -0.97067726 0.07347478 0.11587937
0002e0 c5 7d 6c 3e dc f7 4e 3f e3 bd 02 be 06 37 37 3e
       0.23094852 0.80846953 -0.12767749 0.17892084
0002f0 a2 32 23 3e 11 5c 7b be 1c b3 16 3f dc 75 9d bd
       0.15937284 -0.2454684 0.5886705 -0.076884955
000300 90 8c 5d 3d a8 04 10 3f f7 ea bb be 65 0c 10 bf
       0.05408913 0.56257105 -0.367027 -0.5626891
000310 19 8b 5b be 2e 95 52 3e 64 42 4f be d5 9d b2 3e
       -0.2143978 0.2056472 -0.2024017 0.3488604
000320 a0 72 30 bf 33 18 00 bf 22 f1 09 bd d2 87 1a 3f
       -0.68924904 -0.50036925 -0.033677228 0.60363495
000330 e9 a3 84 3e 77 a3 8f bd 31 1d 40 be ab fc 36 bf
       0.25906304 -0.070136 -0.18761136 -0.7147929
000340 b7 42 7f 3e 8d 85 e5 3e 6e 6e 27 3d a7 05 27 bf
       0.24927793 0.44828454 0.0408768 -0.65243
000350 bc c3 a2 be 46 f4 90 bd 9c e3 cb be 63 82 da bd
       -0.31789958 -0.070778415 -0.3982209 -0.106694005
000360 d9 fd 42 be b1 9d b6 be 33 c6 bf 3d d8 cb 94 3b
       -0.19042148 -0.35667184 0.093639754 0.0045409016
000370 a3 83 ee be aa 3e 8a 3e ff ed 04 3f 07 c1 3e 3f
       -0.46584806 0.27000934 0.51925653 0.74513286
000380 c3 5d a3 bd ac b3 ca be 58 5b 53 bf 0d 8a f0 be
       -0.07976868 -0.39590204 -0.82561255 -0.46980324
000390 d6 de c2 3d 22 35 53 be cc 4d b6 3e e3 07 7c 3c
       0.09515159 -0.20625737 0.3560623 0.01538274
0003a0 30 c0 dc 3d bc c4 81 3e 3f 1d 69 3e c3 29 11 bf
       0.10778844 0.2534541 0.22765063 -0.5670435
0003b0 11 b2 9b 3f 09 6f e2 bd 42 b0 95 be 0a e2 60 3d
       1.2163717 -0.110563345 -0.29236037 0.054903068
0003c0 eb 8c 08 be e3 c0 8a be 9b ae 3c 3e fb 92 50 be
       -0.13335006 -0.27100286 0.18425982 -0.20368569
0003d0 cb fd 12 be 4e 65 75 bf e5 ce 13 bf 29 48 ac be
       -0.14354627 -0.95857704 -0.5773757 -0.33648804
0003e0 ad 76 b3 3e 9d 42 14 bc 80 b7 93 3e 09 03 52 be
       0.3505148 -0.009049085 0.28850937 -0.2050897
0003f0 a2 1a b4 be 24 48 49 3f 1c 06 8a 3c c4 98 26 bf
       -0.3517657 0.786257 0.016848616 -0.6507685

network_body._body_endoder.seq_layers.0.bias f4 [128]
000000 71 35 63 bb b4 98 84 3b 09 f9 e1 39 56 9d f7 bb
       -0.0034669305 0.004046524 0.0004310089 -0.0075565977
000010 6b b0 71 3b 0e d7 4a bc 68 2a 42 3c bc 5f 1c bb
       0.0036878835 -0.012380375 0.011850931 -0.0023860773
000020 de 5d 16 3c 83 12 a9 38 fe 3a 12 3c 36 e1 35 bc
       0.009177653 8.061996e-05 0.008925198 -0.011101058
000030 36 29 d3 b9 09 cc 65 bb 5f 72 93 3b 1b 40 25 bc
       -0.0004027576 -0.0035064241 0.004499718 -0.010086085
000040 7c 52 9a bb 85 3a 3c 3b ef 4d 12 bc f5 4c 5d bb
       -0.00470954 0.0028721404 -0.008929714 -0.0033767794
000050 53 24 58 bb 51 89 b4 3b 28 a3 b0 bb cc c7 d0 3b
       -0.0032980635 0.0055095335 -0.0053905435 0.006371474
000060 54 35 94 3b d3 92 ea 3a f3 5f b4 bb 54 c2 e2 ba
       0.004522959 0.001789654 -0.005504602 -0.0017300346
000070 9f 4a 82 bb 67 20 44 3c 0f a4 08 3b 2b c3 30 bb
       -0.0039761807 0.011970616 0.002084974 -0.0026971798
000080 15 96 5c 3c ad 7b 14 bc 22 1a 1b 3b 5b 09 36 3c
       0.013463517 -0.00906269 0.00236667 0.011110629
000090 e8 09 f8 3b 66 a6 87 3b c1 83 0d bc c1 3f ad bb
       0.0075695403 0.0041397093 -0.00863737 -0.005287141
0000a0 9e f3 10 bb a5 5a c0 ba b8 e1 74 3b e6 f2 b5 3a
       -0.0022117863 -0.0014675452 0.0037365984 0.0013881593
0000b0 16 f5 f5 3a b0 23 98 3b d8 82 76 3a 83 24 6c 3b
       0.0018765058 0.004642926 0.00094036525 0.0036032505
0000c0 80 86 1e 3c c6 d2 82 bb 82 32 9d 3c 59 71 bb bb
       0.009675622 -0.0039924113 0.019189123 -0.005720299
0000d0 66 00 5f 3c 0b 97 26 3b 63 ec 1d bc a5 49 df ba
       0.013610935 0.0025419618 -0.0096388785 -0.0017035498
0000e0 93 a9 77 b9 98 b2 6e bb 61 22 1a 3c a5 d3 c1 3a
       -0.00023618927 -0.0036422368 0.009407611 0.0014787806
0000f0 86 f6 bd 3b b9 c7 25 bb c7 73 82 bb 2b 74 26 ba
       0.00579721 -0.0025296046 -0.003981087 -0.0006349708
000100 08 c5 17 3c 94 1f ca ba bc 5b 4a 3b 53 a4 12 3b
       0.0092632845 -0.0015420788 0.0030877432 0.0022375777
000110 a0 40 d0 bb e7 62 e4 3b fa 89 7a bb cf 63 2a bb
       -0.00635536 0.006969798 -0.0038229213 -0.0025999432
000120 a1 cf 6d bb 0c d9 cc 3b f2 15 77 bb 16 b7 69 bb
       -0.0036287087 0.00625146 -0.003770229 -0.0035662106
000130 44 89 ae 3b d1 db bf bb 20 ef d4 bb 4c 67 a3 3b
       0.005326422 -0.0058550616 -0.0064982325 0.004986679
000140 3c 60 15 3c 76 53 3d 3c 4f 80 bc bb 6e 0e 4e bc
       0.009117182 0.011555543 -0.0057526003 -0.0125766825
000150 3e 53 f3 bb f0 1f ca bb 86 44 89 3b 4f 3a 0d bc
       -0.0074256947 -0.006168358 0.004189077 -0.008619859
000160 90 62 89 3b 28 6f e6 3b 7f 1e 69 bb 10 89 c0 3b
       0.004192658 0.007032294 -0.0035571156 0.005875714
000170 0a 82 37 bc e3 cf 23 3b 4c 72 12 bc 93 14 05 3c
       -0.011200437 0.0024995736 -0.008938383 0.008122581
000180 18 81 bf 38 09 8c 00 3c 9d 30 9d 3b f8 44 d2 3b
       9.131635e-05 0.007845887 0.004797055 0.006416913
000190 fa 46 86 bb f0 48 72 3b e1 62 32 ba 74 8f 05 bb
       -0.0040978165 0.0036969744 -0.0006804895 -0.0020379694
0001a0 4b 05 53 3b 72 60 9d 3b 04 87 7c bc 6d b5 7d bb
       0.00321992 0.004802757 -0.01541305 -0.0038712875
0001b0 c5 99 f4 bb c1 a0 8d 3b c4 7d 62 b9 66 3a 26 bc
       -0.00746462 0.004322142 -0.00021599891 -0.010145759
0001c0 55 14 a0 3a 96 52 a5 3b 99 64 d4 bb 5b ba b5 3b
       0.0012213091 0.0050452454 -0.0064817187 0.005545897
0001d0 a9 42 6e 3b 66 c0 c0 bb 54 1c cb ba ee 92 23 bb
       0.003635565 -0.0058823107 -0.0015496113 -0.0024959403
0001e0 b8 28 90 3b b7 2d 48 3c d0 13 be bb b6 72 06 bb
       0.0043993853 0.0122179305 -0.0058007017 -0.002051515
0001f0 09 cb ad bb ea b4 e7 3a e8 d5 8e 3b eb a6 a1 b9
       -0.0053037447 0.0017677818 0.0043589957 -0.00030832677

network_body._body_endoder.seq_layers.2.weight f4 [128, 128]
000000 f0 4f 95 bc 25 81 f3 3d 99 f0 17 bd 98 b2 96 bc
       -0.018226594 0.11889867 -0.037094686 -0.018395707
000010 cd fc ec 3c d4 ce 97 3d 25 0d 3a be 05 62 cd 3d
       0.028929139 0.07412496 -0.18169077 0.10028461
000020 63 93 2b bd 57 a3 e3 bc b8 a3 11 be 34 82 08 3e
       -0.041888606 -0.027787847 -0.1422261 0.13330919
000030 88 0e bc bd 3b d5 10 3e e7 fa 4c 3e 8b ce 90 ba
       -0.09182459 0.14143841 0.20017587 -0.0011047883
000040 3c 25 d1 bd b8 2d f5 3d 33 73 02 be 01 a1 65 3e
       -0.1021218 0.11971611 -0.12739258 0.224247
000050 af e0 e8 bc 1b 17 03 be b8 2e 30 bd 4b 2e 4a bd
       -0.02842745 -0.12801783 -0.043013304 -0.049360555
000060 5b ac 5e bd 11 c6 83 bb 04 16 dc bd 7b ab dc bd
       -0.05436359 -0.004021414 -0.10746387 -0.10774895
000070 71 8e 01 3d fd 4f 27 bd f5 f0 45 bd 20 85 4a 3d
       0.031629983 -0.040847767 -0.048325498 0.049443364
000080 90 1e 01 3e a9 d7 82 3e 33 da ef 3d fc 00 ef bc
       0.12609315 0.2555516 0.1171154 -0.029175274
000090 a0 b6 fc 3c 4d 5a 21 3d ab 5b 29 bc 21 0f 4e bd
       0.030848801 0.03939276 -0.010336797 -0.050307397
0000a0 cd 35 e2 bd 20 6b 02 3d a2 a1 38 3c 21 d6 48 be
       -0.11045418 0.031840444 0.011269005 -0.19612934
0000b0 88 8f 78 bd f4 bc b7 3d 42 93 05 bd 82 eb 4e be
       -0.060683757 0.08971587 -0.03261114 -0.20207027
0000c0 6d 2a af bc ae 0b 81 3e 74 ed fc bd b2 1d 87 bd
       -0.021382535 0.25204223 -0.12349978 -0.06597461
0000d0 ef b0 98 bd 53 63 a7 bc 2a ab fa bd dd ce 8c 3d
       -0.074556224 -0.020433104 -0.12239678 0.068753935
0000e0 76 22 97 bd e3 b8 f3 3b 55 a1 17 be 81 50 be 3d
       -0.0737962 0.0074378117 -0.14807637 0.09292699
0000f0 34 c0 88 bd 69 6f ea bd 10 ee 79 3d e1 35 6d 3c
       -0.06677285 -0.11447031 0.06101805 0.014478178
000100 11 dc 67 3e 54 e0 97 bd a7 e3 ca 3d 84 2b 5e be
       0.22642542 -0.07415834 0.099067025 -0.21696287
000110 1e b7 9a bd 30 0a ca 3d 72 2a 00 3d da ca bc 3b
       -0.07554458 0.09865224 0.03129048 0.0057614865
000120 37 6c 0b 3d 57 fd d8 3d 6f 82 48 3b 92 e8 b2 3d
       0.03403875 0.10595196 0.0030595323 0.087357655
000130 7d 46 2f bd 75 1f dc bc 69 49 25 3b c7 91 11 bd
       -0.042791832 -0.026870469 0.0025220758 -0.035539415
000140 ad 71 7e be 78 0f b6 bd 1c 61 dc 3d 12 b2 2f bd
       -0.24848051 -0.08889669 0.1076071 -0.04289443
000150 20 6f fc 3d a3 00 44 3e 7c 2f 4f 3e c7 bc 9e 3c
       0.12325883 0.19140868 0.20232958 0.019377125
000160 df c9 db 3a 21 bf a4 bd 59 0d 9b 3b 4e 31 74 3d
       0.0016768536 -0.080442674 0.004731816 0.059617333
000170 b3 d9 64 3d 49 e0 62 bd 50 5c 48 3d 36 8a eb 3c
       0.055871677 -0.055389676 0.04891616 0.028752428
000180 5d 35 1a be 74 b5 94 3d 66 d2 e2 bd 6f 63 2c be
       -0.15059419 0.07261172 -0.110752866 -0.16834806
000190 9c d6 b9 3c bf dd 1f bc 39 8e 94 bd 88 b3 13 bd
       0.022685342 -0.009757458 -0.07253689 -0.036059886
0001a0 22 84 84 3d bd 94 d7 3c 34 2d 20 3d 44 82 23 3e
       0.06470515 0.026316041 0.03910561 0.15967661
0001b0 5d 93 61 3e ab c8 62 bd 59 8d 92 bd 3b e2 8f bd
       0.22028871 -0.055367153 -0.07155866 -0.07025572
0001c0 89 24 6d bd e2 47 61 bd a2 c4 d0 3d 9e 9b b8 bd
       -0.05789617 -0.055000193 0.10193755 -0.090140566
0001d0 01 e6 8a 3d 8f 15 bb 3c 4a a9 45 3d 06 5e 64 3d
       0.06782151 0.022837428 0.04825715 0.05575373
0001e0 3f 64 71 bc 86 fe 87 3c 4f db ce bd 1c 92 dc bb
       -0.014733373 0.016600858 -0.101004235 -0.006731285
0001f0 5e a9 9e 3c 6b cf 0b 3d ce 29 42 3e b8 a0 1a 3e
       0.01936787 0.034133356 0.1896126 0.15100372
000200 27 d5 aa 3d 39 94 d1 bd 0a fe fa 3c 55 ea 90 bd
       0.08341437 -0.10233349 0.030638713 -0.07075945
000210 43 28 67 ba 36 e9 c1 3d 74 15 8a bd 91 e9 fd bd
       -0.000881795 0.094683096 -0.06742373 -0.12398065
000220 0a 69 2f bd 80 3d b7 bd 1e f1 32 3d 29 0c 23 bd
       -0.042824782 -0.08947277 0.04368698 -0.03980652
000230 f6 c1 1a bc b3 72 28 3e 81 6f 7e 3d 9e cd ad ba
       -0.009445658 0.16450004 0.062118057 -0.0013260131
000240 8d 43 8b bc 52 72 6d 3d 43 54 91 bd 6a fa 9d 3d
       -0.016999984 0.057970352 -0.0709615 0.07713778
000250 5e 65 59 3d b7 4d b8 bd db 63 44 be fa 2d 33 3d
       0.053075187 -0.08999198 -0.19178717 0.04374502
000260 52 b0 2e bd c4 8a 89 3d d6 35 7f 3d e0 a6 8a bc
       -0.04264862 0.067159206 0.0623072 -0.016925275
000270 28 61 38 3d 7a 5e fb 3d f1 b8 c5 bb 10 3c a8 3d
       0.04501453 0.12273879 -0.0060340096 0.08214581
000280 1d 72 40 3e 7c 86 26 3d 7c 08 1c 3d 93 11 f9 bd
       0.18793531 0.040655598 0.03809403 -0.12161555
000290 d2 16 30 3d 9c cf 2a 3d bb 88 64 3d 7a 8a 1d 3c
       0.042990513 0.041701898 0.05579446 0.009615535
0002a0 c8 5c 15 3e 06 a0 a5 bc 07 c0 ee 3d 79 a3 95 bd
       0.14586174 -0.020217907 0.1165772 -0.073065706
0002b0 ea 4b 1c 3d 12 35 5b 3d 0f 98 f0 3c 4e 68 b1 3c
       0.038158335 0.05351741 0.029369382 0.021656182
0002c0 8e b3 0d 3d 4f d9 14 be 1e c1 c0 bd 05 46 73 3d
       0.034595065 -0.14536022 -0.09411834 0.059392948
0002d0 30 b2 45 bd 6a 62 3e bd 04 fd 0d 3e 39 a7 e2 bb
       -0.048265636 -0.046480574 0.13866049 -0.006916907
0002e0 a8 77 2e bd bd 95 af bb b1 27 a4 bc 79 0a 84 bd
       -0.04259458 -0.0053584264 -0.020038458 -0.0644731
0002f0 1f b0 a1 bd 35 2e 58 bd 0b c9 59 bd e6 bd 99 ba
       -0.078949206 -0.05277844 -0.053170245 -0.0011729568
000300 bd 01 42 bd 3f df df bd 0b d6 2b bd 8d 5e cb bd
       -0.04736494 -0.10931253 -0.041952174 -0.099301435
000310 ca 58 d9 bd bd 2b d4 bd 28 95 b6 3d 51 60 57 3d
       -0.10612638 -0.10359905 0.08915168 0.05258209
000320 92 b0 7d 3d 13 1b 9d 3c e5 6a 85 ba a8 f2 fb bd
       0.06193597 0.019177949 -0.0010178952 -0.123021424
000330 ba 28 46 bd 30 70 d5 3d d7 11 26 3e 22 83 eb 3d
       -0.048378684 0.10421789 0.16217743 0.11499621
000340 1a e7 d5 bd ad 62 bc bd 10 1f 36 3c ce 56 52 bb
       -0.1044447 -0.091985084 0.011115804 -0.0032095197
000350 b7 d5 a2 3d 65 90 47 bd 85 bd 31 be 98 50 c2 3d
       0.07950919 -0.04872169 -0.17357452 0.09488028
000360 aa 48 8c bd 33 a8 05 3d 3d 63 35 3d 34 3c 15 be
       -0.06849797 0.03263111 0.044284094 -0.14573747
000370 43 71 c5 3d 1c 59 b9 bd 12 7d eb bd 70 e6 dd bd
       0.096407436 -0.090501994 -0.11498465 -0.10834968
000380 d5 d6 d5 bd bd c3 6c 3d 22 07 0f 3e 62 75 53 3d
       -0.104413666 0.057803858 0.13967565 0.051625617
000390 d2 e9 85 3d 82 5a 20 3d d0 cb 86 bd 1f 00 f6 bc
       0.06538738 0.039148815 -0.06581843 -0.030029355
0003a0 7b f9 06 3e 30 6e 17 3d 4d 2e 55 3e 4e d5 db 3c
       0.13181107 0.036970317 0.20818444 0.02683511
0003b0 80 12 a3 3c 37 f9 77 3b e7 c9 d7 bc a3 01 28 3e
       0.019906282 0.0037837753 -0.026341392 0.16406874
0003c0 24 05 bd 3d 6b ad 18 bd 2d bd a4 bd 5a d0 61 3d
       0.09229496 -0.03727476 -0.08043895 0.05513034
0003d0 ef 4a e2 bd 37 1a 6f bd f6 17 40 bd fc 98 91 bd
       -0.11049449 -0.05837461 -0.04689785 -0.071092576
0003e0 29 45 a5 3d 43 ee a8 bc df 47 53 bd 5b 08 01 3e
       0.08069832 -0.020621425 -0.051582213 0.12600844
0003f0 0d 36 fe 3d cc 7a be bd ce d6 39 bd fc c3 92 3d
       0.12412653 -0.093007654 -0.04537087 0.07166287

network_body._body_endoder.seq_layers.2.bias f4 [128]
000000 fc a6 b3 bb 35 7d b0 ba dd 5b 2c 3c db 3b 93 ba
       -0.0054825526 -0.0013465049 0.010519949 -0.0011233048
000010 5f 7b d0 3b f3 52 be 3a de 86 54 ba 7d d9 04 3c
       0.006362363 0.001452057 -0.0008107255 0.008108494
000020 26 80 3c bb bd b6 d5 3b c1 eb 21 bc 8d 6b 71 3b
       -0.0028762906 0.0065220282 -0.009882868 0.0036837787
000030 14 4b 8d 39 bf 9b ca bb 6e 35 c8 3a 0f 22 3e bc
       0.00026949553 -0.006183117 0.0015274712 -0.0116048
000040 b5 f0 5c bb 6e ba df 3b 99 89 9c 3b 49 f3 1f bb
       -0.0033712809 0.006827644 0.004777145 -0.0024406484
000050 f2 75 30 bc a8 47 cb ba f0 4b 2a bc b4 ec 02 bc
       -0.010770308 -0.0015509026 -0.0103940815 -0.007991005
000060 7f af 78 bb bb 05 55 3b 49 fb 74 3c 5a 4f 63 bb
       -0.00379464 0.0032504636 0.014952489 -0.0034684748
000070 6e e5 f3 3b 8c bf f0 3b 74 a7 07 bc af fa 8c 3a
       0.0074431216 0.007347053 -0.00827967 0.0010755862
000080 9d 7e 8d 3b 70 cd 6a 3b 75 76 33 3b 08 a6 4b 3a
       0.004318072 0.0035828017 0.0027383838 0.0007768576
000090 13 28 41 ba f6 13 d3 39 5a 9a 56 bb a1 b3 46 bb
       -0.0007368337 0.00040259928 -0.003274581 -0.003031947
0000a0 76 21 4e bb 7e 48 4a bc e6 f6 21 39 5e bd d2 3b
       -0.003145305 -0.012346385 0.00015446133 0.0064312657
0000b0 1e df 08 3a d5 e5 fa ba ef 46 a0 3b e9 00 3f 3c
       0.00052212353 -0.0019141982 0.0048912684 0.011657932
0000c0 b1 54 7b bc 49 24 16 bc f8 0e 44 b8 a5 a9 62 bc
       -0.015340016 -0.0091639245 -4.6743982e-05 -0.013834392
0000d0 ec 1c 38 ba 5d e2 9c bb ba b6 67 3a fe 52 03 3c
       -0.00070233527 -0.004787727 0.0008839179 0.008015392
0000e0 db ed 43 3b 70 02 ba 3b b6 bc d4 3a 03 a0 d4 3b
       0.0029896412 0.00567656 0.0016230557 0.0064888014
0000f0 47 6d 07 3c 2c 8e cf bb 83 82 dd bb b0 2c 18 bb
       0.0082658 -0.006334087 -0.006759943 -0.0023219995
000100 aa 70 96 3c d1 9e 09 3c 9a c5 93 bb 3e dc 73 3c
       0.01836427 0.008399681 -0.00450964 0.014884053
000110 ba 47 50 3b 56 d7 1b bc 5c b0 f6 3b 6a 83 53 bb
       0.0031781034 -0.009511789 0.007528348 -0.0032274374
000120 d2 2b 48 bc 1d 65 2a 3b 56 3a 1f 3c 31 75 91 ba
       -0.012217479 0.002600021 0.009718498 -0.0011097548
000130 81 fc d3 bb e7 e5 e0 bb a0 2d 13 3c 6b dc 0f 3c
       -0.00646931 -0.006863344 0.008983046 0.008780579
000140 09 93 cc ba 65 d0 2f 3c 95 dd 21 bb 3d ee 3f 3c
       -0.0015607785 0.0107308375 -0.0024698724 0.011714515
000150 52 20 ce ba 72 1a 3a 3b a7 ca 81 3c c7 f1 93 bb
       -0.0015726185 0.002839711 0.015843702 -0.004514906
000160 77 81 86 3a 69 24 ad bb e3 2a 94 bc 02 40 99 bb
       0.0010261972 -0.0052838814 -0.018086856 -0.00467682
000170 2d 6e 89 3b 2d 23 a1 3a f8 7a ca 3b f3 4c 25 bc
       0.004194042 0.0012293808 0.00617921 -0.010089147
000180 a1 5a ca ba 36 ff b2 3b 8c 09 86 3b 10 02 bd 38
       -0.0015438386 0.0054625524 0.0040904935 9.0126065e-05
000190 b4 90 14 3b a1 15 83 3b 58 20 85 3b 7a 2c 10 ba
       0.0022669258 0.004000381 0.0040626936 -0.00054997916
0001a0 da 5a 99 3b 9f cd 6b 3b f6 8e 99 39 89 c2 23 3c
       0.00468002 0.0035980714 0.00029288948 0.009995111
0001b0 9c 8d 69 bb 4d 84 07 bc 63 79 af 3b 18 94 b2 ba
       -0.0035637384 -0.008271289 0.0053550466 -0.0013624458
0001c0 09 cf a3 3b 81 37 08 3c 8b 97 c9 ba bc 9f 0c bc
       0.0049990457 0.008314014 -0.0015380246 -0.0085830055
0001d0 be 51 23 3b 80 ca 9b bb d2 70 e1 bb 07 8c 98 39
       0.0024920548 -0.0047543645 -0.0068799043 0.00029096028
0001e0 b2 2a 9e 3b 64 9e fd b9 e5 d9 e7 3b 46 cf 79 3a
       0.004826867 -0.0004837393 0.0070755356 0.00095294823
0001f0 82 5c 96 bb 1a af b5 bb f3 a9 0f bc ad 50 68 3b
       -0.0045886645 -0.0055445554 -0.008768546 0.0035448477

action_model._continuous_distribution.log_sigma f4 [1, 2]
000000 7b af 04 bc 46 8f dd bb
       -0.008098478 -0.0067614643

action_model._continuous_distribution.mu.weight f4 [2, 128]
000000 72 19 10 bc cb f5 95 3c d9 e4 6b bc 7f 53 c5 bb
       -0.008795129 0.01830568 -0.014397823 -0.0060219164
000010 6b b8 ee bc 27 a6 14 3d a0 45 44 bc 92 66 e2 3c
       -0.029140672 0.036291268 -0.0119794905 0.0276368
000020 62 0e 1d bc 5d c0 f0 bb 40 cf 21 bc b7 60 08 3c
       -0.009585949 -0.0073471502 -0.009876072 0.00832384
000030 98 99 44 3c 48 31 c0 ba 43 73 e4 bc 09 f8 99 bb
       0.01199951 -0.0014663124 -0.027886992 -0.0046987575
000040 17 cc c2 3b f0 b4 95 3c 8e 3b 22 3d 12 9c 9c bc
       0.0059447396 0.018274754 0.039607577 -0.019117389
000050 6b 06 4d bc b1 7d c9 bc 90 0a 9d bc 60 73 38 bc
       -0.012513737 -0.024596067 -0.019170076 -0.011257976
000060 0c 1e 83 3a 75 1b 83 3c d4 27 b6 3b 8a 16 dc 3c
       0.0010003462 0.016004303 0.005558947 0.026866216
000070 79 81 e8 bb ee 49 03 3c fb 49 83 3a 6d 0d da 3c
       -0.0070955125 0.008013232 0.0010016555 0.02661773
000080 39 c2 d6 3b 83 11 35 3c 30 2d be bb 12 f7 03 bc
       0.006553915 0.011051538 -0.0058037266 -0.008054512
000090 01 44 86 3c 20 87 c3 bc eb 11 d0 bc b0 fc 56 3c
       0.016389849 -0.023868144 -0.025399169 0.013121769
0000a0 7b 57 2f 3c d1 5e e3 bb e3 f3 57 3c 06 de 3b 3c
       0.010702009 -0.006938793 0.013180706 0.011466509
0000b0 08 aa 1a bc 45 e7 42 3d 3a 9e 0d 3a f2 20 15 3c
       -0.009439953 0.047583837 0.0005402301 0.009102093
0000c0 ea 89 e8 3b 8e 51 92 3c c6 41 1c 3c ab dc 49 bb
       0.0070965188 0.017861154 0.009537166 -0.0030801694
0000d0 09 a1 a9 bc f1 0d d9 3c de 0a 1c bd a5 b3 d1 bc
       -0.02070667 0.026495906 -0.0380963 -0.025598357
0000e0 b8 27 31 bc 94 ca 30 3a 15 d3 ad 3c 50 d5 8a 3c
       -0.010812692 0.00067440537 0.021218816 0.016947418
0000f0 05 f7 f8 3a fe 06 ea 3b f2 c3 99 bc 44 ad 4e bb
       0.0018994516 0.007141947 -0.018770192 -0.003153638
000100 4a 14 bb bb 11 09 17 bc 88 d0 18 bd 99 17 d2 bc
       -0.0057092058 -0.00921847 -0.037308246 -0.025646018
000110 70 97 c8 3c 9b 56 78 bc 0b 23 41 3d 5f d4 9c bb
       0.024486274 -0.015157367 0.04715256 -0.004786059
000120 6f 4a 34 bc b3 f7 09 3c 9d 01 81 3a 06 21 97 bc
       -0.0110040745 0.0084208725 0.00098424 -0.018448364
000130 f1 7f c2 bc d6 e2 5c 3c 3b f0 bc bb 47 8f 0b 3d
       -0.023742648 0.013481816 -0.0057659424 0.034072187
000140 bf b2 39 bc 8f a5 68 3c 2c e8 76 3c 6a 7a 4b bc
       -0.01133412 0.0141996285 0.0150700025 -0.0124193225
000150 fd d3 29 3c 25 ea e0 bc 3f 45 c3 3b cd 98 dd 3c
       0.010365483 -0.027455399 0.0059591825 0.0270504
000160 c9 36 63 ba f9 78 b0 3c 2b c1 ba 3a a4 79 3f ba
       -0.00086675264 0.02154206 0.0014248242 -0.00073041976
000170 19 5f 4c 3c 0e ec 98 3c 12 47 df bc 3c 75 20 bc
       0.012473845 0.018667247 -0.027255569 -0.009793576
000180 55 b5 60 3c d5 38 0f 3d 00 87 4f 3c f9 ba 64 bc
       0.013715108 0.03496631 0.012666464 -0.013960593
000190 65 6a 44 3c 77 16 b2 3b ac a1 ae bc 4c 04 1a bb
       0.011988257 0.005434807 -0.021317326 -0.0023501096
0001a0 04 7e b0 3c 22 62 16 3c ec 91 b1 3b 5a 44 96 bc
       0.021544464 0.00917867 0.0054190066 -0.01834314
0001b0 c4 96 55 ba 25 61 3c bc 06 a8 7d 3c c2 71 10 3c
       -0.0008147771 -0.01149777 0.015481954 0.0088161845
0001c0 8a fd 7c 3c 72 9e 03 3c da 7b f0 3c b2 39 2e 3c
       0.015441308 0.008033382 0.029355932 0.010633873
0001d0 bf 07 e4 3c 48 88 da b8 19 5d 24 bc 0e 00 c1 bc
       0.027835725 -0.000104204344 -0.010031962 -0.023559596
0001e0 dd c8 a6 bb 0f d7 23 bc c0 56 3c 3b 05 30 b6 bc
       -0.0050898627 -0.010000004 0.002873823 -0.022239694
0001f0 0b 54 9d bc 5b 61 9c 3c 69 79 b6 3b c4 41 94 3a
       -0.019205114 0.019089391 0.0055686724 0.0011311104
000200 0c b8 5a bd ca 05 95 bc 52 ca 79 3c a8 c9 06 bd
       -0.053398177 -0.018191237 0.015245991 -0.032907158
000210 5e 66 f3 3b 30 c3 5a bc e9 90 7c 3c 21 37 f6 3c
       0.0074279746 -0.0133522 0.015415409 0.030055584
000220 e3 3d 93 bc f0 71 93 3c 02 4d 00 bc 6c 83 17 bc
       -0.017973846 0.017998666 -0.00783086 -0.009247642
000230 14 eb a6 bc f7 b9 a5 bc 8c 4b 8f bc 14 0d 96 bc
       -0.020375766 -0.020230277 -0.017492078 -0.018316783
000240 83 45 cb bc 71 f4 3a 3c 13 a8 d2 bb 9f 90 0a 3c
       -0.02481342 0.011410818 -0.0064287274 0.008457332
000250 10 5d 62 bc c0 78 28 3c 3f b9 6d bc ce 0c 8a bb
       -0.013816133 0.010282695 -0.014509498 -0.004212952
000260 7f 70 4c bc 4b da d5 3b cb 5a 69 3c 6d cc 0a 3c
       -0.012477993 0.0065262667 0.014242838 0.0084715905
000270 5f 8f a4 3c 75 c9 97 3c b0 2c c4 bb 02 29 f6 bc
       0.020087896 0.01852868 -0.0059867725 -0.03004885
000280 fc 37 1a 3b d3 6e cf ba 04 ec 88 3c 05 15 23 bb
       0.0023531904 -0.0015825875 0.016714104 -0.0024884355
000290 25 f2 61 3c be c7 81 3c b0 e4 4c 3b 96 8c 95 bc
       0.013790642 0.015842315 0.0031264238 -0.018255513
0002a0 fc 28 df 3b 87 d7 b5 bc 7e 24 a6 bc d7 a6 0d 3c
       0.0068103056 -0.022197498 -0.020281073 0.008645735
0002b0 9d f0 54 bb cd 85 f9 bc 57 fd 28 3d 14 ef 0b 3d
       -0.003249205 -0.030459309 0.04125723 0.03416355
0002c0 5b 38 24 bc e4 8a 83 bb a0 eb 88 3b fe 1d 99 bc
       -0.010023202 -0.00401436 0.0041784793 -0.01869106
0002d0 12 14 26 3b 64 d2 c6 3b 87 8d 88 bc 35 e4 8a 3c
       0.0025341553 0.006067561 -0.016669048 0.01695452
0002e0 f8 b7 84 3b 87 cc 46 3c 77 ad 0e bc b9 50 95 3b
       0.004050251 0.012133724 -0.008708349 0.004556742
0002f0 c1 21 fb 3b e8 56 77 bc 0b 53 46 bb cf d4 e0 bb
       0.007663936 -0.015096404 -0.00302619 -0.0068613063
000300 31 42 05 3d cd c3 06 3c 22 2f 0a bd 50 92 d9 3c
       0.03253383 0.0082253935 -0.033736356 0.026559025
000310 96 f4 21 bc f4 f1 43 bc e0 7e 04 3d 10 20 df bc
       -0.009884974 -0.011959542 0.03234756 -0.027236968
000320 14 35 d0 bc e6 15 b7 3c 59 46 e4 3c e8 be ec ba
       -0.025415935 0.02234931 0.027865576 -0.0018062266
000330 bc 9e 16 bc cc 57 44 bd f3 57 24 3d 3e b4 0c 3d
       -0.009193119 -0.047935292 0.040122937 0.03435158
000340 78 ed b4 3c a3 57 0e 3d e4 b9 06 bd a1 1e ee 3c
       0.02208589 0.034751546 -0.032892123 0.02906734
000350 eb 8a 0a bc 90 81 03 bc e1 03 de 3c 71 5b 6a bb
       -0.008455972 -0.008026496 0.027101459 -0.003576007
000360 35 c3 45 3c c2 d5 95 bc 02 76 9c bb fb eb ec bb
       0.012070467 -0.018290404 -0.00477481 -0.0072302795
000370 66 46 ee 3b e5 68 9a bc da 27 8e 3c 46 19 40 bc
       0.0072715757 -0.018848846 0.017352987 -0.011724776
000380 e0 ef 62 3c 0c 98 cd 3c 7a 5c b2 3b 5c c1 0b 3c
       0.013851136 0.025096916 0.005443153 0.008529987
000390 b4 ea 0b 3c d1 be 4a 3b 54 6c d3 37 c0 66 94 bb
       0.008539844 0.003093649 2.5203604e-05 -0.0045288503
0003a0 3c 18 38 3c ee c7 3f bb 5a 69 87 bc 1a cc c3 3c
       0.011236247 -0.0029263454 -0.016529728 0.023901034
0003b0 6a d5 d6 38 cc bd 5b bc ff ab 82 3b 71 ed 19 bc
       0.00010244067 -0.01341195 0.0039877887 -0.009394989
0003c0 93 7a 8a ba 5b e6 fa 3b 3b 85 06 bb 4c f3 98 bc
       -0.0010565094 0.007656855 -0.002052619 -0.0186707
0003d0 f9 5c ab bb 22 af fc bb e9 05 28 bc fb 8e 05 3c
       -0.005229589 -0.007711307 -0.010255315 0.008151765
0003e0 ae 59 8b 3c 18 b8 32 bc 0f 72 75 3c ed 41 fd bc
       0.017010536 -0.010908149 0.014980807 -0.030915225
0003f0 51 1c 4b bc 36 57 5b bc 50 8e e6 3b a9 b4 7e 3c
       -0.012396888 -0.013387492 0.007036008 0.015546002

action_model._continuous_distribution.mu.bias f4 [2]
000000 a3 71 91 3b 8f bb f4 3b
       0.0044385954 0.007468648

exp_avg f4 [128, 6]
000000 b9 26 d0 b8 d5 54 1e 37 d0 4b cd 38 ac 95 97 b8
       -9.9254255e-05 9.437285e-06 9.789283e-05 -7.22812e-05
000010 64 21 65 b4 45 bc 99 38 0c ce a8 37 35 66 51 35
       -2.1339434e-07 7.3306765e-05 2.0123109e-05 7.80073e-07
000020 21 12 45 b9 c6 ea 8f 38 5d d7 7c b4 14 09 18 b9
       -0.00018794138 6.862501e-05 -2.3547678e-07 -0.00014499231
000030 8e 96 b7 b8 3c 31 2c 37 be 95 41 39 41 f9 cb b8
       -8.754163e-05 1.0263462e-05 0.00018461698 -9.7262215e-05
000040 2d 26 f0 b4 2e af df 38 a8 a5 f6 b8 98 37 77 b6
       -4.473126e-07 0.000106660984 -0.0001176105 -3.6838228e-06
000050 71 ee 4b 38 9d 85 3e 39 dd 2e 29 b4 45 1f d3 b8
       4.8621037e-05 0.00018169587 -1.57564e-07 -0.000100670884
000060 de cc 60 37 64 94 0a b7 4a c7 a0 b4 d9 48 14 38
       1.339914e-05 -8.259991e-06 -2.9947324e-07 3.5353794e-05
000070 32 9e bb b4 60 0d dc 36 3f 09 20 b7 11 fc 0c b7
       -3.4946567e-07 6.558068e-06 -9.538896e-06 -8.403339e-06
000080 99 d5 ea 38 7f 58 bf b8 3e 4b 95 b4 7c e4 94 37
       0.00011197775 -9.1240734e-05 -2.780816e-07 1.7749371e-05
000090 34 cf e7 35 e2 20 40 b5 9b 63 c3 b6 0d 4e ef b8
       1.7271145e-06 -7.1573425e-07 -5.8230485e-06 -0.00011410946
0000a0 f2 08 ba b4 b2 c7 6b 39 f1 39 09 b9 e6 22 19 b7
       -3.4651708e-07 0.00022485739 -0.00013086923 -9.127636e-06
0000b0 56 69 97 b8 6d f0 68 38 1a 61 fd b3 8b 20 5c b9
       -7.2198614e-05 5.5537024e-05 -1.1798893e-07 -0.00020992958
0000c0 02 55 db 38 c5 74 bb 36 98 75 67 b8 34 57 15 38
       0.00010458568 5.586628e-06 -5.518421e-05 3.5605583e-05
0000d0 43 c4 18 35 b0 0d ad b8 e6 c4 5f 38 07 b0 5a 37
       5.691001e-07 -8.251832e-05 5.335072e-05 1.3034797e-05
0000e0 fa ea 05 b9 24 69 c4 b7 1d c1 e7 34 75 c2 29 b9
       -0.00012771404 -2.341398e-05 4.316761e-07 -0.00016189537
0000f0 15 22 4b 39 e7 02 b8 37 f1 52 aa b8 d6 d6 3b 39
       0.00019372285 2.193586e-05 -8.121681e-05 0.00017913742
000100 77 7c 57 b4 53 a1 0b 39 4f 79 38 b7 a2 0f 12 b7
       -2.0068715e-07 0.00013316171 -1.0995499e-05 -8.705918e-06
000110 33 ac d2 b7 a2 6c 33 38 30 1f 55 b4 3f 5f 6a b8
       -2.5114137e-05 4.2778098e-05 -1.9848517e-07 -5.5878652e-05
000120 4a 6b 19 b9 bd 74 df 37 f9 cb 73 38 0a 26 62 b9
       -0.00014631185 2.6638032e-05 5.812568e-05 -0.0002156721
000130 60 8f 87 b4 7c 82 2b 39 74 d9 07 b9 82 b4 56 b7
       -2.5250029e-07 0.0001635644 -0.00012955611 -1.2797422e-05
000140 03 1a 82 38 bf 7d 5a b8 81 3b 40 b2 d0 16 8e 38
       6.203728e-05 -5.209236e-05 -1.11894005e-08 6.775337e-05
000150 ac 1f 23 39 13 a4 26 b7 e0 1e 3c 39 02 d6 c7 37
       0.0001555669 -9.9325725e-06 0.00017940579 2.3822304e-05
000160 51 4d 67 34 d0 91 b6 38 fa b8 b9 b8 32 e6 34 b7
       2.1541679e-07 8.705596e-05 -8.855942e-05 -1.0782433e-05
000170 14 da a3 34 e4 cd 2c 38 15 09 61 34 42 d9 d0 b7
       3.051979e-07 4.1199746e-05 2.0958062e-07 -2.48967e-05
000180 75 16 21 36 29 c2 df b6 d0 c0 4c b8 11 2e 98 b7
       2.4003941e-06 -6.668521e-06 -4.881696e-05 -1.8141263e-05
000190 59 dd ca 33 20 58 ec b8 9b 16 14 b8 5f 80 12 b7
       9.446621e-08 -0.000112697715 -3.5307003e-05 -8.732167e-06
0001a0 10 3e 8d b8 bf 29 8e 38 6d 39 b1 b3 d8 21 1b b9
       -6.734964e-05 6.7788635e-05 -8.2526505e-08 -0.0001479456
0001b0 7b 83 51 b8 51 3f 9f b7 06 57 6a b9 aa 9d 76 39
       -4.9951934e-05 -1.8983761e-05 -0.00022348398 0.00023519123
0001c0 ee 34 15 34 47 89 99 b9 69 08 83 b9 41 d4 1b b8
       1.3895962e-07 -0.00029284714 -0.00024992533 -3.7152557e-05
0001d0 5e 6e cb b8 a3 5f 93 39 12 5c 12 b5 c3 b5 7a b9
       -9.700352e-05 0.0002810928 -5.452322e-07 -0.0002390957
0001e0 76 b9 4d b8 d3 11 18 b6 0b fa 03 39 13 8c f8 b6
       -4.9048533e-05 -2.266014e-06 0.00012586282 -7.4072827e-06
0001f0 55 92 8d b4 2b 82 95 b8 17 98 b7 b8 8f c8 55 36
       -2.6369767e-07 -7.129119e-05 -8.754449e-05 3.1856214e-06
000200 61 22 55 b9 58 ab b0 38 8b 21 00 34 50 cc 95 b7
       -0.0002032607 8.424249e-05 1.1933132e-07 -1.7857325e-05
000210 59 24 72 b7 09 72 20 b6 22 6d ea 38 bf 6f 31 b7
       -1.4432787e-05 -2.3908235e-06 0.00011178317 -1.057604e-05
000220 d4 37 ed b4 f1 0e 5e 38 1c 18 90 b8 61 c3 34 b7
       -4.418531e-07 5.294284e-05 -6.870946e-05 -1.0774326e-05
000230 07 99 9c b7 73 6e f3 38 a2 3b 13 34 24 97 0c b9
       -1.8667908e-05 0.00011607716 1.3712136e-07 -0.00013407745
000240 f0 18 bf 38 53 71 9f b7 26 45 21 39 b9 a2 13 39
       9.112235e-05 -1.9007048e-05 0.00015379916 0.00014079631
000250 f1 78 05 b3 38 3f 68 38 c7 b8 3f b9 1a 81 0c b6
       -3.107647e-08 5.5371987e-05 -0.00018284014 -2.0936773e-06
000260 a3 32 25 39 bb c2 f2 b8 a7 e2 00 b5 37 89 9b 38
       0.0001575449 -0.000115757306 -4.801354e-07 7.416534e-05
000270 8b 6b a9 b8 ad 72 b8 b4 4b b1 01 39 a4 05 8b 37
       -8.0785794e-05 -3.4356108e-07 0.00012368445 1.6572718e-05
000280 18 8a 76 34 b6 82 69 38 81 da 3c b7 27 f2 05 b6
       2.2960774e-07 5.5673263e-05 -1.1256548e-05 -1.9959496e-06
000290 47 10 5d 38 03 37 8e 37 1d 75 bd b4 cd e6 40 38
       5.2705665e-05 1.6953336e-05 -3.5289204e-07 4.5991317e-05
0002a0 45 e7 c8 b8 b3 4e fd b6 6f 3c e6 38 f5 b5 26 b7
       -9.5798205e-05 -7.5491494e-06 0.00010978511 -9.936736e-06
0002b0 f2 2f 83 b3 70 d9 d8 35 67 23 99 38 03 98 0a b8
       -6.108884e-08 1.6156537e-06 7.302203e-05 -3.3043336e-05
0002c0 80 9c 55 39 af c4 62 38 a9 ff 20 b5 61 b8 e9 39
       0.00020371564 5.4065775e-05 -5.997668e-07 0.00044578596
0002d0 f2 65 c6 b8 50 b6 d1 b7 d5 9e 16 39 bf eb 54 37
       -9.4603645e-05 -2.4999637e-05 0.00014364284 1.2691074e-05
0002e0 e9 fa 43 b5 46 14 6c 39 2c b2 0d b8 de b2 52 b7
       -7.3008283e-07 0.00022514266 -3.3782955e-05 -1.2558621e-05
0002f0 71 c0 da 38 8f 87 48 b8 25 23 cf 33 d0 e1 dc b8
       0.00010430895 -4.7809965e-05 9.6455814e-08 -0.00010532478
000300 b1 2c 51 b8 8e 07 33 b7 5b f5 b5 b9 87 ed fa 38
       -4.9871105e-05 -1.067099e-05 -0.00034705814 0.00011965172
000310 d2 93 1e b5 86 11 00 39 d9 70 47 b9 82 c6 db b3
       -5.9074694e-07 0.00012213559 -0.00019020158 -1.02340906e-07
000320 9c 14 ff 38 7a 46 be b7 58 31 20 b5 fb da e8 35
       0.00012163186 -2.2682583e-05 -5.967645e-07 1.7349079e-06
000330 e4 a2 83 38 e5 f5 70 37 05 5b 82 b8 50 a7 3c 38
       6.2769075e-05 1.43623665e-05 -6.215837e-05 4.4978515e-05
000340 7c 35 d3 b2 aa 15 be b7 69 57 f3 b8 65 c3 b2 37
       -2.4587955e-08 -2.2659853e-05 -0.00011603424 2.1310241e-05
000350 49 52 97 b8 1b 24 42 b9 2a fb a5 34 a7 16 96 38
       -7.215568e-05 -0.00018514732 3.091639e-07 7.156777e-05
000360 cf 71 3f b6 0e 27 99 b6 b5 17 ff 38 f2 51 0d b9
       -2.8527463e-06 -4.564302e-06 0.00012163763 -0.00013477335
000370 9d 5d 79 b4 d3 1a 67 39 e7 0c a8 b8 07 eb b2 36
       -2.3223988e-07 0.0002203987 -8.0132675e-05 5.332174e-06
000380 8d 88 c8 39 4c 1c 0d b9 5f 1f 8b b3 3d a1 19 38
       0.0003824871 -0.00013457349 -6.478398e-08 3.6628207e-05
000390 33 a0 a6 36 b9 46 15 b4 5c 24 fb b8 33 cd 15 38
       4.965835e-06 -1.3902435e-07 -0.00011975385 3.5715475e-05
0003a0 ab a7 08 35 57 5f 44 b9 5f 5e bd 38 1f a1 9d b7
       5.0907937e-07 -0.00018727533 9.0298e-05 -1.8790886e-05
0003b0 51 9d 9d b8 f7 37 ae b7 a9 fb 65 35 ee a0 b5 b9
       -7.515646e-05 -2.0768477e-05 8.567536e-07 -0.00034642912
0003c0 8d 86 90 b8 f0 dc 05 37 fa 34 20 b8 6c d5 1e 38
       -6.891517e-05 7.978859e-06 -3.819631e-05 3.78689e-05
0003d0 0b fe ba b4 05 4e 3f 38 73 cf 5f 38 f8 e0 8a b7
       -3.483004e-07 4.561061e-05 5.3360545e-05 -1.6555641e-05
0003e0 b5 65 87 39 07 f1 d1 37 81 57 60 b5 3a 80 69 38
       0.00025824984 2.5026979e-05 -8.357384e-07 5.567095e-05
0003f0 81 16 67 b8 23 0a 6c b7 f7 5e 59 39 a1 7f 08 b9
       -5.509565e-05 -1.4069056e-05 0.0002073011 -0.00013017516

exp_avg_sq f4 [128, 6]
000000 de ac 23 33 fe fe 0e 30 ac 35 1d 33 e4 b1 e6 32
       3.8108617e-08 5.2021665e-10 3.6603225e-08 2.685642e-08
000010 fd cf 67 2b 05 77 0d 33 93 a9 6c 34 58 f5 47 31
       8.235633e-13 3.293737e-08 2.2040904e-07 2.9097773e-09
000020 37 f8 12 34 4f f4 40 34 85 1c 7d 2c cd 16 30 34
       1.368761e-07 1.7970272e-07 3.5969294e-12 1.6399572e-07
000030 3c fb ad 33 45 b4 af 30 e1 af c4 33 50 c7 94 33
       8.1016395e-08 1.2784162e-09 9.1589534e-08 6.928042e-08
000040 b4 55 f9 2b e9 97 dd 33 a0 0c 08 34 92 37 db 30
       1.7716302e-12 1.0318747e-07 1.267058e-07 1.5950141e-09
000050 46 f7 bc 33 3f d8 05 34 a4 72 0d 2c 88 0a bd 33
       8.799411e-08 1.246526e-07 2.0100943e-12 8.802914e-08
000060 25 1a 3c 33 fb 87 40 30 f0 9a ed 32 57 6c 84 33
       4.379594e-08 7.0042433e-10 2.7660889e-08 6.166436e-08
000070 3f 31 5a 2b b1 cf 04 33 57 95 9e 33 6e 18 70 30
       7.75175e-13 3.092254e-08 7.384613e-08 8.734621e-10
000080 3c 1d 59 33 40 39 8a 33 03 2f a7 2b 9a 2f 68 33
       5.0550838e-08 6.4365395e-08 1.1879112e-12 5.4060003e-08
000090 10 5c 5e 33 b7 9d 8e 30 7d fe 8c 33 f3 36 b0 33
       5.1772133e-08 1.0376685e-09 6.565549e-08 8.205634e-08
0000a0 e3 e7 e9 2b f0 3d 90 33 73 d8 1a 34 5a ff fe 30
       1.6620007e-12 6.716789e-08 1.4421111e-07 1.8553508e-09
0000b0 9f c0 ec 33 1b 86 0f 34 5d e6 2e 2c 2e 75 e7 33
       1.1024644e-07 1.33667e-07 2.4854765e-12 1.07780906e-07
0000c0 c8 3b ac 33 02 f5 aa 30 ca ad 03 34 34 47 06 34
       8.020248e-08 1.2438763e-09 1.226355e-07 1.2505626e-07
0000d0 de a0 f2 2b f5 4f bc 33 84 bb 02 33 02 79 17 30
       1.7239784e-12 8.768976e-08 3.0438528e-08 5.510544e-10
0000e0 b2 de 3e 33 c3 42 2d 33 6e e3 39 2b dd 36 16 33
       4.4440363e-08 4.034042e-08 6.6040825e-13 3.4974494e-08
0000f0 2e 0e e1 33 ea 24 f2 30 b1 4a cc 33 cf f9 0c 34
       1.0479958e-07 1.7618309e-09 9.5130765e-08 1.3129396e-07
000100 62 bf 39 2c 1a 7a d3 33 92 7e 79 33 cd d2 5a 30
       2.639632e-12 9.847663e-08 5.8089945e-08 7.9607504e-10
000110 99 41 12 33 b6 2a 91 33 de 16 95 2b ce 92 42 33
       3.4052935e-08 6.759858e-08 1.0593434e-12 4.5302663e-08
000120 00 5f f0 32 5f f8 14 30 c6 81 de 32 99 a3 40 33
       2.7982878e-08 5.4195043e-10 2.5903216e-08 4.4852275e-08
000130 b3 06 3e 2b a6 de 23 33 32 81 09 33 f0 93 f1 2f
       6.7510857e-13 3.8153892e-08 3.20153e-08 4.394276e-10
000140 9b e4 f7 32 a4 ee 20 33 16 94 11 2b ef ab 09 33
       2.8858542e-08 3.7469945e-08 5.171986e-13 3.205417e-08
000150 ff b2 c6 33 06 97 a5 30 bd 7b d5 33 c0 8b df 33
       9.252653e-08 1.2048254e-09 9.941093e-08 1.0409667e-07
000160 5a 76 e7 2b 80 c3 ad 33 cc e3 bc 33 d1 7e bc 30
       1.6446386e-12 8.0915015e-08 8.795868e-08 1.3714844e-09
000170 b2 21 a8 33 cb 12 00 34 01 11 f2 2b 4d aa c2 33
       7.829239e-08 1.1927766e-07 1.7199854e-12 9.0648065e-08
000180 7f d4 12 33 eb 94 05 30 37 71 06 33 34 6e 14 33
       3.4186538e-08 4.8596743e-10 3.1302275e-08 3.4559164e-08
000190 4c d0 43 2b 42 18 14 33 a2 d5 0d 34 59 a8 cd 30
       6.9566987e-13 3.4480998e-08 1.3209367e-07 1.496356e-09
0001a0 f7 3c b1 33 f9 d0 df 33 4e 1d f8 2b b3 1f d0 33
       8.253294e-08 1.04222586e-07 1.7629594e-12 9.691521e-08
0001b0 d8 b8 db 33 d9 31 d7 30 f4 37 e4 33 7a 15 14 34
       1.0231605e-07 1.5657476e-09 1.0627255e-07 1.3791387e-07
0001c0 82 27 18 2c 81 37 c3 33 ef f9 c2 34 8f 1a cb 31
       2.162243e-12 9.090491e-08 3.6317167e-07 5.911097e-09
0001d0 29 ed 95 34 8f 43 1e 35 a1 b6 e7 2c 8c f2 94 34
       2.792597e-07 5.89579e-07 6.5856908e-12 2.7743624e-07
0001e0 cd 08 53 33 b5 7a 3e 30 a0 cc 35 33 49 82 43 33
       4.913527e-08 6.9295975e-10 4.2328452e-08 4.552047e-08
0001f0 bc c7 92 2b 33 32 4c 33 e8 ae dc 34 57 38 e6 31
       1.0429361e-12 4.7543107e-08 4.1105454e-07 6.700286e-09
000200 99 24 fa 34 01 6a 1a 35 29 7f 0d 2d 10 20 d1 34
       4.6592757e-07 5.7523727e-07 8.043157e-12 3.8952612e-07
000210 19 60 df 32 e7 aa 20 30 31 ff 40 33 1a 52 49 33
       2.6004317e-08 5.845053e-10 4.493558e-08 4.687363e-08
000220 86 d8 4a 2b 3d e9 21 33 f1 d0 56 33 cb b5 49 30
       7.2065303e-13 3.7697863e-08 5.001579e-08 7.338172e-10
000230 02 b0 35 33 c5 73 a6 33 0a 5c 93 2b ac a4 3e 33
       4.2302425e-08 7.751036e-08 1.0470524e-12 4.438759e-08
000240 fb 7a 2a 33 e5 0b 17 30 ef 5b 2d 33 c4 2a 2e 33
       3.969306e-08 5.4950383e-10 4.0363314e-08 4.0551427e-08
000250 00 de 3d 2b fc b7 03 33 97 e2 d2 33 69 7c c1 30
       6.7454375e-13 3.0668147e-08 9.8201035e-08 1.4077958e-09
000260 0d 2e bf 33 23 a7 fc 33 9b 1b e6 2b f0 f2 c8 33
       8.902507e-08 1.17650664e-07 1.6350145e-12 9.357416e-08
000270 08 82 9b 33 ea af 51 30 ba 41 46 33 f9 5e 8b 33
       7.2414025e-08 7.6283746e-10 4.6160245e-08 6.489967e-08
000280 9e 1d 83 2b 5f 30 3a 33 6c 33 8b 32 bb d4 4c 2f
       9.31633e-13 4.3350493e-08 1.6205114e-08 1.8629269e-10
000290 f6 41 57 32 41 07 98 32 e3 43 ac 2a 9c c0 2e 32
       1.2529645e-08 1.7698428e-08 3.0600444e-13 1.0171927e-08
0002a0 54 2a 4c 33 d8 33 24 30 da 4e f1 32 6f ab 6b 33
       4.753595e-08 5.9736527e-10 2.809195e-08 5.487112e-08
0002b0 10 66 42 2b 6c 87 23 33 c2 5f 98 34 23 33 b0 31
       6.9064286e-13 3.807456e-08 2.838188e-07 5.1280877e-09
0002c0 0c e5 c3 34 c8 fa b4 34 14 c4 ed 2c fd ae c9 34
       3.6488234e-07 3.371008e-07 6.757714e-12 3.7566488e-07
0002d0 6a 2e 1a 34 3e b8 49 31 de 43 51 34 dd c4 61 34
       1.4359253e-07 2.935408e-09 1.9489332e-07 2.1026376e-07
0002e0 f3 c6 88 2c 35 83 56 34 31 47 f3 32 28 51 07 30
       3.8874403e-12 1.9978036e-07 2.8321297e-08 4.9228044e-10
0002f0 3a 59 c2 32 92 30 23 33 fa 86 67 2b 94 90 33 33
       2.2625148e-08 3.799557e-08 8.2255004e-13 4.180818e-08
000300 9e 44 be 34 08 b6 c2 31 41 2c bc 34 ce 54 0b 35
       3.5440183e-07 5.6668377e-09 3.5049928e-07 5.190494e-07
000310 f3 25 07 2d 1b 76 a7 34 58 fd 82 33 f5 6d 48 30
       7.682288e-12 3.1192107e-07 6.09968e-08 7.2915834e-10
000320 a8 84 81 33 99 9a 82 33 7d 14 91 2b ca 91 3b 33
       6.0311606e-08 6.081718e-08 1.0308556e-12 4.3671925e-08
000330 b3 87 6b 33 ac c3 62 30 7e c5 82 33 91 a1 95 33
       5.483862e-08 8.249639e-10 6.08952e-08 6.967742e-08
000340 20 b3 64 2b f3 13 67 33 e8 ed d7 33 0b 40 d0 30
       8.125046e-13 5.3802022e-08 1.00549926e-07 1.5152194e-09
000350 1e e4 bb 33 03 e0 09 34 6a 5c 0d 2c 8b a4 aa 33
       8.74936e-08 1.2840614e-07 2.0088605e-12 7.946172e-08
000360 be 7f ad 33 c3 3b 9b 30 42 05 ae 33 ae a4 ea 33
       8.0791764e-08 1.129472e-09 8.103463e-08 1.0926429e-07
000370 8a 25 f5 2b a0 aa ae 33 0b e8 8a 34 20 46 4a 31
       1.7418716e-12 8.133543e-08 2.5873337e-07 2.943473e-09
000380 07 fe 58 34 3c 5e 42 34 15 99 9b 2c 4d 63 47 34
       2.0208982e-07 1.810194e-07 4.4223605e-12 1.8569445e-07
000390 e6 e0 9a 33 e4 5f bb 30 21 b3 df 33 66 ab ba 33
       7.2120926e-08 1.3633294e-09 1.041683e-07 8.692477e-08
0003a0 c9 65 e5 2b 4e 3a cb 33 7c 14 9a 33 54 19 94 30
       1.629968e-12 9.46353e-08 7.17491e-08 1.0775616e-09
0003b0 9f 2c c5 33 13 f9 cc 33 e3 3e e8 2b 8a 50 a5 33
       9.181644e-08 9.5447966e-08 1.6502046e-12 7.698061e-08
0003c0 c4 56 f0 32 89 2b 05 30 fb 34 f8 32 66 06 f0 32
       2.7979134e-08 4.8446985e-10 2.8895093e-08 2.7942587e-08
0003d0 be 5a 41 2b fe 12 10 33 53 7a 6b 34 95 dc 21 31
       6.8693304e-13 3.3544886e-08 2.1930582e-07 2.355397e-09
0003e0 06 42 31 34 c4 24 6e 34 82 ef 63 2c e0 70 1b 34
       1.6508429e-07 2.2178853e-07 3.2391594e-12 1.4476564e-07
0003f0 2d a3 ce 33 84 c8 e3 30 fb 91 97 33 86 bd c7 33
       9.622304e-08 1.6573414e-09 7.058039e-08 9.301134e-08

exp_avg f4 [128]
000000 99 cd fd b7 59 21 df 36 5b 13 16 b8 5a fb 01 b6
       -3.025569e-05 6.6498e-06 -3.5780813e-05 -1.9368804e-06
000010 6f 37 a2 37 3f 81 f2 37 f7 f1 19 36 87 c9 e2 37
       1.9337718e-05 2.8908833e-05 2.2939619e-06 2.7035143e-05
000020 68 b1 81 b7 2d 05 0c b8 1f d1 83 b8 c2 fc bf 37
       -1.546061e-05 -3.338342e-05 -6.2855186e-05 2.2886674e-05
000030 07 dc a3 b8 49 b4 12 38 45 fc e1 37 f9 f2 e8 37
       -7.813429e-05 3.4977016e-05 2.6939562e-05 2.7769698e-05
000040 79 e5 d5 37 25 ee b3 37 c0 64 76 38 67 77 c4 38
       2.5498435e-05 2.1449358e-05 5.87448e-05 9.368249e-05
000050 df e3 2a 37 eb 72 93 b6 fd 43 bd 36 0d fd ee 37
       1.0185845e-05 -4.3943196e-06 5.640554e-06 2.8489647e-05
000060 b8 26 64 38 d4 a5 32 b6 0e 2e 94 b6 a4 ab f2 36
       5.4395496e-05 -2.6620592e-06 -4.416105e-06 7.2321436e-06
000070 b4 8d 98 37 c9 37 cf 38 94 c6 8c 38 d2 26 1d 38
       1.8185798e-05 9.88092e-05 6.712708e-05 3.746787e-05
000080 22 9d 1f 38 23 e2 30 b6 d9 ee 3f b8 bc d0 81 b8
       3.8054895e-05 -2.6357673e-06 -4.5760393e-05 -6.190079e-05
000090 2d 7d 51 37 a2 68 03 b8 53 c4 fe 34 f5 ee 6d 38
       1.24865155e-05 -3.133028e-05 4.7454031e-07 5.672775e-05
0000a0 24 e1 b1 b7 d7 f8 66 38 18 a1 41 38 0a b5 68 36
       -2.1204884e-05 5.5068023e-05 4.6164816e-05 3.4676073e-06
0000b0 c4 d2 23 b8 99 90 08 b6 a0 24 1d 37 48 6d ca 38
       -3.905852e-05 -2.0349746e-06 9.366457e-06 9.652466e-05
0000c0 4f ee cf 37 cd eb a9 38 cc cd 6e b7 b8 9f d6 b7
       2.4787294e-05 8.102469e-05 -1.4233821e-05 -2.5585163e-05
0000d0 8a c7 f5 37 fc 61 ea 37 d9 76 be b6 a6 68 f5 b7
       2.9299194e-05 2.7940601e-05 -5.676277e-06 -2.9255007e-05
0000e0 9d 5a d3 37 36 f9 87 38 ee 39 c7 b7 5a 46 c7 37
       2.5195355e-05 6.483721e-05 -2.3749624e-05 2.3755409e-05
0000f0 db c9 20 38 21 81 d4 b7 61 fc 85 38 39 fd 9c b6
       3.8334965e-05 -2.53325e-05 6.3889434e-05 -4.6786413e-06
000100 2f a1 a2 37 64 be d7 38 b7 4c a0 37 07 ac f6 37
       1.9386962e-05 0.00010287462 1.910921e-05 2.9405592e-05
000110 a7 cb d9 b5 16 3b e6 b6 ce 01 db 37 e0 81 77 36
       -1.622703e-06 -6.8614127e-06 2.6107675e-05 3.6881465e-06
000120 24 f5 ad 38 84 21 1f 37 b6 8e 1d 38 37 e2 71 38
       8.294944e-05 9.484942e-06 3.7564627e-05 5.7669557e-05
000130 d2 45 2d 38 44 0c 3c 38 ad c0 cb b7 2b f5 26 38
       4.131144e-05 4.4834116e-05 -2.4289207e-05 3.9805815e-05
000140 cc eb dc b7 c5 8a a8 38 7f 2e 8b 38 f8 68 4c b8
       -2.6335845e-05 8.036712e-05 6.636697e-05 -4.873515e-05
000150 59 1f a7 b7 a9 c6 06 39 65 8e 8a 37 86 00 30 38
       -1.9922549e-05 0.00012853243 1.651719e-05 4.1962157e-05
000160 44 d5 f0 b7 e8 14 a0 37 23 37 81 38 ad 70 b8 36
       -2.8709539e-05 1.9083222e-05 6.161469e-05 5.4967445e-06
000170 48 49 47 37 de fe 80 37 48 0c 90 b8 bd c5 d2 36
       1.1878386e-05 1.537747e-05 -6.868743e-05 6.2815075e-06
000180 34 71 5b 37 88 18 b9 37 34 5b 8b b8 4d ac 53 38
       1.3079774e-05 2.2065142e-05 -6.6450244e-05 5.0466788e-05
000190 9a 27 d5 37 b3 10 c4 38 ef 82 1e b6 f8 b4 2b 38
       2.541002e-05 9.349119e-05 -2.3620048e-06 4.0938117e-05
0001a0 8f 6d be 37 13 e2 13 38 c9 ed b2 b7 0e af 48 38
       2.2700782e-05 3.525808e-05 -2.132998e-05 4.784675e-05
0001b0 73 a5 0e 37 ef e2 24 b8 16 f4 c9 b8 65 3d 38 b8
       8.502381e-06 -3.9311995e-05 -9.6298914e-05 -4.3926197e-05
0001c0 34 e8 a5 b7 32 1c 02 36 b9 9c 9c 37 19 5d 2f 37
       -1.977766e-05 1.9387921e-06 1.8669629e-05 1.0452489e-05
0001d0 7b db a9 36 92 08 c0 35 1a c5 0f 38 f9 ac 99 b7
       5.0621434e-06 1.4307609e-06 3.4277422e-05 -1.8319568e-05
0001e0 14 ab fc 37 4f d9 b9 b7 7b 76 2e b8 30 38 b8 36
       3.0120405e-05 -2.215491e-05 -4.1595176e-05 5.4901684e-06
0001f0 02 4d c4 37 35 58 20 36 c5 e5 1a 38 0b 0f 92 37
       2.340088e-05 2.3893201e-06 3.693045e-05 1.7411561e-05
