results/test_movetogoal_no_graph/MoveToGoal/MoveToGoal-2092.pt (torch, 152568 bytes, 20 tensors)

network_body.observation_encoder.processors.0.normalizer.running_mean f4 [6]
000000 10 93 b3 ba 1f 17 a6 be 49 8a 59 3f 68 c8 9f be
       -0.0013700444 -0.32439515 0.8497663 -0.31207585
000010 e9 eb 54 ba 66 d9 c0 3d
       -0.00081223116 0.094164655

network_body.observation_encoder.processors.0.normalizer.running_variance f4 [6]
000000 7b 78 95 46 17 1f 83 40 23 89 24 46 e6 e5 3e 46
       19132.24 4.097545 10530.284 12217.475
000010 bb c0 8f 3f d1 31 fd 45
       1.1230692 8102.227

network_body.processors.0.normalizer.running_mean f4 [6]
000000 10 93 b3 ba 1f 17 a6 be 49 8a 59 3f 68 c8 9f be
       -0.0013700444 -0.32439515 0.8497663 -0.31207585
000010 e9 eb 54 ba 66 d9 c0 3d
       -0.00081223116 0.094164655

network_body.processors.0.normalizer.running_variance f4 [6]
000000 7b 78 95 46 17 1f 83 40 23 89 24 46 e6 e5 3e 46
       19132.24 4.097545 10530.284 12217.475
000010 bb c0 8f 3f d1 31 fd 45
       1.1230692 8102.227

network_body._body_endoder.seq_layers.0.weight f4 [128, 6]
000000 82 5b 39 bf 8d 2a 2b 3e 39 b9 99 be 0c 6e 59 39
       -0.72405255 0.1671545 -0.30024126 0.00020735728
000010 8b 5d 53 bf f0 ec 23 3d bc 3f 18 bf 30 e9 17 3f
       -0.8256461 0.040020883 -0.5947225 0.5934019
000020 39 09 b7 3e ff 61 11 bf 44 9c fc be c7 6a b2 3e
       0.35749224 -0.56790155 -0.4933797 0.3484709
000030 1b 44 b3 3e 6f e0 99 bf 3e a7 a6 3e 4c 70 17 bf
       0.35012898 -1.2021617 0.3254947 -0.59155726
000040 f2 ac 93 3e 9a a1 12 3f f3 f9 3e bf dc bd aa 3e
       0.28842884 0.57277834 -0.7460014 0.33347976
000050 43 96 88 bd 17 cb d5 3e df b2 b4 3d bb a0 9e be
       -0.06669285 0.41756508 0.088231795 -0.30982003
000060 eb b8 2a bd 68 2a df be 96 a6 2b be 0a 69 93 be
       -0.041680258 -0.4358704 -0.16762766 -0.28791076
000070 43 e8 3f 3e f5 40 8d bd 58 6c 2a 3f c9 ef ae 3e
       0.18740945 -0.06897155 0.6657157 0.34167317
000080 f1 b5 93 be b2 da f4 3d 59 d0 4b 3d b1 a5 f6 be
       -0.28849748 0.11955775 0.049759243 -0.48173288
000090 13 ac 11 be 02 bb fc bc d6 dc 36 be a6 dd 1a 3e
       -0.14225797 -0.030850891 -0.1785768 0.15123615
0000a0 5d 20 9a be 45 67 93 bc 9b 7e 87 bd 66 82 9a 3e
       -0.30102816 -0.017993579 -0.06615945 0.3017761
0000b0 87 9c df 3e 9e 3e 01 be bc e3 0d bf bb d1 0d 3e
       0.43674108 -0.12621543 -0.5542562 0.13849537
0000c0 63 d5 b9 be 5e 1c 72 bf 71 c1 15 3e 0c 2f f3 be
       -0.36295614 -0.94574535 0.14624573 -0.4749683
0000d0 64 46 ad be 6f 33 b7 3d 2b 70 a1 3e 8a 4a e5 3c
       -0.33842766 0.08945357 0.3153089 0.027989645
0000e0 ed d1 cc 3b 1b 62 c0 3e 65 29 83 3e e6 55 9b be
       0.006250611 0.3757485 0.2561752 -0.30338973
0000f0 ae 36 c2 bc c8 cd 7d bf dd b4 89 3e 65 57 2c bf
       -0.023707714 -0.9914212 0.268958 -0.67320853
000100 39 c7 72 be 00 53 ca 3e 15 49 34 3f 96 80 f9 3e
       -0.2370881 0.3951645 0.70424014 0.48730916
000110 8b a1 09 bf c3 ee 90 be d5 97 fd bd 19 7b 3b 3d
       -0.5376212 -0.2830716 -0.12382475 0.045771692
000120 4b a2 73 bf 9a d5 24 bf 95 20 82 be 1c 36 5a be
       -0.95169514 -0.6438843 -0.25415483 -0.21309704
000130 0f df 5d 3e 90 d7 9d bd e4 1f e8 be b0 47 c1 3e
       0.21667121 -0.07707131 -0.4533683 0.37750006
000140 6c 8f 37 be bb e4 f1 be 7c ec 23 be b7 ed 45 3e
       -0.17925805 -0.4724482 -0.1600818 0.19328962
000150 5c 3a ed 3e 56 c6 cd be ec 74 08 3f ed b8 d3 bd
       0.46333587 -0.4019038 0.5330341 -0.10338006
000160 ef f2 83 bf a4 c5 c3 3e a2 86 33 3e 86 89 2a 3f
       -1.0308512 0.38236725 0.17531827 0.66616094
000170 46 b3 6b 3b a1 31 71 be bc c4 a7 3e 36 5a 36 bf
       0.003596501 -0.23554088 0.32767284 -0.712314
000180 58 75 91 3d ec 05 53 3e 98 8b a4 be ed e5 ca be
       0.0710246 0.20607728 -0.32137752 -0.39628544
000190 86 d6 d1 be 7c b2 0f bf b2 40 83 3e 7b c6 5a 3f
       -0.4098398 -0.5613172 0.25635296 0.8545911
0001a0 67 62 c0 3e 94 27 c4 be 3b 40 63 bf 45 57 17 bc
       0.37575075 -0.38311446 -0.8876988 -0.009237115
0001b0 44 0e 0e 3e 7c 27 20 3f 30 2c aa be dc 85 49 bf
       0.1387263 0.6256025 -0.33236837 -0.7871988
0001c0 ae 63 1a 3f 85 85 99 be e4 b1 99 3d e3 dd d1 bd
       0.6030835 -0.2998468 0.07504633 -0.102474
0001d0 2e 39 87 3b 99 83 43 be fc 39 35 be 7a fd f0 bd
       0.0041266894 -0.1909317 -0.176979 -0.11767097
0001e0 4c 15 2a bf 2f 69 1a be 06 03 03 3e e5 63 92 be
       -0.66438746 -0.15079187 0.12794122 -0.28591838
0001f0 e1 7b 0a bd d0 18 ee be 9d 05 13 bf cf ed d9 bd
       -0.033809546 -0.46503305 -0.5743044 -0.106410615
000200 de a4 4c 3e 58 ce 11 bf 6b d0 01 3f 5f c7 10 3e
       0.19984767 -0.5695548 0.50708646 0.14138554
000210 e9 98 ec 3d 2c 4b 11 be f3 f0 1e 3e 1e 65 a4 3e
       0.11552603 -0.14188832 0.15521602 0.32108396
000220 7a 2b cb 3d 26 96 f5 3e 21 42 ed 3e 29 42 22 3f
       0.09920402 0.47966117 0.46339515 0.633822
000230 7d e7 96 bf 1e f0 80 be c1 3c 26 be ed fd 84 3e
       -1.1789395 -0.25183195 -0.16234113 0.2597498
000240 40 98 88 3e 03 6e 13 3f 02 7d 23 3f c9 78 c4 be
       0.26678658 0.5758974 0.6386262 -0.38373402
000250 d6 60 e3 3e 7b 09 1b be 0f de 27 3f b8 74 8a be
       0.44409817 -0.15140335 0.6557321 -0.27042174
000260 03 1c 00 3f dd 03 ee be c5 0d da 3d 46 54 2c be
       0.5004274 -0.46487322 0.106471576 -0.16829023
000270 64 3f 97 3e 6c 77 7e 3e d7 2c 63 be eb 72 02 bf
       0.2954055 0.24850243 -0.22185074 -0.509566
000280 1e 2f 53 be 6b 7a 50 3f 3e 17 fc bd 64 d3 05 bf
       -0.20623443 0.81436795 -0.123091206 -0.5227568
000290 b9 e8 0a bd 5a 16 d6 3e 01 66 d7 bd 9b ea df be
       -0.033913348 0.41813928 -0.105175026 -0.43733677
0002a0 e3 e3 46 bf 55 ee 0c 3e 22 24 4e 3b 16 be 2b be
       -0.7769148 0.13762791 0.0031454642 -0.16771731
0002b0 8c 4a 00 bf 9f bb 79 bf d1 45 a1 3e a2 ab b6 bc
       -0.5011375 -0.9755191 0.31498578 -0.022298638
0002c0 26 4f c5 be 68 78 0f 3d 8e c1 d2 be 05 27 d6 3d
       -0.38536948 0.035026938 -0.41163296 0.10456661
0002d0 1e 6d d9 3e fc 4d 4b be 00 ef 39 bf 4e e2 c2 be
       0.42466062 -0.19853967 -0.7263031 -0.38063282
0002e0 7f e5 89 3e 9e 6a 13 3f 07 fa e2 3e dc db 52 bf
       0.26932904 0.5758456 0.4433138 -0.8236673
0002f0 c7 1b da 3b 44 42 03 bf 25 f4 b3 3e e8 51 ab bd
       0.0066561433 -0.5127299 0.35147205 -0.08365232
000300 82 92 26 bf 74 ac c9 3e 6d 78 94 3d 2c c5 3a 3e
       -0.65067303 0.39389384 0.07249532 0.18239278
000310 ae 86 5d 3e 82 9d 06 bf ee 5d b1 3e 90 0b 41 be
       0.21633407 -0.5258409 0.34641975 -0.18852067
000320 30 ce 8e be fd 6a 7d be 63 71 94 3e 87 41 68 be
       -0.27891684 -0.24747844 0.28992757 -0.22681247
000330 28 31 e4 3e 11 a3 cf be 5d be 72 3e ab 24 06 3f
       0.44568753 -0.40554097 0.2370543 0.523997
000340 66 b6 5f bf 3d 26 9c bf 8f 51 ee 3e b4 50 ee bb
       -0.8738769 -1.2199169 0.465466 -0.007272804
000350 c2 bc b7 3e 21 e9 19 3f 93 a9 8a be 7e 5c 4a be
       0.35886198 0.6012135 -0.270825 -0.19761845
000360 9e 66 7f 3b 53 5c ca 3d 1a c9 04 3f 97 7a 9d 3e
       0.0038971077 0.09880891 0.51869357 0.3075759
000370 0e b4 da be dd 30 28 bf 1a 2a ae 3e 11 51 cf be
       -0.42715496 -0.6569956 0.34016496 -0.40491536
000380 aa 8f 46 3f e8 26 b9 bd 0f 60 80 be 0b 53 13 3f
       0.77562964 -0.09040624 -0.25073287 0.5754859
000390 8e 84 49 bd 72 3c b4 3d 59 20 fd be 61 d8 5b bd
       -0.04919868 0.088005915 -0.49438742 -0.053673152
0003a0 33 58 e0 3e d8 79 06 bf 19 b1 1d 3f bf cb 50 b9
       0.4381729 -0.5252967 0.61598355 -0.00019912327
0003b0 b8 bb b5 3e b4 9b 1a 3f 98 43 71 3f e2 20 41 3f
       0.3549478 0.60393834 0.94243765 0.754408
0003c0 9f 36 0f 3f 3b 1b 2d 3d af b3 0e be 7c 78 bf be
       0.5594272 0.042262297 -0.13935731 -0.3739661
0003d0 a1 a0 94 3e f0 a2 3f 3e 09 04 69 3e d6 90 0f 3e
       0.290288 0.187145 0.22755446 0.14020094
0003e0 bf 1e 1e be 3f 8c e6 bd 91 b4 3d 3e 0e 1e 57 3d
       -0.15441416 -0.112572186 0.18525912 0.052518897
0003f0 11 b7 f5 bc 72 19 ce be 2b 1f 20 bf a2 47 0d bf
       -0.02999452 -0.40253788 -0.6254756 -0.5518743

network_body._body_endoder.seq_layers.0.bias f4 [128]
000000 00 00 00 00 00 00 00 00 00 00 00 00 00 00 00 00
       0.0 0.0 0.0 0.0
000010 00 00 00 00 00 00 00 00 00 00 00 00 00 00 00 00
       0.0 0.0 0.0 0.0
000020 00 00 00 00 00 00 00 00 00 00 00 00 00 00 00 00
       0.0 0.0 0.0 0.0
000030 00 00 00 00 00 00 00 00 00 00 00 00 00 00 00 00
       0.0 0.0 0.0 0.0
000040 00 00 00 00 00 00 00 00 00 00 00 00 00 00 00 00
       0.0 0.0 0.0 0.0
000050 00 00 00 00 00 00 00 00 00 00 00 00 00 00 00 00
       0.0 0.0 0.0 0.0
000060 00 00 00 00 00 00 00 00 00 00 00 00 00 00 00 00
       0.0 0.0 0.0 0.0
000070 00 00 00 00 00 00 00 00 00 00 00 00 00 00 00 00
       0.0 0.0 0.0 0.0
000080 00 00 00 00 00 00 00 00 00 00 00 00 00 00 00 00
       0.0 0.0 0.0 0.0
000090 00 00 00 00 00 00 00 00 00 00 00 00 00 00 00 00
       0.0 0.0 0.0 0.0
0000a0 00 00 00 00 00 00 00 00 00 00 00 00 00 00 00 00
       0.0 0.0 0.0 0.0
0000b0 00 00 00 00 00 00 00 00 00 00 00 00 00 00 00 00
       0.0 0.0 0.0 0.0
0000c0 00 00 00 00 00 00 00 00 00 00 00 00 00 00 00 00
       0.0 0.0 0.0 0.0
0000d0 00 00 00 00 00 00 00 00 00 00 00 00 00 00 00 00
       0.0 0.0 0.0 0.0
0000e0 00 00 00 00 00 00 00 00 00 00 00 00 00 00 00 00
       0.0 0.0 0.0 0.0
0000f0 00 00 00 00 00 00 00 00 00 00 00 00 00 00 00 00
       0.0 0.0 0.0 0.0
000100 00 00 00 00 00 00 00 00 00 00 00 00 00 00 00 00
       0.0 0.0 0.0 0.0
000110 00 00 00 00 00 00 00 00 00 00 00 00 00 00 00 00
       0.0 0.0 0.0 0.0
000120 00 00 00 00 00 00 00 00 00 00 00 00 00 00 00 00
       0.0 0.0 0.0 0.0
000130 00 00 00 00 00 00 00 00 00 00 00 00 00 00 00 00
       0.0 0.0 0.0 0.0
000140 00 00 00 00 00 00 00 00 00 00 00 00 00 00 00 00
       0.0 0.0 0.0 0.0
000150 00 00 00 00 00 00 00 00 00 00 00 00 00 00 00 00
       0.0 0.0 0.0 0.0
000160 00 00 00 00 00 00 00 00 00 00 00 00 00 00 00 00
       0.0 0.0 0.0 0.0
000170 00 00 00 00 00 00 00 00 00 00 00 00 00 00 00 00
       0.0 0.0 0.0 0.0
000180 00 00 00 00 00 00 00 00 00 00 00 00 00 00 00 00
       0.0 0.0 0.0 0.0
000190 00 00 00 00 00 00 00 00 00 00 00 00 00 00 00 00
       0.0 0.0 0.0 0.0
0001a0 00 00 00 00 00 00 00 00 00 00 00 00 00 00 00 00
       0.0 0.0 0.0 0.0
0001b0 00 00 00 00 00 00 00 00 00 00 00 00 00 00 00 00
       0.0 0.0 0.0 0.0
0001c0 00 00 00 00 00 00 00 00 00 00 00 00 00 00 00 00
       0.0 0.0 0.0 0.0
0001d0 00 00 00 00 00 00 00 00 00 00 00 00 00 00 00 00
       0.0 0.0 0.0 0.0
0001e0 00 00 00 00 00 00 00 00 00 00 00 00 00 00 00 00
       0.0 0.0 0.0 0.0
0001f0 00 00 00 00 00 00 00 00 00 00 00 00 00 00 00 00
       0.0 0.0 0.0 0.0

network_body._body_endoder.seq_layers.2.weight f4 [128, 128]
000000 c1 77 ee 3c 3b e0 8f 3d 1b 6a b5 3d 0f a6 91 3d
       0.029109837 0.070251904 0.08858129 0.07111751
000010 1f f5 43 3e 68 72 e1 bc d2 b7 47 3b 5a bb 4a 3d
       0.19136475 -0.027520373 0.0030474556 0.04949508
000020 66 93 9b bd 52 8a 81 3d 67 11 de 3c ac 25 2e bc
       -0.075964734 0.06325211 0.027107907 -0.010629099
000030 4a 70 54 3d 7a f1 f6 bd 55 a0 33 3d 0b 0f b5 3b
       0.0518649 -0.12057777 0.043854076 0.005525475
000040 06 cf 05 3e cd e4 a1 3d 25 4c 21 3e e0 ba 19 be
       0.13067254 0.079049684 0.15751703 -0.15012693
000050 9d 6d c8 bd 2b 0a 80 bd a4 f2 f2 bd 1a 2e ae 3d
       -0.09786532 -0.062519394 -0.11862686 0.08504887
000060 9f bf 00 be fd 78 79 bd 28 23 17 3d 6f 9f 01 be
       -0.12573098 -0.0609064 0.036898762 -0.12658475
000070 b0 61 f8 3d a5 a5 05 bd 94 f7 77 bc 40 3d fa 3c
       0.121280074 -0.032628674 -0.015134711 0.030546784
000080 9f 96 fb 3d 76 d4 01 be ef ef 2a bd 74 60 0a bc
       0.12284588 -0.12678704 -0.041732725 -0.008445848
000090 51 84 cb 3d a0 67 c8 bc d2 f9 3b 3e 1a ea cc bd
       0.09937347 -0.024463475 0.18357018 -0.10005589
0000a0 5e f5 23 3d 45 73 47 bd c2 05 f8 3c 82 38 a8 bd
       0.040028922 -0.048693914 0.030276183 -0.08213903
0000b0 ba 68 12 3c 8e cb 8e 3d e9 35 c9 3d 04 5e 90 bc
       0.008936102 0.06972419 0.09824736 -0.017622955
0000c0 44 bc cb bd c3 14 b0 bd 18 4f 0f be 98 3e b6 3d
       -0.09948018 -0.0859771 -0.13995016 0.088986576
0000d0 88 a0 f6 bc 42 01 ca 3b e4 0f ed bc 09 fb ad bd
       -0.030105844 0.0061647007 -0.028938241 -0.08495147
0000e0 8e bb 88 3d ec b0 83 bd a2 85 bb bc fc 24 6c 3d
       0.06676398 -0.064302295 -0.02289087 0.05765246
0000f0 ae 6f 9f 3c 4b 79 20 bd 9e 4c 52 bc b6 f0 06 3c
       0.019462433 -0.039178174 -0.01283565 0.008236101
000100 8b 32 04 bd 83 9d 5d be 5a f9 b1 bd 38 2d 3d be
       -0.032274764 -0.21642117 -0.08690138 -0.18474281
000110 12 b7 8d bd 22 fe 09 bd 70 db 7e bd 43 ff e1 3c
       -0.069196835 -0.033689626 -0.06222099 0.027587539
000120 2a cc 0e bd cf b5 5e bd e1 f5 2f 3d ed 8f bb 3c
       -0.034862675 -0.054372605 0.042959098 0.022895778
000130 45 8f 80 bd d1 69 8c 3d 21 e5 02 bd cc de c9 3c
       -0.062773265 0.068561204 -0.031956796 0.02464237
000140 4b 4b 46 3d 6d 08 bb bd c3 79 8d 3b 64 83 40 bd
       0.04841165 -0.091324665 0.0043174936 -0.047000304
000150 ff 22 26 3d c7 42 1a 3c 04 52 d5 3c 12 a6 e3 3d
       0.04056072 0.009415335 0.026040085 0.1111566
000160 d2 fc 09 bd ae b0 68 bd 23 51 fd bd 38 9a 03 be
       -0.033688374 -0.05680912 -0.12368991 -0.12851799
000170 0d 13 db bd 8b 75 c0 3d 19 32 fc bd fd 28 d9 bd
       -0.10696993 0.093974195 -0.12314243 -0.10603521
000180 9c 1c a8 ba 86 a2 44 3d 54 41 b7 3d 7b d2 33 3d
       -0.0012825909 0.048006557 0.08948007 0.0439019
000190 a3 24 75 3d 31 41 db 3d ef 29 6e 3d 46 bf 38 3d
       0.059849393 0.10705794 0.05814546 0.045104288
0001a0 86 17 41 3d 80 36 46 3c 97 49 6a bd d2 85 9e bd
       0.047141574 0.012097955 -0.057199087 -0.07740368
0001b0 10 22 4a 3c a8 45 17 3e 83 4a a6 bd 93 fe 07 bd
       0.012337223 0.14772666 -0.08119681 -0.033201765
0001c0 46 5e 3f be 56 a4 de 3b 38 df 1e 3c bd 2f a0 bd
       -0.18688306 0.0067944927 0.009696774 -0.07821605
0001d0 23 38 eb 3d d2 db a0 bb 6e 3b 35 be 3f 28 07 3e
       0.114853166 -0.004909017 -0.17698452 0.13198946
0001e0 fb a6 0d 3e d3 9d 07 bc 63 fb 81 3c a2 4a f1 bb
       0.13833229 -0.008277374 0.01586694 -0.0073636333
0001f0 90 42 a9 bc dd 85 5e bd fe 0c 07 3c e2 64 ac 39
       -0.020661622 -0.05432688 0.008242844 0.0003288156
000200 e7 68 fb 3d 72 fd db bd 74 e8 e9 3a 3b 85 bb 3d
       0.12275868 -0.107417 0.0017845766 0.09156271
000210 87 c6 8d bd 09 dc 05 3e 2f 95 f0 bd 4a ca 98 bd
       -0.06922632 0.13072218 -0.117472045 -0.074604586
000220 b9 bb bd bd 6c 2a 66 bd 33 7d 56 3e c7 84 a8 3d
       -0.09264321 -0.0561928 0.20946197 0.0822845
000230 f7 f4 31 be ec 29 c0 3c a6 ce 28 3d 89 98 55 bd
       -0.17378603 0.02345749 0.0412127 -0.052147422
000240 df 44 0a 3e ab 88 3f 3a 11 e1 1c 3d 9d 9b a8 ba
       0.13502835 0.0007306437 0.038300578 -0.0012863759
000250 99 d8 04 be ac da 1a 3e b4 cd e6 bc 7c 4e 84 be
       -0.1297325 0.15122479 -0.028174259 -0.2584113
000260 5e 97 51 bc b5 87 ca 3d 71 ee 7b bc f4 07 02 be
       -0.012792436 0.09889165 -0.015376673 -0.12698346
000270 25 1c 4b bd 48 85 d7 bd 6e 26 b1 3d fa 62 01 be
       -0.049587388 -0.10523468 0.08649908 -0.12635413
000280 47 1e 5c bd a3 a0 88 bc 35 d7 06 3e 14 36 b9 3c
       -0.053739812 -0.01667816 0.13168032 0.022608794
000290 da 2d 81 3d 6f 6c 0a 3e 04 2e dd bd 98 73 41 bd
       0.063075736 0.13517927 -0.107997924 -0.04722938
0002a0 ed 49 75 3c d0 9c db 3d 3e b3 3d be 3e ce f2 3d
       0.014971239 0.10723269 -0.18525407 0.11855744
0002b0 e2 d0 2b 3c 46 7c 1c 3d 39 6f 76 3c 60 ec 87 bd
       0.010486813 0.038204454 0.015041166 -0.06636882
0002c0 5a f3 3d bd 60 d1 b3 bd e7 ae b2 3d db 73 4b 3d
       -0.046374656 -0.087801695 0.08724766 0.049671035
0002d0 09 00 1d 3d 48 9c cb 3b 45 a7 f8 3c e5 48 05 be
       0.03833011 0.0062136985 0.030353198 -0.13016088
0002e0 03 e1 92 bd 4f 72 f8 3d e6 d9 f7 3b ae 69 ba bb
       -0.07171824 0.12131178 0.0075638173 -0.0056888675
0002f0 ec 8c a1 3d 53 a7 0e be 28 14 0e bd 81 e6 5d bd
       0.07888207 -0.13931017 -0.03468719 -0.054174904
000300 32 e0 c9 bd 60 e0 ea 3c 9d c5 90 3c 79 49 b2 bd
       -0.09857215 0.028671443 0.017672354 -0.0870542
000310 24 d7 0b 3e fb 73 30 3d a3 b8 2c 3e 01 c0 98 3c
       0.13656288 0.043079358 0.16867308 0.018646242
000320 1c e3 76 bc 56 c7 c8 bb c8 20 01 be a8 bc b1 3c
       -0.0150687955 -0.0061272783 -0.12610161 0.021696404
000330 22 7a 9b 3c 1c ab 5c bd fb 71 5f bd c8 ec 37 bd
       0.018979136 -0.05387412 -0.05455206 -0.044903547
000340 f0 aa 02 be 58 0c 03 be c1 13 74 3d 45 17 0b 3d
       -0.1276052 -0.12797678 0.05958915 0.03395774
000350 62 78 f1 bd 25 4c a0 bb 09 d5 d5 bc 5e e6 62 3d
       -0.11790539 -0.0048918896 -0.02610256 0.055395477
000360 6d a3 2b 3d c4 6c 26 bd 18 7c 15 bd 82 a7 84 bd
       0.0419039 -0.04063107 -0.0364953 -0.06477262
000370 47 f6 ca bc a6 fe a5 bd a7 ca 88 bd 17 d6 4e 3d
       -0.024775637 -0.08105211 -0.06679278 0.05049714
000380 fb d3 e8 3c ad 32 c3 bd 70 47 28 bc 51 49 ed bd
       0.028421393 -0.0953115 -0.010270938 -0.115862496
000390 c3 e8 2d be c5 6c ea 3c b4 fd 65 bc ef 6c 5f bd
       -0.16983323 0.028616318 -0.014037538 -0.054547247
0003a0 cb 8c 7c 3c 16 d5 58 3d 2d 41 9c bd a6 ba 26 be
       0.015414427 0.05293759 -0.07629619 -0.16282138
0003b0 4b 80 e7 3d 70 bb 71 3c 48 75 1d be d3 6f d1 3d
       0.11303767 0.014754161 -0.1537677 0.10226407
0003c0 63 91 e1 3c 5b 14 b0 bd c1 05 00 3e d8 4c 0c 3d
       0.027535146 -0.085976325 0.12502195 0.03425297
0003d0 97 4e d1 3c a8 e3 76 3d 78 12 90 3c dc 5b 1b 3c
       0.02555017 0.060275704 0.017586932 0.00948235
0003e0 85 e5 97 bd 17 94 1f be ae d6 cd 3c 22 fa 38 bd
       -0.07416824 -0.15583836 0.025126781 -0.04516042
0003f0 4c 79 f3 3d a9 5d 63 bd 21 0d d6 bd 7d b0 cb bd
       0.1188837 -0.055509243 -0.10451723 -0.09945772

network_body._body_endoder.seq_layers.2.bias f4 [128]
000000 00 00 00 00 00 00 00 00 00 00 00 00 00 00 00 00
       0.0 0.0 0.0 0.0
000010 00 00 00 00 00 00 00 00 00 00 00 00 00 00 00 00
       0.0 0.0 0.0 0.0
000020 00 00 00 00 00 00 00 00 00 00 00 00 00 00 00 00
       0.0 0.0 0.0 0.0
000030 00 00 00 00 00 00 00 00 00 00 00 00 00 00 00 00
       0.0 0.0 0.0 0.0
000040 00 00 00 00 00 00 00 00 00 00 00 00 00 00 00 00
       0.0 0.0 0.0 0.0
000050 00 00 00 00 00 00 00 00 00 00 00 00 00 00 00 00
       0.0 0.0 0.0 0.0
000060 00 00 00 00 00 00 00 00 00 00 00 00 00 00 00 00
       0.0 0.0 0.0 0.0
000070 00 00 00 00 00 00 00 00 00 00 00 00 00 00 00 00
       0.0 0.0 0.0 0.0
000080 00 00 00 00 00 00 00 00 00 00 00 00 00 00 00 00
       0.0 0.0 0.0 0.0
000090 00 00 00 00 00 00 00 00 00 00 00 00 00 00 00 00
       0.0 0.0 0.0 0.0
0000a0 00 00 00 00 00 00 00 00 00 00 00 00 00 00 00 00
       0.0 0.0 0.0 0.0
0000b0 00 00 00 00 00 00 00 00 00 00 00 00 00 00 00 00
       0.0 0.0 0.0 0.0
0000c0 00 00 00 00 00 00 00 00 00 00 00 00 00 00 00 00
       0.0 0.0 0.0 0.0
0000d0 00 00 00 00 00 00 00 00 00 00 00 00 00 00 00 00
       0.0 0.0 0.0 0.0
0000e0 00 00 00 00 00 00 00 00 00 00 00 00 00 00 00 00
       0.0 0.0 0.0 0.0
0000f0 00 00 00 00 00 00 00 00 00 00 00 00 00 00 00 00
       0.0 0.0 0.0 0.0
000100 00 00 00 00 00 00 00 00 00 00 00 00 00 00 00 00
       0.0 0.0 0.0 0.0
000110 00 00 00 00 00 00 00 00 00 00 00 00 00 00 00 00
       0.0 0.0 0.0 0.0
000120 00 00 00 00 00 00 00 00 00 00 00 00 00 00 00 00
       0.0 0.0 0.0 0.0
000130 00 00 00 00 00 00 00 00 00 00 00 00 00 00 00 00
       0.0 0.0 0.0 0.0
000140 00 00 00 00 00 00 00 00 00 00 00 00 00 00 00 00
       0.0 0.0 0.0 0.0
000150 00 00 00 00 00 00 00 00 00 00 00 00 00 00 00 00
       0.0 0.0 0.0 0.0
000160 00 00 00 00 00 00 00 00 00 00 00 00 00 00 00 00
       0.0 0.0 0.0 0.0
000170 00 00 00 00 00 00 00 00 00 00 00 00 00 00 00 00
       0.0 0.0 0.0 0.0
000180 00 00 00 00 00 00 00 00 00 00 00 00 00 00 00 00
       0.0 0.0 0.0 0.0
000190 00 00 00 00 00 00 00 00 00 00 00 00 00 00 00 00
       0.0 0.0 0.0 0.0
0001a0 00 00 00 00 00 00 00 00 00 00 00 00 00 00 00 00
       0.0 0.0 0.0 0.0
0001b0 00 00 00 00 00 00 00 00 00 00 00 00 00 00 00 00
       0.0 0.0 0.0 0.0
0001c0 00 00 00 00 00 00 00 00 00 00 00 00 00 00 00 00
       0.0 0.0 0.0 0.0
0001d0 00 00 00 00 00 00 00 00 00 00 00 00 00 00 00 00
       0.0 0.0 0.0 0.0
0001e0 00 00 00 00 00 00 00 00 00 00 00 00 00 00 00 00
       0.0 0.0 0.0 0.0
0001f0 00 00 00 00 00 00 00 00 00 00 00 00 00 00 00 00
       0.0 0.0 0.0 0.0

action_model._continuous_distribution.log_sigma f4 [1, 2]
000000 00 00 00 00 00 00 00 00
       0.0 0.0

action_model._continuous_distribution.mu.weight f4 [2, 128]
000000 d0 c8 e8 bb ff 6a f4 bb 0f a4 a3 bb af 1c ce bc
       -0.007104017 -0.007459044 -0.0049939225 -0.025160162
000010 25 2a 81 3b 8a 21 27 3c 35 68 10 3c 4f 31 d6 bc
       0.0039417916 0.010200867 0.008813907 -0.026146559
000020 6a 26 04 3b da fe 15 3c 04 63 12 bb b3 9d cf 3c
       0.0020164498 0.009155 -0.002233685 0.025343752
000030 67 07 b8 3b e8 e3 f7 3c 62 97 92 3c 0a 45 1c ba
       0.005616117 0.030260041 0.01789445 -0.00059612154
000040 20 e6 ef 3c 9c 08 43 bc 92 6c d5 b9 20 08 54 3a
       0.029284537 -0.011903908 -0.00040707417 0.0008088369
000050 bf 01 5c 3c 30 1f 1b bc 93 ed 82 bc 2c 37 0c bc
       0.013428151 -0.009467885 -0.015982425 -0.008558076
000060 d8 11 54 3c 5f 66 a6 bc 90 ba 63 3b 0f 97 b4 3c
       0.012943707 -0.020312486 0.003474865 0.022044687
000070 72 d8 c7 39 a2 63 4f 3c c1 3f 85 bc 3b 9b 00 3d
       0.00038117502 0.012658032 -0.016265752 0.03139804
000080 f5 2e 7b bc e8 e6 d7 3b 33 c6 ba 3c f2 ec 3d bc
       -0.01533102 0.0065888055 0.022799587 -0.011592137
000090 43 cf a8 bc ac 85 8a bc e3 d9 82 3c 1a f6 5b 3c
       -0.020606643 -0.016909443 0.015973037 0.013425374
0000a0 b9 ec 1f 3b aa 8b be bc a3 37 65 3c 9b db 12 3d
       0.0024402572 -0.023259956 0.013990316 0.035853963
0000b0 9c fe 00 3c 6f 0e 06 bc a3 16 45 bb 07 dc e7 bb
       0.007873204 -0.008182152 -0.0030073307 -0.00707579
0000c0 6f 49 dc bb db be ce 3c e7 1e 68 3c 83 9b ac 3c
       -0.006722621 0.025237491 0.014167524 0.021070248
0000d0 85 b3 79 bc 24 e4 c4 bb 13 ec d3 3b ff e7 60 3c
       -0.015240555 -0.006008642 0.006467351 0.013727187
0000e0 a8 68 7b 3c 74 02 3d 3b 08 51 50 3c e2 50 5b bc
       0.015344776 0.0028840574 0.012714632 -0.013385983
0000f0 d0 4e f5 3b 11 26 24 bc 7a 1e 4c bc 44 95 a9 bc
       0.007486202 -0.010018841 -0.012458438 -0.020701058
000100 62 aa 6d 3b 13 6e a8 bc c5 c4 82 bb a0 8c 96 ba
       0.0036264886 -0.0205603 -0.003990742 -0.0011486001
000110 a5 a9 d7 3b 73 dd 91 bc 2d 21 fe bc c7 9e 4d 3c
       0.0065815025 -0.01780579 -0.031021679 0.0125500625
000120 2f bb 89 3a 0d d6 10 bc a3 f2 e4 bc 05 ae 7a bb
       0.0010508056 -0.008840096 -0.02794773 -0.0038250696
000130 28 ae a3 bc 22 98 0f 3c 9f fa 69 bd a8 f4 89 3c
       -0.019980505 0.008764299 -0.057123777 0.016840294
000140 22 bd f7 3b 6c 79 c0 3b 47 97 5f 3c bd 4b b8 3c
       0.007560388 0.0058738496 0.013646907 0.022497052
000150 14 3f b3 bb 50 3b 8e 3c b0 70 c8 bc 9f b9 d8 3b
       -0.005470166 0.017362267 -0.024467796 0.0066139246
000160 1a 24 0e 3d 6d dc e7 3c 88 35 c6 bc 3a 0e e6 bc
       0.034702398 0.02830335 -0.024195448 -0.028082956
000170 c9 18 8b bc 5c 23 b0 39 b7 65 8b 3c 60 84 62 3c
       -0.016979592 0.0003359568 0.017016275 0.013825506
000180 86 d9 3d bc ac c5 28 bc 82 de 21 3c ef 25 40 3b
       -0.011587506 -0.010301035 0.00987971 0.0029319485
000190 43 23 a4 bc 42 d6 41 bb 47 c1 c5 3c db 01 68 bc
       -0.020036345 -0.002957717 0.024140013 -0.014160599
0001a0 fd 62 db 3b 2b d4 10 bc 1f 18 85 3c 9b 1b 69 3c
       0.00669515 -0.008839647 0.016246853 0.014227773
0001b0 65 f9 12 bd 40 1f f9 3b ac b5 0b 3c 97 d7 59 3c
       -0.035882372 0.0076026022 0.008527201 0.0132960295
0001c0 93 df c4 bb 17 29 85 3c 73 f0 b4 3c 05 b6 79 3a
       -0.0060080974 0.016254945 0.022087311 0.0009525719
0001d0 9c cc 91 bc 00 6a 0e bd f1 79 09 bd 9f a8 61 bb
       -0.01779776 -0.03476906 -0.033563558 -0.0034432781
0001e0 90 a0 d6 bb 39 c2 91 3c 4f 8a e5 bc 01 27 cb bc
       -0.0065499023 0.017792808 -0.028020052 -0.024798872
0001f0 47 55 bf bc 60 24 c4 3b b6 4f 02 3c d8 fb 95 bc
       -0.023356093 0.0059857816 0.007953575 -0.018308565
000200 c8 8d e0 3c a7 83 44 3c cf 20 9c 3c 8c 6e 26 bc
       0.027411357 0.011994279 0.019058613 -0.010158192
000210 7d 98 f1 3c af f8 30 3d b7 20 77 3c 7f 6a c6 3c
       0.029491657 0.043205913 0.015083483 0.024220703
000220 85 9e 8a bb a4 f1 2a 3c 6a 88 21 3c 45 b1 dd bb
       -0.004230323 0.010433588 0.009859184 -0.006765517
000230 5d d2 a0 bc d9 34 8a bb b7 3e 90 bc 82 ba 03 3c
       -0.019631559 -0.0042177257 -0.01760803 0.008040072
000240 b3 ea 9c bc 79 c2 89 3b c3 59 95 3c 9d 06 85 3c
       -0.019154882 0.004204091 0.018231278 0.016238505
000250 2a 4b 84 3a 29 f4 96 3b 05 d1 f4 ba 85 b7 e1 bb
       0.0010093201 0.004606743 -0.0018678015 -0.0068883323
000260 30 20 73 bc d8 29 78 3c e7 82 83 3c 4f 24 49 3c
       -0.014839217 0.015146695 0.01605363 0.012276723
000270 25 3a 19 3d 86 e9 b6 bc 34 11 ad bb 5f e6 ee 3b
       0.037408967 -0.02232815 -0.005281592 0.007290646
000280 6d d3 7c bc 4f 7b c0 3c 4c fb 49 bd e7 58 4d 3c
       -0.015431267 0.023496298 -0.04931192 0.012533403
000290 8b c2 22 bc 1f c6 a9 bc a2 c8 18 3d 18 08 5f bc
       -0.009934078 -0.020724354 0.037300713 -0.01361277
0002a0 c3 0f 83 bc 38 7c b1 3c 8c 96 8e 3c d8 e6 6e bc
       -0.015998727 0.021665677 0.01740577 -0.014581405
0002b0 c5 0f ef bb 5a e5 be 3b f6 8f 8f bb 3b 51 a1 bc
       -0.007295581 0.0058256807 -0.004381175 -0.019692054
0002c0 d0 7e 09 3c d3 db c5 bc 62 22 3c bc 84 f7 84 3c
       0.008392051 -0.024152672 -0.011482807 0.016231306
0002d0 23 37 23 bc bc 7e 9b bc 94 ff 31 3c 3b bc 84 bb
       -0.009961876 -0.01898133 0.010864157 -0.004050759
0002e0 e7 43 20 3b e2 dc d3 3c cc 6b 20 3c 0a 8e 5a bb
       0.0024454535 0.025862161 0.009791326 -0.0033348822
0002f0 df 2b a8 bc d8 67 3e bc e7 85 40 3c 43 ab d5 3b
       -0.020528732 -0.011621438 0.011750675 0.00652066
000300 4d 8a 97 3c 3d 37 5c bc a1 da 1f bd 2a 9f 5c 3b
       0.018498564 -0.013440904 -0.03902686 0.0033664205
000310 5b f4 79 bb bf 36 0f bd 37 5e b8 3c 9c e9 87 bc
       -0.0038140032 -0.03496432 0.022505863 -0.016590886
000320 1d de 43 bc 3c 06 a0 bc c0 7b 09 3c 0b 57 bf 3c
       -0.011954811 -0.019534223 0.008391321 0.023356935
000330 c0 9b 68 3c 4c 1e b4 bc ac 20 a2 3a 22 c3 90 3c
       0.01419729 -0.021987103 0.0012369356 0.017671172
000340 61 d1 9f bc ba c8 e0 3b af 34 26 bc 84 74 17 3c
       -0.01950902 0.006859866 -0.010144397 0.009244088
000350 2b 44 ad 3b ba a3 9a 3c 60 64 f3 3a 02 39 ae bc
       0.0052876673 0.018876899 0.0018569343 -0.021267418
000360 93 9a 37 bc 06 a0 1c 3d 8a c3 9d bb 42 17 56 bd
       -0.011206287 0.038238548 -0.00481457 -0.052268274
000370 35 39 17 bc df 76 18 bc 12 a9 94 ba c2 5e d2 ba
       -0.009229948 -0.009305685 -0.0011341891 -0.0016049969
000380 06 c2 01 3d 14 c3 a2 3c 7b 12 00 3c c2 91 a5 bc
       0.031679176 0.019868411 0.007816906 -0.020211104
000390 af 43 1e 3b 6d 9b 26 bd 1b 7b 91 3c 8d 61 f9 bb
       0.002414923 -0.04067557 0.017758897 -0.007610506
0003a0 30 5a 54 3c b3 e3 ea 3c c7 5a e7 3c 5a 4c 26 bc
       0.0129609555 0.028673029 0.028241528 -0.01015004
0003b0 d4 67 11 bc 36 f5 33 bb 99 86 2b bd 13 81 17 bd
       -0.008874852 -0.002745939 -0.04187641 -0.03698833
0003c0 9b 5c 8b bb b3 1b 30 bc f0 18 d2 ba 8c 75 26 3c
       -0.004252983 -0.0107487915 -0.001602916 0.010159861
0003d0 60 e2 ca 3c c0 1f a4 3c 97 20 79 3c ed 5b 50 3b
       0.024766147 0.02003467 0.015205524 0.0031793073
0003e0 f6 23 41 bc eb cb 16 3c 6f e8 84 bc 13 47 1f 3c
       -0.011788359 0.009203891 -0.016224114 0.009721535
0003f0 a7 11 47 3c 6f 80 62 bc c5 af 5e bc 39 92 47 bc
       0.012150205 -0.013824566 -0.013591711 -0.012180858

action_model._continuous_distribution.mu.bias f4 [2]
000000 00 00 00 00 00 00 00 00
       0.0 0.0

network_body.observation_encoder.processors.0.normalizer.running_mean f4 [6]
000000 10 93 b3 ba 1f 17 a6 be 49 8a 59 3f 68 c8 9f be
       -0.0013700444 -0.32439515 0.8497663 -0.31207585
000010 e9 eb 54 ba 66 d9 c0 3d
       -0.00081223116 0.094164655

network_body.observation_encoder.processors.0.normalizer.running_variance f4 [6]
000000 7b 78 95 46 17 1f 83 40 23 89 24 46 e6 e5 3e 46
       19132.24 4.097545 10530.284 12217.475
000010 bb c0 8f 3f d1 31 fd 45
       1.1230692 8102.227

network_body.processors.0.normalizer.running_mean f4 [6]
000000 10 93 b3 ba 1f 17 a6 be 49 8a 59 3f 68 c8 9f be
       -0.0013700444 -0.32439515 0.8497663 -0.31207585
000010 e9 eb 54 ba 66 d9 c0 3d
       -0.00081223116 0.094164655

network_body.processors.0.normalizer.running_variance f4 [6]
000000 7b 78 95 46 17 1f 83 40 23 89 24 46 e6 e5 3e 46
       19132.24 4.097545 10530.284 12217.475
000010 bb c0 8f 3f d1 31 fd 45
       1.1230692 8102.227

network_body._body_endoder.seq_layers.0.weight f4 [128, 6]
000000 b1 1e 90 3e 2d 34 09 3f 94 6c 2f be d3 ab c9 3e
       0.28148416 0.5359524 -0.17131263 0.39388904
000010 d7 e9 8d be c2 ab 0b 3f a5 03 90 bd 0c 33 75 3e
       -0.27717468 0.54558957 -0.07031945 0.23945254
000020 3e 5d d0 be 54 62 91 3b bb 21 62 3d 7b 2e 62 be
       -0.40696138 0.0044367705 0.05520795 -0.22088043
000030 05 1a 6d be d2 26 2b bd b1 28 1c 3e d9 38 05 3e
       -0.23154457 -0.04178507 0.15249898 0.13009967
000040 fc c0 34 3f 5f 0b 37 bf 82 d3 00 3f be aa 86 3e
       0.7060697 -0.71501726 0.50322735 0.2630214
000050 c1 c7 93 3e 68 a1 c2 be 26 31 56 be a5 8a 72 bf
       0.28863338 -0.38013768 -0.20917186 -0.94742805
000060 f0 49 8c 3d de 24 80 be 74 80 56 be d2 5b de be
       0.0685004 -0.25028127 -0.20947438 -0.43429428
000070 6c ae 31 3e 78 c4 64 be bd fb 49 3e 78 e5 26 be
       0.17351693 -0.22340572 0.19724937 -0.16298473
000080 07 a4 b6 3e cd cf 0d bd 10 a6 93 3e fc d3 7b 3d
       0.35672018 -0.034622002 0.28837633 0.06148146
000090 bb 28 c6 3c 85 ac 91 3e 16 81 a0 be 2c 37 89 3e
       0.024189344 0.28451934 -0.31348485 0.26799905
0000a0 b2 23 3e 3e 2b 49 f5 3d 62 b4 d8 be 15 6f 6d bd
       0.18568304 0.11976846 -0.4232512 -0.057967264
0000b0 22 5f 0f be a3 d0 6a 3e cc 92 c4 bd 1a d6 6a 3e
       -0.14001134 0.22931151 -0.09598312 0.22933236
0000c0 66 5f 4b 3f 72 85 9a 3e e4 32 94 3e 29 52 3c 3f
       0.7944244 0.30179936 0.28945076 0.73562866
0000d0 78 2e 02 3f 9f a2 5b be c1 a0 9d 3e 83 51 86 3e
       0.50852156 -0.21448754 0.30786708 0.26234064
0000e0 7c 2c ca be cd 91 49 3f 92 41 6d 3d 97 17 48 bd
       -0.39487064 0.787381 0.05792386 -0.048850622
0000f0 d5 a1 7d 3e e3 8d 19 bf 0f c4 d9 3e c8 2e ae be
       0.24768765 -0.59982127 0.42532393 -0.34020066
000100 95 e2 89 3e e4 ec d7 be 1c 93 54 be ba f7 bb be
       0.2693068 -0.4217292 -0.20759243 -0.36712438
000110 13 91 14 3d a0 ca a7 be 0e f4 d4 be 38 19 6f 3e
       0.036271166 -0.32771778 -0.4159245 0.23349464
000120 23 08 00 bf 81 3b 80 3e ce 3c 43 be 84 64 58 3e
       -0.50012416 0.25045398 -0.19066164 0.21132094
000130 42 d0 e4 bc 65 fa 87 3f b1 f8 27 bf 76 24 46 3d
       -0.027931336 1.0623289 -0.6561385 0.048374616
000140 67 1a 50 be dd 45 b1 be 6a 21 04 bf 6e 18 7d 3e
       -0.20322572 -0.34623614 -0.51613486 0.2471635
000150 c5 fb 04 3f 6b 8d 91 3e 9a f4 71 3d 73 2c 0f 3f
       0.5194667 0.28428206 0.05907116 0.559272
000160 83 64 a6 bd dd 11 4d be de d8 15 3e 8f 43 e0 3e
       -0.0812464 -0.20026346 0.1463351 0.43801543
000170 37 9f 0d 3e 52 63 49 3e 88 30 58 be 75 f1 a1 3f
       0.13830267 0.19666794 -0.21112263 1.2651812
000180 43 38 0d bf ef 51 31 bf 39 54 0c bf a9 78 f1 be
       -0.55163974 -0.69265646 -0.54816014 -0.4716237
000190 d0 5d 60 3f 4f b0 21 be 1c 11 0f 3f d7 01 20 3f
       0.87643147 -0.15789913 0.5588548 0.6250281
0001a0 d3 07 9b 3e 90 2e b6 3d 2c a0 43 bd 03 d9 17 3d
       0.30279407 0.088956 -0.047760174 0.037072193
0001b0 6a 53 21 bf 1e f8 fa be 53 ed 1d bf 79 03 3f 3e
       -0.63017905 -0.49017423 -0.61690253 0.18653668
0001c0 86 61 4a bd da 45 09 be f0 a5 b8 3e 6d 6b 3d 3f
       -0.04940941 -0.13405553 0.360641 0.73992044
0001d0 d0 68 02 bf 21 83 01 3e 91 9a 37 be 25 a5 09 be
       -0.5094118 0.12647678 -0.17930056 -0.13441904
0001e0 f4 69 e9 3e b7 e3 1a bf 70 a3 e7 3d 49 10 c1 3e
       0.45588648 -0.60503715 0.1131047 0.37707737
0001f0 7e b0 ca be 75 d8 9f be 8a 7b 24 be da f9 c6 be
       -0.39587778 -0.3121983 -0.16062751 -0.38862497
000200 f0 4f c1 3d 5f ba d7 bd 2a f9 92 bd 3c 48 cb be
       0.09439075 -0.10533594 -0.071764305 -0.39703548
000210 8e 34 b0 bd 0e ca 60 be fa cb 83 bd d5 9a 00 3f
       -0.08603774 -0.21952078 -0.0643539 0.50236255
000220 bc eb 49 be d6 fa b6 be b9 c8 9a be 8f 7f b2 3d
       -0.19718832 -0.35738248 -0.30231264 0.08715736
000230 1c fd 49 3e a0 c8 4f be ba b6 34 3f 65 6b 5f 3e
       0.1972546 -0.20291376 0.7059132 0.21818312
000240 36 89 89 3e bb 4a 0d 3d 91 dc 73 bd 32 00 75 be
       0.26862496 0.034495097 -0.05953652 -0.23925856
000250 7b 89 94 3d fe 42 3e 3f 3c 9e 78 3e 59 14 69 3f
       0.07252785 0.7432097 0.24279112 0.91046673
000260 a4 e4 78 3e f0 9e 21 3d ca b4 0a bf 5f d3 86 be
       0.2430597 0.039458215 -0.5418211 -0.26333138
000270 3b ca 98 be 17 2d e9 3e 8d 2f c5 bd 1d f0 b0 bd
       -0.2984179 0.45542213 -0.0962821 -0.08639548
000280 bb 8b d8 3d d7 02 36 3e e3 89 0b 3f c1 69 aa 3e
       0.105735265 0.17774521 0.54507273 0.3328381
000290 7e 2a 5d 3e 2a 3e ff be 2b ab 59 3e 75 d4 cd 3d
       0.2159824 -0.49852115 0.21256702 0.100502886
0002a0 fc 93 00 bf 94 f1 7a be 86 50 e5 be 04 4a 1b 3e
       -0.50225806 -0.24506217 -0.44787997 0.15164953
0002b0 71 23 ff be e6 85 ab 3e 86 86 95 3e fd 7b d8 bb
       -0.49831727 0.33500594 0.29204196 -0.0066065774
0002c0 da da 69 bf 8a 40 d5 3e 6b 02 f6 be 24 50 93 bf
       -0.91349566 0.41650802 -0.4804872 -1.1508832
0002d0 20 ab dd bd c1 39 60 3f 32 da c5 3e 70 cf ef 3d
       -0.10823655 0.87588125 0.38643032 0.117094874
0002e0 af 6c 64 3f 7b b3 23 3f ce e0 40 3f 17 1f 1c 3e
       0.8922834 0.6394574 0.75343025 0.15246235
0002f0 3d 11 bf 3e fc c5 e8 be 1f bb 44 be 21 52 91 be
       0.3731784 -0.4546355 -0.19212006 -0.28382972
000300 75 aa dd be 27 e2 48 bf 51 c9 9f be cb 3e 64 bf
       -0.4329411 -0.7847008 -0.3120828 -0.89158314
000310 d2 df c8 be fa 2b a8 bb 6c c3 d2 be b5 08 b8 3e
       -0.3923326 -0.0051321955 -0.4116472 0.35944143
000320 a1 43 d0 be 37 28 7f be ac 75 09 bf f9 50 fe 3e
       -0.40676597 -0.24917684 -0.5369518 0.49671152
000330 50 fd b5 3e 94 55 db bd bb 1b 87 3e b8 4a a8 be
       0.35544825 -0.10709682 0.26388344 -0.32869506
000340 aa c6 9f 3e 7d 1b 85 be 71 c5 dd be c5 60 a7 be
       0.31206256 -0.25997534 -0.43314698 -0.32691017
000350 1f 4a af bc 18 cc 9c be c4 f5 c2 3e 98 19 17 3f
       -0.021397648 -0.3062446 0.3807813 0.5902343
000360 2a d2 fe 3d 69 dd 45 3f 62 ac 7b be 57 da da be
       0.12442429 0.7729097 -0.24577478 -0.42744705
000370 5c a2 60 3e 45 32 20 3f 3f 27 9e be e4 94 a4 3c
       0.21936935 0.62576705 -0.30889317 0.020090528
000380 06 ac 79 3e a3 54 03 3f b1 85 cc 3e 50 88 03 bf
       0.24382028 0.5130102 0.39945748 -0.5137987
000390 34 d1 05 be bc e8 22 be 5f 98 01 3f 61 fa 0e bf
       -0.13068086 -0.15909094 0.50623125 -0.558508
0003a0 46 f2 e0 3d bc 20 55 3e 1f 6b 93 be ce 27 06 bd
       0.1098371 0.20813268 -0.28792664 -0.032752804
0003b0 91 0b ed be 76 7b c2 3e 46 10 a5 be fe 9b 24 bf
       -0.46297887 0.37984818 -0.32238978 -0.64300525
0003c0 b6 83 f2 be 54 76 c2 bc 9c 2c 9a bd 9a a2 4e bd
       -0.47366112 -0.023738064 -0.0752804 -0.050448038
0003d0 05 0d a8 3e ed 41 0f bf 62 0b 16 3d c5 e2 e0 3e
       0.32822433 -0.5595997 0.03663195 0.4392301
0003e0 56 62 03 bf 65 45 8e 3c 4b d3 72 be 27 13 92 be
       -0.51321924 0.017367074 -0.23713414 -0.28530237
0003f0 8e 0a 0b 3f c1 57 f9 3e cd 4e 6a be df ab dc 3e
       0.5431298 0.48699763 -0.22881623 0.43099877

network_body._body_endoder.seq_layers.0.bias f4 [128]
000000 00 00 00 00 00 00 00 00 00 00 00 00 00 00 00 00
       0.0 0.0 0.0 0.0
000010 00 00 00 00 00 00 00 00 00 00 00 00 00 00 00 00
       0.0 0.0 0.0 0.0
000020 00 00 00 00 00 00 00 00 00 00 00 00 00 00 00 00
       0.0 0.0 0.0 0.0
000030 00 00 00 00 00 00 00 00 00 00 00 00 00 00 00 00
       0.0 0.0 0.0 0.0
000040 00 00 00 00 00 00 00 00 00 00 00 00 00 00 00 00
       0.0 0.0 0.0 0.0
000050 00 00 00 00 00 00 00 00 00 00 00 00 00 00 00 00
       0.0 0.0 0.0 0.0
000060 00 00 00 00 00 00 00 00 00 00 00 00 00 00 00 00
       0.0 0.0 0.0 0.0
000070 00 00 00 00 00 00 00 00 00 00 00 00 00 00 00 00
       0.0 0.0 0.0 0.0
000080 00 00 00 00 00 00 00 00 00 00 00 00 00 00 00 00
       0.0 0.0 0.0 0.0
000090 00 00 00 00 00 00 00 00 00 00 00 00 00 00 00 00
       0.0 0.0 0.0 0.0
0000a0 00 00 00 00 00 00 00 00 00 00 00 00 00 00 00 00
       0.0 0.0 0.0 0.0
0000b0 00 00 00 00 00 00 00 00 00 00 00 00 00 00 00 00
       0.0 0.0 0.0 0.0
0000c0 00 00 00 00 00 00 00 00 00 00 00 00 00 00 00 00
       0.0 0.0 0.0 0.0
0000d0 00 00 00 00 00 00 00 00 00 00 00 00 00 00 00 00
       0.0 0.0 0.0 0.0
0000e0 00 00 00 00 00 00 00 00 00 00 00 00 00 00 00 00
       0.0 0.0 0.0 0.0
0000f0 00 00 00 00 00 00 00 00 00 00 00 00 00 00 00 00
       0.0 0.0 0.0 0.0
000100 00 00 00 00 00 00 00 00 00 00 00 00 00 00 00 00
       0.0 0.0 0.0 0.0
000110 00 00 00 00 00 00 00 00 00 00 00 00 00 00 00 00
       0.0 0.0 0.0 0.0
000120 00 00 00 00 00 00 00 00 00 00 00 00 00 00 00 00
       0.0 0.0 0.0 0.0
000130 00 00 00 00 00 00 00 00 00 00 00 00 00 00 00 00
       0.0 0.0 0.0 0.0
000140 00 00 00 00 00 00 00 00 00 00 00 00 00 00 00 00
       0.0 0.0 0.0 0.0
000150 00 00 00 00 00 00 00 00 00 00 00 00 00 00 00 00
       0.0 0.0 0.0 0.0
000160 00 00 00 00 00 00 00 00 00 00 00 00 00 00 00 00
       0.0 0.0 0.0 0.0
000170 00 00 00 00 00 00 00 00 00 00 00 00 00 00 00 00
       0.0 0.0 0.0 0.0
000180 00 00 00 00 00 00 00 00 00 00 00 00 00 00 00 00
       0.0 0.0 0.0 0.0
000190 00 00 00 00 00 00 00 00 00 00 00 00 00 00 00 00
       0.0 0.0 0.0 0.0
0001a0 00 00 00 00 00 00 00 00 00 00 00 00 00 00 00 00
       0.0 0.0 0.0 0.0
0001b0 00 00 00 00 00 00 00 00 00 00 00 00 00 00 00 00
       0.0 0.0 0.0 0.0
0001c0 00 00 00 00 00 00 00 00 00 00 00 00 00 00 00 00
       0.0 0.0 0.0 0.0
0001d0 00 00 00 00 00 00 00 00 00 00 00 00 00 00 00 00
       0.0 0.0 0.0 0.0
0001e0 00 00 00 00 00 00 00 00 00 00 00 00 00 00 00 00
       0.0 0.0 0.0 0.0
0001f0 00 00 00 00 00 00 00 00 00 00 00 00 00 00 00 00
       0.0 0.0 0.0 0.0

network_body._body_endoder.seq_layers.2.weight f4 [128, 128]
000000 c7 0b 30 be 35 ba 4a be 7b ac 4d bd 8d a3 5e bd
       -0.17191993 -0.19797595 -0.05021332 -0.054355193
000010 9d d9 a0 bc 9c 1b 98 3d fb 5a ae 3d bc cc 04 bd
       -0.019635016 0.07427141 0.08513447 -0.032421812
000020 47 12 2c bd 3a 57 49 bc fb 16 f9 3d 73 8d a7 bd
       -0.042009618 -0.012288863 0.12162586 -0.08181276
000030 c8 b7 95 3b 5d 2d 91 3d f5 fc a9 3d eb 56 6d 3d
       0.0045690276 0.070887305 0.08300201 0.05794422
000040 d0 43 88 3d c9 7a a5 3d da a1 fd 3d 5b 71 3e 3d
       0.06653559 0.0808006 0.12384386 0.046494823
000050 2c da a2 3d a9 ea 14 3e b9 16 ae bd 73 1e 49 bd
       0.07951769 0.14542641 -0.08500428 -0.049101304
000060 f5 97 c8 bd de 3b 00 3c ba a6 cb bb 9b dc b0 3d
       -0.097946085 0.007826773 -0.0062149437 0.08635827
000070 32 6c f9 3c 4d 9a 85 3d 79 76 f2 bd 48 c1 a9 bc
       0.0304471 0.06523571 -0.11839003 -0.020722046
000080 a7 14 53 3d 45 10 26 3d 82 27 58 bc 4b f0 c4 3c
       0.051533367 0.04054286 -0.013193013 0.024040362
000090 5c 8b 60 bd 0f ad 6e bc 69 5a 03 3d ff 9c 0c 3e
       -0.054820403 -0.014567628 0.032068644 0.13731764
0000a0 54 69 17 3d b2 8d a8 bd c8 b0 d6 bd 77 5f 09 bd
       0.036965683 -0.08230151 -0.10482937 -0.033538308
0000b0 ea 54 1d bd ce 8a 05 be b6 31 ec 3c 6b ac f7 bd
       -0.03841106 -0.13041231 0.028832298 -0.12093433
0000c0 5d 11 b4 bc 6f ca 9b 3c 1b b0 67 3d bb 4f 35 3d
       -0.021980936 0.019017426 0.05656443 0.04426549
0000d0 48 c1 c3 bd cd 2d 1e 3d 99 41 b1 3d da 34 ce 3d
       -0.0955835 0.038617898 0.0865509 0.100686744
0000e0 de 72 3b 3c 97 c2 b0 bc 0d 7b 1f bd 86 eb df bd
       0.011440961 -0.021577163 -0.03893571 -0.109335944
0000f0 55 a5 63 3d a1 9a 25 bd 5c 05 d4 3d ff 06 c3 3d
       0.055577595 -0.04043067 0.10352585 0.09522819
000100 ea 4d ba bd 93 c2 8f bb 04 34 b2 3c 51 f7 2e bd
       -0.09096892 -0.0043872087 0.021753319 -0.042716328
000110 75 f9 aa bd 24 48 a6 bd 2b 37 e6 3b a5 b9 f9 3c
       -0.083483614 -0.081192285 0.0070256195 0.03048403
000120 01 2c f1 3d 62 42 d3 3d 16 3b b6 bc 6f 88 53 bb
       0.11775971 0.10315396 -0.022244971 -0.0032277366
000130 82 2d 33 3e e7 9d 4d be 6a ce 02 bd 17 1e c9 3d
       0.17497829 -0.20079766 -0.031935133 0.09820192
000140 e8 2e 3b be 3a e6 58 3d 7d 44 80 bd 31 ea fb 3d
       -0.18279612 0.052953936 -0.06263063 0.12300528
000150 aa a3 4f 3d 76 a0 1f 3e 09 5b 27 3e 48 9b 9a 3d
       0.05069319 0.15588555 0.16343321 0.07549149
000160 3b 60 2e bc 38 57 13 3e 76 34 6d bc a1 2c a4 3d
       -0.01064306 0.1438874 -0.01447784 0.08016325
000170 6b 1d 0f 3e 27 88 02 bd d6 04 ad 3c c4 4d a1 bd
       0.13976066 -0.031868126 0.02112047 -0.07876161
000180 10 2e 1b 3d 00 6a 01 bc 8d 3a 26 be 23 de 50 bd
       0.037885725 -0.0078988075 -0.16233273 -0.050993096
000190 62 d7 50 bd 21 75 e8 bc 38 e9 65 bd d3 15 2b 3e
       -0.050986655 -0.028376164 -0.056130618 0.16707544
0001a0 14 84 94 bd ff 35 05 be ff 49 e1 3d 42 8a be ba
       -0.072517544 -0.13008879 0.11000442 -0.0014537054
0001b0 38 6a 8a 39 a3 5e 9d 3d df 97 6b bc d6 9f 6c 3d
       0.0002640055 0.07684066 -0.014379471 0.05776962
0001c0 7d 4f ac 3c 3f b1 38 bd 14 7b 9a 3c 01 2d 2b be
       0.021033997 -0.04509091 0.018857516 -0.16716386
0001d0 4d c8 24 bc 36 c5 36 3d c7 88 06 3e ee 3d d4 bd
       -0.010057521 0.04462167 0.13138114 -0.10363375
0001e0 ac 81 02 be 68 2f 9e 3d f1 c0 78 bc 0c ea 33 bd
       -0.12744778 0.07723886 -0.01518272 -0.043924376
0001f0 85 69 86 bc 49 ba 05 3e d9 77 5a bd 30 d0 8e 3d
       -0.016407738 0.13059343 -0.053336952 0.06973302
000200 ca 0d 03 3e e0 a0 f9 bd 39 a4 2b 3d c4 71 45 3d
       0.12798229 -0.121888876 0.04190466 0.0482042
000210 b7 11 cc bd 6c c7 ea 3c 4b ae 3f bc 36 ed 54 bd
       -0.09964316 0.028659545 -0.0116992695 -0.051984034
000220 16 2b 64 3d 24 af b8 bc 09 79 38 be 60 9e cc bd
       0.055705152 -0.022544451 -0.18014921 -0.09991145
000230 85 cf 80 3d 6b 19 36 3c 49 a6 41 bd 34 a7 32 3e
       0.06289581 0.011114459 -0.047277723 0.17446595
000240 05 36 dd 3d 5a 9b da bc 87 59 9a bd 62 97 18 3c
       0.10801319 -0.026685406 -0.07536607 0.009313436
000250 0f 68 1d bd 1e d8 9d bc 11 10 59 3c bb 9b 14 bd
       -0.038429316 -0.019268092 0.013248459 -0.03628133
000260 61 6d ab bd 36 36 a4 3c 15 7e 5f bd 23 21 30 3d
       -0.08370472 0.020045381 -0.0545636 0.04300035
000270 d1 2c c6 bd 13 80 8a 3d 15 cf 25 bd c8 0b 54 be
       -0.09676517 0.067627095 -0.040480692 -0.20707619
000280 90 7a f1 bd 5a 85 9e 3d 08 40 0e 3d bb e7 82 bc
       -0.11790955 0.077402785 0.034729034 -0.015979638
000290 6e 81 65 3d 8d 43 03 be 7b 6f 0a 3d ae d2 93 3d
       0.056031637 -0.12818737 0.033797722 0.07217918
0002a0 96 f0 98 3d 4c f5 21 3e 8e 3d 97 bc 27 b7 83 bd
       0.07467763 0.1581623 -0.018461969 -0.06431418
0002b0 d1 e6 49 3d a4 3c a3 bc bd f9 6c 3d 15 cf b9 bd
       0.04929239 -0.019926377 0.057855356 -0.09072701
0002c0 ab 11 80 bc 3b 5b 16 be e3 24 41 3c f7 f2 d3 3c
       -0.015633425 -0.14683239 0.01178858 0.02587269
0002d0 0b 61 e9 bd f8 21 c6 3d 1a 0e 45 3d d9 e8 82 3a
       -0.113954626 0.09674448 0.04810915 0.0009987607
0002e0 69 b7 dd 3d f9 ac 0a 3c ca 28 0c 3d 99 80 0e 3b
       0.10825998 0.008464091 0.034218587 0.002174413
0002f0 9a 79 38 3e 66 07 17 3d 87 46 e2 3c e7 ae b3 3b
       0.18015137 0.03687229 0.02762152 0.0054834965
000300 a1 7c 01 bd 7b eb 64 3e 96 20 81 3c e1 50 31 3d
       -0.031612996 0.22355454 0.015762608 0.043290023
000310 62 ed 87 3d dc fa ba 3d 8c 00 b4 3c a4 82 c1 3d
       0.06637074 0.09129879 0.021972917 0.09448746
000320 b2 70 b0 bd 0e 06 2e 3d 2c 12 54 b9 17 53 ae 3d
       -0.08615245 0.042486243 -0.00020224665 0.08511942
000330 fa c4 92 3d 5c 08 83 3d d3 50 46 3d 37 65 25 bc
       0.071664765 0.06398079 0.048416924 -0.010094932
000340 27 99 48 bd 30 4d 04 bc 3b 66 b7 bd c5 63 2b bc
       -0.048974182 -0.008075044 -0.08955046 -0.010460799
000350 66 fc 31 bd a4 5e 1a bd 44 73 8b 3d cb 57 18 3e
       -0.043453597 -0.037687913 0.068090945 0.1487724
000360 7a df 8b bd 5e d1 89 bc a0 ba f2 3d fa be 47 bc
       -0.06829734 -0.016823467 0.11852002 -0.012191528
000370 02 cf 91 bd 94 33 03 3e 54 47 6a 3b aa 13 3c bd
       -0.07119562 0.12812644 0.0035748081 -0.04591719
000380 51 9f ce 3d c9 0a 23 3e d4 6d 9c 3d a4 25 68 3d
       0.10088981 0.15922083 0.076381356 0.056676522
000390 6c 33 00 3d a9 35 f0 3d f0 5b f8 3d 22 67 03 3d
       0.03129904 0.11728985 0.12126911 0.032080777
0003a0 ee c2 5b 3c 09 66 25 bc 04 e3 cd bd 01 1f 40 3e
       0.013413174 -0.010095128 -0.100530654 0.18761827
0003b0 d1 d9 5c 3d 46 a9 5c 3d a7 4b 19 3d 89 41 36 3e
       0.053918663 0.05387237 0.037425663 0.17798437
0003c0 88 27 dd 3d 8e cf f6 3c 67 c0 9b 3d b0 9a 39 bd
       0.107985556 0.030128267 0.07605057 -0.045313537
0003d0 c7 15 f4 3b a4 85 79 bb 69 f0 a6 bc b4 3f 52 be
       0.007448885 -0.003807404 -0.020378308 -0.20532113
0003e0 3d a8 e2 3c 6f 8a 8b 3c ed 71 e0 3c 4c a8 c6 bc
       0.027668113 0.017033784 0.027398074 -0.024250172
0003f0 62 f4 c6 3b 3a e6 4f 3d 3e dc 3b bd 47 a7 eb 3d
       0.006071613 0.05075667 -0.045864336 0.11506515

network_body._body_endoder.seq_layers.2.bias f4 [128]
000000 00 00 00 00 00 00 00 00 00 00 00 00 00 00 00 00
       0.0 0.0 0.0 0.0
000010 00 00 00 00 00 00 00 00 00 00 00 00 00 00 00 00
       0.0 0.0 0.0 0.0
000020 00 00 00 00 00 00 00 00 00 00 00 00 00 00 00 00
       0.0 0.0 0.0 0.0
000030 00 00 00 00 00 00 00 00 00 00 00 00 00 00 00 00
       0.0 0.0 0.0 0.0
000040 00 00 00 00 00 00 00 00 00 00 00 00 00 00 00 00
       0.0 0.0 0.0 0.0
000050 00 00 00 00 00 00 00 00 00 00 00 00 00 00 00 00
       0.0 0.0 0.0 0.0
000060 00 00 00 00 00 00 00 00 00 00 00 00 00 00 00 00
       0.0 0.0 0.0 0.0
000070 00 00 00 00 00 00 00 00 00 00 00 00 00 00 00 00
       0.0 0.0 0.0 0.0
000080 00 00 00 00 00 00 00 00 00 00 00 00 00 00 00 00
       0.0 0.0 0.0 0.0
000090 00 00 00 00 00 00 00 00 00 00 00 00 00 00 00 00
       0.0 0.0 0.0 0.0
0000a0 00 00 00 00 00 00 00 00 00 00 00 00 00 00 00 00
       0.0 0.0 0.0 0.0
0000b0 00 00 00 00 00 00 00 00 00 00 00 00 00 00 00 00
       0.0 0.0 0.0 0.0
0000c0 00 00 00 00 00 00 00 00 00 00 00 00 00 00 00 00
       0.0 0.0 0.0 0.0
0000d0 00 00 00 00 00 00 00 00 00 00 00 00 00 00 00 00
       0.0 0.0 0.0 0.0
0000e0 00 00 00 00 00 00 00 00 00 00 00 00 00 00 00 00
       0.0 0.0 0.0 0.0
0000f0 00 00 00 00 00 00 00 00 00 00 00 00 00 00 00 00
       0.0 0.0 0.0 0.0
000100 00 00 00 00 00 00 00 00 00 00 00 00 00 00 00 00
       0.0 0.0 0.0 0.0
000110 00 00 00 00 00 00 00 00 00 00 00 00 00 00 00 00
       0.0 0.0 0.0 0.0
000120 00 00 00 00 00 00 00 00 00 00 00 00 00 00 00 00
       0.0 0.0 0.0 0.0
000130 00 00 00 00 00 00 00 00 00 00 00 00 00 00 00 00
       0.0 0.0 0.0 0.0
000140 00 00 00 00 00 00 00 00 00 00 00 00 00 00 00 00
       0.0 0.0 0.0 0.0
000150 00 00 00 00 00 00 00 00 00 00 00 00 00 00 00 00
       0.0 0.0 0.0 0.0
000160 00 00 00 00 00 00 00 00 00 00 00 00 00 00 00 00
       0.0 0.0 0.0 0.0
000170 00 00 00 00 00 00 00 00 00 00 00 00 00 00 00 00
       0.0 0.0 0.0 0.0
000180 00 00 00 00 00 00 00 00 00 00 00 00 00 00 00 00
       0.0 0.0 0.0 0.0
000190 00 00 00 00 00 00 00 00 00 00 00 00 00 00 00 00
       0.0 0.0 0.0 0.0
0001a0 00 00 00 00 00 00 00 00 00 00 00 00 00 00 00 00
       0.0 0.0 0.0 0.0
0001b0 00 00 00 00 00 00 00 00 00 00 00 00 00 00 00 00
       0.0 0.0 0.0 0.0
0001c0 00 00 00 00 00 00 00 00 00 00 00 00 00 00 00 00
       0.0 0.0 0.0 0.0
0001d0 00 00 00 00 00 00 00 00 00 00 00 00 00 00 00 00
       0.0 0.0 0.0 0.0
0001e0 00 00 00 00 00 00 00 00 00 00 00 00 00 00 00 00
       0.0 0.0 0.0 0.0
0001f0 00 00 00 00 00 00 00 00 00 00 00 00 00 00 00 00
       0.0 0.0 0.0 0.0

value_heads.value_heads.extrinsic.weight f4 [1, 128]
000000 14 38 40 3e 60 5e 1f bd 00 92 c2 3c dd 09 f6 bd
       0.18771392 -0.038908362 0.023751259 -0.120136
000010 0a 1f 19 be e2 c1 8f bd 6c 1b e1 3d 92 a6 01 be
       -0.14953247 -0.07019402 0.109915584 -0.12661198
000020 18 58 3c 3e 10 2d e5 3c 08 6c f5 3d 1c df 95 3d
       0.1839298 0.027975589 0.11983496 0.07317945
000030 80 fe cb 3b 08 fe 6f 3d d4 05 95 3d 04 fa 8e 3d
       0.006225407 0.058591872 0.07276502 0.069812804
000040 1c 9b 17 3e 90 a8 3f bd 90 a8 03 bc c7 f9 28 be
       0.14805263 -0.046791613 -0.008035794 -0.16501532
000050 20 14 1f bc 72 5f 2f 3e 22 3b 4e 3e 30 9a 1f 3c
       -0.009709388 0.17126253 0.20139745 0.009741351
000060 17 be 32 be 40 30 cb 3d 40 26 8d 3d 6e ea 4e 3e
       -0.17455326 0.09921312 0.06892061 0.20206615
000070 f4 ef 44 bd 18 bd 29 3d e0 68 ff 3c 6c 72 55 3e
       -0.0480804 0.0414401 0.031177938 0.2084443
000080 08 9a 33 3e 5c b5 a3 3d 45 5f 1a be 4f 51 0d be
       0.17539227 0.07993576 -0.15075405 -0.13800548
000090 34 ca 7b bd 58 1f a7 3d 48 7a 27 3d 22 33 0d 3e
       -0.061472133 0.08160275 0.0408881 0.13789037
0000a0 10 44 1e 3e 56 f2 43 3e 06 1c 22 be d6 e4 0b be
       0.15455651 0.19135413 -0.15831003 -0.13661513
0000b0 e4 b2 fd 3d d3 c5 34 be 5c e9 9d bd ac 57 1f 3e
       0.12387636 -0.17653589 -0.077105254 0.15560788
0000c0 b9 88 4f be 3e fc 15 3e 65 b2 30 be d0 e8 fc 3d
       -0.20267 0.14647004 -0.17255552 0.12349093
0000d0 de 82 42 3e f4 de f9 3d 7a fa 52 be 23 f6 e4 bd
       0.18995234 0.12200728 -0.20603362 -0.11179759
0000e0 f0 df dd 3c 00 be 87 bb 26 2f a5 bd 30 a2 47 3d
       0.02708432 -0.004142523 -0.080656335 0.04873866
0000f0 e6 5d 96 bd 20 6c 0c be 0b 35 14 be a6 34 09 be
       -0.073421285 -0.13713121 -0.1447336 -0.1339899
000100 da c2 b6 bd 76 38 16 be 97 b4 f1 bd 18 b1 04 be
       -0.08923884 -0.14669976 -0.11802023 -0.12958181
000110 e7 92 ff bd e6 c8 56 3e 82 28 59 3e e2 67 1a be
       -0.12479191 0.20975074 0.21206859 -0.1507869
000120 4a 73 06 be 50 8d 34 be 48 e5 01 bd f8 a5 89 3c
       -0.13129917 -0.17632031 -0.0317128 0.016802773
000130 95 01 39 be 8a 9e 31 be 80 d7 ab bd 4d e9 53 be
       -0.1806701 -0.17345634 -0.08390713 -0.20694466
000140 e6 3e 08 3e f8 ea e8 3d 48 b0 d3 3c cc 5a 06 3e
       0.13305244 0.11372942 0.025840893 0.13120574
000150 a0 d3 6a 3d 50 b9 cf 3d a0 51 d1 bc c0 ff 09 bd
       0.057330728 0.101427674 -0.025551617 -0.033691168
000160 a8 96 cc 3d d0 44 2b bd a2 a9 1d be 8d 1e ec bd
       0.09989673 -0.04181367 -0.15396741 -0.115292646
000170 18 8d 86 3d 6d 45 3a be d6 7c 56 3e 14 71 aa bd
       0.0656988 -0.18190546 0.20946059 -0.08322349
000180 84 b0 32 bd 80 6e 33 3d 34 ba 0b 3e 49 85 20 be
       -0.04362537 0.043806553 0.1364525 -0.15675844
000190 d4 3a fd bd 1e eb d5 bd e0 a7 32 3e f0 84 c7 bc
       -0.12364736 -0.10445236 0.17446852 -0.024355382
0001a0 4c c1 9d 3d d8 25 6f bd 03 88 ce bd a4 49 bb 3d
       0.07702884 -0.0583857 -0.10084536 0.09144905
0001b0 70 37 31 3e 82 b7 94 bd 68 94 f3 bd 08 f3 3c bd
       0.17306304 -0.07261564 -0.118935406 -0.04613021
0001c0 44 d6 c5 3d 89 3a 46 be 50 33 e3 3d f8 10 2a bd
       0.096600085 -0.19358267 0.110937715 -0.04152009
0001d0 3c 78 08 bd ed bc 23 be b4 82 48 3e d4 1e 99 bd
       -0.03331779 -0.15990038 0.1958111 -0.07476583
0001e0 18 3d 0a 3e 58 c1 96 3d f2 17 2c 3e dd 21 44 be
       0.13499868 0.07361096 0.1680601 -0.19153543
0001f0 ac 55 18 be e0 b2 ec bb 40 7c 4f 3b 24 5a 2f 3e
       -0.14876431 -0.007223472 0.0031659752 0.1712423
