results/test_movetogoal_no_graph/MoveToGoal/MoveToGoal-289.pt (torch, 152538 bytes, 20 tensors)

network_body.observation_encoder.processors.0.normalizer.running_mean f4 [6]
0	0x3f0b2408	0.54351854
1	0xbea410eb	-0.32044157
2	0xbfc2e4d2	-1.522608
3	0xbf90ff94	-1.1327996
4	0xbbdce6ca	-0.0067413794
5	0x3ea34378	0.31887412

network_body.observation_encoder.processors.0.normalizer.running_variance f4 [6]
0	0x44a5c7e7	1326.247
1	0x3fdd9bac	1.7313132
2	0x43ecde5c	473.73718
3	0x41e45ceb	28.54537
4	0x3f82b68a	1.0211957
5	0x43ffc9bf	511.57614

network_body.processors.0.normalizer.running_mean f4 [6]
0	0x3f0b2408	0.54351854
1	0xbea410eb	-0.32044157
2	0xbfc2e4d2	-1.522608
3	0xbf90ff94	-1.1327996
4	0xbbdce6ca	-0.0067413794
5	0x3ea34378	0.31887412

network_body.processors.0.normalizer.running_variance f4 [6]
0	0x44a5c7e7	1326.247
1	0x3fdd9bac	1.7313132
2	0x43ecde5c	473.73718
3	0x41e45ceb	28.54537
4	0x3f82b68a	1.0211957
5	0x43ffc9bf	511.57614

network_body._body_endoder.seq_layers.0.weight f4 [128, 6]
0	0xbeac7748	-0.33684754
1	0x3ea6762a	0.32512027
2	0xbe1abad8	-0.15110338
3	0xbf520029	-0.82031494
4	0xbea77cbf	-0.3271236
5	0xbefc5871	-0.49286225
6	0x3e8163d8	0.25271487
7	0x3dd16e5d	0.10226128
8	0x3ed66256	0.418719
9	0x3e2b9a4a	0.16758075
10	0x3e6a3253	0.2287076
11	0x3f1c452f	0.61043066
12	0x3c2f4471	0.01069747
13	0x3f110112	0.5664226
14	0xbeac61a3	-0.3366824
15	0xbd880b45	-0.066427745
16	0xbe665747	-0.22494231
17	0x3ea9d54d	0.33170548
18	0xbe9185bf	-0.28422353
19	0xbda6acd6	-0.081384346
20	0xbd4ada8d	-0.049524833
21	0x3da68c92	0.081322804
22	0xbf270d1a	-0.65254366
23	0xbf29387e	-0.66101825
24	0xbe1e0eb9	-0.15435304
25	0x3e46c0c4	0.19409472
26	0xbcb3a364	-0.021928497
27	0x3e683277	0.22675501
28	0xbf416cc6	-0.755566
29	0x3df5cd11	0.12002004
30	0x3e8552e8	0.26039815
31	0xbed1a890	-0.40948915
32	0xbf421e7f	-0.75827783
33	0x3e840929	0.2578824
34	0xbf4c723a	-0.79861796
35	0xbcbbfec5	-0.022948632
36	0x3e7ff0cc	0.249942
37	0xbf1a4d39	-0.6027408
38	0xbe9ed100	-0.3101883
39	0xbc9f1eaa	-0.019423801
40	0xbeaf5fdb	-0.3425282
41	0x3e042449	0.12904467
42	0x3c89602c	0.016769491
43	0x3eba2dba	0.36363012
44	0xbecfdab7	-0.40596554
45	0x3dba232b	0.09088739
46	0xbca56004	-0.020187385
47	0xbd946675	-0.07246105
48	0x3f77d4f3	0.9680931
49	0xbf42b505	-0.76057464
50	0x3f30db66	0.69084775
51	0xbe837cce	-0.25681156
52	0x3cb17377	0.021661503
53	0x3f0850c0	0.53248215
54	0x3ef409c4	0.476637
55	0x3eb53f83	0.35400018
56	0x3f43ccb2	0.76484215
57	0x3d5879d2	0.052850552
58	0x3e64cfc3	0.2234488
59	0x3ed2e4ba	0.4119013
60	0x3f0e05a1	0.5547734
61	0x3e24669d	0.16054769
62	0xbe1be1d1	-0.15222861
63	0xbe7ff318	-0.24995077
64	0x3e08167a	0.13289824
65	0xbd3d1459	-0.046161983
66	0xbe8fd9f7	-0.2809598
67	0xbc83de97	-0.01609735
68	0x3c4a7b32	0.012358474
69	0xbf042c4c	-0.5163009
70	0xbee0f1ed	-0.43934575
71	0xbd323682	-0.043509014
72	0x3ea1ccc0	0.31601524
73	0x3ef85346	0.48501033
74	0x3e2d1fb7	0.1690663
75	0xbe272c92	-0.16325596
76	0x3eb16141	0.3464451
77	0x3de57f42	0.11205913
78	0xbebb6054	-0.3659693
79	0x3ea951ca	0.33070213
80	0xbe85ed64	-0.26157677
81	0xbdf17b9e	-0.11791156
82	0x3c1085c2	0.008820953
83	0x3e8bd620	0.27311802
84	0x3f96f999	1.1794921
85	0x3e8056a6	0.25066108
86	0xbea11ad5	-0.31465784
87	0xbe9f2525	-0.31083027
88	0x3ed12eb9	0.4085596
89	0x3cf510d5	0.029915253
90	0x3efe2ac0	0.4964199
91	0xbea3de3c	-0.3200549
92	0x3e94c48a	0.29056197
93	0x3f1c9bfe	0.61175525
94	0xbee62003	-0.44946298
95	0xbe2f9194	-0.17145377
96	0xbec640d7	-0.38721344
97	0x3f5153dc	0.81768584
98	0x3e16cc1f	0.14726304
99	0xbed0b0ec	-0.4075998
100	0xbf1bbeae	-0.6083783
101	0xbf288106	-0.65821874
102	0x3e1ccd22	0.15312627
103	0x3e6840d6	0.22680983
104	0x3ebcc68d	0.36870232
105	0x3f40b430	0.75274944
106	0xbd18a3fc	-0.037265763
107	0xbdc14b6c	-0.09438214
108	0x3edd252f	0.4319243
109	0x3e94b6ab	0.29045615
110	0x3d8ef825	0.069809236
111	0x3d2c0373	0.041995477
112	0x3e8c9f91	0.2746549
113	0x3e3b4d55	0.18291219
114	0x3e94f13b	0.29090294
115	0x3f119e3f	0.5688209
116	0x3f797eb9	0.9745899
117	0xbec40459	-0.38284567
118	0xbbcc2e66	-0.006231117
119	0x3ebe6680	0.37187576
120	0x3ec7c662	0.39018542
121	0xbeda4322	-0.42629343
122	0x3eae48e4	0.34039986
123	0x3ec0b69c	0.3763932
124	0x3eaf1f8a	0.3420375
125	0xbcc2d5dc	-0.023783617
126	0xbeafa35a	-0.34304315
127	0x3c8724d0	0.016497046
128	0xbe9e67a5	-0.3093845
129	0x3e3077d8	0.17233217
130	0xbdcec706	-0.100965545
131	0x3e0b8871	0.13626267
132	0xbf14839f	-0.5801334
133	0x3dd2a152	0.10284676
134	0xbf23c208	-0.63967943
135	0x3eb27910	0.34857988
136	0x3e369602	0.17830661
137	0xbea9f6dd	-0.33196154
138	0xbe68af48	-0.22723114
139	0xbee4d66a	-0.44694835
140	0x3d87c539	0.06629414
141	0xbe81df04	-0.2536546
142	0x3cc6994c	0.02424302
143	0xbe72d201	-0.23712923
144	0x3ea9c064	0.33154595
145	0x3daee7da	0.08540316
146	0x3eadf601	0.3397675
147	0x3dc042f9	0.09387774
148	0x3f5dd3aa	0.866511
149	0x3dcb0972	0.09913911
150	0x3eb2804b	0.34863505
151	0xbe0621b4	-0.13098794
152	0x3e81bd90	0.25339937
153	0xbe814f60	-0.2525587
154	0xbea78384	-0.32717526
155	0x3e02920d	0.12751026
156	0xbea75c54	-0.32687628
157	0xbcd60bc4	-0.026128657
158	0xbeb5cf24	-0.35509598
159	0x3ed9f6c1	0.4257107
160	0x3fc3f4c4	1.5309072
161	0xbdcc701b	-0.0998232
162	0x3f317fa2	0.6933538
163	0x3e063910	0.13107705
164	0x3efd3282	0.49452597
165	0x3ed16313	0.408959
166	0x3f3ef55d	0.74593145
167	0xbec2405e	-0.37939733
168	0xbe819f33	-0.25316772
169	0xbe9194c0	-0.284338
170	0x3e8fc552	0.2808023
171	0xbde38c14	-0.11110702
172	0x3f1b4b80	0.6066208
173	0xbeee95ef	-0.46598765
174	0xbe716c82	-0.23576549
175	0x3da502ad	0.08057151
176	0x3e20a581	0.15688135
177	0xbd47585f	-0.04866826
178	0xbe0be783	-0.13662533
179	0x3e8ecca6	0.2789051
180	0xbe5cef1e	-0.21575591
181	0xbeef9537	-0.4679353
182	0x3d446094	0.047943667
183	0x3dfef594	0.12449184
184	0x3e967548	0.29386353
185	0xbf725d66	-0.94673765
186	0xbf3b7f38	-0.73240995
187	0x3c5b3fa8	0.013381876
188	0x3ea13ab8	0.3149011
189	0x3ccb8571	0.024843903
190	0x3e273587	0.16329013
191	0xbda8efce	-0.08248864
192	0xbd5c10a9	-0.053726826
193	0xbea23e6a	-0.31688243
194	0xbf030a56	-0.51187646
195	0xbea69207	-0.32533285
196	0x3ef39f85	0.4758264
197	0xbeeb741d	-0.45987025
198	0xbe71543c	-0.23567289
199	0x3ef29873	0.47381935
200	0x3bdf75ff	0.006819486
201	0xbf011cde	-0.5043467
202	0x3e64b0ed	0.22333117
203	0x3e94a27d	0.2903022
204	0x3e0628f0	0.13101554
205	0xbed26142	-0.41089827
206	0x3db05a23	0.08610942
207	0xbea4ff7d	-0.32226172
208	0x3e912387	0.28347418
209	0xbf0365e3	-0.5132734
210	0x3d845004	0.06460574
211	0x3e18f0c7	0.149356
212	0xbebd60d4	-0.36987936
213	0x3f25d726	0.64781415
214	0xbec83863	-0.3910552
215	0x3e33d0cd	0.1756012
216	0x3ea01410	0.31265306
217	0xbdfc30bb	-0.12313982
218	0xbe894f99	-0.2681854
219	0xbee92dc4	-0.4554273
220	0x3e713a91	0.23557498
221	0x3f55ff89	0.8359304
222	0xbf3b8034	-0.732425
223	0x3e8da936	0.2766816
224	0xbe897ba8	-0.26852155
225	0x3f14cacd	0.5812195
226	0xbe49b411	-0.19697596
227	0xbfa06630	-1.2531185
228	0xbede3487	-0.4339945
229	0xbc71ef93	-0.014766592
230	0x3e268853	0.16262941
231	0xbf1592d8	-0.5842719
232	0x3e8d4c20	0.2759714
233	0x3ea98dba	0.3311594
234	0x3f3665d6	0.7124914
235	0x3d903561	0.07041431
236	0xbdc2ab10	-0.09505284
237	0xbd03cb71	-0.03217644
238	0x3eaed581	0.34147266
239	0xbeb0cf09	-0.34532955
240	0x3e8ae01d	0.2712411
241	0xbd3bcc35	-0.045849044
242	0xbab09edd	-0.0013475079
243	0xbf33b379	-0.7019573
244	0xbee02ba5	-0.43783298
245	0xbe8c3ca7	-0.27390024
246	0xbe4c8ef2	-0.19976404
247	0xbe9fa751	-0.3118234
248	0xbf61722f	-0.88064855
249	0x3ecca981	0.3997307
250	0x3c49f147	0.012325591
251	0xbea0824b	-0.31349406
252	0xbd8e420a	-0.0694619
253	0xbe174e22	-0.14775899
254	0x3dbd3850	0.092392564
255	0xbf186af3	-0.5953819

network_body._body_endoder.seq_layers.0.bias f4 [128]
0	0x00000000	0.0
1	0x00000000	0.0
2	0x00000000	0.0
3	0x00000000	0.0
4	0x00000000	0.0
5	0x00000000	0.0
6	0x00000000	0.0
7	0x00000000	0.0
8	0x00000000	0.0
9	0x00000000	0.0
10	0x00000000	0.0
11	0x00000000	0.0
12	0x00000000	0.0
13	0x00000000	0.0
14	0x00000000	0.0
15	0x00000000	0.0
16	0x00000000	0.0
17	0x00000000	0.0
18	0x00000000	0.0
19	0x00000000	0.0
20	0x00000000	0.0
21	0x00000000	0.0
22	0x00000000	0.0
23	0x00000000	0.0
24	0x00000000	0.0
25	0x00000000	0.0
26	0x00000000	0.0
27	0x00000000	0.0
28	0x00000000	0.0
29	0x00000000	0.0
30	0x00000000	0.0
31	0x00000000	0.0
32	0x00000000	0.0
33	0x00000000	0.0
34	0x00000000	0.0
35	0x00000000	0.0
36	0x00000000	0.0
37	0x00000000	0.0
38	0x00000000	0.0
39	0x00000000	0.0
40	0x00000000	0.0
41	0x00000000	0.0
42	0x00000000	0.0
43	0x00000000	0.0
44	0x00000000	0.0
45	0x00000000	0.0
46	0x00000000	0.0
47	0x00000000	0.0
48	0x00000000	0.0
49	0x00000000	0.0
50	0x00000000	0.0
51	0x00000000	0.0
52	0x00000000	0.0
53	0x00000000	0.0
54	0x00000000	0.0
55	0x00000000	0.0
56	0x00000000	0.0
57	0x00000000	0.0
58	0x00000000	0.0
59	0x00000000	0.0
60	0x00000000	0.0
61	0x00000000	0.0
62	0x00000000	0.0
63	0x00000000	0.0
64	0x00000000	0.0
65	0x00000000	0.0
66	0x00000000	0.0
67	0x00000000	0.0
68	0x00000000	0.0
69	0x00000000	0.0
70	0x00000000	0.0
71	0x00000000	0.0
72	0x00000000	0.0
73	0x00000000	0.0
74	0x00000000	0.0
75	0x00000000	0.0
76	0x00000000	0.0
77	0x00000000	0.0
78	0x00000000	0.0
79	0x00000000	0.0
80	0x00000000	0.0
81	0x00000000	0.0
82	0x00000000	0.0
83	0x00000000	0.0
84	0x00000000	0.0
85	0x00000000	0.0
86	0x00000000	0.0
87	0x00000000	0.0
88	0x00000000	0.0
89	0x00000000	0.0
90	0x00000000	0.0
91	0x00000000	0.0
92	0x00000000	0.0
93	0x00000000	0.0
94	0x00000000	0.0
95	0x00000000	0.0
96	0x00000000	0.0
97	0x00000000	0.0
98	0x00000000	0.0
99	0x00000000	0.0
100	0x00000000	0.0
101	0x00000000	0.0
102	0x00000000	0.0
103	0x00000000	0.0
104	0x00000000	0.0
105	0x00000000	0.0
106	0x00000000	0.0
107	0x00000000	0.0
108	0x00000000	0.0
109	0x00000000	0.0
110	0x00000000	0.0
111	0x00000000	0.0
112	0x00000000	0.0
113	0x00000000	0.0
114	0x00000000	0.0
115	0x00000000	0.0
116	0x00000000	0.0
117	0x00000000	0.0
118	0x00000000	0.0
119	0x00000000	0.0
120	0x00000000	0.0
121	0x00000000	0.0
122	0x00000000	0.0
123	0x00000000	0.0
124	0x00000000	0.0
125	0x00000000	0.0
126	0x00000000	0.0
127	0x00000000	0.0

network_body._body_endoder.seq_layers.2.weight f4 [128, 128]
0	0xbcd40409	-0.02588083
1	0x3e2b3edb	0.16723196
2	0x3d8785e7	0.06617337
3	0xbd9c2dc6	-0.07625918
4	0x3e158604	0.14601904
5	0xbc27cecc	-0.010242175
6	0xbce9c8d9	-0.028538154
7	0x3e101834	0.14071733
8	0x3db1edb8	0.086879194
9	0xbce58da8	-0.028021649
10	0x3d9e5b4e	0.07732259
11	0x3e54323b	0.20722286
12	0xbd87919a	-0.06619568
13	0x3e4fc514	0.20290023
14	0xbdb46f83	-0.08810332
15	0x3c30a8e1	0.010782451
16	0xbdf7fc11	-0.12108625
17	0xbd2e7429	-0.042591248
18	0xbd701708	-0.058615714
19	0xbcfecce7	-0.031103564
20	0xbda1d3c3	-0.079017185
21	0xbdbd3f1b	-0.09240552
22	0xbdfce720	-0.12348771
23	0x3ca2b919	0.019863652
24	0x3df03b56	0.117300674
25	0xbba42c67	-0.005010176
26	0xbd8016ed	-0.06254373
27	0xbd87d51a	-0.06632443
28	0xbe432a9f	-0.19059227
29	0x3c84f765	0.016231248
30	0xbc56a5c5	-0.013101046
31	0x3c2f5264	0.010700796
32	0x3e1cf197	0.15326534
33	0xbd0343cb	-0.032047074
34	0x3d2906b2	0.04126615
35	0xbc1d0c6b	-0.00958548
36	0x3c870cca	0.01648559
37	0xbe230c5a	-0.1592268
38	0xbc7531c0	-0.014965475
39	0x3db4b2c2	0.08823158
40	0x3d9f5030	0.077789664
41	0xbc145110	-0.00905253
42	0x3e879cb5	0.26486745
43	0x3d060881	0.032722954
44	0xbd9fd402	-0.07804109
45	0xbd85178b	-0.06498631
46	0x3c24947d	0.010045168
47	0xb878653c	-5.922209e-05
48	0xbdee2221	-0.11627603
49	0xbdeb065b	-0.114758216
50	0x3d8b0b43	0.067892574
51	0xbc18490a	-0.009294758
52	0xbd337986	-0.043817066
53	0xbe247e36	-0.1606377
54	0xbd37ac6e	-0.044842176
55	0x3e136c29	0.14396729
56	0x3cde26a9	0.027118044
57	0x3dbb63c5	0.09149889
58	0x3da773fa	0.08176418
59	0x3d7109b3	0.05884714
60	0xbc306884	-0.010767106
61	0x3d2f178a	0.042747058
62	0x3cac3294	0.021020211
63	0xbde67318	-0.11252421
64	0x3d4b5ed3	0.04965098
65	0x3d210b8c	0.039317653
66	0x3cd69064	0.026191898
67	0xbe039e51	-0.12853362
68	0x3dd63764	0.10459784
69	0xbbfcdfb7	-0.0077170986
70	0xbe0ec290	-0.13941407
71	0x3d1e9dd7	0.038724747
72	0x3df8767f	0.12131976
73	0x3c00306b	0.007824044
74	0xbd4f28e7	-0.050576117
75	0x3c8e1ab1	0.017346712
76	0x3dab338d	0.08359442
77	0xbd1e0cad	-0.038586307
78	0x3c85c685	0.016330013
79	0xbdfc6c84	-0.12325385
80	0x3c58f657	0.013242326
81	0xbd0a8040	-0.033813715
82	0x3dfa678e	0.12226783
83	0xbdb7f49d	-0.08982203
84	0x3d837436	0.0641865
85	0xbd732463	-0.059360873
86	0x3e3c935c	0.18415588
87	0xbc5d1bc1	-0.013495387
88	0x3e241029	0.1602179
89	0x3dca0cfa	0.09865756
90	0xbc6a5a13	-0.014303702
91	0xbda169c4	-0.07881501
92	0x3d3ddb5b	0.04635177
93	0x3d1aa1d2	0.03775198
94	0x3c349651	0.011022166
95	0xbd0c9f36	-0.034331523
96	0xbcc7f415	-0.02440838
97	0x3c8913ce	0.016733076
98	0x3d2e5266	0.04255905
99	0xbd808a78	-0.06276411
100	0x3db677fb	0.08909603
101	0x3dcc868f	0.099866025
102	0x3d887a22	0.0666392
103	0x3cbed3ba	0.023294318
104	0x3da2f85b	0.07957526
105	0xba74c346	-0.00093369593
106	0x3c2be781	0.010492207
107	0x3d11fc04	0.03564073
108	0xbdd8e67d	-0.10590837
109	0xbbb55cb0	-0.005534731
110	0x3d9cdb5f	0.07659029
111	0x3dd3707e	0.103241906
112	0xbcfc0985	-0.030766258
113	0xbbf2e2a2	-0.0074122706
114	0x3d039f19	0.03213415
115	0x3d13ed9a	0.036115266
116	0xbcdf9537	-0.02729283
117	0x3dd3bd30	0.10338819
118	0xbc7fd246	-0.015614098
119	0xbdcdde3e	-0.10052155
120	0x3d3fd4ac	0.04683368
121	0x3db81c51	0.08989776
122	0xbc1403ed	-0.009034139
123	0x3d3c2535	0.04593392
124	0x3be43633	0.006964469
125	0x3cf704b4	0.03015361
126	0xba5697c5	-0.00081860676
127	0x3d84c105	0.06482128
128	0x3d950457	0.072762184
129	0xbce0d664	-0.02744598
130	0x3c0af8e5	0.008482193
131	0xbd8e182b	-0.069382034
132	0xbe125c61	-0.14293052
133	0xbd87c2aa	-0.06628926
134	0x3de6be7d	0.112668015
135	0x3dbfa6e1	0.093580015
136	0xbded5f0b	-0.11590394
137	0x3e02e53c	0.12782758
138	0xbd8aa9b7	-0.06770652
139	0x3d71ad1e	0.059002988
140	0xbdeb7f37	-0.11498874
141	0xbdebcc1f	-0.115135424
142	0xbda104d1	-0.07862247
143	0x3c97e71f	0.018542824
144	0x3d1990cd	0.03749161
145	0x3c6bc3b5	0.014389922
146	0x3cfc80aa	0.03082307
147	0xbc82de0e	-0.015975025
148	0xbddb2dce	-0.10702096
149	0xbd7dfc64	-0.062008277
150	0x3dc75b8d	0.09734259
151	0xbe34f46c	-0.17671365
152	0x3cd4c74f	0.025973944
153	0xbd50fd91	-0.05102307
154	0x3ceaed70	0.028677672
155	0x3d38039a	0.04492531
156	0x3deda1ed	0.116031505
157	0xbe29e748	-0.16592133
158	0xbd8acc16	-0.067772076
159	0xbde6fafa	-0.11278339
160	0xbd85801f	-0.06518578
161	0xbdfb506b	-0.12271198
162	0xbdc757eb	-0.09733566
163	0x3df0fa1c	0.117664546
164	0xbd9618b8	-0.073289335
165	0x3cb69c49	0.02229132
166	0x3d1d5636	0.038412295
167	0x3b716b00	0.0036837459
168	0xbd210a87	-0.03931668
169	0x3abc688f	0.0014374423
170	0xbdd46d77	-0.10372441
171	0xbd39f47a	-0.045399167
172	0xbdabe71b	-0.08393689
173	0xbd9f587b	-0.07780548
174	0x3ce0fd10	0.02746442
175	0xbda9c5fa	-0.08289714
176	0xbde7b5c6	-0.113139674
177	0x3ddec23c	0.10876891
178	0xbdb496bc	-0.08817813
179	0x3e1454d6	0.14485487
180	0x3c52551c	0.0128376745
181	0x3ac937ce	0.0015351714
182	0x3db79ef0	0.08965862
183	0xbd838a51	-0.06422866
184	0x3db22a71	0.08699501
185	0xbdee1765	-0.11625556
186	0xbd8c8f41	-0.06863261
187	0xbc044898	-0.008073948
188	0xbc688a12	-0.014193075
189	0xbc3ff25c	-0.011715498
190	0x3dc5e398	0.09662551
191	0x3be84be4	0.007089125
192	0xbdf49540	-0.1194253
193	0xbdb5f159	-0.08883924
194	0xbc99d931	-0.018780323
195	0x3d7948d7	0.06086048
196	0x3da0e554	0.07856241
197	0x3b347459	0.002753517
198	0xbd5a40af	-0.053284343
199	0x3c8bf630	0.017085165
200	0xbd98331d	-0.07431624
201	0x3e3b5823	0.1829534
202	0xbc62c6a4	-0.013841305
203	0x3d09602c	0.033538982
204	0xbc846ccd	-0.016165162
205	0x3defcae1	0.11708618
206	0xbd712dc2	-0.05888153
207	0x3bd8d44f	0.006617106
208	0xbdbd9277	-0.092564516
209	0xbd4d69c6	-0.0501497
210	0xbdb4bf84	-0.08825591
211	0xbda7d376	-0.0819463
212	0xbc657b2f	-0.01400642
213	0x3da44e0c	0.08022699
214	0xbd19b428	-0.037525326
215	0xbe127bcc	-0.14305037
216	0x3c4ee3f0	0.012627587
217	0x3dfca77a	0.12336631
218	0xbdfd22f3	-0.12360182
219	0x3e084036	0.13305745
220	0x3d6e7bf4	0.05822368
221	0x3ce385d1	0.02777377
222	0xbd7edde3	-0.062223326
223	0xbdd3d24e	-0.10342847
224	0x3da6874c	0.081312746
225	0xbe42563f	-0.18978213
226	0x3d150aa8	0.036387116
227	0x3d25fd0f	0.04052454
228	0xbd8bd9c1	-0.06828643
229	0xbcfc73db	-0.030816963
230	0x3df85d88	0.12127215
231	0xbd0239cd	-0.031793404
232	0xbdab334a	-0.08359392
233	0xbd0c2fcd	-0.034225274
234	0xbe3a36eb	-0.18185012
235	0x3a0b6f21	0.00053189887
236	0xbb4ce3fe	-0.0031263824
237	0xbd77fe11	-0.06054503
238	0x3dde2f21	0.10848833
239	0x3cf66eb8	0.030082092
240	0xbbd0b211	-0.0063688834
241	0xbe161707	-0.14657222
242	0xbddbc21f	-0.10730385
243	0x3dd69a0e	0.10478602
244	0xbcebeb2f	-0.028798668
245	0x3c2e68c7	0.010645098
246	0xbe2135f8	-0.15743244
247	0x3e0c24d7	0.13685928
248	0xbda5006e	-0.080567226
249	0xbd2a5962	-0.04158915
250	0x3d8de58f	0.069285505
251	0x3d5d3ef8	0.05401513
252	0x3daa3afc	0.083120316
253	0xbcb7197c	-0.02235102
254	0x3db41d74	0.0879468
255	0x3dcb6d16	0.09932916

network_body._body_endoder.seq_layers.2.bias f4 [128]
0	0x00000000	0.0
1	0x00000000	0.0
2	0x00000000	0.0
3	0x00000000	0.0
4	0x00000000	0.0
5	0x00000000	0.0
6	0x00000000	0.0
7	0x00000000	0.0
8	0x00000000	0.0
9	0x00000000	0.0
10	0x00000000	0.0
11	0x00000000	0.0
12	0x00000000	0.0
13	0x00000000	0.0
14	0x00000000	0.0
15	0x00000000	0.0
16	0x00000000	0.0
17	0x00000000	0.0
18	0x00000000	0.0
19	0x00000000	0.0
20	0x00000000	0.0
21	0x00000000	0.0
22	0x00000000	0.0
23	0x00000000	0.0
24	0x00000000	0.0
25	0x00000000	0.0
26	0x00000000	0.0
27	0x00000000	0.0
28	0x00000000	0.0
29	0x00000000	0.0
30	0x00000000	0.0
31	0x00000000	0.0
32	0x00000000	0.0
33	0x00000000	0.0
34	0x00000000	0.0
35	0x00000000	0.0
36	0x00000000	0.0
37	0x00000000	0.0
38	0x00000000	0.0
39	0x00000000	0.0
40	0x00000000	0.0
41	0x00000000	0.0
42	0x00000000	0.0
43	0x00000000	0.0
44	0x00000000	0.0
45	0x00000000	0.0
46	0x00000000	0.0
47	0x00000000	0.0
48	0x00000000	0.0
49	0x00000000	0.0
50	0x00000000	0.0
51	0x00000000	0.0
52	0x00000000	0.0
53	0x00000000	0.0
54	0x00000000	0.0
55	0x00000000	0.0
56	0x00000000	0.0
57	0x00000000	0.0
58	0x00000000	0.0
59	0x00000000	0.0
60	0x00000000	0.0
61	0x00000000	0.0
62	0x00000000	0.0
63	0x00000000	0.0
64	0x00000000	0.0
65	0x00000000	0.0
66	0x00000000	0.0
67	0x00000000	0.0
68	0x00000000	0.0
69	0x00000000	0.0
70	0x00000000	0.0
71	0x00000000	0.0
72	0x00000000	0.0
73	0x00000000	0.0
74	0x00000000	0.0
75	0x00000000	0.0
76	0x00000000	0.0
77	0x00000000	0.0
78	0x00000000	0.0
79	0x00000000	0.0
80	0x00000000	0.0
81	0x00000000	0.0
82	0x00000000	0.0
83	0x00000000	0.0
84	0x00000000	0.0
85	0x00000000	0.0
86	0x00000000	0.0
87	0x00000000	0.0
88	0x00000000	0.0
89	0x00000000	0.0
90	0x00000000	0.0
91	0x00000000	0.0
92	0x00000000	0.0
93	0x00000000	0.0
94	0x00000000	0.0
95	0x00000000	0.0
96	0x00000000	0.0
97	0x00000000	0.0
98	0x00000000	0.0
99	0x00000000	0.0
100	0x00000000	0.0
101	0x00000000	0.0
102	0x00000000	0.0
103	0x00000000	0.0
104	0x00000000	0.0
105	0x00000000	0.0
106	0x00000000	0.0
107	0x00000000	0.0
108	0x00000000	0.0
109	0x00000000	0.0
110	0x00000000	0.0
111	0x00000000	0.0
112	0x00000000	0.0
113	0x00000000	0.0
114	0x00000000	0.0
115	0x00000000	0.0
116	0x00000000	0.0
117	0x00000000	0.0
118	0x00000000	0.0
119	0x00000000	0.0
120	0x00000000	0.0
121	0x00000000	0.0
122	0x00000000	0.0
123	0x00000000	0.0
124	0x00000000	0.0
125	0x00000000	0.0
126	0x00000000	0.0
127	0x00000000	0.0

action_model._continuous_distribution.log_sigma f4 [1, 2]
0	0x00000000	0.0
1	0x00000000	0.0

action_model._continuous_distribution.mu.weight f4 [2, 128]
0	0xbc236e3f	-0.009975015
1	0xbc3793d2	-0.011204677
2	0xbb8c4a29	-0.0042813015
3	0x3b2fbc27	0.0026815028
4	0xbc263abd	-0.01014584
5	0xbc4a6060	-0.012352079
6	0x3c6e089d	0.014528421
7	0xbc476956	-0.01217111
8	0xbcf572c0	-0.029961944
9	0xbc841a96	-0.016125958
10	0x3c416e27	0.0118060475
11	0xbabbb3f3	-0.0014320597
12	0x3c86754f	0.016413359
13	0x3bf4feab	0.007476648
14	0xbd15a783	-0.036536705
15	0x3c4e9ed2	0.012611108
16	0xbbc58d36	-0.0060287965
17	0x3ca213e4	0.019784875
18	0xbd442b54	-0.047892883
19	0xbd147627	-0.03624549
20	0x3b77dea8	0.0037821922
21	0x39ac8f07	0.0003291296
22	0xbc150577	-0.009095541
23	0x3bc2c42f	0.005943797
24	0x3d20a7e3	0.03922261
25	0xbbf262b0	-0.0073970184
26	0x3c71e3ba	0.014763767
27	0x3cb0ac82	0.021566633
28	0xbc5fabb0	-0.013651773
29	0x3c361f86	0.011115914
30	0x3a35e337	0.00069384597
31	0x3a22f773	0.00062166824
32	0xbd08839b	-0.033328634
33	0xbc1fc020	-0.009750396
34	0xbc638965	-0.013887738
35	0xbbe126dd	-0.006871088
36	0x3d18ea43	0.037332784
37	0xbc066873	-0.008203614
38	0xbcf238a8	-0.029568031
39	0xbc3cb0b9	-0.011516743
40	0x3ce6f2f7	0.028192027
41	0x3c06957c	0.008214351
42	0x3bbacb2b	0.005700489
43	0xbbe3f00b	-0.0069561056
44	0x3cd81440	0.026376843
45	0xbca9c8a3	-0.020725554
46	0xbc260aef	-0.010134443
47	0x3c4de26b	0.012566189
48	0xbcaf900f	-0.021430997
49	0xbc740b5b	-0.0148952855
50	0xbcc44c83	-0.023962265
51	0x3cbf992c	0.023388468
52	0xbc24125b	-0.010014142
53	0xbb5c6e30	-0.0033635013
54	0xbcc21a97	-0.02369432
55	0x3b190853	0.002335091
56	0xbc3671fc	-0.011135574
57	0xbc610e9d	-0.013736394
58	0xbb9826cd	-0.0046432973
59	0x3cbd3e31	0.023100944
60	0xbc81012f	-0.015747635
61	0x3cbcf8d9	0.023067879
62	0xbce0abbf	-0.027425645
63	0xbcd929e5	-0.026509235
64	0x3c82fdbe	0.015990134
65	0xbca67ddc	-0.020323686
66	0xbc888ca9	-0.016668634
67	0xbbdfea18	-0.006833326
68	0xbcbc3ffa	-0.022979725
69	0xbc821412	-0.01587871
70	0x3cf6e045	0.030136237
71	0xbcf81272	-0.030282233
72	0x3c07d3ab	0.008290212
73	0xbb871b6e	-0.004123143
74	0x3c48d9a7	0.012258924
75	0x3b41375c	0.002948246
76	0xbcafa2a7	-0.021439863
77	0x3bd45e7f	0.0064809914
78	0xbc990a80	-0.018681765
79	0x3c09b7b3	0.008405614
80	0xbd1e6c53	-0.038677525
81	0x3b4ffb72	0.0031735566
82	0x3a196bdf	0.0005852561
83	0x3bf9cc48	0.007623229
84	0x3c9d17a1	0.019176306
85	0xbbf2b147	-0.007406387
86	0x3b4333f3	0.0029785603
87	0x39e0e073	0.00042891837
88	0xbcbd9b22	-0.023145262
89	0xbbb4b156	-0.005514304
90	0xbcaa7da8	-0.02081187
91	0xbc02ce7e	-0.007983802
92	0xbd48b89d	-0.049004186
93	0x3c859018	0.01630406
94	0x3c9b2853	0.018940127
95	0x3ca4f20f	0.020134954
96	0x3cc3bcd0	0.023893744
97	0x3c727460	0.014798254
98	0xbc58f81f	-0.01324275
99	0x3cf00cf5	0.029303053
100	0xbbcf5deb	-0.0063283346
101	0x3bab491c	0.005227221
102	0xbb261932	-0.0025344607
103	0x3d13a4fa	0.036046006
104	0x3d30f7cf	0.04320508
105	0x3b319950	0.0027099438
106	0x3c9f6e77	0.019461853
107	0xbbfc860d	-0.00770641
108	0x3c59723b	0.013271864
109	0xbc2f493f	-0.010698616
110	0xbc5c1c2a	-0.013434449
111	0x3bb21783	0.0054349317
112	0xbcb55f16	-0.022140067
113	0x3c9313d5	0.017953793
114	0xba3a5fb3	-0.0007109597
115	0x39981677	0.00029008437
116	0x3bcc19de	0.0062286695
117	0xbb7f0857	-0.0038914883
118	0x3c5e53d0	0.013569787
119	0x3ca41eb6	0.020034175
120	0x3c930221	0.017945351
121	0x3d57a4a0	0.052647233
122	0x3b6bd638	0.0035985839
123	0xbc715143	-0.014728847
124	0xbc10d94f	-0.008840873
125	0xbcb26509	-0.021776693
126	0xbcc2fb0f	-0.023801355
127	0x3c410079	0.011779898
128	0xbd338adf	-0.04383361
129	0xbb4c06aa	-0.0031131902
130	0xbc31def3	-0.010856378
131	0x3bf4bf0a	0.0074690627
132	0xbc767d00	-0.015044451
133	0x3d20e590	0.039281428
134	0xbc0ed0e8	-0.008716799
135	0xbb2bea0b	-0.002623203
136	0x3c9b6af5	0.0189719
137	0x3c7f47b5	0.015581061
138	0xbc338793	-0.010957616
139	0x3c17a0aa	0.009254614
140	0x3bd407c3	0.006470652
141	0x3c6e9052	0.014560776
142	0xbc7997b7	-0.015233926
143	0x3c284639	0.010270649
144	0x3ca9e94e	0.020741131
145	0x3cf84457	0.030306024
146	0xbcbd21d9	-0.023087429
147	0x3af286ed	0.0018503346
148	0x3d0e2f83	0.03471328
149	0xbb45cc4b	-0.0030181583
150	0x3c0c467f	0.008561729
151	0x3c09e2db	0.008415903
152	0x3c7fe492	0.01561846
153	0xbc916c52	-0.017751846
154	0x3be5d62f	0.007014058
155	0x3b189f4d	0.002328831
156	0xbcf1f5c5	-0.029536137
157	0xbb97d387	-0.0046333703
158	0x3c00555c	0.007832851
159	0x3c54bc3d	0.012984333
160	0xbc2b7153	-0.01046403
161	0x3c428b0c	0.011873972
162	0xbc530c53	-0.012881356
163	0x3cfe0c47	0.031011714
164	0x3cba0b55	0.022710482
165	0xbc458040	-0.012054503
166	0x3d46d974	0.048547223
167	0x3c3b3517	0.011426232
168	0x3c86e2bb	0.016465535
169	0xbbb35d99	-0.005473804
170	0x3d1564a6	0.03647294
171	0x3c0f97aa	0.008764187
172	0xbbf61145	-0.007509383
173	0xbc65a8b5	-0.014017274
174	0xbb3a746d	-0.0028450743
175	0xbc593380	-0.013256907
176	0x3cae14c0	0.021250129
177	0x3ce33578	0.027735457
178	0xbcb0248e	-0.021501806
179	0xbd188d8c	-0.037244365
180	0xbce2e227	-0.027695728
181	0xbd05719b	-0.032579046
182	0xbc830228	-0.01599224
183	0x3c3e24ab	0.011605422
184	0x3c38f527	0.011288918
185	0x3a0570df	0.00050903665
186	0x3b26a78c	0.0025429456
187	0x3ce1bb97	0.02755527
188	0x3c4fbbc8	0.012679048
189	0x3d47da9b	0.048792463
190	0xbb18a5fd	-0.0023292296
191	0x3d193b17	0.037409868
192	0xbc320d09	-0.010867366
193	0x3ab44db1	0.0013756064
194	0xbc3a0113	-0.011352795
195	0x3b41e7a6	0.0029587536
196	0xb4dbce30	-4.094195e-07
197	0x3a9ea18e	0.001210259
198	0x3c173e4b	0.00923116
199	0xbcf17ea8	-0.02947934
200	0xbc0fcc7d	-0.008776781
201	0xbc6d8557	-0.014497123
202	0xbce0461f	-0.027377186
203	0xbba2ceeb	-0.004968514
204	0x3c6554bd	0.013997254
205	0xbc27855f	-0.010224669
206	0x3c4a755d	0.012357083
207	0x3b959462	0.0045648078
208	0x3ccefc97	0.025266929
209	0xbd0db724	-0.034598485
210	0xbc891287	-0.016732467
211	0x3b36d9d0	0.0027900822
212	0x3c0805b2	0.008302139
213	0x3a884327	0.001039599
214	0xbb993703	-0.0046757474
215	0xbca941fe	-0.02066135
216	0x3c92b9ff	0.017910955
217	0xbd09b28a	-0.033617534
218	0x3ce4445d	0.02786463
219	0x3ca04dfb	0.019568434
220	0xbb2e7652	-0.0026620817
221	0xbcb32838	-0.021869764
222	0x3cc7b0d2	0.024376307
223	0xbc104453	-0.008805352
224	0xbb615a00	-0.003438592
225	0x3c7cc6ea	0.015428284
226	0xbb0962d4	-0.0020963447
227	0x3b69c2b3	0.0035669028
228	0xbcb7de77	-0.022444947
229	0x3d218edb	0.03944288
230	0xbb0f3bb5	-0.0021855657
231	0x3c8cd0c6	0.017189395
232	0x3cf9f40f	0.030511884
233	0x3cda213d	0.026627177
234	0xbc9cc50f	-0.019136934
235	0x3ab40beb	0.0013736462
236	0xbbef755f	-0.007307693
237	0x3cc4a605	0.024004946
238	0x3bcf5eb7	0.0063284296
239	0xbbb127ee	-0.0054063713
240	0x3bb7939e	0.005602314
241	0xbca369a5	-0.019947836
242	0xbc277154	-0.010219891
243	0x3d00a932	0.031411357
244	0xbc6e1328	-0.014530934
245	0xbd29051f	-0.04126465
246	0x3c9c0c27	0.019048763
247	0x3bf0f708	0.007353667
248	0x3c4973de	0.012295691
249	0x3c245bf6	0.010031691
250	0x3ca41b53	0.02003256
251	0xbc614c30	-0.013751075
252	0x3b7e32dd	0.003878764
253	0x3c37b517	0.011212609
254	0x3cb9768b	0.022639534
255	0xbc27a27b	-0.010231609

action_model._continuous_distribution.mu.bias f4 [2]
0	0x00000000	0.0
1	0x00000000	0.0

network_body.observation_encoder.processors.0.normalizer.running_mean f4 [6]
0	0x3f0b2408	0.54351854
1	0xbea410eb	-0.32044157
2	0xbfc2e4d2	-1.522608
3	0xbf90ff94	-1.1327996
4	0xbbdce6ca	-0.0067413794
5	0x3ea34378	0.31887412

network_body.observation_encoder.processors.0.normalizer.running_variance f4 [6]
0	0x44a5c7e7	1326.247
1	0x3fdd9bac	1.7313132
2	0x43ecde5c	473.73718
3	0x41e45ceb	28.54537
4	0x3f82b68a	1.0211957
5	0x43ffc9bf	511.57614

network_body.processors.0.normalizer.running_mean f4 [6]
0	0x3f0b2408	0.54351854
1	0xbea410eb	-0.32044157
2	0xbfc2e4d2	-1.522608
3	0xbf90ff94	-1.1327996
4	0xbbdce6ca	-0.0067413794
5	0x3ea34378	0.31887412

network_body.processors.0.normalizer.running_variance f4 [6]
0	0x44a5c7e7	1326.247
1	0x3fdd9bac	1.7313132
2	0x43ecde5c	473.73718
3	0x41e45ceb	28.54537
4	0x3f82b68a	1.0211957
5	0x43ffc9bf	511.57614

network_body._body_endoder.seq_layers.0.weight f4 [128, 6]
0	0xbdfe4e86	-0.12417321
1	0x3ef13146	0.47107905
2	0xbeb1aa6b	-0.3470033
3	0xbf1c0547	-0.6094555
4	0x3e0854ab	0.13313548
5	0xbe860e7d	-0.2618293
6	0x3de14884	0.110001594
7	0x3eaaa900	0.33332062
8	0xbf1811fa	-0.5940243
9	0xbd1e70a4	-0.03868164
10	0xbee03046	-0.4378683
11	0x3e5b4f85	0.21417053
12	0xbee7c149	-0.45264652
13	0xbee4b356	-0.44668072
14	0xbf0772aa	-0.5290934
15	0xbeb27703	-0.34856424
16	0x3e2d1362	0.16901925
17	0x3eb1fbdc	0.34762466
18	0xbcd63ae4	-0.026151128
19	0xbd11982a	-0.035545506
20	0xbf073b59	-0.5282493
21	0x3e8a5b00	0.27022552
22	0x3f19aec5	0.600323
23	0xbe79dfb6	-0.24401745
24	0xbd965bce	-0.07341729
25	0xbe54655e	-0.20741794
26	0xbebcb49f	-0.36856553
27	0x3ef5444a	0.47903663
28	0x3ddc37e5	0.107528485
29	0x3f35ada7	0.709681
30	0x3f07d186	0.5305408
31	0xbef701f3	-0.48243675
32	0xbd587745	-0.05284812
33	0xbe37d166	-0.17950973
34	0x3d0e168a	0.034689464
35	0x3ea1e07f	0.3161659
36	0xbddc7774	-0.107649714
37	0x3f2887fc	0.65832496
38	0x3c9ed4bd	0.01938855
39	0x3dba2128	0.09088355
40	0x3e77c19a	0.24194947
41	0xbed53dc7	-0.41648695
42	0xbeb2c7fd	-0.34918204
43	0x3d77e9d6	0.060525738
44	0xbf1c7ce5	-0.61128074
45	0xbf087258	-0.53299475
46	0x3efc13b7	0.4923379
47	0xbeccf4a4	-0.40030396
48	0x3e86183a	0.26190358
49	0x3f01c2a7	0.5068764
50	0x3dc7286a	0.09724505
51	0x3e85b3a1	0.26113608
52	0x3d2f3169	0.04277173
53	0x3c98416b	0.018585881
54	0x3de80408	0.11328894
55	0x3da652d1	0.08121265
56	0x3eaeefb7	0.34167263
57	0xbf14b975	-0.58095485
58	0x3e17826a	0.14795843
59	0x3eb45955	0.35224405
60	0x3ecdff9f	0.40234086
61	0x3f4dfa36	0.80459917
62	0x3ead2c4c	0.33822858
63	0x3eaa9944	0.33320057
64	0xbe3bf269	-0.18354191
65	0x3f07d2a0	0.53055763
66	0x3ed3183b	0.41229424
67	0xbe277b18	-0.1635555
68	0xbee8f802	-0.45501715
69	0x3dcbeff8	0.0995788
70	0xbef7a801	-0.48370364
71	0x3f8135cf	1.0094546
72	0xbea7828c	-0.32716787
73	0xbe3f7f8c	-0.18700999
74	0x3f0cfafb	0.55070466
75	0xbe4b871d	-0.1987576
76	0xbf16162a	-0.5862757
77	0x3d256f10	0.04038912
78	0x3ec0fd66	0.37693328
79	0x3f3c28e0	0.7349987
80	0xbe1b06d3	-0.15139322
81	0xbf42a6c5	-0.7603572
82	0xbdd4598c	-0.10368642
83	0x3edfdefb	0.43724808
84	0xbe3695c3	-0.17830567
85	0x3ea53372	0.32265812
86	0x3eb825cc	0.35966337
87	0xbe06ba98	-0.13157117
88	0xbe3f77be	-0.18698022
89	0x3b2e0f0a	0.0026559257
90	0xbe49acb4	-0.19694787
91	0xbed4d3f5	-0.4156796
92	0x3f422cf5	0.7584985
93	0xbd062c82	-0.03275729
94	0x3b3da502	0.0028937464
95	0x3df1c9b9	0.11806054
96	0xbf53e20c	-0.82766795
97	0xbf06d6fb	-0.52671784
98	0x3eec6a7c	0.4617499
99	0x3e045720	0.1292386
100	0xbe75001e	-0.23925826
101	0x3f3dea19	0.7418533
102	0xbed042f7	-0.4067609
103	0x3d290ec5	0.04127385
104	0xbd23acff	-0.039959904
105	0x3ed51f7a	0.41625577
106	0xbd1490c6	-0.03627088
107	0x3e8c6308	0.27419305
108	0x3f362d7c	0.71163154
109	0xbc47638a	-0.012169728
110	0xbf492024	-0.7856467
111	0xbf20760a	-0.62680113
112	0xbe6f5669	-0.23372807
113	0xbe72b9b2	-0.2370365
114	0xbd83a1e9	-0.06427366
115	0xbec7eb0c	-0.39046514
116	0x3e098d8e	0.13432905
117	0x3e13a7f2	0.14419535
118	0xbf0be097	-0.5463957
119	0xbecbcc61	-0.39804366
120	0x3eb5c3b6	0.35500878
121	0xbe298ee4	-0.16558415
122	0x3eb48c1b	0.35263142
123	0x3edd705f	0.43249795
124	0x3ee360f8	0.4440992
125	0x3e14b614	0.14522582
126	0xbf10a63f	-0.5650367
127	0x3ed347c9	0.41265705
128	0xbf4d7064	-0.8024962
129	0xbe493ec4	-0.1965285
130	0xbe250630	-0.16115642
131	0x3f1ae89a	0.6051117
132	0xbc08929a	-0.008335734
133	0xbec044d9	-0.37552527
134	0xbe9b552f	-0.30338427
135	0xbe562295	-0.2091163
136	0xbfc79be6	-1.5594451
137	0x3e0a07b1	0.13479497
138	0xbe5d5364	-0.21613842
139	0x3eef66e9	0.46758202
140	0xbef433bf	-0.4769573
141	0xbf33000b	-0.6992194
142	0xbef768c5	-0.4832212
143	0xbf4cf611	-0.8006297
144	0xbe39ff15	-0.18163712
145	0x3ee9271d	0.45537654
146	0x3f007f43	0.50194186
147	0xbf2d7e4b	-0.6777083
148	0x3e3e793f	0.18600939
149	0xbe9a99cd	-0.30195466
150	0xbe49bbfb	-0.19700615
151	0xbd6a22f2	-0.057162233
152	0x3e9f9385	0.31167236
153	0x3be0ee07	0.0068643126
154	0x3ed93f38	0.42431045
155	0x3e633289	0.22187246
156	0x3e6bd8a0	0.23031855
157	0xbeb1abe6	-0.3470146
158	0xbee2a282	-0.4426461
159	0x3ec8af6b	0.39196333
160	0x3e9775c2	0.2958203
161	0x3eb17ee1	0.34667113
162	0x3f834122	1.0254252
163	0xbf08391e	-0.53212154
164	0x3eb7e690	0.35918093
165	0xbe13ec56	-0.14445624
166	0xbe77a0c7	-0.24182425
167	0x3e4a85e2	0.19777635
168	0x3b24e03d	0.002515807
169	0x3ef62ee9	0.48082665
170	0x3ee3ea6d	0.4451479
171	0x3e6f0cf0	0.23344779
172	0x3e6828e2	0.22671846
173	0xbf4e3a94	-0.80558133
174	0xbe8ec566	-0.27884978
175	0x3cd82e95	0.0263894
176	0x3e6b1876	0.2295855
177	0x3f2fc7a5	0.6866401
178	0xbe3489fb	-0.1763076
179	0x3ebf0b70	0.37313414
180	0x3ddff595	0.10935513
181	0x3c2511b1	0.010075019
182	0xbef8e493	-0.48611888
183	0xbd8bc2f9	-0.068242975
184	0xbe1b0ba1	-0.15141155
185	0x3ef1fc52	0.47262818
186	0x3e956176	0.2917592
187	0xbf7302bd	-0.94926053
188	0x3d0642d7	0.032778587
189	0xbc06dca3	-0.008231315
190	0x3ed41058	0.4141872
191	0xbf71e90b	-0.9449622
192	0xbe428ee0	-0.18999815
193	0xbc141b05	-0.009039645
194	0x3e91903c	0.28430355
195	0xbebec270	-0.3725772
196	0xbe31d8b5	-0.17367823
197	0xbe6d1892	-0.23153904
198	0x3ec6f682	0.38859946
199	0xbe9b0a26	-0.3028118
200	0x3e9c6c0d	0.30551186
201	0xbe9f69f4	-0.31135523
202	0xbdead2f9	-0.11466021
203	0x3ebee7f0	0.3728633
204	0x3ecf9f28	0.40551114
205	0xbe68453f	-0.22682665
206	0x3f0d5c63	0.55219096
207	0x3e7bedaf	0.24602388
208	0x3ec82bc0	0.3909588
209	0x3f167a4d	0.58780366
210	0x3e773f1c	0.24145168
211	0x3e455c44	0.19273478
212	0x3d7d6c95	0.06187113
213	0xbe073ff5	-0.13207991
214	0x3f09e585	0.53865844
215	0xbe549d2f	-0.20763086
216	0x3ee17609	0.44035366
217	0xbeeab666	-0.45842284
218	0x3f8d0bd2	1.1019232
219	0x3e0bbdcb	0.13646619
220	0x3d9ac9f8	0.07558054
221	0x3f0cd0ce	0.5500611
222	0x3f526a2d	0.8219326
223	0x3dab82b3	0.08374538
224	0xbf0372fd	-0.51347333
225	0xbebb62fe	-0.36598963
226	0xbef0f908	-0.47064996
227	0x3eb3b487	0.3509867
228	0xbe568dce	-0.20952532
229	0x3f086b79	0.5328899
230	0x3eaf658c	0.34257162
231	0x3e14ee9e	0.1454415
232	0x3f063ece	0.5243958
233	0xbe597b95	-0.21238549
234	0x3e4b2466	0.19838104
235	0x3ed556a3	0.4166766
236	0xbef9cc0f	-0.48788497
237	0xbd97cf34	-0.07412568
238	0xbe7ab3e1	-0.24482681
239	0xbd62d185	-0.055375595
240	0x3f19d93b	0.6009709
241	0x3ee187a0	0.44048786
242	0x3f3e9914	0.7445233
243	0x3f24548d	0.64191514
244	0x3ec85c7a	0.39133054
245	0x3ed17d21	0.40915778
246	0xbe601253	-0.2188199
247	0xbde276a2	-0.11057784
248	0xbea99f8f	-0.33129546
249	0xbde1a108	-0.110170424
250	0xbf538a07	-0.8263249
251	0x3f11f073	0.5700752
252	0xbdb9cffb	-0.09072872
253	0xbedeaa73	-0.43489417
254	0x3eb6c97e	0.357006
255	0xbe6a0969	-0.22855152

network_body._body_endoder.seq_layers.0.bias f4 [128]
0	0x00000000	0.0
1	0x00000000	0.0
2	0x00000000	0.0
3	0x00000000	0.0
4	0x00000000	0.0
5	0x00000000	0.0
6	0x00000000	0.0
7	0x00000000	0.0
8	0x00000000	0.0
9	0x00000000	0.0
10	0x00000000	0.0
11	0x00000000	0.0
12	0x00000000	0.0
13	0x00000000	0.0
14	0x00000000	0.0
15	0x00000000	0.0
16	0x00000000	0.0
17	0x00000000	0.0
18	0x00000000	0.0
19	0x00000000	0.0
20	0x00000000	0.0
21	0x00000000	0.0
22	0x00000000	0.0
23	0x00000000	0.0
24	0x00000000	0.0
25	0x00000000	0.0
26	0x00000000	0.0
27	0x00000000	0.0
28	0x00000000	0.0
29	0x00000000	0.0
30	0x00000000	0.0
31	0x00000000	0.0
32	0x00000000	0.0
33	0x00000000	0.0
34	0x00000000	0.0
35	0x00000000	0.0
36	0x00000000	0.0
37	0x00000000	0.0
38	0x00000000	0.0
39	0x00000000	0.0
40	0x00000000	0.0
41	0x00000000	0.0
42	0x00000000	0.0
43	0x00000000	0.0
44	0x00000000	0.0
45	0x00000000	0.0
46	0x00000000	0.0
47	0x00000000	0.0
48	0x00000000	0.0
49	0x00000000	0.0
50	0x00000000	0.0
51	0x00000000	0.0
52	0x00000000	0.0
53	0x00000000	0.0
54	0x00000000	0.0
55	0x00000000	0.0
56	0x00000000	0.0
57	0x00000000	0.0
58	0x00000000	0.0
59	0x00000000	0.0
60	0x00000000	0.0
61	0x00000000	0.0
62	0x00000000	0.0
63	0x00000000	0.0
64	0x00000000	0.0
65	0x00000000	0.0
66	0x00000000	0.0
67	0x00000000	0.0
68	0x00000000	0.0
69	0x00000000	0.0
70	0x00000000	0.0
71	0x00000000	0.0
72	0x00000000	0.0
73	0x00000000	0.0
74	0x00000000	0.0
75	0x00000000	0.0
76	0x00000000	0.0
77	0x00000000	0.0
78	0x00000000	0.0
79	0x00000000	0.0
80	0x00000000	0.0
81	0x00000000	0.0
82	0x00000000	0.0
83	0x00000000	0.0
84	0x00000000	0.0
85	0x00000000	0.0
86	0x00000000	0.0
87	0x00000000	0.0
88	0x00000000	0.0
89	0x00000000	0.0
90	0x00000000	0.0
91	0x00000000	0.0
92	0x00000000	0.0
93	0x00000000	0.0
94	0x00000000	0.0
95	0x00000000	0.0
96	0x00000000	0.0
97	0x00000000	0.0
98	0x00000000	0.0
99	0x00000000	0.0
100	0x00000000	0.0
101	0x00000000	0.0
102	0x00000000	0.0
103	0x00000000	0.0
104	0x00000000	0.0
105	0x00000000	0.0
106	0x00000000	0.0
107	0x00000000	0.0
108	0x00000000	0.0
109	0x00000000	0.0
110	0x00000000	0.0
111	0x00000000	0.0
112	0x00000000	0.0
113	0x00000000	0.0
114	0x00000000	0.0
115	0x00000000	0.0
116	0x00000000	0.0
117	0x00000000	0.0
118	0x00000000	0.0
119	0x00000000	0.0
120	0x00000000	0.0
121	0x00000000	0.0
122	0x00000000	0.0
123	0x00000000	0.0
124	0x00000000	0.0
125	0x00000000	0.0
126	0x00000000	0.0
127	0x00000000	0.0

network_body._body_endoder.seq_layers.2.weight f4 [128, 128]
0	0x3cb446a9	0.02200635
1	0x3e62f573	0.22163944
2	0x3dbd0fd0	0.092315316
3	0xbda4afba	-0.0804133
4	0xbdb9319f	-0.090426676
5	0xbca983d2	-0.02069274
6	0xbc84f68d	-0.016230846
7	0x3d85b058	0.065277755
8	0xbd0e9662	-0.034811385
9	0xbdc3327b	-0.09531113
10	0x3d7ce3de	0.06174075
11	0xbd9786d5	-0.07398764
12	0x3e2e8452	0.17042664
13	0x3e576ca8	0.21037543
14	0xbde05962	-0.109545484
15	0xbd780d2f	-0.060559448
16	0xbe1dafc6	-0.15399083
17	0xbd393f6d	-0.045226503
18	0x3dd17d5f	0.10228991
19	0xbdf54e73	-0.119778536
20	0x3e4ff6e9	0.20309032
21	0x3dea48d4	0.11439672
22	0xbdec576d	-0.11540113
23	0xbc19f8a7	-0.009397662
24	0xbd9d363a	-0.076763585
25	0x3d55a7cc	0.052161977
26	0x3cd77c3c	0.026304357
27	0xbdfad4d0	-0.12247622
28	0x3d95970f	0.07304203
29	0xbd5e4dcb	-0.054273408
30	0x3e3c742a	0.18403688
31	0xbe864eb2	-0.26231915
32	0xbd365717	-0.04451665
33	0x3d6ff571	0.05858368
34	0x3dba787e	0.09105013
35	0x3db864a3	0.0900357
36	0xbcfad0ea	-0.030617196
37	0x3df56b03	0.119833015
38	0xbd86f73f	-0.06590127
39	0xbccf7084	-0.025322206
40	0xbd7a5f84	-0.061126247
41	0x3da58c30	0.08083379
42	0x3d94c238	0.07263607
43	0x3c7754c0	0.01509589
44	0xbdb6bb80	-0.089224815
45	0xbd8c647a	-0.06855102
46	0xbe066b30	-0.13126826
47	0x3d281548	0.04103592
48	0x3e38cd37	0.18047033
49	0xbd19eb2c	-0.037577793
50	0x3c2a6900	0.0104010105
51	0xbd105492	-0.035236903
52	0x3e1cce6a	0.15313116
53	0xbd196c32	-0.0374567
54	0x3d07b9c5	0.033136148
55	0xba56b152	-0.0008189875
56	0xb7e4925b	-2.724787e-05
57	0x3dab2411	0.083564885
58	0x3d9d2566	0.07673149
59	0x3df943a5	0.12171105
60	0x3e107bea	0.1410977
61	0x3d048cc1	0.032360796
62	0x3d7080ae	0.05871647
63	0x3d75af7b	0.059981804
64	0x3e962bc3	0.29330263
65	0xbd7e93ce	-0.062152676
66	0xbd471691	-0.048605505
67	0xbd4a25fb	-0.049352627
68	0xbd28ea05	-0.041238803
69	0x3bf3999c	0.007434083
70	0x3ca65423	0.020303791
71	0x3e22e076	0.15905938
72	0x3d7dbad7	0.061945762
73	0xbc629108	-0.013828523
74	0xbe3d1338	-0.18464363
75	0x3c1ba0d7	0.009498796
76	0xbdfed7d6	-0.12443511
77	0xbd38d688	-0.045126468
78	0x3cbd4966	0.023106288
79	0xbd59556c	-0.05305998
80	0xbdaed81b	-0.085373126
81	0x3d47857b	0.04871128
82	0x3bd90132	0.006622457
83	0xbbd8f893	-0.006621429
84	0x3d4faa69	0.050699625
85	0x3d8ead59	0.06966657
86	0xbbacb558	-0.0052706413
87	0x3ccd2a7e	0.025044676
88	0x3d9d6b94	0.076865345
89	0xbc5a48d0	-0.013323024
90	0x3d62dd96	0.055387102
91	0x3b948313	0.004532227
92	0xbdd652a3	-0.104649805
93	0xbe1bb33a	-0.15205088
94	0xbd631f28	-0.055449635
95	0x3e166a68	0.14689028
96	0x3c6a568f	0.014302864
97	0x3dc59d1d	0.096491076
98	0x3bc81461	0.006105945
99	0xbdda2340	-0.10651255
100	0xbbf3f53a	-0.007445005
101	0xbdc4cbfe	-0.09609221
102	0xbd61b3cd	-0.055103112
103	0xbda948ee	-0.08265863
104	0x3e83eb31	0.25765374
105	0x3c09e2c4	0.008415882
106	0xbd4c6693	-0.04990251
107	0xbd2a926f	-0.041643556
108	0xbd1dcf1b	-0.03852759
109	0xbd928465	-0.071541585
110	0xbd2a43a6	-0.04156842
111	0xbc597da2	-0.013274582
112	0x3d9fcde8	0.078029454
113	0xbd1552ea	-0.036456026
114	0xbc4205c5	-0.011842196
115	0xbe20eb11	-0.1571467
116	0xbd8707b6	-0.065932676
117	0xbd010802	-0.031501777
118	0x3d3cc2dd	0.046084274
119	0x3d39526f	0.04524463
120	0x3d9d56c3	0.07682564
121	0xbd953b92	-0.07286753
122	0xbc8a3019	-0.016868638
123	0x3a7f2099	0.00097323355
124	0x3c1b1507	0.0094654625
125	0xbc9f8b70	-0.019475669
126	0x3cbee75f	0.023303686
127	0xbd5afe49	-0.05346516
128	0x3c2674c0	0.010159671
129	0xbdc2681d	-0.09492514
130	0x3e08a49f	0.13344048
131	0xbd63d955	-0.055627186
132	0x3d9b9cc2	0.075982586
133	0xbc3650a2	-0.011127623
134	0xbe135d23	-0.14390998
135	0x3cb6036a	0.022218425
136	0x3dd86e27	0.10567885
137	0xbdb4475a	-0.08802672
138	0x3dd13d0a	0.102167204
139	0xbdedce3e	-0.11611603
140	0x3d089a3d	0.033350218
141	0xbd7e6bc1	-0.06211448
142	0xbcf5fa8e	-0.0300267
143	0xbc6af331	-0.014340208
144	0xbc288100	-0.010284662
145	0xbe2ae591	-0.16689135
146	0xbde15c85	-0.11003975
147	0x3cc41ff3	0.023941016
148	0xbd718a0a	-0.058969535
149	0x3d1e1a1d	0.038599122
150	0xbdd9dba6	-0.10637598
151	0xbd0e57c4	-0.03475167
152	0xbbef3260	-0.0072997063
153	0xbd912d87	-0.07088762
154	0xbc4258a9	-0.011861959
155	0x3d95e068	0.07318193
156	0xbdb789be	-0.08961819
157	0x3da9f631	0.082989104
158	0xbd26afba	-0.04069493
159	0x3dadff6a	0.08495982
160	0x3dacb1d6	0.08432357
161	0xbdc682bc	-0.09692904
162	0xbceab4b2	-0.028650615
163	0x3d9e7016	0.077362224
164	0xbd490642	-0.049078234
165	0xbdcce398	-0.100043476
166	0x3d623673	0.055227708
167	0x3d983151	0.07431281
168	0x3d80cfc0	0.06289625
169	0xbd112da4	-0.035443917
170	0x3ddffbdd	0.10936711
171	0xbde625ed	-0.112377025
172	0xbd4b3681	-0.049612526
173	0x3bf4046a	0.0074468153
174	0x3d47481a	0.048652746
175	0x3cbb826f	0.022889344
176	0xbd2a3335	-0.04155274
177	0x3d080229	0.033205185
178	0x3cf1fa70	0.029538363
179	0xbcb945df	-0.022616325
180	0x3d786cb7	0.060650554
181	0x39aa51d8	0.00032485905
182	0xbdf36117	-0.11883753
183	0x3d3b2375	0.04568811
184	0x3d8fbb31	0.07018126
185	0x3ca767cd	0.020435238
186	0xbe29d22d	-0.16584082
187	0x3dc56b05	0.09639553
188	0xbdb52476	-0.08844845
189	0x3d67b8c1	0.05657268
190	0x3d2e5d8b	0.04256968
191	0x3d81295c	0.06306717
192	0x3e02489e	0.12723014
193	0x3db47a32	0.088123694
194	0x3d0a1bce	0.033717923
195	0x3d97798c	0.0739623
196	0x3e032250	0.12806058
197	0x3d9eb638	0.07749599
198	0x3cf72c4a	0.030172486
199	0xbdd709da	-0.10499926
200	0xbc80348a	-0.015650053
201	0xbdc768e6	-0.09736805
202	0xbd568281	-0.052370552
203	0xbc622d93	-0.013804811
204	0xbdf8cffb	-0.12149044
205	0xbd9ef998	-0.0776245
206	0xbd0d2e15	-0.034467775
207	0xbdf53642	-0.119732395
208	0xbd3c3c28	-0.045955807
209	0x3dab4341	0.08362437
210	0x3da69a82	0.08134939
211	0xbe0220ae	-0.12707779
212	0x3de4028e	0.111333
213	0xbe2ee9f6	-0.17081437
214	0x3e17f8ce	0.14841005
215	0xbd823dfd	-0.063594796
216	0x3ceb68e6	0.028736543
217	0x3e204bb0	0.15653872
218	0x3da0f309	0.07858855
219	0x3d025f97	0.031829443
220	0x3dcaa7b7	0.0989527
221	0x3bfb1558	0.0076624565
222	0x3d60bffb	0.054870587
223	0x3e7a5ac5	0.24448688
224	0x3e790a62	0.24320367
225	0xbd75483b	-0.059883337
226	0xbdec8eaa	-0.115506485
227	0x3d7fb4d0	0.062428296
228	0x3e159e6d	0.14611216
229	0xbd895dce	-0.06707345
230	0x3c87cce6	0.016577195
231	0xbcd4c92e	-0.025974836
232	0x3d2b3b14	0.04180439
233	0xbd8bc358	-0.06824368
234	0x3d4d1438	0.05006811
235	0xbdbc392b	-0.091905914
236	0x3d37542e	0.044758014
237	0xbdaaa16f	-0.08331572
238	0x3dbaad7f	0.09115123
239	0x3e1b1a9d	0.15146871
240	0xbcbf9cba	-0.023390163
241	0x3d983e91	0.074338086
242	0xbd9b6832	-0.07588233
243	0xbe46e563	-0.19423442
244	0x3e51f2cc	0.20502776
245	0xbdb523d3	-0.088447236
246	0x3db84aac	0.089986175
247	0x3c997818	0.018734023
248	0xbd9a02b6	-0.07520048
249	0x3c7c6bb4	0.015406538
250	0xbdf3994a	-0.11894472
251	0x3debd7d2	0.11515774
252	0x3da47356	0.08029811
253	0xbcb25139	-0.021767246
254	0x3c072542	0.008248629
255	0xb8a4d5b4	-7.859935e-05

network_body._body_endoder.seq_layers.2.bias f4 [128]
0	0x00000000	0.0
1	0x00000000	0.0
2	0x00000000	0.0
3	0x00000000	0.0
4	0x00000000	0.0
5	0x00000000	0.0
6	0x00000000	0.0
7	0x00000000	0.0
8	0x00000000	0.0
9	0x00000000	0.0
10	0x00000000	0.0
11	0x00000000	0.0
12	0x00000000	0.0
13	0x00000000	0.0
14	0x00000000	0.0
15	0x00000000	0.0
16	0x00000000	0.0
17	0x00000000	0.0
18	0x00000000	0.0
19	0x00000000	0.0
20	0x00000000	0.0
21	0x00000000	0.0
22	0x00000000	0.0
23	0x00000000	0.0
24	0x00000000	0.0
25	0x00000000	0.0
26	0x00000000	0.0
27	0x00000000	0.0
28	0x00000000	0.0
29	0x00000000	0.0
30	0x00000000	0.0
31	0x00000000	0.0
32	0x00000000	0.0
33	0x00000000	0.0
34	0x00000000	0.0
35	0x00000000	0.0
36	0x00000000	0.0
37	0x00000000	0.0
38	0x00000000	0.0
39	0x00000000	0.0
40	0x00000000	0.0
41	0x00000000	0.0
42	0x00000000	0.0
43	0x00000000	0.0
44	0x00000000	0.0
45	0x00000000	0.0
46	0x00000000	0.0
47	0x00000000	0.0
48	0x00000000	0.0
49	0x00000000	0.0
50	0x00000000	0.0
51	0x00000000	0.0
52	0x00000000	0.0
53	0x00000000	0.0
54	0x00000000	0.0
55	0x00000000	0.0
56	0x00000000	0.0
57	0x00000000	0.0
58	0x00000000	0.0
59	0x00000000	0.0
60	0x00000000	0.0
61	0x00000000	0.0
62	0x00000000	0.0
63	0x00000000	0.0
64	0x00000000	0.0
65	0x00000000	0.0
66	0x00000000	0.0
67	0x00000000	0.0
68	0x00000000	0.0
69	0x00000000	0.0
70	0x00000000	0.0
71	0x00000000	0.0
72	0x00000000	0.0
73	0x00000000	0.0
74	0x00000000	0.0
75	0x00000000	0.0
76	0x00000000	0.0
77	0x00000000	0.0
78	0x00000000	0.0
79	0x00000000	0.0
80	0x00000000	0.0
81	0x00000000	0.0
82	0x00000000	0.0
83	0x00000000	0.0
84	0x00000000	0.0
85	0x00000000	0.0
86	0x00000000	0.0
87	0x00000000	0.0
88	0x00000000	0.0
89	0x00000000	0.0
90	0x00000000	0.0
91	0x00000000	0.0
92	0x00000000	0.0
93	0x00000000	0.0
94	0x00000000	0.0
95	0x00000000	0.0
96	0x00000000	0.0
97	0x00000000	0.0
98	0x00000000	0.0
99	0x00000000	0.0
100	0x00000000	0.0
101	0x00000000	0.0
102	0x00000000	0.0
103	0x00000000	0.0
104	0x00000000	0.0
105	0x00000000	0.0
106	0x00000000	0.0
107	0x00000000	0.0
108	0x00000000	0.0
109	0x00000000	0.0
110	0x00000000	0.0
111	0x00000000	0.0
112	0x00000000	0.0
113	0x00000000	0.0
114	0x00000000	0.0
115	0x00000000	0.0
116	0x00000000	0.0
117	0x00000000	0.0
118	0x00000000	0.0
119	0x00000000	0.0
120	0x00000000	0.0
121	0x00000000	0.0
122	0x00000000	0.0
123	0x00000000	0.0
124	0x00000000	0.0
125	0x00000000	0.0
126	0x00000000	0.0
127	0x00000000	0.0

value_heads.value_heads.extrinsic.weight f4 [1, 128]
0	0xbc7ca270	-0.0154195875
1	0xbd8f74cc	-0.07004699
2	0xbd9c7da4	-0.076411515
3	0x3d48d470	0.04903072
4	0x3e335070	0.17511153
5	0x3ded0ef0	0.11575115
6	0x3d4bccf0	0.04975599
7	0xbd983fb0	-0.074340224
8	0x3e2b4b96	0.16728052
9	0x3d70dd58	0.05880484
10	0x3df35600	0.118816376
11	0xbc4f96b0	-0.012670204
12	0xbe19a9cb	-0.15006177
13	0x3e15237a	0.14564314
14	0x3d69bac0	0.057062864
15	0xbdeb53f9	-0.11490626
16	0x3c7d0610	0.01544334
17	0xbe48b0c7	-0.19598685
18	0x3e5c3310	0.21503854
19	0xbe4aa486	-0.19789323
20	0x3e0c12b6	0.13679013
21	0x3e3eea52	0.18644074
22	0x3df2898c	0.11842641
23	0xbe479bb2	-0.19492987
24	0xbdd750c9	-0.105134554
25	0x3d8195a4	0.0632737
26	0xbc6fe570	-0.0146421045
27	0x3d4c9388	0.049945384
28	0x3dca705c	0.09884712
29	0x3e174926	0.14773998
30	0x3e158e44	0.14605051
31	0xbcb023f0	-0.021501511
32	0xbe4bdf71	-0.19909455
33	0x3d23e408	0.04001239
34	0xbe13bcb4	-0.14427453
35	0xbe233daa	-0.15941492
36	0xbd6006e4	-0.05469407
37	0xbdcd7a29	-0.10033066
38	0xbe001807	-0.12509166
39	0xbd7a2480	-0.061069965
40	0x3e332410	0.17494226
41	0xbe17003b	-0.14746182
42	0x3cbd48b8	0.023105964
43	0x3e328c04	0.17436224
44	0xbe5337f6	-0.20626816
45	0x3e3dce9e	0.1853585
46	0xbe316fab	-0.17327754
47	0xbdfed539	-0.12443013
48	0x3e4ce2be	0.2000837
49	0x3c40a530	0.011758134
50	0xbe0268a0	-0.12735224
51	0xbd5bc370	-0.05365318
52	0xbde9ffd4	-0.114257485
53	0x3b8b5020	0.004251495
54	0xbbf7bd60	-0.007560417
55	0xbe3d1d7c	-0.18468279
56	0x3e11b652	0.14229706
57	0xbd4c607c	-0.049896702
58	0xbcc70268	-0.02429314
59	0x3dd2a398	0.10285109
60	0x3e5ca5dc	0.21547645
61	0xbe1acfe8	-0.15118372
62	0xbda3c944	-0.07997373
63	0xbd92a4a2	-0.071603075
64	0xbddbdb9d	-0.10735247
65	0xbe014c8e	-0.1262686
66	0x3de8fcf8	0.11376375
67	0xbe330de3	-0.17485766
68	0xbe1207d0	-0.14260793
69	0xbd57e810	-0.052711546
70	0x3dd5ddcc	0.10442695
71	0xbe10ed38	-0.14152992
72	0x3dbf6920	0.09346223
73	0x3cead8f0	0.028667897
74	0xbe0d4f5c	-0.13799804
75	0x3e00d200	0.12580109
76	0x3e5a8770	0.21340728
77	0xbe13d536	-0.14436802
78	0xbe215326	-0.15754375
79	0x3c87c458	0.016573116
80	0x3d8f571c	0.06999037
81	0xbe37d7b4	-0.17953378
82	0x3aee2500	0.0018168986
83	0xbc53a310	-0.012917295
84	0x3e2c13b6	0.16804394
85	0xbcabd758	-0.020976707
86	0x3e28d0a2	0.16485837
87	0x3d98922c	0.07449755
88	0xbe360b60	-0.17777777
89	0xbd83f6c4	-0.06443551
90	0xbe0f5d70	-0.14000487
91	0xbe070c54	-0.13188297
92	0x3e16bb7a	0.14719954
93	0x3e5c07b0	0.21487308
94	0x3e007bb2	0.12547186
95	0xbe4be206	-0.1991044
96	0xbc948850	-0.018131405
97	0xbcd36960	-0.025807083
98	0xbdb5dd4a	-0.08880098
99	0xbd5abff0	-0.053405702
100	0x3e59a49e	0.21254203
101	0x3dcba3ec	0.09943375
102	0xbe0d3068	-0.13787997
103	0xbdef6e71	-0.11690987
104	0x3e19c74c	0.15017432
105	0x3d2ff9f8	0.042963
106	0xbdbbb021	-0.09164453
107	0x3ba6ec60	0.005094096
108	0xbe416692	-0.18886784
109	0x3d4dfc90	0.05028969
110	0x3dcff2d8	0.10153741
111	0x3e00eed6	0.12591109
112	0xbb8e8aa0	-0.0043500215
113	0xbddcb863	-0.107773565
114	0x3e2bffe8	0.16796839
115	0x3e162b70	0.14665008
116	0x3c992460	0.018694103
117	0x3dfe3cdc	0.12413952
118	0xbe2f375e	-0.17110965
119	0x3ca1cc68	0.019750789
120	0xbd3e9ab0	-0.04653424
121	0xbe1496ec	-0.14510697
122	0x3dcd8940	0.10035944
123	0xbe2f6328	-0.17127669
124	0x3d8395a0	0.06425023
125	0xbdd30fff	-0.103057854
126	0x3d82add8	0.06380814
127	0x3e54f902	0.20798114
