ML-Agents/Examples/SphereHunt/results/imitation_test_001/SphereHunt/checkpoint.pt (torch, 540898 bytes, 58 tensors)

network_body.observation_encoder.processors.0.normalizer.running_mean f4 [10]
000000 59 be 18 3e 58 ff ff 3e da 32 b0 be db 8a c0 3e
       0.14916362 0.499995 -0.34413797 0.37605938
000010 00 00 00 00 54 1c e4 bd 44 f0 f9 3d ee 19 b2 3d
       0.0 -0.11138216 0.1220403 0.08696352
000020 94 10 70 bf 91 4c 67 3c
       -0.93775296 0.014117376

network_body.observation_encoder.processors.0.normalizer.running_variance f4 [10]
000000 c9 1e 00 49 a3 00 a0 3f 54 b7 08 49 84 ff 1b 49
       524780.56 1.2500194 559989.25 638968.25
000010 00 00 80 3f 83 9f c5 48 bf bb 27 46 f6 1d 1d 48
       1.0 404732.1 10734.937 160887.84
000020 fd 4b 06 4c ac 9f 6f 47
       3.5205108e+07 61343.67

network_body.processors.0.normalizer.running_mean f4 [10]
000000 59 be 18 3e 58 ff ff 3e da 32 b0 be db 8a c0 3e
       0.14916362 0.499995 -0.34413797 0.37605938
000010 00 00 00 00 54 1c e4 bd 44 f0 f9 3d ee 19 b2 3d
       0.0 -0.11138216 0.1220403 0.08696352
000020 94 10 70 bf 91 4c 67 3c
       -0.93775296 0.014117376

network_body.processors.0.normalizer.running_variance f4 [10]
000000 c9 1e 00 49 a3 00 a0 3f 54 b7 08 49 84 ff 1b 49
       524780.56 1.2500194 559989.25 638968.25
000010 00 00 80 3f 83 9f c5 48 bf bb 27 46 f6 1d 1d 48
       1.0 404732.1 10734.937 160887.84
000020 fd 4b 06 4c ac 9f 6f 47
       3.5205108e+07 61343.67

network_body._body_endoder.seq_layers.0.weight f4 [128, 10]
000000 6d 58 ca 3e 7d 9c e6 3e cc 30 b2 3d 30 5a 45 be
       0.3952059 0.45041266 0.087007135 -0.19272685
000010 24 30 bd 3e 60 e8 b7 be fb e8 54 bf e0 40 c3 be
       0.3695079 -0.35919476 -0.83168 -0.38135433
000020 96 b5 2a be ed f9 a0 bd f6 73 97 be 9f 4f e3 3e
       -0.16670832 -0.078601696 -0.2958066 0.44396684
000030 38 ab 21 be 39 cb 03 3f 0b 1f 25 3c 82 88 04 3f
       -0.15787971 0.5148197 0.010078202 0.51770794
000040 23 74 48 be d9 a6 61 be 4f f5 ef be df 96 cf 3b
       -0.19575553 -0.22036304 -0.46866843 0.006335124
000050 6d 3d 6c 3d bc 31 a8 be 18 61 b7 3e 33 f3 9f 3e
       0.057675768 -0.32850444 0.35816264 0.31240234
000060 5f 43 8b be 41 01 46 be c3 8a 2c be f2 bb 35 3e
       -0.27199838 -0.19336416 -0.16849808 0.17747477
000070 2b 07 a5 3d 4c 28 94 3e f8 b7 8f 3e 87 5c 38 bc
       0.08058008 0.28936994 0.28070045 -0.011252529
000080 ad e9 a8 3e 22 9a 86 be 03 d3 71 be 11 be b1 be
       0.3299078 -0.2628947 -0.23615651 -0.34715322
000090 b3 d2 d2 be 45 a3 fe bd b9 f3 94 3d a1 26 45 3e
       -0.41176376 -0.12433485 0.07273049 0.19253017
0000a0 db 0a 05 bf b5 6d 8b be 26 9d ff be bf a6 14 3f
       -0.5196969 -0.27232137 -0.49924582 0.58066934
0000b0 28 b8 9e 39 4b 55 7f be 86 69 e5 3b 24 d7 7c bc
       0.00030273315 -0.2493488 0.0070011048 -0.015432153
0000c0 05 4b be 3e ef 8c 70 3e 94 11 92 be d1 30 e0 3e
       0.3716661 0.23491262 -0.28529036 0.43787244
0000d0 0b 29 0d bf 84 aa 55 3e 1a 59 ad 3d 43 74 53 be
       -0.5514075 0.20865828 0.084642604 -0.20649819
0000e0 e3 41 5b 3e 8b c6 50 bf 50 f2 ae be 4c 46 ad be
       0.21411853 -0.8155295 -0.34169245 -0.33842695
0000f0 1b b4 ec be 3c 49 a2 be 7a 25 06 3e e4 c1 b5 be
       -0.4623116 -0.31696498 0.13100234 -0.3549949
000100 78 2c 21 3d b7 2f c9 bc f8 ca 04 3f 64 f3 fe 3d
       0.03934905 -0.024558885 0.51872206 0.12448767
000110 d6 20 54 be f7 15 8b be 2c 0e ec 3e 45 00 fa 3e
       -0.20715651 -0.27165195 0.46104562 0.4882833
000120 96 21 e7 be 1b e4 4f 3f ec 92 00 3f 2a 49 68 3e
       -0.45142812 0.81207436 0.50224185 0.2268416
000130 5c 28 b3 be b6 33 aa 3e 5e 4c 2a 3e 20 4a 47 3c
       -0.3499173 0.33242577 0.16630694 0.012163669
000140 86 89 4d 3f c2 50 22 3e 2e e5 ed bd 7f eb a1 3d
       0.8028797 0.15851119 -0.11615978 0.079062454
000150 ef 6c 10 3f 8f 73 a5 be 67 b7 48 be b4 93 ac be
       0.5641622 -0.32314727 -0.19601212 -0.3370644
000160 01 82 0b 3f f7 08 d5 be 64 20 ed be d1 3d 0a bf
       0.54495245 -0.41608402 -0.46313775 -0.54000574
000170 70 c9 7f 3d 6d e3 08 3f 14 b1 82 3e 35 c7 87 be
       0.062447965 0.53472024 0.25525725 -0.2651917
000180 88 b6 6d be 01 35 01 be c6 b3 8c 3f aa 77 38 bf
       -0.23214161 -0.12617876 1.0992362 -0.7205759
000190 24 de 95 3e 4d 69 e9 3e 4c ce 89 3e f7 60 89 3d
       0.29271042 0.4558815 0.26915205 0.06707948
0001a0 da 75 d5 bd 4c 0f d4 3e 94 fc c0 3d 0b 5f f9 be
       -0.10422869 0.4141792 0.094231755 -0.48705325
0001b0 94 0d ba be 3e f5 87 3e e8 3d 1b 3f a1 b4 ed 3e
       -0.36338484 0.26554292 0.60641336 0.4642687
0001c0 d8 1c a6 3e d5 94 9c 3e 71 66 65 be 5d 65 f5 3c
       0.3244388 0.305823 -0.2240236 0.02995556
0001d0 1f e8 b2 3e 20 b6 dd be c0 06 37 3e e4 bb fa bc
       0.3494272 -0.43303013 0.17873669 -0.030607171
0001e0 da e4 19 bf 4c fc 94 bb 59 a3 e2 3e 9c 46 46 be
       -0.60114825 -0.0045466777 0.4426525 -0.19362873
0001f0 ea ec c6 3d 70 1e cf bd 30 ee 18 be a6 9d 1d bd
       0.097131565 -0.10113227 -0.14934611 -0.038480423
000200 37 d2 b6 be 23 55 c1 3d 99 aa 38 3f f2 02 31 3d
       -0.35707256 0.09440067 0.7213531 0.0432157
000210 b6 3b 67 3c cb e3 60 3d 77 1b e4 3d 40 70 15 3f
       0.014113357 0.05490474 0.11138051 0.58374405
000220 6a 8d 2f bf a4 aa 9d 3e 1d 65 6f bc 93 a3 1f bf
       -0.68575156 0.3079425 -0.01461151 -0.6235897
000230 f3 c0 00 bf 90 3b 66 3e 56 70 10 be f7 cf 13 3d
       -0.5029442 0.22483659 -0.14105353 0.036087003
000240 7e 27 00 3e 22 12 9d be 94 d3 0e be 41 0c 8f 3d
       0.12515065 -0.30677897 -0.13947898 0.06984759
000250 b2 e4 7b 3e 08 89 c2 3d 02 89 d2 3e 62 fe 75 3e
       0.24598959 0.09498793 0.41120154 0.2402282
000260 57 b3 b3 3e 7b 09 b2 be 1c c8 d7 be 26 19 e9 bd
       0.35097763 -0.34772858 -0.4214486 -0.1138175
000270 8a 10 4a 3e b3 c7 a1 3e 15 76 65 3e 94 fd 91 3e
       0.19732872 0.3159767 0.22408326 0.28513777
000280 bd c5 09 3e 9a ce 02 be d0 16 92 3e 83 70 1e bf
       0.13454337 -0.12774125 0.2853303 -0.6189043
000290 a7 8d 83 be 00 3b 96 be b5 ca 46 bf c3 29 11 be
       -0.2569401 -0.29341888 -0.77653056 -0.14176087
0002a0 9a 98 01 3f 40 ae 44 be 3b da 9d 3e 15 71 93 be
       0.50623477 -0.19207096 0.3083056 -0.28797212
0002b0 20 55 2b bf d0 88 5d be 3f c9 42 3d f6 5e 59 3f
       -0.66926765 -0.21634221 0.047555204 0.84910524
0002c0 60 dd e7 be bf 93 06 be 30 a4 9a be 8a 19 cf be
       -0.45286083 -0.13142298 -0.3020339 -0.40449172
0002d0 6c ef 80 bf 13 48 5f 3d 2a e7 be 3e 5c 4a da 3e
       -1.0073066 0.054512095 0.3728574 0.42634857
0002e0 78 4a c4 be 7c b4 ce be c4 36 ce 3d 2c 7e 36 be
       -0.38338065 -0.40372074 0.100690395 -0.17821568
0002f0 5b a6 bc bd eb 88 f7 3d 9a 47 ab 3e ed b3 82 bc
       -0.09211417 0.12086662 0.33453065 -0.015954936
000300 0a c8 c8 3e 64 13 c6 3e 73 8c 84 b9 83 bf a5 3d
       0.39215118 0.3868667 -0.00025281645 0.080931686
000310 ff ce 44 3e 4a e4 d8 bd c7 20 dc be 5e fc 28 be
       0.19219588 -0.10590418 -0.42993757 -0.1650252
000320 d9 19 ea 3e 37 8f b1 be 1a 45 7a 3e 35 3f 55 be
       0.45722845 -0.34679577 0.24440423 -0.20824893
000330 ac 80 d9 bd 89 60 80 3d ae f6 23 3f cc e1 cd 3e
       -0.10620245 0.062684126 0.6404828 0.40211332
000340 14 60 39 3e 9d 69 92 3e 82 d0 96 3f 96 40 0f 3f
       0.18103057 0.28596202 1.1782382 0.55957925
000350 84 cf 20 3e 8e 6e 6e bf f5 2a 68 bf 2f 3a 30 3e
       0.15704161 -0.93137443 -0.9069055 0.17209695
000360 bc 3b 3c 3d 5f 26 32 be 1d ca 02 bc 07 26 fb 3c
       0.045955405 -0.1739745 -0.007982758 0.030657781
000370 3f 1a 89 3e 5b 6b f7 bd 88 39 dd be 37 46 d8 be
       0.26777837 -0.12081023 -0.43207955 -0.4224107
000380 01 fe b6 3d 90 b6 4f 3e 80 e4 b3 3e b3 c4 15 be
       0.08935166 0.20284486 0.3513527 -0.14625816
000390 53 6a 89 be 47 0b 92 3d 6f ad bd 3e eb 30 69 bd
       -0.2683893 0.07131057 0.37046382 -0.056931417
0003a0 be 00 69 bd a2 1d 20 3f f8 00 46 3d 31 cd f2 bd
       -0.056885473 0.62545216 0.048340768 -0.118555434
0003b0 39 25 bf 3e aa 3d ca be c0 93 f9 3e a5 8e d6 bd
       0.37333086 -0.3950017 0.48745537 -0.10476426
0003c0 28 49 1e 3f ce 39 3b be 38 ad fd 3e 97 ef 69 3e
       0.6183038 -0.1828377 0.49546218 0.22845303
0003d0 2a 08 a2 3d 3e 54 93 be 81 08 c7 be ef f4 2c 3e
       0.079117134 -0.2877521 -0.38873675 0.1689031
0003e0 23 18 b5 3e 84 59 97 3e 61 61 9e bd 3f af 6d 3e
       0.35369977 0.29560483 -0.07733417 0.23211382
0003f0 1f 37 b3 bc 46 4a 74 bd b3 f2 4f bc 32 45 f4 bc
       -0.02187687 -0.059641145 -0.012692141 -0.029818151

network_body._body_endoder.seq_layers.0.bias f4 [128]
000000 5c d4 04 3e 93 e1 01 3d 14 ce 04 3e 23 52 e5 3d
       0.12971634 0.031709265 0.12969238 0.11197307
000010 6b 76 d1 3d 5f ba 89 3d 87 1f aa bb 12 a9 0e 3e
       0.102276646 0.067250006 -0.0051917466 0.13931683
000020 68 f1 bd 3d d9 43 c2 3d b6 bf c0 3d ac bf 4e 3d
       0.0927456 0.09485597 0.09411566 0.05047576
000030 b7 97 31 3c 44 09 14 3e 10 5d 35 3e 08 e8 1b 3d
       0.010839394 0.1445666 0.17711282 0.03806308
000040 f9 0d 15 3e ff 81 43 3e fd 27 30 3e 67 f5 77 3d
       0.14556111 0.19092558 0.17202754 0.06053677
000050 eb a6 c3 bd be 76 de 3d 14 ea 36 3d f6 3a cb 3d
       -0.095533215 0.10862492 0.044656828 0.09923355
000060 91 bd dc 3d b6 3e 18 3e dd 58 6b 3d 78 8d c6 3d
       0.107783444 0.14867672 0.057457794 0.09694952
000070 b8 73 df 3d 8b 5a d7 3d bf e0 f8 3a 44 e9 c7 3b
       0.109107435 0.105153166 0.0018987878 0.0061008055
000080 58 03 28 3d a1 94 9f 3d 15 58 f0 3d 28 6d bb 3d
       0.041018814 0.077920206 0.1173555 0.09151679
000090 4d 1c 0f 3e aa c0 e4 3d 14 1a fd 3d 6b 89 91 bb
       0.1397564 0.1116956 0.1235849 -0.0044414303
0000a0 c4 9f b1 3d e6 c8 61 3d 26 c6 12 3e 3c cb 5d 3d
       0.08673051 0.055123232 0.143334 0.054148898
0000b0 4c 96 cb 3d f8 66 f8 bd 81 4a df 3d a5 17 b5 3d
       0.09940776 -0.12129015 0.10902882 0.088424005
0000c0 5a 84 9b 3d 6e 2c d9 bc 6c f0 af 3b 99 40 b8 3d
       0.075936034 -0.026510444 0.0053692367 0.08996696
0000d0 1b 08 e0 3c eb 46 ff 3d 28 07 17 3d c8 30 de 3d
       0.027347615 0.124646984 0.03687206 0.10849148
0000e0 a6 a5 d4 3d fc e3 1a 3d 26 f6 b7 bd 24 fe 0d 3e
       0.103831574 0.03781508 -0.08982496 0.13866478
0000f0 01 0b b5 bd 5b e3 6f bd a3 9c 2c 3d 20 43 bc 3c
       -0.088399895 -0.058566432 0.042141568 0.022981226
000100 8a c9 b7 3d cf bb 1b 3d 28 34 11 3e 1e ba 39 3c
       0.089739874 0.038020905 0.14180052 0.011335878
000110 5a 0c 14 3d 2c 44 01 be 58 6a 16 3c e5 00 8f 3d
       0.036144592 -0.12623662 0.009180628 0.069825925
000120 c6 59 a6 bd 0b dc 71 3d 6f 12 9c bc d4 ab 6a 3c
       -0.08122592 0.05904774 -0.019051759 0.014323194
000130 c4 a8 03 bb c0 53 81 3c 29 c3 3c 3d fe 10 29 3e
       -0.0020089606 0.015787005 0.046084557 0.16510388
000140 86 b0 0d 3e 78 af 19 bd 50 95 ba 3d 2d bc fa ba
       0.1383687 -0.037520856 0.0911051 -0.0019129567
000150 a8 a8 ea 3d d8 c2 95 3d 2f 3e f2 3c c7 83 6d bd
       0.1145795 0.07312554 0.029570667 -0.057987
000160 1d dc 9f bd c8 f0 d8 3d 96 04 08 3e 1f d4 0f be
       -0.07805655 0.105928004 0.13283 -0.14045762
000170 12 ec 16 3d b2 98 08 3e 4c 38 7e 3b 2b cc a1 3d
       0.036846228 0.13339499 0.003879088 0.0790027
000180 05 d8 c2 bc fd 27 3d 3d 9d 4f 0c 3d 3f 52 67 bd
       -0.023784647 0.046180714 0.034255613 -0.05647492
000190 ee 8e e5 bd 1a 6b f1 3c 8f eb 05 3e b1 3e a1 3d
       -0.11208902 0.029470015 0.1307814 0.078732856
0001a0 21 6d 63 3d 51 37 d7 3d 0b 0a 0b 3e b9 18 55 bd
       0.055523995 0.10508598 0.1357805 -0.05202553
0001b0 ca 9b 12 3e 48 fd dc 3d df 1b 14 bd 41 f0 cc bb
       0.14317241 0.10790497 -0.036159392 -0.0062542264
0001c0 99 31 d1 3d 0f 64 63 3d a0 43 1e 3b 63 03 ea 3d
       0.10214538 0.055515345 0.0024149194 0.11426427
0001d0 c8 d3 d3 3d 27 be 0c 3b f7 7f ce 3d 99 87 af bd
       0.103431284 0.0021475644 0.10083001 -0.08570785
0001e0 74 a9 be 3d 1d a9 2a 3d 8b b1 45 3d 15 31 45 3d
       0.09309664 0.041665185 0.04826502 0.04814251
0001f0 90 8c b9 3d 45 ff bd 3d d2 2e 84 3d 6d 33 88 3c
       0.09060013 0.092772044 0.06454243 0.016626084

network_body._body_endoder.seq_layers.2.weight f4 [128, 128]
000000 73 8d 6b bd 24 f7 6c bd fd 80 c9 bd ca 1d 21 bd
       -0.057507943 -0.05785288 -0.09839056 -0.03933505
000010 1a 1f 25 be 7c 78 13 bd 11 09 bb bd 04 54 68 3d
       -0.16125146 -0.036003575 -0.09132589 0.05672075
000020 1b e5 dd bc c6 11 c2 bd ba 60 94 3b 61 3d 01 3d
       -0.027086785 -0.09476046 0.0045281323 0.031552676
000030 f7 24 b4 3d 8a 71 0f 3e df 91 fd bc c4 7b ec bd
       0.08796113 0.14008155 -0.030953346 -0.11547044
000040 e4 d7 18 3d 03 90 cf 3d 52 5a 8e be c6 82 fe bc
       0.037315264 0.1013489 -0.27803284 -0.031068217
000050 d2 50 61 be be 62 e6 3d 65 24 8e bc 46 4f 1d bb
       -0.22003487 0.11249302 -0.017351339 -0.002400355
000060 6c 9e 4a be 41 95 f6 3c 97 77 6d be 6c 6f 03 bd
       -0.19786996 0.030100467 -0.23190151 -0.032088682
000070 4f 3e cd 3d 08 35 44 3b 76 20 0c 3b 2a b4 84 be
       0.1002165 0.0029938836 0.0021381653 -0.25918704
000080 1d 74 8e bd ff 0d d5 3d 79 f3 d1 3d 40 2f 77 bd
       -0.069557406 0.1040306 0.10251517 -0.060347795
000090 02 13 ca 3d ae 37 ef 3c b8 35 0f bd cf e5 e5 bd
       0.09866907 0.029201355 -0.03496334 -0.11225473
0000a0 cb 7b 02 3c 88 b0 0f be 84 91 ea 3b 20 23 0f be
       0.007964085 -0.14032185 0.00715846 -0.13978243
0000b0 4b 78 12 3d 56 a5 1a be c6 bf e8 3d be 51 d2 3c
       0.03575925 -0.15102133 0.11364703 0.025673743
0000c0 4d d0 a8 3d 75 c2 d1 3d c1 22 24 bc 01 7d 3e be
       0.08242855 0.10242168 -0.010018052 -0.18602373
0000d0 f2 b3 2b be 55 2a 8e 3c ca ba 4b be f1 88 5c 3d
       -0.16767862 0.01735417 -0.19895473 0.053841535
0000e0 d3 28 ce bd 3e 8b b4 bd cf 52 a0 3d 6c 6f a4 3d
       -0.1006638 -0.08815621 0.078282945 0.080290645
0000f0 32 6f 18 be dd 89 92 3d 44 a2 11 be 25 96 fc bc
       -0.14886168 0.071552016 -0.14222056 -0.030833313
000100 56 80 45 be 11 dd b8 3d d3 05 5d be 2e 6d 97 be
       -0.19287238 0.0902654 -0.21584253 -0.29575485
000110 a6 b1 05 3d 5b 43 10 be 22 04 85 3d 4c 05 1f 3d
       0.032640122 -0.14088194 0.06494929 0.03882341
000120 de 17 0a bd 6b 76 f9 bd e5 eb 52 be b7 c6 df bd
       -0.033714168 -0.121807896 -0.20597799 -0.10926574
000130 8c e1 cb 3d 12 b6 95 3c 24 02 c3 bd 5b 69 15 3c
       0.09955129 0.018275294 -0.09521893 0.009119357
000140 82 60 33 be 1a 6c 3e be 58 41 2a be 98 0d 6b 3d
       -0.17517284 -0.18595925 -0.16626489 0.05738601
000150 98 8f be 3d a0 65 1b 3e 7a 48 b4 bc 17 c1 5a bd
       0.09304732 0.15175486 -0.022007216 -0.0534068
000160 ea 02 1a be 69 bb 16 3e db 3b fb bc a4 39 7d 3d
       -0.15040174 0.14719929 -0.03066819 0.06182255
000170 25 61 72 3e 28 5d a9 bd cb 70 a0 3c 1e c3 02 be
       0.2366987 -0.08269721 0.019585034 -0.12769744
000180 47 78 81 bd 8f 39 52 be b4 89 f1 bd fd 6f 40 be
       -0.06321769 -0.2052977 -0.11793843 -0.1879272
000190 4e 11 b2 bd 19 63 11 3e 7b 8b 3c be b7 a3 3d bd
       -0.08694707 0.14197959 -0.18412583 -0.04629871
0001a0 cf 0a 17 be a6 64 56 be 29 41 1e 3e 5d 49 72 bd
       -0.14750217 -0.20936832 0.15454544 -0.059151996
0001b0 5b 05 7d be d8 fa d1 bb 09 bf 8b be 8b c5 b8 bc
       -0.24709074 -0.0064080767 -0.27294186 -0.022555133
0001c0 cf 79 13 be 8f 14 ad 3c dc 68 bc bb 41 c2 57 3d
       -0.14401935 0.021127967 -0.005749805 0.05267549
0001d0 40 06 ab b9 61 a0 7b bb d2 df d4 bd eb 06 82 bd
       -0.00032620318 -0.0038395154 -0.10394253 -0.06348976
0001e0 c2 c4 12 be d4 3e 2b 3c 5b 5d 38 be 91 a9 85 3d
       -0.1433287 0.010451991 -0.18004362 0.06526483
0001f0 c4 3a 75 bc 8d 61 9d bd c9 d6 14 bc a0 66 62 3d
       -0.014967624 -0.07684622 -0.009084412 0.055273652
000200 ac 11 08 3c 8a 24 68 bc db a2 97 3c 5c f3 e1 3d
       0.008304995 -0.014168868 0.018510273 0.11032745
000210 03 cd cb bd 74 ca c2 3d bb c0 95 bb c7 da 04 bd
       -0.09951212 0.09511271 -0.0045700944 -0.032435205
000220 dc 50 b7 bc f1 02 d3 3d 67 de b9 bd ec 57 52 bd
       -0.022377424 0.103032954 -0.09075623 -0.05135338
000230 94 78 1b 3d 2b f1 e5 3c 22 67 b9 3b 1f 44 fd 3d
       0.03795679 0.0280691 0.0056580463 0.12366509
000240 ed 78 60 bd 93 32 4d bd 27 a3 79 bd 73 89 b8 3d
       -0.054802824 -0.05009706 -0.06094661 0.09010591
000250 cc 46 73 3d e1 bd 03 bd ec 43 56 3c 8a 29 36 3c
       0.05939369 -0.032163505 0.013077717 0.011118302
000260 5f 86 01 be b1 34 46 be 01 ca 38 bd e0 4d 04 be
       -0.12648915 -0.19356038 -0.04511452 -0.12920332
000270 83 0a 84 3d 47 69 a0 bd 7b a7 91 bd 92 89 cf bc
       0.064473175 -0.0783258 -0.071120225 -0.025334153
000280 2a 84 08 3e f6 45 df bc 65 63 9f 3d a7 76 2d 3e
       0.13331667 -0.02725504 0.0778263 0.16939794
000290 ed bc 29 3d c2 06 68 bd a8 a6 7e bd 52 6f c3 3d
       0.04143994 -0.05664707 -0.062170655 0.09542717
0002a0 cb 94 3b 3e df d0 14 be 64 71 a7 bd 32 ed 9f be
       0.18318479 -0.14532803 -0.081759244 -0.31235653
0002b0 d1 5c a3 bd a9 ca 29 bd ab c0 27 be db 92 fe bc
       -0.07976688 -0.041453037 -0.16382091 -0.031075886
0002c0 5a 05 02 be cd 04 b8 bd d8 c1 b8 3c 96 fa b3 ba
       -0.12697354 -0.08985291 0.02255337 -0.0013731297
0002d0 52 18 b1 bd be f4 4b bd c7 5d 94 3d 3e 6d fe bc
       -0.08647217 -0.04979395 0.07244449 -0.03105795
0002e0 e3 50 cf bd fd 66 be 3d 35 7b 2f bc dc 99 83 bc
       -0.1012285 0.09296987 -0.010710527 -0.016064577
0002f0 e3 af cc 3c be 78 e4 3d fb 3c b0 bd 0b b9 52 bc
       0.024986213 0.11155842 -0.08605381 -0.0128615005
000300 fb 7f 37 3e ae d4 52 bd ca 2c 94 bd 9a 6b c5 bc
       0.17919914 -0.05147236 -0.07235105 -0.02409916
000310 f2 09 b7 bd 36 1b 37 bd 1d 76 90 bd 77 6e ca 39
       -0.08937444 -0.044703685 -0.07053778 0.00038610745
000320 a9 61 8d bd 18 dc 88 bd 1a a1 cb 3c f9 09 67 bc
       -0.06903393 -0.066826046 0.024857093 -0.014101499
000330 c2 d7 e4 bd e3 6b 63 3d 3d ad 9e 3d 5e eb 95 bd
       -0.11173965 0.05552281 0.07747886 -0.07320283
000340 10 e3 13 be f3 34 9d 3d 16 36 f3 3c 55 12 ac 3d
       -0.14442086 0.07676115 0.029688876 0.08401934
000350 e2 ad 83 be 1c 77 27 3d 98 06 61 bd b4 b1 70 3d
       -0.257186 0.040885076 -0.05493793 0.05876322
000360 f9 ef bb 3c 35 b8 b9 bd 85 78 83 3b e9 46 7e 3d
       0.022941576 -0.09068338 0.00401217 0.062079344
000370 24 a2 e3 3d a5 af 35 bd 1b b7 73 3d 06 88 6d bd
       0.1111491 -0.04435696 0.059500795 -0.05799105
000380 b5 55 a4 bd 4d f3 b9 bc a3 5e 12 3e 15 2a fd 3c
       -0.0802416 -0.022699023 0.14293914 0.030903855
000390 5e 97 dd 3d c4 7f e9 3a 23 5e d7 3d 26 81 0a 3e
       0.108198866 0.0017814566 0.10516002 0.13525829
0003a0 27 38 07 bd 6d 62 bb 3d ef 86 54 be a9 57 24 bd
       -0.033012535 0.091496326 -0.20754598 -0.04012266
0003b0 4a c4 e6 bd 3d da d8 bd d5 9c 7d bb f3 51 01 bd
       -0.11267908 -0.10588501 -0.0038698216 -0.031572293
0003c0 bb 6e 7b bd dd 33 ab 3c 58 4b 5a bd 41 c3 80 3d
       -0.061384898 0.020898754 -0.05329451 0.06287242
0003d0 85 3e 12 3d dd fe 2c be 6e 18 b8 3d 56 26 61 bd
       0.035704155 -0.16894098 0.089890346 -0.0549682
0003e0 43 c3 ef bc 33 d9 c0 bd 44 0b ed bd 1e 55 e1 3c
       -0.029267913 -0.094164275 -0.11574414 0.027506407
0003f0 3b d8 06 bd 76 4b 92 bd 5f 4b fb bb ba a4 14 bc
       -0.032921057 -0.07143299 -0.007668897 -0.009072477

network_body._body_endoder.seq_layers.2.bias f4 [128]
000000 4b e9 48 3d 14 4e a3 bd cc 45 a2 3d 2b 1a 9b bd
       0.04905061 -0.079738766 0.07923469 -0.075733505
000010 f8 e4 90 3d d6 13 95 3d 3f 18 16 3d d0 b4 a6 3d
       0.07074922 0.07279174 0.036644217 0.08139956
000020 d7 b4 f3 3c 40 3e 5e bd cc 37 90 bb 3c 09 a1 3d
       0.029749317 -0.054258585 -0.0044011828 0.078630894
000030 93 5e f9 3d 34 03 da 3d 4e 24 82 3d d4 59 83 3d
       0.12176242 0.10645142 0.06354581 0.06413618
000040 40 f7 fc 3d bd 4b c1 3c b2 28 cd 3d f3 30 83 3d
       0.12351847 0.023595685 0.10017528 0.06405821
000050 25 c2 9a 3d 75 4d 32 3d 51 53 9d 3d 46 1c 05 3d
       0.075565614 0.0435309 0.07681907 0.032497667
000060 9c df 63 3d 44 e7 b1 3d 2b d8 75 3d fb 1a 57 3c
       0.055633172 0.086866885 0.060020607 0.013128991
000070 be bb 5d 3d 55 e3 ab 3d 37 d3 57 3d 0a 75 70 3d
       0.054134123 0.083929695 0.052691665 0.058705367
000080 2d 2d ac 3d 44 40 84 3d 8a 02 9f 3d 47 7a 4c 3d
       0.08407054 0.0645757 0.07764156 0.0499213
000090 d1 46 a9 3b 5e 5f 9a 3d 1f a5 be 3d a7 80 8f 3d
       0.0051659127 0.07537721 0.09308838 0.0700696
0000a0 92 07 8f 3d b1 94 98 bd d9 8e eb 3d bb 4e 49 bb
       0.06983866 -0.07450236 0.115018554 -0.0030717093
0000b0 46 9e ce bc de d1 aa bd 0d fb 61 3b db 63 e9 3d
       -0.025221955 -0.0834081 0.0034481913 0.11395999
0000c0 63 15 a2 bd 27 8a 8a 3d c7 1c 9b 3c d4 2b c6 3d
       -0.079142354 0.06764632 0.01893462 0.09676328
0000d0 8a 8d 9c 3d c9 c4 b0 bd 83 1b 83 3d 19 17 2c bc
       0.07644184 -0.08631284 0.06401732 -0.010503554
0000e0 fb 8f bd 3d 38 ef 48 3d 66 03 48 3d 4e 22 76 bd
       0.09255978 0.04905626 0.048831366 -0.06009131
0000f0 e2 6e 8a bd 2d 05 a8 3d 40 08 a7 3d 49 dd a9 3c
       -0.067594305 0.08204112 0.081558704 0.0207354
000100 4a 8c cd bc 2f a0 81 3d 6e 66 db 3c c8 c4 97 3d
       -0.02509131 0.06329381 0.02678224 0.0741058
000110 88 9d 87 3d e2 9a 06 3e 3d c9 89 bd 37 cd cd 3d
       0.066218436 0.1314502 -0.06727836 0.10048907
000120 bb 0a 8b bd 5e 65 47 3d 60 29 97 bd c4 94 87 bd
       -0.06789156 0.048680656 -0.073809385 -0.06620172
000130 5c bf b9 3d ba 93 bd 3d 3f b3 70 3d 25 3b 4f 3d
       0.09069702 0.09256692 0.058764692 0.050593514
000140 c2 8b 90 3d 99 f5 63 3d 82 f7 4f 3d 48 21 86 3d
       0.07057907 0.055654142 0.05077315 0.06549317
000150 64 05 d6 3d ab d2 53 3d 59 b1 5f 3d 89 73 39 3d
       0.10450247 0.05171458 0.05461249 0.0452762
000160 92 fe 9b 3d 65 99 9d bd 4a f2 e3 3d 20 f9 fe 3c
       0.07616915 -0.07695273 0.11130197 0.031124651
000170 af 13 7e 3d de 37 47 3d f2 60 85 3d 20 b6 c1 3d
       0.06203049 0.048637263 0.065126315 0.09458566
000180 db bd 18 3d c2 92 97 3d 91 12 89 bd d9 1a a7 3d
       0.037290435 0.07401039 -0.066929944 0.08159418
000190 b2 7c 06 3e d0 36 8a bd 0c 01 9c 3d 8d ec 94 bd
       0.13133505 -0.06748736 0.07617387 -0.07271681
0001a0 89 0e d5 3d 2d 9a b9 3d 3b 5c fa 3d 06 34 fb 3d
       0.10403163 0.0906261 0.12224623 0.12265782
0001b0 b8 9f 98 bd 78 b2 b9 3d 9e ef 85 3d 86 09 df 3d
       -0.07452339 0.09067243 0.06539844 0.10890488
0001c0 ca c4 8c 3d f3 a4 43 3b f8 96 64 3d 42 2a cf 3d
       0.06873472 0.0029852956 0.055808038 0.10115482
0001d0 67 ea 0c bb b0 50 cb 3d 3d 97 c9 3c 47 82 be 3d
       -0.002150202 0.09927499 0.024608249 0.09302192
0001e0 ed 51 ab bd ee 27 8f 3d 4d 7a 5b 3c 56 06 86 3d
       -0.083652355 0.06990038 0.013395858 0.06544177
0001f0 bb 1e 7c 3d 32 ac f1 bc 21 91 a7 3c 09 32 0f 3e
       0.061552744 -0.029501054 0.020454945 0.1398393

action_model._continuous_distribution.log_sigma f4 [1, 2]
000000 83 e5 7b be 4e 54 81 be
       -0.2459927 -0.25259632

action_model._continuous_distribution.mu.weight f4 [2, 128]
000000 c2 d1 a0 bd 23 5f 0b 3c 9d cc b3 bc 1e 0a c8 3c
       -0.07852508 0.008506569 -0.021948153 0.024418887
000010 bd 46 ae bc 00 2d 2f bc b6 02 9e 3c 9b 81 0e bd
       -0.021273965 -0.010691881 0.019288402 -0.03479157
000020 4c 14 4c 3d 15 93 84 3c 97 7a 99 bd 98 70 1f 3d
       0.049824044 0.016183415 -0.07494085 0.038925737
000030 1f 69 41 3c bd 2e 25 bc 27 f2 48 bd e6 94 be 3b
       0.011804848 -0.010081944 -0.04905906 0.00581609
000040 aa 78 32 bc 7c 8c f5 3d be 19 22 3c e8 26 29 bd
       -0.010893026 0.11989686 0.009893833 -0.04129687
000050 8d 23 59 bc c2 cd 95 3c ed e9 37 3d 4a 68 c3 ba
       -0.013253105 0.01828659 0.044900823 -0.00149084
000060 53 fb 2b 3c 4d 40 98 bc fb 84 0b 3c 96 5d 81 3d
       0.010496932 -0.018585349 0.008515592 0.06316678
000070 f6 04 3c 3d ce f5 e9 bc 53 e2 36 3c 30 86 c7 bc
       0.04590317 -0.028559592 0.011162358 -0.024355978
000080 55 bb a2 3b d2 51 85 bb 8a 01 c3 3c fb 92 36 3d
       0.0049661794 -0.0040685916 0.023804445 0.044573765
000090 4a 9e ef 3d 73 f6 76 3c c0 fd 6a bc ba 4b 20 bd
       0.11700113 0.0150734065 -0.014342725 -0.03913472
0000a0 a0 33 3b 3e c7 59 d1 3c 64 33 90 3c 98 b0 76 3c
       0.18281412 0.025555504 0.01760263 0.015056752
0000b0 34 50 9f 3d 05 68 0f bc 3d db f2 bc f8 77 13 bd
       0.077789694 -0.0087528275 -0.029645557 -0.036003083
0000c0 4c ff 94 3d 22 e8 2b bd db 83 97 3d 06 ef 9a 3c
       0.072752565 -0.041969426 0.07398196 0.018912803
0000d0 f2 74 4b 3c 99 30 37 3d 8e 6f 73 bc 50 86 12 3e
       0.012418019 0.04472408 -0.01485814 0.14309049
0000e0 69 18 e5 bc 72 43 5b bd 17 39 7d 3d ed 99 ba 3d
       -0.027965741 -0.053531118 0.061822023 0.0911139
0000f0 25 7c c0 bc 0b b7 dc bb 6f 41 13 bd 93 3b 90 bc
       -0.023496697 -0.0067356876 -0.035951074 -0.017606532
000100 14 4d ac bd 17 90 e7 bc 3e 34 9c 3c e8 8b b2 3b
       -0.08413139 -0.02826695 0.01906788 0.005448807
000110 a4 83 8e bc a9 a1 9d 3d 85 5c 89 3d 2e df b5 bd
       -0.017396756 0.0769685 0.067071 -0.08880459
000120 7b 1f 04 bd 41 61 dd 3c 7c 05 59 3d 0b af 8e 3d
       -0.032256585 0.027023913 0.052983746 0.069669805
000130 86 19 36 bd cb 2e 2c 3d 88 7e 54 bc 71 64 7f 3c
       -0.044457935 0.042036813 -0.0129696205 0.015587912
000140 92 95 28 bd 9f 59 06 3d 0f fe 8c 3d 78 64 1c 3d
       -0.041158266 0.032800313 0.06884395 0.038181752
000150 59 90 07 bd d9 ed 0f bb c8 ef 0c 3d a1 5c 7b bd
       -0.033096645 -0.0021961837 0.03440836 -0.061367635
000160 c5 d1 98 bc 96 cf 65 bc 54 e0 76 bb 48 db cc 3c
       -0.018654713 -0.014026543 -0.003767033 0.025006905
000170 b1 19 c6 3b d0 23 4f bd 22 ee b7 3a 19 b8 eb bc
       0.006045543 -0.050571263 0.0014032761 -0.028774308
000180 eb 48 18 bd d8 38 83 bd b0 9b 06 bc ab 27 c4 bc
       -0.037178915 -0.064073265 -0.00821583 -0.023944696
000190 ce 3f cf bc 76 95 1e 3d e7 b7 9b bc 0c 72 11 3c
       -0.02529898 0.038716756 -0.01900859 0.008877289
0001a0 ef 7a 0e bd df b4 b9 3a 0c 9b 07 3d fc ae 0b bd
       -0.034785207 0.0014168284 0.03310685 -0.034102425
0001b0 37 d4 a8 3c ba b9 18 bc 16 0f cb 3a 6a 04 9c bc
       0.020609004 -0.009321624 0.0015492167 -0.019045074
0001c0 1c d7 64 bc f4 be b9 3c 37 ea b5 3b 17 4d b3 bc
       -0.013967302 0.022674061 0.005551602 -0.021887345
0001d0 b0 55 7c 3d af 2f f4 bb bf bf 0d bd 97 e8 ad 3c
       0.061605155 -0.0074519734 -0.03460669 0.021229072
0001e0 9d 01 a8 3d fb 8f 21 3b 05 0d 51 3d 41 1f 09 3e
       0.08203433 0.002465247 0.051037807 0.13390829
0001f0 a2 d3 e8 39 e1 22 cf 3d 80 51 1c 3d 08 86 46 3d
       0.00044408167 0.101140745 0.038163662 0.048467666
000200 2a c5 f9 3d 0c 1e 3d bd 44 97 92 3c 04 c8 2a 3d
       0.12195809 -0.046171233 0.017894395 0.041694656
000210 02 9d 65 bb 96 de 66 3c 91 12 38 3d c5 ec af bc
       -0.003503621 0.014091155 0.04493958 -0.021475205
000220 ca 6e 42 bd 4f 48 a1 bd 51 cf 67 3d 07 53 a7 3c
       -0.047468938 -0.0787512 0.056594197 0.020425333
000230 6c d2 a1 bc 3c 42 34 3a 50 ff 53 3d ff fe da 3c
       -0.019753657 0.0006876325 0.051757157 0.02673292
000240 a5 9c e3 3c c5 2e 8a bd 7c cf e0 3c 28 d9 87 3b
       0.027784655 -0.06747202 0.027442686 0.00414576
000250 a0 fd 13 bd 6a 6c 65 bb 70 9d 25 3c d2 ae e5 bc
       -0.036130548 -0.0035007247 0.010108337 -0.028037462
000260 63 17 07 bd f4 fd 57 bc 11 fb c8 bc 90 07 97 3c
       -0.032981288 -0.013183106 -0.02453378 0.018436223
000270 4b 6a 8a 3c d7 28 1e 3c 73 45 99 bb 43 d2 1d 3d
       0.016896388 0.009653292 -0.0046774684 0.0385306
000280 33 f9 aa bb 7c a4 49 3c 66 8c 54 bd c0 f4 9f bc
       -0.005217695 0.012307283 -0.051891707 -0.019525886
000290 55 8c f0 3d 84 57 32 bd 4e c6 46 3c 59 a3 b3 bc
       0.11745516 -0.043540493 0.01213224 -0.021928476
0002a0 83 1d ae b9 de 0d 13 bd e8 ba 3d 3d cb 63 af 3c
       -0.00033209854 -0.035901897 0.046320826 0.02140989
0002b0 a2 f8 00 3d 98 ff 57 3c e7 f9 a0 bc de 74 1d 3c
       0.031487115 0.013183497 -0.019650413 0.009610383
0002c0 95 cc 56 3c 88 73 cc 3b 5d 0c c2 bb f5 15 9e bc
       0.0131103 0.0062393583 -0.005921884 -0.01929758
0002d0 d2 d1 26 3c ea 7d 52 bc c2 5c a0 bb 79 01 ec bb
       0.010181861 -0.012847403 -0.00489387 -0.007202324
0002e0 d4 39 cb 39 c4 16 d5 3b db 16 27 3d 07 b9 84 bd
       0.00038762263 0.006502958 0.04079328 -0.06480604
0002f0 a4 12 33 3d 70 4e 00 bd f1 65 9b bc 87 9a f3 bc
       0.04371895 -0.031324804 -0.018969508 -0.02973677
000300 20 7a 9c bd c6 56 65 3d 81 99 11 3e cd 5b 56 bc
       -0.07640481 0.055990957 0.14218713 -0.01308341
000310 17 95 db 3c 7c 98 80 bc 36 cc ba bb e0 14 df bb
       0.02680449 -0.01569771 -0.0057006134 -0.0068079084
000320 32 f5 fb 3b 48 96 fe bc 24 01 84 3d 6d f1 58 bd
       0.0076891417 -0.031077519 0.0644553 -0.052964617
000330 5f 3b 12 bd 5e a9 5c bc a8 9c de bb 89 84 8b bd
       -0.035701152 -0.013468115 -0.006793577 -0.068123884
000340 e9 ea 24 bb dc 85 08 bd ca 95 23 ba d4 41 1c 3b
       -0.0025164431 -0.033330783 -0.0006240277 0.0023842948
000350 2c 51 5f 3d 1e 94 b3 3a ae f6 32 3c 55 f8 97 3d
       0.05452077 0.0013700759 0.010923071 0.074204125
000360 a4 49 eb bb da f3 89 bc b4 55 82 b9 cc 83 26 3d
       -0.0071804095 -0.01683991 -0.00024859386 0.040653035
000370 28 83 b1 3c 72 45 c4 bc 3f 35 2a bd 0d 86 24 3d
       0.021668985 -0.023958895 -0.041554686 0.040166903
000380 9a b2 12 3d 74 85 46 bd 4d 8d cc bd 41 71 8d 3c
       0.03581486 -0.048467115 -0.099878885 0.017265918
000390 91 ea ef bc 6c 3b 2d bd 57 60 15 3c 53 94 b3 ba
       -0.029286655 -0.042292997 0.0091172075 -0.001370082
0003a0 a6 14 45 bd 6a f6 80 3d b5 3d d6 3c 18 33 fd bb
       -0.048115395 0.06297 0.026152471 -0.007727038
0003b0 7b 11 12 3d 8e f4 ae 3c 57 f9 16 bd 97 de be bb
       0.035661202 0.021356847 -0.036858883 -0.0058248746
0003c0 da 94 de bc 39 8d 2b 3d e2 f4 79 3c d9 63 55 3d
       -0.027170587 0.041882727 0.0152561385 0.052097175
0003d0 63 77 3b bc 26 42 89 3d fb d1 fd 3d 2f d9 aa bd
       -0.011442038 0.0670207 0.12393566 -0.08342206
0003e0 dd f6 fe bb be 9b c7 3c e4 f2 5f 3d 67 6e 84 3d
       -0.0077808932 0.024366256 0.054674998 0.0646637
0003f0 e7 d0 0e 3d 54 34 be bd 02 65 36 bd cb 4b ac bd
       0.034867194 -0.092873245 -0.044529922 -0.08412894

action_model._continuous_distribution.mu.bias f4 [2]
000000 88 34 0e bc ac 4f 9d 3c
       -0.008679517 0.01920303

action_model._discrete_distribution.branches.0.weight f4 [2, 128]
000000 a2 6c 51 bc c3 c5 bc bc 72 e2 19 3d 5d 9d d4 bd
       -0.012782248 -0.023043519 0.03756947 -0.10381577
000010 47 bb 7b 3c b4 be 07 3d 5a 19 a4 3c 99 26 04 3d
       0.015364475 0.033140853 0.02003162 0.032263372
000020 0c 06 f0 3c 21 74 a3 bd e3 47 cc bc 4f 06 96 3d
       0.029299758 -0.07981134 -0.024936622 0.07325422
000030 5e 23 d8 3d 1e 06 8f 3d fb 1c 88 3c 57 35 49 3d
       0.10553621 0.06983589 0.016615381 0.049123134
000040 38 be fb 3d 01 c1 06 3d 27 92 95 3d fd 0a bd 3c
       0.12292141 0.032898907 0.07303267 0.023076529
000050 6b 1b 17 3d 43 b2 5c 3c 04 3d b6 3d 94 a2 b9 3c
       0.036891382 0.013470235 0.088983566 0.022660531
000060 3b dc e0 3c 00 1d 36 3d 10 76 84 3c 37 85 3d 3d
       0.027448764 0.04446125 0.016169578 0.04626962
000070 4b 7b f2 bb e5 a9 bc 3c e7 ef 7d 3c 55 26 c7 3c
       -0.0073999516 0.02303023 0.015499092 0.02431027
000080 b9 39 36 3d bb ad 04 3d 52 fe 98 3d c4 e0 8b 3d
       0.044488642 0.032392245 0.07470383 0.0682998
000090 25 54 50 bd 64 e4 92 3d b0 4f 51 3d 35 cd 10 3d
       -0.050861496 0.07172468 0.051101387 0.03535195
0000a0 be 15 f1 3b 6e d5 b9 bd 5f 29 ff 3d c9 f4 7e 3c
       0.007357328 -0.090739116 0.12459063 0.015561291
0000b0 ac af 6c bd 54 0a 98 bd 2c 25 ef b9 12 49 6c 3d
       -0.05778472 -0.07423845 -0.00045613328 0.057686873
0000c0 21 12 be bd e5 3d 18 3d 71 92 5a 3c 8b c0 b2 3d
       -0.092808016 0.037168402 0.013340578 0.08728131
0000d0 c6 0d 5d 3d d5 91 07 be a9 85 3f 3c a3 45 6d bd
       0.053968213 -0.13239224 0.011689582 -0.05792774
0000e0 db 4f eb 3c 16 74 bd 3b 85 e9 c0 3c a7 c6 a3 bd
       0.028724601 0.005781661 0.02354885 -0.07996874
0000f0 c6 76 90 bd f5 40 02 3d ed 9c 58 3d 87 cd 68 bc
       -0.07053904 0.03180023 0.05288403 -0.014209158
000100 b9 f6 f7 bd 0f e7 f0 3c 73 db dd bc 1e fe 4d 3d
       -0.121076055 0.029407052 -0.02708218 0.050291173
000110 cc 57 a5 3c e3 86 27 3e 00 45 ea bd 28 45 e4 3d
       0.020183466 0.16360049 -0.11438942 0.11146003
000120 dc 00 e4 bd c7 5b 78 3d 4f 0d cb bd fb d1 ad bc
       -0.111329764 0.0606344 -0.09914648 -0.02121829
000130 0a db 41 3d 73 34 ad 3d 42 a4 58 3c 3c 15 49 3d
       0.047328033 0.084572695 0.013222756 0.049092516
000140 b4 fd a4 3c 6e 3d 7c 3c 79 e9 67 3d d9 b0 74 3d
       0.020140506 0.015395505 0.05661914 0.059738968
000150 5c 77 cf 3d 7a 2c 87 3c 8f 78 33 3d 58 fa 01 3d
       0.10130188 0.0165007 0.043816146 0.031732887
000160 92 89 9b 3c e5 5c cf bd fa 08 79 3d 72 c4 46 3c
       0.018986497 -0.1012514 0.060799576 0.012131797
000170 01 45 b9 3c b0 a2 07 3c 32 ee 39 3d b0 03 a0 3d
       0.022615911 0.008278534 0.045393176 0.07813203
000180 96 8d 56 3c 37 2f 87 3c 47 a8 ec bc 43 1c 4c 3d
       0.01309528 0.016502006 -0.028888835 0.04983164
000190 d3 c9 d6 3d 2e ce 1a bd e1 64 dc 3c 80 f3 be bd
       0.10487714 -0.037794285 0.026903572 -0.09323788
0001a0 45 fb 99 3d 97 35 26 3d a0 e9 01 3e 26 d3 ee 3d
       0.07518629 0.04057845 0.12686777 0.11661367
0001b0 c9 d3 8d bd 93 3e f0 3c 6f 6e d2 3c fb 44 a5 3d
       -0.069251604 0.029326713 0.025687424 0.080697976
0001c0 95 d8 87 3c 30 90 68 bc 7e 13 bb 3c d6 aa d0 3d
       0.016582767 -0.014194533 0.022836443 0.10188834
0001d0 ee d9 bc 3b 14 5e cb 3d 8e 96 e1 bc fd df 9d 3d
       0.005763284 0.09930053 -0.02753761 0.07708738
0001e0 15 cf 8c bd 4f 46 31 3d 23 06 46 3c 8a 1f 22 3c
       -0.06875435 0.043279942 0.012086424 0.009895215
0001f0 70 7c bd 3c c3 f9 0a bd 59 d9 24 3d 72 4a e2 3d
       0.023130625 -0.033929598 0.04024634 0.110493556
000200 da b7 53 3c d0 38 8e 3c 39 36 32 bd ba 4c e5 3d
       0.012922252 0.017361075 -0.043508742 0.11196275
000210 f0 5e ea bc 1f b6 cb bc 98 11 f1 bc 9b 16 1c bd
       -0.028609723 -0.024867116 -0.029427335 -0.038107496
000220 5c 5a d8 bc 9a 64 b2 3d e5 1d 0f 3b d5 c6 a0 bd
       -0.026410274 0.087105945 0.0021837887 -0.07850424
000230 41 94 e7 bd ea a0 b5 bd a2 a6 88 bc 6f 73 5a bd
       -0.11307574 -0.088685825 -0.01668102 -0.053332742
000240 c0 06 fa bd 76 ee 0d bd d8 f4 91 bd ab f4 f7 bc
       -0.12208319 -0.034651242 -0.07126778 -0.030268034
000250 79 ea 5d bd e0 c3 c6 bc 71 ce b4 bd bc 0b 4a bb
       -0.05417869 -0.024263322 -0.08828438 -0.0030829748
000260 27 88 85 bc 34 41 58 bd 93 61 a1 bc bb 3f ca bc
       -0.016300274 -0.052796558 -0.019699847 -0.024688592
000270 7c 85 2c bc b3 ce d8 bc 7b 8a 97 bc 3c 59 f5 bc
       -0.010529872 -0.02646575 -0.01849865 -0.029949777
000280 c3 c1 2f bd 84 5d ae bc 64 68 94 bd b9 33 ab bd
       -0.042909395 -0.021284826 -0.072464734 -0.08359475
000290 3f 25 f9 3c 04 32 85 bd 8e df 45 bd 9c 47 4e bd
       0.030413268 -0.0650368 -0.0483089 -0.05036126
0002a0 16 c2 53 bb ff fa b3 3d 8e 14 dc bd 05 61 62 bc
       -0.003231173 0.08788108 -0.10746108 -0.013817077
0002b0 55 42 97 3d b6 08 a9 3d ec 97 02 3c 91 7f 9f bd
       0.07385699 0.082536146 0.007970791 -0.07788003
0002c0 53 c1 b0 3d 2c 63 53 bd e1 d5 15 bd e6 05 ba bd
       0.08630624 -0.05160825 -0.036580924 -0.09083156
0002d0 71 8d 1b bd 18 bb 02 3e 43 4f a1 bc a8 d8 45 3d
       -0.037976686 0.12766683 -0.019691115 0.048302323
0002e0 ab 3e 31 bd 05 b0 e3 bc 7e 34 dc bc 31 5f c2 3d
       -0.043272655 -0.027793894 -0.026880499 0.094908126
0002f0 90 cb aa 3d b7 ac 36 bd 66 9d 56 bd d7 86 78 bc
       0.08339608 -0.044598307 -0.0523962 -0.015168867
000300 62 bd ce 3d ed e7 9e bc 03 e9 23 3c 09 aa 40 bd
       0.10094716 -0.0193977 0.010004285 -0.04703716
000310 4c 84 3d bd 9d e8 1c be 6d 08 e0 3d bb b7 be bd
       -0.046268746 -0.1532311 0.10939107 -0.093123876
000320 2d 09 d6 3d 77 1b 53 bd 48 03 ae 3d 81 0e 19 3d
       0.10450969 -0.051539864 0.084967196 0.037367348
000330 c1 41 48 bd 4f 40 b4 bd b4 9b dd 3a 22 a0 43 bd
       -0.048890833 -0.088013284 0.0016907365 -0.047760136
000340 13 24 88 bc 8e af ae bc 91 e3 4e bd 85 e0 4c bd
       -0.016618764 -0.021323945 -0.050509993 -0.050018806
000350 0a 8f a3 bd 18 77 4c bc 62 bc 15 bd 20 26 03 bd
       -0.07986267 -0.012479566 -0.03655661 -0.03201878
000360 e7 f7 ca bc 74 55 e8 3d fc ec 80 bd 6a 86 f2 3a
       -0.024776412 0.11344424 -0.06295201 0.0018503193
000370 39 50 a0 bc ef 32 2d bc 85 92 42 bd 8b b1 b0 bd
       -0.019569503 -0.010571226 -0.047503013 -0.08627614
000380 17 18 95 bc b5 68 cb bc 70 26 a6 3c c0 b8 58 bd
       -0.018199963 -0.024830202 0.020282 -0.052910566
000390 23 82 df bd 9e ac 4c 3d 66 b5 80 bc 99 5e b3 3d
       -0.109134935 0.049969308 -0.015711498 0.087582774
0003a0 67 ec 96 bd ec 17 27 bd b2 fb ef bd 64 b7 03 be
       -0.07369309 -0.040794298 -0.11717929 -0.12862927
0003b0 9a 37 9b 3d 1f c2 16 bd 6a fa f2 bc 9e 25 ae bd
       0.075789645 -0.036806222 -0.029660422 -0.08503269
0003c0 0c 74 07 bc 99 eb 13 3c 95 73 79 bc 6f 5e 04 be
       -0.008267414 0.009028339 -0.015225311 -0.12926649
0003d0 66 5c b1 bb 44 61 04 be 3b 8c 41 3d f0 99 ba bd
       -0.005412626 -0.12927729 0.047252875 -0.091113925
0003e0 8d c9 9a 3d bf 35 40 bd 40 e3 b3 3b 7f 33 a6 bc
       0.07557974 -0.046926256 0.005489737 -0.020288227
0003f0 be ad 08 bd 3f 91 ca 3c 5a ba c0 bc c6 ca 00 be
       -0.03336882 0.024727462 -0.02352636 -0.12577352

action_model._discrete_distribution.branches.0.bias f4 [2]
000000 c3 d6 6a 3d c3 d6 6a bd
       0.05733372 -0.05733372

exp_avg f4 [128, 10]
000000 fd 6d 10 3a 1e e4 ed 34 4b ae 4f b9 91 cb d2 38
       0.00055095536 4.4310667e-07 -0.00019805988 0.000100514975
000010 00 00 00 00 5c 19 1f b9 f0 a5 d5 b8 48 2b 8d b7
       0.0 -0.00015172869 -0.0001018754 -1.6828664e-05
000020 5b 49 83 37 7a ab a4 32 40 ea 8a b9 ee 81 a3 b4
       1.5650576e-05 1.9170091e-08 -0.0002649594 -3.0455652e-07
000030 da 31 f8 b8 8a 67 88 b9 00 00 00 00 04 fb cc b8
       -0.00011834847 -0.00026017084 0.0 -9.774233e-05
000040 57 81 e0 38 5c ad 02 37 f4 1f 24 b7 5d c6 c0 b8
       0.00010705244 7.788967e-06 -9.782601e-06 -9.1922215e-05
000050 84 a4 c2 b8 8b c9 0d b4 bc 84 8f b9 5a 8e 1a b9
       -9.281284e-05 -1.3204969e-07 -0.0002737398 -0.00014739615
000060 00 00 00 00 57 de 73 b9 6d e4 0f 38 23 0f e7 38
       0.0 -0.00023257114 3.4306595e-05 0.00011017758
000070 05 20 b2 b6 78 c7 9f 38 30 31 c9 39 3f 15 9f 34
       -5.308541e-06 7.618865e-05 0.00038374355 2.9631516e-07
000080 84 9a 3c 39 0b c8 13 39 00 00 00 00 de 6a e0 38
       0.00017986639 0.00014093534 0.0 0.00010701058
000090 c5 83 2b b8 53 78 50 38 9f a0 2f 37 16 47 cf 38
       -4.0892297e-05 4.9703125e-05 1.046821e-05 9.88377e-05
0000a0 36 10 c7 b2 72 b3 f1 33 d8 52 51 b9 87 c3 e8 37
       -2.3174021e-08 1.1255078e-07 -0.00019962655 2.7747605e-05
0000b0 00 00 00 00 7d 1c ef b8 0b 81 69 b8 f5 89 b0 36
       0.0 -0.000114017144 -5.567171e-05 5.261269e-06
0000c0 9d 38 80 36 1f b6 9c b8 73 52 22 39 c8 da 2c 34
       3.821288e-06 -7.4725824e-05 0.00015480239 1.609834e-07
0000d0 1e d5 a8 b9 20 a8 32 38 00 00 00 00 ec b4 54 b9
       -0.00032202242 4.2595086e-05 0.0 -0.00020285294
0000e0 b6 39 01 b8 38 d2 be b7 06 b6 da 36 72 bb 7e 38
       -3.0809744e-05 -2.2747656e-05 6.5180966e-06 6.073289e-05
0000f0 8e df c4 b9 6f 6e 34 34 f6 c8 a6 38 0a d7 80 b9
       -0.00037550594 1.6803982e-07 7.952929e-05 -0.0002457428
000100 00 00 00 00 30 8e 0c b7 3a b4 9a 38 09 5f a2 b8
       0.0 -8.377756e-06 7.376862e-05 -7.742464e-05
000110 93 bc 1a 37 d1 39 88 b9 d4 32 66 38 0c 2d 09 b5
       9.223021e-06 -0.00025983018 5.488361e-05 -5.110203e-07
000120 71 70 76 b8 01 3d 8f 38 00 00 00 00 3e c0 24 37
       -5.875569e-05 6.830134e-05 0.0 9.819922e-06
000130 8d 4f 1a 39 c4 a0 94 37 1d 3a 93 b7 e4 16 06 b8
       0.0001471622 1.7717837e-05 -1.7550827e-05 -3.1969408e-05
000140 43 32 02 39 1f 7b ea 34 92 9e c4 b8 f9 26 c0 b8
       0.0001241649 4.367548e-07 -9.375544e-05 -9.162533e-05
000150 00 00 00 00 57 5f d4 b8 8b f7 ee b8 a4 c0 bb b7
       0.0 -0.00010126706 -0.00011394833 -2.2381842e-05
000160 d7 3e 82 37 46 b5 56 38 9f ef f3 b8 1d 87 97 b3
       1.552647e-05 5.11904e-05 -0.00011631776 -7.0560624e-08
000170 da 7a cc 38 9d 30 5d b8 00 00 00 00 34 80 f4 38
       9.750361e-05 -5.273578e-05 0.0 0.00011658706
000180 d0 94 ac 38 4c 53 c1 38 32 f0 17 b6 43 69 37 b9
       8.2293176e-05 9.2184724e-05 -2.2640565e-06 -0.00017491453
000190 a4 c6 b3 38 16 a9 29 b3 3f 28 4f b9 39 ad 34 38
       8.572385e-05 -3.950216e-08 -0.00019756051 4.307667e-05
0001a0 00 00 00 00 4c 3e 99 b8 70 be e3 37 9f 50 ed b8
       0.0 -7.307212e-05 2.7149188e-05 -0.000113160575
0001b0 20 79 7e 35 71 f0 13 b9 31 5d b0 38 3f e9 2b 34
       9.4798634e-07 -0.00014108584 8.409692e-05 1.601047e-07
0001c0 43 73 d1 37 00 37 5c 38 00 00 00 00 db a6 cb 37
       2.4968414e-05 5.250331e-05 0.0 2.4277184e-05
0001d0 1a 09 96 b8 36 9c 87 38 86 05 96 36 30 77 8b 39
       -7.154253e-05 6.466398e-05 4.4709914e-06 0.00026600948
0001e0 11 77 a8 38 63 57 81 33 fd f9 72 b8 27 c9 05 37
       8.033042e-05 6.022926e-08 -5.7930116e-05 7.974252e-06
0001f0 00 00 00 00 c9 3e 18 b8 21 b0 1a b8 c3 7b 06 b6
       0.0 -3.6298097e-05 -3.6880494e-05 -2.0039595e-06
000200 3d 56 f2 35 51 ea f1 b7 35 ce 1a b9 1f e8 92 b4
       1.8055504e-06 -2.883855e-05 -0.00014763403 -2.736351e-07
000210 6b b7 91 b7 c2 d2 15 36 00 00 00 00 11 1a 2f 38
       -1.7370758e-05 2.2325407e-06 0.0 4.1747528e-05
000220 bf 0c b4 38 ec c7 fc 35 2a f9 15 b7 27 36 ab b8
       8.585443e-05 1.8833648e-06 -8.939105e-06 -8.164002e-05
000230 cf 56 78 b9 41 4a 0f b3 17 6a 61 39 fc 3b 8f b9
       -0.00023683462 -3.3362316e-08 0.00021497194 -0.00027319777
000240 00 00 00 00 dd 73 bb 38 87 8d 33 b8 1f c0 ac b7
       0.0 8.938436e-05 -4.2808733e-05 -2.0593461e-05
000250 35 4d ac b5 16 ec f4 b8 4e 85 43 39 93 9a 99 b3
       -1.2837469e-06 -0.00011678801 0.00018646309 -7.1527346e-08
000260 18 3d a3 39 e3 56 89 38 00 00 00 00 18 fb 0c 39
       0.000311353 6.548853e-05 0.0 0.0001344498
000270 9e 6d 7c b7 61 0c 1f 38 40 1e 91 b6 66 66 e6 b8
       -1.5045893e-05 3.7920083e-05 -4.3248583e-06 -0.00010986328
000280 a6 2b 86 3a 3b e8 c3 34 3c 06 88 b9 31 77 d9 39
       0.0010236397 3.649055e-07 -0.00025944586 0.0004147827
000290 00 00 00 00 87 3f 9b b8 36 09 c8 b8 f6 a3 74 b7
       0.0 -7.402809e-05 -9.538459e-05 -1.45817085e-05
0002a0 ad e0 54 37 e8 18 d1 b6 51 82 f8 b7 1f c8 fa b4
       1.2688496e-05 -6.231585e-06 -2.9624587e-05 -4.6711736e-07
0002b0 61 7d ff 39 be f5 c9 38 00 00 00 00 5d b9 bb 39
       0.00048730805 9.6302e-05 0.0 0.00035805526
0002c0 74 e9 97 39 b3 e7 75 38 65 79 6a b7 cb 99 7c b9
       0.000289749 5.862834e-05 -1.3975751e-05 -0.00024089885
0002d0 f1 89 ae b9 96 54 1f b3 4c 31 aa 39 c6 53 d4 b9
       -0.0003329064 -3.7097003e-08 0.00032461656 -0.00040498207
0002e0 00 00 00 00 86 fa cb 38 4e d0 0b b9 3c 10 ac 38
       0.0 9.726458e-05 -0.00013333673 8.204623e-05
0002f0 94 a8 89 b6 3a 85 73 38 b3 a8 81 b8 d7 b0 1f b4
       -4.1025432e-06 5.805979e-05 -6.182622e-05 -1.4872363e-07
000300 1e 5a 32 b9 2c 5e 18 b8 00 00 00 00 88 6f e3 b8
       -0.00017008974 -3.632733e-05 0.0 -0.00010844978
000310 43 e1 58 b8 99 81 e6 33 b5 44 c1 b6 6e 09 bd 38
       -5.1708204e-05 1.0733783e-07 -5.7598468e-06 9.013979e-05
000320 9e db 1c 38 65 a3 d5 33 b1 bf 31 39 10 d9 66 b8
       3.7397833e-05 9.948307e-08 0.00016951446 -5.503843e-05
000330 00 00 00 00 aa b7 95 38 c9 08 d7 37 81 d2 b7 37
       0.0 7.139084e-05 2.5634088e-05 2.1913324e-05
000340 8d 75 92 36 b5 fc 35 b8 56 c5 2f 39 40 b1 92 32
       4.364824e-06 -4.3389115e-05 0.00016762814 1.7077241e-08
000350 49 58 bc 39 c8 c2 e2 38 00 00 00 00 96 1a 10 39
       0.00035923932 0.000108128006 0.0 0.00013742814
000360 df c1 1b 39 ab aa 7d b8 5f 8b 84 36 fe 4e e6 b9
       0.00014854175 -6.0478847e-05 3.9501315e-06 -0.00043927872
000370 5a 33 37 b9 cc 9a b6 b4 0b 39 96 39 2a 9f ac 38
       -0.0001747137 -3.401277e-07 0.0002865273 8.231246e-05
000380 00 00 00 00 e2 79 6b 39 03 08 3d 37 ab f2 83 b9
       0.0 0.00022456751 1.1267143e-05 -0.0002516707
000390 a4 11 0a b7 6c 86 b7 b9 98 cc bd 38 9e fa b0 34
       -8.229548e-06 -0.00035004632 9.050331e-05 3.2964903e-07
0003a0 3a 96 24 36 4c d4 ce 37 00 00 00 00 6b 7d 3a b8
       2.4525348e-06 2.4655972e-05 0.0 -4.446266e-05
0003b0 c8 3e 81 b8 4a a1 0c b8 4e 3a 5a 37 74 c0 52 39
       -6.162893e-05 -3.3528813e-05 1.3007388e-05 0.00020098855
0003c0 8a 97 8a 39 83 a6 8f 32 98 71 36 b9 d6 b0 85 38
       0.00026434317 1.6723112e-08 -0.0001739919 6.3748725e-05
0003d0 00 00 00 00 9c ff 62 b9 1f 8d 49 36 ea fe b5 38
       0.0 -0.00021648261 3.0033477e-06 8.678234e-05
0003e0 7b d3 10 35 48 b4 99 38 d9 b3 c8 37 0b 4d c1 32
       5.3951925e-07 7.3291885e-05 2.3925606e-05 2.2503192e-08
0003f0 3a ed 07 37 e7 52 9d b8 00 00 00 00 ab fe 36 b8
       8.101861e-06 -7.501785e-05 0.0 -4.362936e-05
