ML-Agents/Examples/SphereHunt/results/imitation_test_001/SphereHunt/SphereHunt-6101.pt (torch, 538251 bytes, 50 tensors)

network_body._body_endoder.seq_layers.0.weight f4 [128, 10]
0	0x3e06b39a	0.1315445
1	0xbf050dfa	-0.5197445
2	0xbeb3af9f	-0.35094926
3	0xbf1a4272	-0.6025764
4	0x3e8c8dbb	0.27451882
5	0x3eca6473	0.39529762
6	0x3ce4e0cf	0.027939228
7	0x3e2f105b	0.17096083
8	0x3d9e2472	0.07721795
9	0xbf373ba2	-0.7157537
10	0xbe146721	-0.14492466
11	0xbe779262	-0.24176934
12	0xbf357e59	-0.70895916
13	0xbdd7e6a1	-0.10542036
14	0x3f627997	0.8846678
15	0xbe933e14	-0.287583
16	0xbd84b2dd	-0.06479428
17	0x3e7eaef4	0.24871427
18	0xbe0ebd1a	-0.13939324
19	0x3e02da00	0.12778473
20	0xbeb094ad	-0.3448843
21	0x3deb08af	0.11476266
22	0xbe20a2d5	-0.15687115
23	0xbebd721f	-0.3700113
24	0xbe82db7b	-0.25558075
25	0x3f03e9b1	0.5152846
26	0x3f6bdccc	0.92133784
27	0xbe38b34f	-0.18037151
28	0xbddfbb05	-0.10924343
29	0x3ea1c31a	0.31594163
30	0x3dadf237	0.084934644
31	0x3ec2b41a	0.38028032
32	0xbe4a3a7b	-0.19748871
33	0x3e31953b	0.17342083
34	0xbca807e6	-0.020511579
35	0xbacf2b7f	-0.001580581
36	0x3e498041	0.19677831
37	0x3e408423	0.18800406
38	0x3e536a0f	0.20645927
39	0x3ee5af2b	0.44860205
40	0x3e2aa3de	0.16664073
41	0x3d682de8	0.056684405
42	0x3ee94830	0.45562887
43	0xbd7b8b46	-0.06141212
44	0xbe88927c	-0.2667426
45	0xbf2b4ab7	-0.6691088
46	0x3e1eca05	0.15506752
47	0xbdad0c3a	-0.08449598
48	0xbedfbde6	-0.4369957
49	0x3da42fda	0.080169395
50	0x3ef42653	0.4768549
51	0xbe22cec5	-0.15899189
52	0x3d50f819	0.051017854
53	0xbef59f01	-0.47972873
54	0x3b9bceea	0.0047548907
55	0x3e255f34	0.16149598
56	0xbf530339	-0.8242679
57	0x3d662423	0.056186806
58	0xbee7082e	-0.45123428
59	0x3ea379fe	0.3192901
60	0x3e7ff0ae	0.24994156
61	0xbda85cb4	-0.08220807
62	0x3e3b173a	0.18270579
63	0xbd34acd6	-0.04411014
64	0x3dc124ac	0.09430823
65	0x3eccca69	0.39998177
66	0xbe8e8834	-0.2783829
67	0x3ef2b17e	0.4740104
68	0x3e9bd282	0.30434042
69	0xbdeb4c30	-0.11489141
70	0x3edabbb9	0.42721346
71	0xbe848351	-0.25881436
72	0x3d9b45bb	0.075816594
73	0xbe2c8163	-0.16846232
74	0xbed4bc50	-0.4154992
75	0x3d573060	0.05253637
76	0x3c8181ae	0.015808906
77	0xbf1921d0	-0.5981722
78	0xbe19c39f	-0.1501603
79	0xbe195d55	-0.1497701
80	0xbeb48e44	-0.3526479
81	0xbd8f7260	-0.07004237
82	0x3e82ab6e	0.25521415
83	0x3eac3efc	0.33641803
84	0xbe99e50f	-0.3005757
85	0xbe15f2f5	-0.14643462
86	0x3d793926	0.060845517
87	0xbe43d267	-0.19123231
88	0xbeab0437	-0.33401653
89	0x3f088b6a	0.5333773
90	0xbd6a4e7f	-0.057203766
91	0xbf0cc420	-0.54986763
92	0x3e9a7b81	0.3017235
93	0xbf20a87e	-0.627571
94	0xbece8b2b	-0.40340552
95	0x3e3be314	0.18348342
96	0xbf00b6f2	-0.5027915
97	0x3d103b0f	0.035212573
98	0xbed5898c	-0.41706502
99	0xbf302412	-0.6880504
100	0x3edcd576	0.43131608
101	0x3f046d6a	0.5172945
102	0x3ea5cd32	0.32383114
103	0x3d3255f1	0.04353899
104	0xbe12a035	-0.14318927
105	0xbf050216	-0.5195631
106	0xbf0926fd	-0.53575116
107	0xbe59fd92	-0.21288136
108	0xbd851cef	-0.06499659
109	0xbf3acf42	-0.729725
110	0xbf566c39	-0.83758885
111	0x3ec358b0	0.381536
112	0xbe05a2b6	-0.1305035
113	0x3d519cb2	0.051174827
114	0x3ed33845	0.41253868
115	0x3e4dba4d	0.200906
116	0x3f162972	0.5865699
117	0xbe390a83	-0.18070416
118	0xbe8a8c18	-0.27060008
119	0xbf41cd2f	-0.7570371
120	0x3dffea05	0.124958076
121	0xbe2bbc35	-0.16771014
122	0x3e35ceff	0.17754744
123	0x3d67e4e2	0.056614764
124	0xbe9d2a1a	-0.30696183
125	0xbe40a0b8	-0.1881131
126	0x3f15bdcd	0.5849274
127	0xbeae4457	-0.34036514
128	0xbd2d408a	-0.042297877
129	0x3ecb1859	0.39667013
130	0xbf21e33c	-0.6323736
131	0xbf12007e	-0.57032
132	0x3eb2ec0a	0.3494571
133	0x3f2366b3	0.6382858
134	0x3f09f0ab	0.53882855
135	0x3e8dc696	0.27690572
136	0xbe8fa24c	-0.2805351
137	0x3daa0232	0.083012
138	0xbf0b773a	-0.544788
139	0x3e9cf0bd	0.3065242
140	0xbebe4c4e	-0.3716759
141	0xbe84c6eb	-0.25933012
142	0x3eb95ba3	0.36202726
143	0xbdfe9f38	-0.12432712
144	0x3d99a96b	0.07503017
145	0xbe1b8721	-0.15188266
146	0xbe9dc5b7	-0.30814907
147	0x3d323998	0.043511957
148	0x3f460d07	0.7736363
149	0xbe881669	-0.26579598
150	0x3d89f675	0.06736461
151	0x3f57185e	0.84021556
152	0xbdff1aaf	-0.12456261
153	0x3db6c04d	0.08923397
154	0xbe4be44c	-0.19911307
155	0x3ec14a8a	0.3775218
156	0x3de846cd	0.11341629
157	0xbe0615d5	-0.13094266
158	0xbe048d00	-0.12944412
159	0x3e092d3a	0.13396159
160	0x3e9f60ff	0.3112869
161	0x3ec81a74	0.39082682
162	0x3ede5dc7	0.4343092
163	0xbe9abfc5	-0.30224434
164	0xbbadfc03	-0.005309583
165	0xbe7d761a	-0.24752083
166	0xbde1c428	-0.11023742
167	0x3e8f316c	0.27967393
168	0xbd80dbbf	-0.06291913
169	0x3e0df10e	0.13861486
170	0xbf05f326	-0.5232414
171	0xbd877b62	-0.0661533
172	0xbeee4ec4	-0.46544468
173	0x3e7f2938	0.24918067
174	0xbe4f36c3	-0.20235734
175	0x3ec2d33c	0.38051784
176	0x3d119ba9	0.03554884
177	0xbec810dc	-0.39075363
178	0xbe0901c4	-0.1337958
179	0xbe4b8590	-0.19875169
180	0x3ee790c0	0.45227623
181	0x3d9d0d20	0.07668519
182	0x3f097e4e	0.5370835
183	0x3e048084	0.1293965
184	0xbeefaff0	-0.46813917
185	0x3f0499ae	0.51796997
186	0x3c4b2ec8	0.01240129
187	0x3f04b311	0.51835734
188	0xbf125fa1	-0.5717717
189	0xbf11981c	-0.56872725
190	0x3db82435	0.08991281
191	0xbed5a617	-0.4172828
192	0x3e9fb827	0.31195185
193	0x3d1b25ba	0.037877776
194	0xbc523a6f	-0.0128313145
195	0xbf78160b	-0.96908635
196	0x3e0f7bdd	0.14012094
197	0xbec863f8	-0.3913877
198	0xbe96e22e	-0.29469436
199	0x3f52451c	0.821367
200	0xbe65982f	-0.22421335
201	0x3e6a77cf	0.22897266
202	0xbbb8332e	-0.0056213355
203	0xbe1e4f1f	-0.1545987
204	0x3eca284b	0.39483866
205	0x3e1aaf94	0.1510604
206	0xbee2b8c4	-0.4428159
207	0xbdbed146	-0.093172595
208	0xbf3b89e7	-0.732573
209	0x3e32814b	0.17432134
210	0x3deec43b	0.11658522
211	0x3f05eb2e	0.5231198
212	0xbd2f112d	-0.04274099
213	0x3e4e22f1	0.20130517
214	0x3e2ca216	0.16858706
215	0xbf3ed38c	-0.74541545
216	0xbe395145	-0.18097408
217	0x3dd02f94	0.10165325
218	0xbeeeba16	-0.46626347
219	0xbee5795b	-0.4481915
220	0xbea1cb26	-0.31600302
221	0x3f495183	0.7864
222	0xbd19c4d0	-0.03754121
223	0x3e18bfd0	0.1491692
224	0x3eb49a72	0.35274082
225	0xbe697622	-0.2279897
226	0xbe0a641d	-0.13514753
227	0x3dc792a2	0.09744765
228	0xbcdf82e6	-0.027284097
229	0xbbe6580e	-0.00702954
230	0xbe6d64d4	-0.23182994
231	0x3e23db7f	0.160017
232	0xbe49baad	-0.19700117
233	0x3de910e4	0.11380175
234	0xbe2a6655	-0.16640599
235	0x3ebf38a7	0.3734791
236	0x3e199628	0.14998686
237	0xbeaf7bc5	-0.34274116
238	0xbe625d16	-0.22105822
239	0xbeec14e8	-0.461097
240	0xbed4a24e	-0.4153008
241	0x3f0289a8	0.50991297
242	0xbe663080	-0.22479439
243	0x3f1fa325	0.62358314
244	0xbf47a1b9	-0.77981144
245	0x3eb72529	0.35770538
246	0x3ec37785	0.38177124
247	0xbdeb7920	-0.11497712
248	0xbedaec0c	-0.42758214
249	0xbddd49ff	-0.10805129
250	0x3dfa2938	0.12214893
251	0x3e339852	0.17538574
252	0xbefbdaaa	-0.49190265
253	0xbdef7859	-0.11692876
254	0xbe1f824b	-0.15577047
255	0x3eb06a09	0.34455898

network_body._body_endoder.seq_layers.0.bias f4 [128]
0	0x3dab6232	0.08368339
1	0x3d7eb594	0.062184885
2	0x3ae3cb16	0.001737925
3	0x39b69f82	0.00034832588
4	0x3e3ef7b3	0.18649177
5	0x3e30c34e	0.17262003
6	0xbd605d79	-0.054776642
7	0x3c0f4cee	0.008746369
8	0x3d789b93	0.060695242
9	0x3dd7fe73	0.10546579
10	0x3da1022f	0.078617446
11	0x3e20c422	0.15699819
12	0xbc3726f3	-0.01117872
13	0x3db1a619	0.08674259
14	0xbcc5c093	-0.024139678
15	0x3da94243	0.082645915
16	0x3e2d58b1	0.16928364
17	0x3de4cd69	0.111719914
18	0x3de47cc0	0.11156607
19	0x3d5acb77	0.053416695
20	0x3dc97eba	0.09838624
21	0x3e06231b	0.13099329
22	0x3e3a3b64	0.18186718
23	0x3d29deea	0.041472353
24	0x3e5270e3	0.20550875
25	0xbd3c79ff	-0.046014782
26	0x3e3261cc	0.17420119
27	0x3dffb771	0.124861605
28	0xbda78361	-0.081793554
29	0x3d8a673e	0.06757973
30	0x3e2f705e	0.17132708
31	0xbc44e931	-0.012018488
32	0xbca1ea07	-0.019764913
33	0xbd949ee4	-0.072568685
34	0x3d9475c5	0.07249025
35	0x3e1f4bfd	0.15556331
36	0x3db9b81d	0.0906832
37	0x3d80b357	0.06284206
38	0x3e059576	0.13045296
39	0xbc12b4f5	-0.008954276
40	0x3e8474da	0.258704
41	0xbd1fcdf4	-0.03901477
42	0x3de732e7	0.11289006
43	0x3d5822d1	0.05276758
44	0x3de55c3a	0.111992314
45	0x3e387ae0	0.18015623
46	0xbd1de499	-0.038548086
47	0xbc846fc3	-0.016166573
48	0x3db89caf	0.0901426
49	0xbdb4836b	-0.088141285
50	0xbc09783f	-0.008390485
51	0x3c1b257a	0.009469384
52	0xbd485ddb	-0.048917633
53	0x3d86b094	0.06576648
54	0x3dbe901c	0.093048304
55	0x3e008754	0.12551624
56	0x3daf9039	0.0857243
57	0x3ceb7882	0.028743986
58	0xbb9c83de	-0.004776462
59	0x3dc3f397	0.095679455
60	0x3e7eece3	0.24895053
61	0x3e35fde6	0.17772636
62	0xbd23bb5a	-0.039973594
63	0x3cda53db	0.026651314
64	0x3cf711f3	0.030159926
65	0x3d9b61cf	0.07587015
66	0xbc630d30	-0.013858125
67	0x3cec9285	0.02887846
68	0x3e562521	0.20912601
69	0x3e125d16	0.14293322
70	0xbe0ffb1e	-0.14060637
71	0x3d9d0b98	0.07668227
72	0x3d4cf8bd	0.050041903
73	0x3df7299d	0.12068484
74	0x3e4ed562	0.20198587
75	0x3e42a6c0	0.19008923
76	0x3ba695c4	0.0050837714
77	0xbc7d0690	-0.015443459
78	0x3dab8ee9	0.08376867
79	0x3dbd7ab0	0.092519164
80	0xbe15aef2	-0.14617518
81	0x3a5aafcc	0.0008342236
82	0x3d9f0228	0.07764083
83	0x3dac2614	0.084057
84	0x3daf54d2	0.085611
85	0xbccf36ce	-0.025294688
86	0xbdad5e79	-0.08465285
87	0x3dc125c8	0.09431034
88	0xbe03baae	-0.12864181
89	0xbd9f1281	-0.07767201
90	0x3bcb9eb9	0.0062139896
91	0x3da0915c	0.07840225
92	0xbc8a9b6e	-0.016919818
93	0x3e5572bd	0.2084455
94	0x3db63eeb	0.088987194
95	0x3da31e62	0.079647794
96	0xbdd14d4d	-0.10219822
97	0xbd92dac9	-0.07170636
98	0x3cb8e314	0.022569217
99	0x3d4094e8	0.047017008
100	0xbb51338a	-0.0031921589
101	0x3cce388e	0.025173452
102	0x3ddc4ea4	0.10757187
103	0xbd05f3d3	-0.032703232
104	0x3d81b8f4	0.06334105
105	0x3d9fac3d	0.07796524
106	0xbdf96aaf	-0.121785514
107	0x3dfd6fa1	0.12374807
108	0x3d8a4752	0.067518845
109	0x3d9e5ad4	0.07732168
110	0xbdd33691	-0.10313142
111	0xbcf5f6df	-0.030024944
112	0x3e9b3316	0.30312413
113	0x3e434c1e	0.19072005
114	0x3e4249ce	0.18973467
115	0x3e36636e	0.17811367
116	0x3d1f42b0	0.038881958
117	0xbcf779e1	-0.030209484
118	0xbd12d21a	-0.0358449
119	0xbbc259a7	-0.0059310975
120	0x3e43bac1	0.1911421
121	0xbd1972ff	-0.037463184
122	0xbce86e2b	-0.028372845
123	0x3ddefbf2	0.108878985
124	0x3d91d495	0.07120625
125	0xbc52576f	-0.012838229
126	0x3c5c2a8b	0.013437877
127	0x3d3b02b7	0.045656886

network_body._body_endoder.seq_layers.2.weight f4 [128, 128]
0	0xbe5edd29	-0.21764053
1	0x3d939a85	0.07207207
2	0x3a38d77a	0.00070511515
3	0xbc169437	-0.009190611
4	0x3caf5ad0	0.021405607
5	0xbd73cf94	-0.059524134
6	0xbe3206c7	-0.17385398
7	0xbdec6eff	-0.11544608
8	0x3e0d2875	0.13784964
9	0xbe63073d	-0.2217073
10	0xbd938a62	-0.07204129
11	0xbe1d34ff	-0.15352248
12	0xbda25638	-0.07926601
13	0xbd85bd9a	-0.06530304
14	0x3ce656d8	0.028117582
15	0x3ddfc069	0.10925371
16	0xbd9c194a	-0.07622011
17	0xbe71905d	-0.23590226
18	0x3db84abd	0.0899863
19	0x3d93cb82	0.072165504
20	0x3e0336f0	0.12813926
21	0x3e02ae97	0.12761913
22	0x3c136926	0.008997237
23	0xbe31daae	-0.17368576
24	0xbc9b3f08	-0.018950954
25	0xbe0414ff	-0.12898634
26	0x3e251b95	0.16123803
27	0xbda67857	-0.08128422
28	0x3d53129f	0.05153143
29	0x3c6fda2d	0.0146394195
30	0xbdadaaaa	-0.08479817
31	0xbdb8a440	-0.09015703
32	0xbd9fc68f	-0.07801544
33	0x3d54b041	0.0519259
34	0xbe47d10f	-0.19513343
35	0x3e450896	0.19241557
36	0x3d42bfe3	0.04754628
37	0xbe262c58	-0.16227853
38	0xbe2c8174	-0.16846257
39	0x3e0fb68f	0.14034484
40	0xbe007649	-0.12545122
41	0x3db08d4c	0.086207
42	0xbdb14fed	-0.08657823
43	0x3dd00014	0.10156265
44	0xbdb94793	-0.09046855
45	0x3d6c8edc	0.05775343
46	0x3e4551c2	0.1926947
47	0x3defa0b2	0.11700572
48	0x3d98d88a	0.074631765
49	0xbe14c831	-0.14529492
50	0xbd5df880	-0.054192066
51	0xbe3c96be	-0.18416879
52	0x3d59abc4	0.053142324
53	0xbdf2f775	-0.11863605
54	0xbd86fda7	-0.06591349
55	0x3d5696e2	0.052389987
56	0xbd6c4e17	-0.05769166
57	0xba5e59f1	-0.000848203
58	0xbd74eeae	-0.059797935
59	0xbe3b2dcb	-0.18279187
60	0xbdb8ed79	-0.09029669
61	0x3cb377cb	0.021907708
62	0xbdfbfb94	-0.12303844
63	0x3b689831	0.0035491104
64	0xbdc2b7e5	-0.09507731
65	0xb9b8a24a	-0.0003521613
66	0xbd890db7	-0.06692069
67	0xbdb0675a	-0.08613463
68	0xbe381852	-0.17978027
69	0x3dfc7f25	0.123289384
70	0xbe671776	-0.22567543
71	0xbde1b446	-0.110207126
72	0x3c966d21	0.018362584
73	0x3e276c6d	0.16349955
74	0xbc323720	-0.010877401
75	0x3dc0e08a	0.094178274
76	0xbdcf72f2	-0.10129346
77	0xbd8994c3	-0.06717827
78	0xbe13928d	-0.14411373
79	0xbca8c202	-0.020600323
80	0x3e0474c2	0.12935165
81	0x3d23941c	0.03993617
82	0x3d5d37a5	0.054008145
83	0x3dac962d	0.08427081
84	0xbc82abdf	-0.015951095
85	0x3e060378	0.1308726
86	0xbeaad806	-0.33367938
87	0x3d539d7f	0.05166387
88	0xbd9a8dad	-0.07546554
89	0x3c923664	0.017848201
90	0x3d59004c	0.0529788
91	0x3d9b7fa1	0.07592703
92	0x3d10cb9d	0.03535043
93	0x3dcd37ea	0.100204304
94	0x3d245934	0.040124133
95	0xbda40d46	-0.08010344
96	0xbe02b1c3	-0.12763123
97	0xbe5ac1f6	-0.21363053
98	0x3bf07287	0.0073378715
99	0xbe06807c	-0.1313495
100	0x3debfd8a	0.11522968
101	0x3c58ddfd	0.01323652
102	0xbbc8c4ae	-0.0061269617
103	0xbe8a0a5b	-0.26961026
104	0xbd1f7e6f	-0.038938936
105	0xbe3ceb37	-0.18449102
106	0xbcc50f7f	-0.02405524
107	0x3d99de3e	0.075130925
108	0xbc947a22	-0.018124644
109	0xbc816276	-0.01579402
110	0xbd2662f9	-0.04062173
111	0xbe639e64	-0.2222839
112	0xbd406fcc	-0.046981618
113	0xbda357b7	-0.07975715
114	0xbc9f1c1d	-0.019422585
115	0x3a38d107	0.00070501905
116	0xbcf1a072	-0.029495452
117	0xbbb1141f	-0.00540401
118	0xbe8cffaa	-0.27538806
119	0x3e0c0fb7	0.1367787
120	0xbd3b1d60	-0.04568231
121	0xbd23738c	-0.039905116
122	0xbe30a625	-0.17250879
123	0xbcc01bac	-0.023450695
124	0xbd1d9018	-0.038467497
125	0xbe80e257	-0.25172684
126	0xbcb5c414	-0.022188224
127	0xbe1bfaf7	-0.15232454
128	0xbd9e10af	-0.07718026
129	0xbd9f860f	-0.077892415
130	0x3dd9e649	0.106396265
131	0x3e73c280	0.23804665
132	0xbd1d3b5f	-0.0383867
133	0x3d683c9f	0.056698438
134	0x3dc6e1a6	0.09711008
135	0xbd2ef4fe	-0.04271411
136	0xbd4b3be2	-0.049617656
137	0x3bfd5b27	0.0077318135
138	0x3a830c0b	0.0009998096
139	0x3dacbee4	0.08434847
140	0xbdc8a937	-0.097979
141	0x3cf19b53	0.02949301
142	0x3cfe58b6	0.03104816
143	0xbe45a0a1	-0.19299556
144	0x3e1e5f69	0.15466084
145	0xbd837333	-0.06418457
146	0xbe3bd76c	-0.18343896
147	0xbd4ca2f3	-0.049960088
148	0x3df88cdd	0.121362425
149	0xbdc96ca7	-0.09835177
150	0xbe0577b0	-0.13033938
151	0x3ce4c76a	0.02792712
152	0xbd3173f7	-0.043323483
153	0x3e6197ac	0.22030514
154	0xbd8a4178	-0.067507684
155	0xbe311564	-0.17293316
156	0x3da0843b	0.07837721
157	0x3e05896b	0.13040702
158	0xbdd3faf7	-0.10350602
159	0x3da9d210	0.08292019
160	0xbe70fa21	-0.23532917
161	0x3e1f253a	0.15541545
162	0x3dcdf9ae	0.10057388
163	0xbda90c26	-0.0825427
164	0x3e0b99f0	0.13632941
165	0xbd927464	-0.07151106
166	0xbbcb1010	-0.006196983
167	0x3dad6d7c	0.08468148
168	0x3c87c6ef	0.016574351
169	0xbde21ca0	-0.11040616
170	0xbd7ce1a3	-0.06173862
171	0xbdd1f956	-0.10252635
172	0xbc8be206	-0.01707555
173	0x3e186599	0.14882506
174	0x3e2ddee2	0.16979554
175	0x3dc6ddab	0.097102486
176	0x3c4b38be	0.012403665
177	0x3c87f28c	0.016595148
178	0x3db2f0ed	0.08737359
179	0x3d533cf1	0.05157179
180	0xbd7e0642	-0.062017687
181	0x3ce11c0c	0.027479194
182	0xbd7e9265	-0.06215133
183	0xbced3110	-0.028954059
184	0xbd3cba82	-0.046076305
185	0x3d900b4d	0.070334055
186	0x3c96513f	0.018349288
187	0x3ca1df16	0.019759696
188	0x3e0da033	0.13830642
189	0x3d14ab64	0.036296263
190	0x3b93d1e8	0.0045111068
191	0x3c4cc1cf	0.012497379
192	0xbba482ea	-0.005020489
193	0xbd361212	-0.044450827
194	0x3d0452b3	0.03230543
195	0x3cc38fbd	0.02387225
196	0xbdc4ed6b	-0.096155964
197	0xbdad173c	-0.08451697
198	0x3d83a91c	0.064287394
199	0x3d969d83	0.07354262
200	0x3df6b045	0.120453395
201	0xbdcdc64e	-0.10047589
202	0xbe0cb8ee	-0.1374242
203	0x3b7ea83d	0.0038857602
204	0x3e2f4cda	0.1711916
205	0xbbd991e3	-0.0066397055
206	0x39a9e092	0.0003240151
207	0x3bc6880d	0.006058699
208	0x3c3c3390	0.011486903
209	0xbda05e9d	-0.07830546
210	0xbd976e2a	-0.07394059
211	0x3c3d17fe	0.011541365
212	0x3bfb977c	0.0076779705
213	0xbd0fbafb	-0.035090428
214	0x3d450a95	0.048105795
215	0xbdd53b00	-0.10411644
216	0x3d55a298	0.052157015
217	0x3d209bbd	0.039211024
218	0x3de95475	0.11393062
219	0x3dff7fce	0.12475549
220	0x3e300d31	0.17192532
221	0xbde9ab35	-0.11409608
222	0x3a2e2463	0.0006642995
223	0xbe6e0e20	-0.23247576
224	0x3cfe5ae1	0.031049194
225	0x3df4b97d	0.119494416
226	0xbcef69be	-0.029225226
227	0x3d18f106	0.037339233
228	0x3e05c83e	0.13064668
229	0x3d6b0eba	0.05738709
230	0xbbe163d5	-0.006878356
231	0xbd7e94f0	-0.062153757
232	0xbe65ab7e	-0.224287
233	0xba90bf9d	-0.0011043433
234	0x3e192805	0.14956672
235	0x3d1ddf24	0.03854288
236	0xbd3551c0	-0.044267416
237	0xbe900a19	-0.28132704
238	0x3cc1e936	0.023670774
239	0xbd919dab	-0.07110151
240	0xbe058504	-0.13039023
241	0x3d36197b	0.044457894
242	0x3d28d8e3	0.041222464
243	0x3d4960f9	0.049164746
244	0xbcc56f3c	-0.024100892
245	0xbd93eccc	-0.072229
246	0x3e0438b8	0.12912261
247	0xbd613348	-0.054980546
248	0x3d938a9a	0.072041705
249	0xbcb78ad7	-0.022405071
250	0x3dd2e9da	0.1029851
251	0xbd8d7873	-0.069077395
252	0xbbab78fb	-0.005232928
253	0xbe467b74	-0.19383031
254	0x3d8f44d5	0.069955505
255	0xbda8e858	-0.08247441

network_body._body_endoder.seq_layers.2.bias f4 [128]
0	0x3c2feec3	0.010738078
1	0xbd139174	-0.036027387
2	0x3c5e2f8a	0.013561139
3	0x3e0a6499	0.13514937
4	0x3aba005c	0.0014190781
5	0x3d43b058	0.047775596
6	0x3cc2c621	0.023776116
7	0x3cd86c78	0.02641891
8	0x3d8e57ad	0.069503166
9	0x3d95d6a3	0.07316329
10	0x3def3109	0.116792746
11	0xbcb2bfad	-0.021819914
12	0xbcb0b1de	-0.021569189
13	0x3da84d05	0.08217815
14	0xbdd5dee4	-0.10442904
15	0x3d934c34	0.07192269
16	0x3d7274ba	0.05919335
17	0x3da10307	0.078619055
18	0x3d91dc37	0.07122081
19	0x3d4c36bb	0.049856883
20	0x3dd2cc76	0.10292904
21	0x3bb40bf9	0.0054945913
22	0x3c570618	0.013124011
23	0x3d6214e2	0.055195697
24	0x3d3be497	0.045872297
25	0x3d4d53c5	0.050128717
26	0x3d831698	0.06400794
27	0x3d401682	0.046896465
28	0x3d7b953c	0.061421618
29	0x3de6deb0	0.11272943
30	0xbcdafe31	-0.026732536
31	0x3c094a24	0.008379493
32	0x3dd40563	0.1035259
33	0x3d815317	0.06314676
34	0x3c7b49ec	0.015337449
35	0x3d3d993b	0.04628871
36	0x3db96d25	0.09054021
37	0x3dbe42d4	0.0929009
38	0x3d3970c6	0.045273565
39	0x3d89b7ab	0.06724485
40	0x3e2def48	0.1698581
41	0x3d9b8c66	0.07595138
42	0x3d8deb18	0.06929606
43	0x3daace78	0.08340162
44	0x3d63aab6	0.055582725
45	0xbc087170	-0.008327827
46	0xbadc5d3b	-0.0016812453
47	0x3c1ddf3c	0.009635743
48	0x3d1998e7	0.037499335
49	0xbca5f2a0	-0.020257294
50	0x3d622330	0.05520934
51	0x3cd44e7f	0.025916336
52	0x3c868185	0.016419182
53	0x3e00b5ed	0.12569399
54	0x3da7cb3f	0.08193063
55	0xbb669bf0	-0.003518816
56	0x3cde8a9d	0.027165705
57	0x3c3cb872	0.011518585
58	0x3c97ec6c	0.018545352
59	0x3d0a50ce	0.033768468
60	0x3e5c5d9a	0.21520081
61	0x3d059016	0.032608114
62	0x3de927db	0.11384555
63	0x3cfe8854	0.031070866
64	0x3d510432	0.05102939
65	0x3cdc8e92	0.026923452
66	0x3dc5e6ad	0.096631385
67	0x3db250f2	0.08706845
68	0x3d612ee5	0.054976363
69	0xbd1b09d7	-0.03785118
70	0x3df67995	0.12034909
71	0x3c0862e6	0.0083243605
72	0x3d8de7d4	0.06928983
73	0x3d5d36e4	0.054007426
74	0x3d8f449e	0.069955096
75	0x3ded94d5	0.11600653
76	0x3d3f931c	0.046771154
77	0x3dbc58ee	0.091966495
78	0x3d3e2f74	0.046431974
79	0x3e7d8035	0.24755938
80	0x3d9c6d9e	0.07638095
81	0xbc8db394	-0.017297544
82	0x3dad60d0	0.08465731
83	0xbc59796e	-0.01327358
84	0xbcd99857	-0.0265619
85	0x3c8c5bb5	0.017133573
86	0x3d317a90	0.043329775
87	0x3cf63bb1	0.03005776
88	0xbdb3ecf5	-0.0878543
89	0x3de6ef39	0.11276097
90	0x3b9ee1b1	0.004848682
91	0x3d8be974	0.06831637
92	0x3c77c7cb	0.015123318
93	0x3e0bc725	0.13650186
94	0x3cdd118c	0.026985906
95	0xbdce3344	-0.10068372
96	0x3d705c75	0.058681924
97	0x3dbe1529	0.0928138
98	0x3dc91c7a	0.098198846
99	0xbbde2f22	-0.006780521
100	0x3b4c56f9	0.003117977
101	0xbd2a5d70	-0.041593015
102	0x3bee8c4e	0.007279909
103	0xbda01ea4	-0.07818344
104	0x3d44a25c	0.0480064
105	0x3cef8d8b	0.029242298
106	0x3e2c031a	0.16798058
107	0x3e566cbd	0.20939918
108	0x3c74a14c	0.014931034
109	0x3e236dfd	0.15959926
110	0x3c447c48	0.011992522
111	0x3cffcfc3	0.031226998
112	0x3d47ee88	0.048811466
113	0x3e5dc787	0.21658145
114	0x3d60658c	0.054784343
115	0xbcdeb947	-0.027187956
116	0x3dadae36	0.08480494
117	0x3d8b8a36	0.06813471
118	0xbc5dc799	-0.013536357
119	0xbcae12dc	-0.021249227
120	0x3de7dae6	0.113210484
121	0x3d4c6249	0.04989842
122	0x3d9a85c4	0.07545045
123	0x3d685c6e	0.056728773
124	0x3d79d954	0.060998276
125	0x3d9c4ccc	0.07631835
126	0x3e30dfcd	0.17272873
127	0x3bee9e5b	0.007282061

action_model._continuous_distribution.log_sigma f4 [1, 2]
0	0xbefdb386	-0.49551028
1	0xbefa72c3	-0.4891568

action_model._continuous_distribution.mu.weight f4 [2, 128]
0	0x3e122416	0.14271578
1	0xbc55adf9	-0.013041967
2	0xbd2319ea	-0.039819635
3	0xb973105d	-0.00023180382
4	0x3dd09ad3	0.101857804
5	0xbc259cbf	-0.010108172
6	0xbd82d677	-0.06388562
7	0x3dd916e2	0.10600068
8	0x3d1df858	0.038566917
9	0xbbcb8970	-0.006211452
10	0x3d14a588	0.036290675
11	0x3c6ef03a	0.014583642
12	0x3d642290	0.055697024
13	0x3d91a246	0.07111029
14	0x3d3f7f5b	0.046752315
15	0x3ddb6552	0.10712685
16	0xbc2939c6	-0.010328716
17	0xbd3522de	-0.044222705
18	0x3ce62f30	0.028098673
19	0x3cb72f71	0.022361489
20	0xbd81a4bb	-0.06330248
21	0x3e146b38	0.14494026
22	0xbb915e1e	-0.0044362685
23	0xbd103cf8	-0.035214394
24	0x3d08f1bc	0.03343366
25	0xba52f920	-0.0008047987
26	0xbce31f7b	-0.027724972
27	0x3d96d1bd	0.07364223
28	0xbd169008	-0.036758453
29	0xbcc11b78	-0.023572668
30	0x3d902a9a	0.070393756
31	0x3c6185a6	0.013764774
32	0xbb83f473	-0.0040269434
33	0x3cb65f10	0.022262126
34	0xbc7a3e54	-0.015273649
35	0x3c611946	0.013738936
36	0xbda24d02	-0.07924844
37	0xbc69fea3	-0.0142819015
38	0x3d00e7ec	0.031471178
39	0x3d23806c	0.039917395
40	0x3c3cf15a	0.011532152
41	0x3cd3acad	0.025839174
42	0x3d173fa0	0.036925912
43	0xbc5114c1	-0.012761296
44	0xbc434ea1	-0.011920602
45	0x3d2a036d	0.041507173
46	0x3bf61e90	0.0075109676
47	0x3d86b779	0.065779634
48	0x3cd7740e	0.026300456
49	0x3ca940f0	0.020660847
50	0xba079256	-0.0005171647
51	0x3c116ddb	0.008876289
52	0x3d4213d2	0.047382183
53	0xbe00356b	-0.12520377
54	0x3c4ae9a8	0.01238481
55	0x3d310a20	0.043222547
56	0xbcdc6c55	-0.026907125
57	0xbd1ea656	-0.03873285
58	0x3d0a8958	0.033822387
59	0x3e0a92b5	0.13532527
60	0xbb85896a	-0.004075219
61	0xbdbb04c5	-0.09131769
62	0xbe0d2f7e	-0.13787648
63	0xbc770b56	-0.015078386
64	0x3d3176ee	0.04332631
65	0x3e0f6c71	0.14006211
66	0x3c8e45af	0.017367212
67	0x3d4de998	0.0502716
68	0xbc395173	-0.011310923
69	0x3df0e004	0.117614776
70	0x3d0d5a98	0.034510225
71	0x3d265fb2	0.040618606
72	0xbd034906	-0.032052062
73	0x3cb04425	0.021516869
74	0xbb973dc5	-0.004615518
75	0x3b148a38	0.0022665393
76	0xbc8e4f81	-0.017371895
77	0x3cfdf86b	0.031002244
78	0x3d1b9934	0.037987903
79	0xb97e0828	-0.00024226366
80	0xbca9bea9	-0.020720797
81	0x3ce991c3	0.028511887
82	0xbcc31bf4	-0.02381704
83	0x3d4ed831	0.050499145
84	0xbc9bb4b6	-0.019007068
85	0x3dcaca39	0.09901852
86	0xbc056780	-0.008142352
87	0x3dce2908	0.1006642
88	0xbd5e2918	-0.05423841
89	0x3b2a8334	0.0026018145
90	0xbd573592	-0.052541323
91	0xbb2405ff	-0.0025027988
92	0x3d312d6c	0.04325621
93	0x3cc1c0ad	0.023651445
94	0x3d11776e	0.035514288
95	0xbd8ce14b	-0.06878909
96	0x3c58a7b6	0.013223579
97	0xbc16db7c	-0.009207603
98	0xbdf87be0	-0.12133002
99	0xbd32da9c	-0.043665513
100	0x3d3de53e	0.0463612
101	0x3d0a82a7	0.033816006
102	0x3da03c75	0.07824031
103	0xbd1817f7	-0.03713223
104	0x3c6762f6	0.014122715
105	0x3d677760	0.05651033
106	0xbd1480ca	-0.036255635
107	0xbc0a3270	-0.008434877
108	0x3d8867ad	0.066603996
109	0xba92967b	-0.0011183763
110	0xbd8ebc49	-0.06969506
111	0xbcc663fd	-0.0242176
112	0xbc893e0a	-0.016753215
113	0xba91ae0d	-0.0011114493
114	0xbdb7f762	-0.089827314
115	0xbb9b0aeb	-0.004731526
116	0xbd4a9821	-0.049461488
117	0xbd924090	-0.071412206
118	0x3d502b03	0.05082227
119	0x3d05e3a9	0.032687817
120	0xbcd325d6	-0.025774878
121	0x3d1d75b1	0.038442317
122	0xbcb20863	-0.021732515
123	0x3e159f68	0.1461159
124	0x3d98649a	0.07441063
125	0xbd0e9b2b	-0.03481595
126	0xbc255767	-0.010091639
127	0xbd11776c	-0.03551428
128	0xbd06afa4	-0.032882348
129	0xbe0b88f3	-0.1362646
130	0xbd00ee37	-0.03147718
131	0xbc6462a5	-0.013939534
132	0x3d094da6	0.033521317
133	0x3d2bf6be	0.04198336
134	0x3dc12984	0.094317466
135	0xbdfd50d2	-0.12368931
136	0x3c36de71	0.011161433
137	0x3c3d3f03	0.011550668
138	0xb8dad594	-0.00010434832
139	0x3d9f3434	0.07773629
140	0xbd9c27cf	-0.076247804
141	0x3c3258ef	0.010885461
142	0xbd0107b8	-0.0315015
143	0x3c85c078	0.016327128
144	0x3c818eb2	0.015815113
145	0x395196ad	0.00019987924
146	0x3cbf6090	0.023361474
147	0xbc328375	-0.0108956
148	0x3ba90aa7	0.0051587406
149	0xbd94d3f3	-0.072669886
150	0xbce43116	-0.027855437
151	0x3caa9de6	0.020827245
152	0x3bb4b364	0.005514549
153	0xbcfdb68d	-0.030970836
154	0x3af35b9e	0.0018566733
155	0xbd75c46d	-0.06000178
156	0x3ccf55a0	0.025309384
157	0xbbcba09f	-0.006214216
158	0x3b3831fc	0.0028105965
159	0xbc7c630f	-0.015404477
160	0xbc05091e	-0.0081198495
161	0x3c010c42	0.007876458
162	0xbcd4385b	-0.025905779
163	0xbcc8b0e0	-0.024498403
164	0xbe4aff31	-0.1982391
165	0xbc811fcb	-0.01576223
166	0xbde39982	-0.11113264
167	0x3cc74fa2	0.024329964
168	0x3ac511a3	0.0015035163
169	0x3db04abc	0.086080045
170	0xbd1c2d86	-0.038129352
171	0x3ca18632	0.01971731
172	0x3c93f83d	0.018062705
173	0x3c04dc37	0.008109144
174	0x3d575a83	0.052576553
175	0x3dc0911f	0.0940268
176	0xbc5c09ec	-0.0134301
177	0x3d0cdc46	0.034389757
178	0x3d4d707d	0.050156105
179	0x3bdba7c1	0.0067033474
180	0x3d922025	0.07135037
181	0xbd738505	-0.05945303
182	0x3cade388	0.02122666
183	0x3d2fff6d	0.042968202
184	0x3d2ac2d4	0.04168971
185	0xbd0ca73c	-0.034339175
186	0xbc927272	-0.017876837
187	0xbde8013b	-0.1132836
188	0x3b49a33e	0.0030767466
189	0xbdd58a8f	-0.104268186
190	0x3c2274c9	0.009915539
191	0xbd02ca6a	-0.03193132
192	0x3c2900f7	0.010315171
193	0x3e08de66	0.13366088
194	0x3b7ee9d1	0.003889669
195	0x3d457c69	0.04821435
196	0x3d602351	0.05472118
197	0x3d0ca091	0.034332816
198	0xbcba3e4d	-0.022734785
199	0xbcdb8123	-0.026794976
200	0xbde62ba8	-0.112387955
201	0x3cbeae5d	0.023276502
202	0xbc4db583	-0.012555483
203	0xbcdaaaca	-0.026692767
204	0x3ba10405	0.0049138092
205	0xbd223ad1	-0.039606873
206	0xbd90b8df	-0.07066511
207	0x3bf1ef26	0.007383245
208	0xbc79fc2e	-0.015257878
209	0xbb3c61a7	-0.0028744729
210	0x3c74ab79	0.01493346
211	0xbcf6adcf	-0.030112175
212	0x3d699e55	0.057035763
213	0xbd6e9ab9	-0.058253024
214	0x3c781404	0.015141491
215	0x3cf2093d	0.02954542
216	0x3d098beb	0.0335807
217	0x3ce0fa0b	0.02746298
218	0x3d4a365a	0.04936824
219	0x3e2e53cd	0.17024155
220	0xbd3bd59e	-0.045858018
221	0x3b4cbcc3	0.003124044
222	0xbd60cb29	-0.05488125
223	0x3b467cd0	0.0030286796
224	0xb8fa6ea9	-0.00011941541
225	0x3c20b0ad	0.009807748
226	0x3ca6683b	0.020313373
227	0x3d3ee2b3	0.046602916
228	0xbd7c0db7	-0.061536517
229	0xbd45de1f	-0.048307534
230	0x3c896be2	0.016775075
231	0x3d88d657	0.06681507
232	0xbd328d9e	-0.043592088
233	0x3bcc0265	0.0062258714
234	0xbc80ac29	-0.015707092
235	0x38a2da36	7.765407e-05
236	0xbe0f6968	-0.14005053
237	0x3b9b30ad	0.004736027
238	0x3d10008f	0.035156783
239	0x3d895d4a	0.067072466
240	0xbdcd3391	-0.10019601
241	0xbafdd428	-0.0019365596
242	0x3cf6063e	0.030032273
243	0xbd7cf793	-0.061759543
244	0x3e025825	0.12728937
245	0xbd213073	-0.039352845
246	0xbcc89ceb	-0.024488887
247	0xbb1a7649	-0.0023569039
248	0x3d92308c	0.07138166
249	0x3cfc6cbf	0.030813573
250	0x3c8fc279	0.017548786
251	0x3e2f93b8	0.17146194
252	0xbc64f44d	-0.0139742615
253	0xbb4879a1	-0.0030590075
254	0x3c73a509	0.01487089
255	0xbcbcc166	-0.023041438

action_model._continuous_distribution.mu.bias f4 [2]
0	0xbc29416f	-0.010330542
1	0x3bacde20	0.005275503

action_model._discrete_distribution.branches.0.weight f4 [2, 128]
0	0xbd9f3796	-0.07774274
1	0xbdd4c97b	-0.10389992
2	0xbb8664e9	-0.004101385
3	0x3d8efd5a	0.06981917
4	0xbda5e154	-0.080996186
5	0xba121f4f	-0.00055741234
6	0xbe1756af	-0.14779161
7	0xbdaa3bc4	-0.08312181
8	0x3d8ee205	0.069767036
9	0x3d0020f2	0.03128142
10	0x3e140c68	0.14457858
11	0xbe1afa79	-0.1513461
12	0xbde6ebd9	-0.11275453
13	0x3d401f30	0.046904743
14	0xbe3261c9	-0.17420115
15	0x3cf207c7	0.029544724
16	0x3cb1dfd2	0.021713171
17	0x3d24cc42	0.040233858
18	0x3d80be82	0.062863365
19	0x3d0dc0c3	0.03460766
20	0x3e033a8f	0.12815307
21	0xbd982242	-0.07428409
22	0x3c0ce3c1	0.008599223
23	0x3d1f6f8b	0.038924735
24	0x3d03009e	0.03198301
25	0x3d59d288	0.053179294
26	0x3c9cb5e8	0.019129708
27	0xba97888c	-0.001156108
28	0x3d144760	0.03620088
29	0x3d723bdd	0.05913912
30	0xbd486ec6	-0.048933767
31	0xbd03fe25	-0.032224793
32	0x3d326d04	0.043560997
33	0x3cba651d	0.022753293
34	0xbb912559	-0.004429501
35	0x3c9c77e7	0.019100143
36	0xbd75fbfe	-0.06005477
37	0x3d633a1c	0.05547534
38	0x3d682da8	0.056684166
39	0x3ccef66b	0.025263986
40	0x3dd083cc	0.10181388
41	0x3b8c427b	0.004280386
42	0x3cf5195c	0.029919319
43	0x3d3941fd	0.045228947
44	0x3c29e2dc	0.010369029
45	0xbcc50b1a	-0.024053145
46	0xbe36091e	-0.17776915
47	0xbdcbb9b5	-0.0994753
48	0x3b731db1	0.0037096555
49	0xbd26c746	-0.040717386
50	0x3c752bdf	0.014964073
51	0x3c6d3bd1	0.014479593
52	0xbd2dcd11	-0.042431895
53	0x3d31ddbd	0.043424357
54	0x3d4b9317	0.049700823
55	0xbdef8774	-0.116957575
56	0x3d1a82ee	0.03772252
57	0x3d10c681	0.035345558
58	0x3ce76455	0.028246084
59	0xbdb4468e	-0.0880252
60	0x3df278a6	0.11839418
61	0xbe3b4ab8	-0.18290222
62	0xbd5cf4b9	-0.053944323
63	0x3cb12dbc	0.021628253
64	0x3c7fa08c	0.015602242
65	0xbe06c222	-0.13159993
66	0x3d3838b5	0.044975955
67	0x3d8c13e3	0.068397306
68	0x3b9af333	0.0047286986
69	0xbca67328	-0.020318583
70	0x3da233e2	0.07920052
71	0xbc3b055f	-0.011414855
72	0x3e05740f	0.13032554
73	0x3d1ebba7	0.038753178
74	0x3cf46d74	0.029837348
75	0x3dae5ae2	0.08513428
76	0x3c4e6f09	0.012599715
77	0x3da66266	0.08124237
78	0x3c23d327	0.009999073
79	0x3e157e52	0.14598969
80	0x3d13a14d	0.0360425
81	0xbd8b67bd	-0.06806896
82	0x3d504e21	0.05085576
83	0x3d0b700f	0.034042414
84	0xbd49ebe0	-0.049297214
85	0xbe028493	-0.12745886
86	0x3cbdf4d1	0.023188027
87	0xbd8a3a70	-0.06749427
88	0xbdba4ad5	-0.09096304
89	0x3da23db0	0.07921922
90	0xbd945c76	-0.07244198
91	0xbda950d3	-0.08267369
92	0xbb8888e8	-0.004166711
93	0x3de98a0c	0.114032835
94	0x3d4f3620	0.050588727
95	0xbdbd720b	-0.092502676
96	0x3ccb2dc5	0.024802098
97	0x3d2a4877	0.041573014
98	0x3c6bca9e	0.014391569
99	0x3d0f69f9	0.035013173
100	0x3ca102f7	0.019654734
101	0xbdf6f098	-0.12057608
102	0x3c948e44	0.018134244
103	0xbe165dd4	-0.1468423
104	0x3d799f70	0.060943067
105	0x3da9dc8e	0.082940206
106	0x3ddd4b55	0.10805384
107	0x3e141e23	0.14464621
108	0xbda0bccc	-0.0784851
109	0x3d971bed	0.07378373
110	0xbd741224	-0.059587613
111	0x3c8e49c4	0.017369159
112	0x3d9880d9	0.07446451
113	0x3dcf066e	0.10108648
114	0x3d605ffc	0.054779038
115	0xbd3338f6	-0.043755494
116	0x3d1acf0d	0.037795115
117	0x3c9f344c	0.019434117
118	0xbc3bdb6e	-0.01146589
119	0xbe04742d	-0.12934943
120	0x3db6723e	0.08908509
121	0x3c1ab4a7	0.009442485
122	0x3d1d5a05	0.038415927
123	0xbe1273db	-0.14302008
124	0x3db4bec2	0.08825447
125	0x3d15245a	0.03641162
126	0x3dcec80e	0.10096751
127	0xbc882ca6	-0.016622853
128	0x3dc915c4	0.098186046
129	0x3da23079	0.07919402
130	0xbb931397	-0.0044884193
131	0xbdad1415	-0.08451096
132	0x3d81685f	0.06318735
133	0xbc0d9b90	-0.008643046
134	0x3e194270	0.1496675
135	0x3dccc722	0.09998919
136	0xbd7400c5	-0.059571046
137	0xbd0603ca	-0.032718457
138	0xbe062001	-0.13098146
139	0x3e24737e	0.16059682
140	0x3e08aaa9	0.13346352
141	0xbd890198	-0.06689757
142	0x3e344601	0.1760483
143	0xbd349b52	-0.044093437
144	0xbc1d83cd	-0.009613943
145	0xbd2db06f	-0.04240459
146	0xbda22d43	-0.07918789
147	0xbd202977	-0.039102044
148	0xbe0ada38	-0.13559806
149	0x3dbbfe82	0.09179403
150	0xba3ecc5e	-0.0007278378
151	0xbce50655	-0.02795712
152	0xbd2a4f70	-0.041579664
153	0xbceabdf6	-0.028655034
154	0xbc8b057e	-0.016970392
155	0x3ce9113e	0.028450605
156	0xbd21b7a4	-0.039481774
157	0xbd6607ec	-0.0561599
158	0x3d5710d6	0.05250629
159	0x3cc6b2cb	0.024255177
160	0xbd13954d	-0.036031056
161	0xbd453f13	-0.048155855
162	0x3cc21775	0.023692826
163	0xbc0f746e	-0.008755786
164	0x3d1abfae	0.037780456
165	0xbd69f698	-0.057119936
166	0xbdaa875b	-0.08326598
167	0xbcdc1917	-0.026867433
168	0xbdb61504	-0.08890727
169	0xbcb182db	-0.021668842
170	0xbc9aae12	-0.018881831
171	0xbd0387db	-0.032111984
172	0xbc2dd00e	-0.010608686
173	0x3cefbd32	0.02926502
174	0x3e30b123	0.17255072
175	0x3dd5d1e7	0.10440426
176	0xbc455aa2	-0.012045534
177	0x3d1148ec	0.035469934
178	0xbc06d87d	-0.008230326
179	0xbc070af5	-0.008242358
180	0x3d59286d	0.05301707
181	0xbd70a11b	-0.058747392
182	0xbd5474d9	-0.051869247
183	0x3df70595	0.120616116
184	0xbcd3e452	-0.025865708
185	0xbc3cb9ca	-0.011518905
186	0xbc968620	-0.018374503
187	0x3db7307c	0.089447945
188	0xbe023701	-0.12716295
189	0x3e3b16c7	0.18270408
190	0x3d67b0a5	0.056564946
191	0xbd4083a8	-0.047000557
192	0xbd6f2a29	-0.058389816
193	0x3e1b5922	0.1517072
194	0xbd52ddd9	-0.0514811
195	0xbdbba21b	-0.091617785
196	0x3c27d747	0.010244197
197	0x3c9f09e7	0.019413901
198	0xbd8c2bcf	-0.06844293
199	0xbaad1738	-0.0013205772
200	0xbe0935ed	-0.13399477
201	0xbd21fa20	-0.03954518
202	0xbd09ce3e	-0.033643954
203	0xbd90834e	-0.070562944
204	0xbc91c4be	-0.01779401
205	0xbdb89c8b	-0.09014233
206	0xbccc69b7	-0.024952753
207	0xbe2635dc	-0.16231483
208	0xbd685c19	-0.056728456
209	0x3d791bd4	0.060817555
210	0xbd12dfe1	-0.03585804
211	0xbc426070	-0.011863813
212	0x3d8663c4	0.065619975
213	0x3dfbad5f	0.12288927
214	0xbcbef894	-0.02331189
215	0x3d88b572	0.06675233
216	0x3dc39180	0.09549236
217	0xbdc070d1	-0.09396518
218	0x3da883e1	0.08228279
219	0x3d9ea8f8	0.07747072
220	0xbc816562	-0.015795413
221	0xbdf7387b	-0.1207132
222	0xbd4f833f	-0.050662275
223	0x3dbcffd9	0.092284866
224	0xbc18ec8c	-0.009333741
225	0xbc9c0331	-0.01904449
226	0xbc986ec5	-0.018607507
227	0xbc74d99f	-0.014944463
228	0xbc7043c8	-0.014664598
229	0x3e09d24e	0.13459131
230	0xbc80a7cb	-0.01570501
231	0x3e18aaae	0.14908859
232	0xbd5a6fca	-0.053329267
233	0xbda6ced2	-0.081449166
234	0xbdfcfc57	-0.123528175
235	0xbe10bcd5	-0.14134534
236	0x3d977950	0.073961854
237	0xbd9d22ec	-0.076726764
238	0x3d8d460c	0.06898126
239	0x3b1f190e	0.0024276408
240	0xbdb13286	-0.08652215
241	0xbdba6513	-0.091013096
242	0xbd5db8ea	-0.054131426
243	0x3d3b2dfe	0.04569816
244	0xbd0ee765	-0.034888644
245	0xbc5d578a	-0.0135096405
246	0x3c3ebf3a	0.011642272
247	0x3e0107ac	0.12600583
248	0xbdcb4ed8	-0.099271476
249	0xbc4e785e	-0.01260194
250	0xbcd9e96e	-0.026600566
251	0x3e0e015d	0.13867708
252	0xbd4f51a0	-0.050614953
253	0xbcfceb5d	-0.030873949
254	0xbde4961b	-0.11161443
255	0x3c1e26c9	0.009652802

action_model._discrete_distribution.branches.0.bias f4 [2]
0	0x3d867d1f	0.06566834
1	0xbd867d1f	-0.06566834

exp_avg f4 [128, 10]
0	0xba3dda99	-0.00072423514
1	0x38d5cdae	0.00010194942
2	0xb9965d04	-0.00028679532
3	0xb9ae4505	-0.0003323929
4	0x00000000	0.0
5	0xb822a7c2	-3.8780046e-05
6	0x38a188e2	7.702575e-05
7	0xb982fb64	-0.00024982833
8	0x37ab5170	2.042271e-05
9	0xb9510e2a	-0.0001993707
10	0xba5aee2d	-0.0008351531
11	0x38d121cf	9.972194e-05
12	0x39d49fb5	0.00040554782
13	0xbadfb51b	-0.0017067523
14	0x00000000	0.0
15	0xbaae82bb	-0.0013314107
16	0xb9726145	-0.00023115154
17	0x3a403f95	0.0007333693
18	0xb880d415	-6.143019e-05
19	0x3a058733	0.00050936936
20	0x3af7c881	0.0018904359
21	0xb9d8721f	-0.00041283757
22	0xb7929164	-1.7472259e-05
23	0xbafd9c85	-0.0019349015
24	0x00000000	0.0
25	0xbb85ca4f	-0.004082955
26	0xbad8ab0b	-0.0016530467
27	0x3b87b5f3	0.004141563
28	0xb9e5ad0e	-0.0004380722
29	0xbb1ccb1a	-0.002392477
30	0x3a377199	0.00069978234
31	0xb80bf357	-3.336681e-05
32	0x39bcde40	0.00036023743
33	0x3838ec06	4.4088833e-05
34	0x00000000	0.0
35	0xb961c0a7	-0.0002152944
36	0xb944075a	-0.00018694755
37	0x3a02fd79	0.0004996877
38	0xb84d916f	-4.9011254e-05
39	0xb9573b48	-0.00020526082
40	0x3a54d2f8	0.0008118595
41	0x393e403a	0.00018143738
42	0x3a1a3325	0.0005882255
43	0x3ab58b00	0.0013850629
44	0x00000000	0.0
45	0x3a88b022	0.0010428468
46	0x39bbe7a0	0.00035839994
47	0xba7c01cb	-0.0009613304
48	0x38c1a618	9.2338945e-05
49	0x390e83d8	0.00013591291
50	0x3a7a2a1d	0.00095430185
51	0xb9053e6a	-0.0001270712
52	0x392e39a2	0.00016615403
53	0x3a453c6c	0.0007523957
54	0x00000000	0.0
55	0x39cc59d4	0.0003897684
56	0x37c40c35	2.3370705e-05
57	0xb82874b8	-4.0163024e-05
58	0x36ddeede	6.614121e-06
59	0x39210745	0.00015356865
60	0xb93e7322	-0.00018162702
61	0x37da5cf8	2.6030917e-05
62	0xb801f735	-3.0986226e-05
63	0xb7b907d2	-2.205736e-05
64	0x00000000	0.0
65	0xb711359f	-8.655158e-06
66	0x38425a89	4.633752e-05
67	0xb9394010	-0.0001766684
68	0x3753e0bd	1.2628906e-05
69	0x382592e9	3.9475886e-05
70	0xb9a4c65d	-0.0003142831
71	0x397140f3	0.00023007746
72	0x37fe8dc1	3.0345169e-05
73	0x3a30b86e	0.00067413494
74	0x00000000	0.0
75	0x39ea68d1	0.00044710052
76	0x39dcbca2	0.00042102212
77	0xbaa10cc2	-0.0012287127
78	0x38eae29e	0.000112002
79	0xb9d4031d	-0.0004043811
80	0xba089f54	-0.000521173
81	0x37944a2a	1.767751e-05
82	0x396de8ac	0.00022688758
83	0xbabce78b	-0.0014412267
84	0x00000000	0.0
85	0xbaa2351a	-0.0012375445
86	0xb9b122c5	-0.00033785976
87	0x3a7914f7	0.000950172
88	0xb8bbc01b	-8.952637e-05
89	0xb83f438d	-4.560086e-05
90	0x3a51e150	0.00080062915
91	0xb8e269ad	-0.000107962034
92	0xb5332969	-6.6742956e-07
93	0x3a281182	0.00064113
94	0x00000000	0.0
95	0x3a2d5c8c	0.0006613217
96	0xb74f2c44	-1.2348468e-05
97	0x37d5689d	2.5440293e-05
98	0xb654695e	-3.1651794e-06
99	0xb842fe5f	-4.6490106e-05
100	0x3a61ed84	0.00086184614
101	0xb91832ec	-0.0001451482
102	0x39847b03	0.00025268653
103	0x395f5b03	0.00021300842
104	0x00000000	0.0
105	0x3a8f778e	0.0010945664
106	0xb92c9af6	-0.00016460926
107	0x3a10628e	0.000550785
108	0xb834da41	-4.311861e-05
109	0x3a033955	0.00050057966
110	0xb9d28de9	-0.00040160053
111	0x392e68be	0.00016632953
112	0x38e8e134	0.000111045694
113	0x366d9900	3.540481e-06
114	0x00000000	0.0
115	0xb991ef90	-0.00027835043
116	0x386ef840	5.6974823e-05
117	0xb933285c	-0.00017085805
118	0x37522ed0	1.2527875e-05
119	0xb917934e	-0.00014455357
120	0xba868a41	-0.0010264592
121	0x3a04ccd8	0.00050659245
122	0xb9bfa928	-0.0003655639
123	0x3acea0ea	0.0015764509
124	0x00000000	0.0
125	0x3a76b92f	0.000941175
126	0x3a57b78a	0.00082289486
127	0xbb192441	-0.0023367556
128	0x396395ea	0.00021704254
129	0xb9b40fa8	-0.0003434394
130	0x3b43d471	0.0029881264
131	0xba41d91d	-0.0007394718
132	0x3a16251b	0.0005727575
133	0xbab9eabf	-0.001418434
134	0x00000000	0.0
135	0xbaef2107	-0.0018244096
136	0xbac07372	-0.0014682843
137	0x3b7cfcc4	0.0038602808
138	0xb9cc2e28	-0.000389443
139	0xba9e2597	-0.0012065646
140	0x3a4ba73c	0.00077687553
141	0xb918afbd	-0.00014561317
142	0xb83b2ca7	-4.462586e-05
143	0x3aacbae7	0.001317826
144	0x00000000	0.0
145	0x3ac80f94	0.0015263432
146	0x39903553	0.0002750555
147	0xba1cf8e7	-0.0005988017
148	0x389a9e08	7.372728e-05
149	0x3a8f2a11	0.0010922571
150	0xba4857a7	-0.0007642456
151	0x38dd5504	0.000105539366
152	0xb91b9b9c	-0.00014839921
153	0xb8a7f13f	-8.008116e-05
154	0x00000000	0.0
155	0x39716566	0.00023021325
156	0x398b3d89	0.00026557993
157	0xba339bef	-0.0006851544
158	0x3892b91f	6.996304e-05
159	0x39431b84	0.000186069
160	0x3a680172	0.0008850313
161	0xb7f45229	-2.9125325e-05
162	0x3649df0b	3.0081162e-06
163	0x3a1f6fa9	0.00060820073
164	0x00000000	0.0
165	0x39b76e2f	0.00034986573
166	0xb916316b	-0.00014323524
167	0x39d97e28	0.0004148346
168	0xb81e6fc8	-3.777424e-05
169	0xb9524d9b	-0.00020056071
170	0xba8f8b02	-0.0010951462
171	0x39770033	0.0002355583
172	0xb9400ed6	-0.00018316074
173	0x392e53cb	0.00016625148
174	0x00000000	0.0
175	0x3a0779b2	0.00051679753
176	0x39de67bd	0.0004242043
177	0xba90923d	-0.001102991
178	0x38e8d5f0	0.00011102471
179	0x39a9eb27	0.00032409394
180	0xba23c77a	-0.0006247681
181	0xb88e6b26	-6.7910456e-05
182	0x37d9c7a1	2.5961375e-05
183	0xba57cb1e	-0.0008231866
184	0x00000000	0.0
185	0x36daf685	6.525605e-06
186	0xb9252b9a	-0.00015751869
187	0x3a12dee7	0.0005602673
188	0xb82dab2a	-4.1405823e-05
189	0x3a186a7f	0.0005814209
190	0xba2c998f	-0.00065841613
191	0x3926372e	0.0001585155
192	0x39146e79	0.00014155534
193	0xba0dec9c	-0.00054139807
194	0x00000000	0.0
195	0xba28f49b	-0.00064451405
196	0x37d8fd8c	2.5867274e-05
197	0xb8744eaa	-5.8247395e-05
198	0x36e29720	6.752918e-06
199	0xb8133267	-3.5094472e-05
200	0xbb0cf6a7	-0.002150932
201	0x39660259	0.00021935384
202	0xb9bfee80	-0.00036608055
203	0xb9c29eae	-0.0003712079
204	0x00000000	0.0
205	0x3a11b163	0.0005557744
206	0x3a0f30d4	0.0005462293
207	0xba911211	-0.0011068006
208	0x3917c012	0.00014472034
209	0x3af82f71	0.0018935037
210	0xb983eb14	-0.00025161414
211	0x380bd7fd	3.3341337e-05
212	0x37c37a5e	2.3302793e-05
213	0xb9991e24	-0.0002920489
214	0x00000000	0.0
215	0xb871a23b	-5.7609966e-05
216	0x3887b3ae	6.4707696e-05
217	0xb946c5c4	-0.00018956425
218	0x37890c60	1.6337435e-05
219	0xb885940a	-6.3695086e-05
220	0xba9247ab	-0.0011160275
221	0x39331ec2	0.00017082228
222	0x38a90752	8.0599115e-05
223	0xba6e3efe	-0.0009088366
224	0x00000000	0.0
225	0xb9ede75d	-0.00045376542
226	0x37e6bb15	2.7505253e-05
227	0x391cbda0	0.0001494796
228	0x36e03370	6.6817083e-06
229	0x3a885dad	0.0010403894
230	0x39b10025	0.00033760178
231	0x3951d768	0.00020012038
232	0xb789111a	-1.6339636e-05
233	0x3a6bf73b	0.0009001379
234	0x00000000	0.0
235	0xb8fcc156	-0.00012052308
236	0x393b7692	0.0001787788
237	0xba7ce777	-0.0009647528
238	0x38319ae0	4.2344327e-05
239	0xbb26ea5e	-0.0025469284
240	0xbb1f4382	-0.0024301712
241	0x39eae381	0.00044801462
242	0x383f98a8	4.568012e-05
243	0xb8fc0035	-0.00012016335
244	0x00000000	0.0
245	0x3a690b25	0.00088899053
246	0x3a73f1c4	0.000930574
247	0xbb2087c9	-0.0024494997
248	0x397fbb9e	0.00024388588
249	0x3a206197	0.00061180576
250	0x3995b809	0.00028556612
251	0xb9069e92	-0.00012838308
252	0xb9a4f108	-0.000314601
253	0xb8aee4ba	-8.33957e-05
254	0x00000000	0.0
255	0xb923fa22	-0.00015638073

exp_avg_sq f4 [128, 10]
0	0x35a132df	1.201024e-06
1	0x333b8154	4.3656954e-08
2	0x34eff708	4.4696958e-07
3	0x354af3c8	7.560561e-07
4	0x00000000	0.0
5	0x35144934	5.524082e-07
6	0x33aef7f7	8.147611e-08
7	0x355dabf4	8.257914e-07
8	0x32af9ac6	2.0443064e-08
9	0x3516a098	5.611305e-07
10	0x3707eda9	8.101962e-06
11	0x3453c1fa	1.9721475e-07
12	0x369e7e38	4.7234607e-06
13	0x3705ec25	7.982399e-06
14	0x00000000	0.0
15	0x367e9f5c	3.7941709e-06
16	0x3507e64f	5.062656e-07
17	0x36027231	1.9437978e-06
18	0x33214a37	3.755323e-08
19	0x361b089e	2.3101816e-06
20	0x37c5b9db	2.3570776e-05
21	0x352f9a00	6.541668e-07
22	0x36b9e29f	5.539812e-06
23	0x37569b4b	1.2791551e-05
24	0x00000000	0.0
25	0x37063e39	8.00151e-06
26	0x35d23201	1.5660772e-06
27	0x37294cc5	1.0091059e-05
28	0x33f0e83f	1.1218116e-07
29	0x36931ea7	4.38451e-06
30	0x363c6d04	2.8077638e-06
31	0x339bca38	7.254533e-08
32	0x35c7982d	1.4870944e-06
33	0x36380f5e	2.7427081e-06
34	0x00000000	0.0
35	0x355a3e8b	8.130234e-07
36	0x344cdb36	1.9078729e-07
37	0x3564aaf5	8.5185394e-07
38	0x33b1dbc7	8.282182e-08
39	0x3530d029	6.586802e-07
40	0x36d71068	6.4094093e-06
41	0x34890b60	2.5526515e-07
42	0x36003cec	1.9108948e-06
43	0x37162adc	8.950676e-06
44	0x00000000	0.0
45	0x360a40ea	2.0601387e-06
46	0x34d4fc8f	3.9671838e-07
47	0x364c843b	3.0475337e-06
48	0x35255d40	6.1602987e-07
49	0x361bb6de	2.3203243e-06
50	0x370e20d6	8.471505e-06
51	0x349f6a9c	2.9693626e-07
52	0x36df6d11	6.658615e-06
53	0x36d7cf3e	6.4316255e-06
54	0x00000000	0.0
55	0x365e4e46	3.312614e-06
56	0x343cc4e4	1.7580493e-07
57	0x356702f4	8.6058503e-07
58	0x33206f04	3.735387e-08
59	0x35f89ca1	1.8523025e-06
60	0x35083bc4	5.075092e-07
61	0x32694fc3	1.3580521e-08
62	0x347882e5	2.3144419e-07
63	0x35144c8b	5.524568e-07
64	0x00000000	0.0
65	0x34107384	1.345307e-07
66	0x32cf4d61	2.413316e-08
67	0x34221938	1.50966e-07
68	0x33222e60	3.7760742e-08
69	0x33c882f5	9.337047e-08
70	0x35ecd498	1.7645243e-06
71	0x3388dc5d	6.373077e-08
72	0x35320c04	6.632765e-07
73	0x36176a5f	2.256267e-06
74	0x00000000	0.0
75	0x34ce77f5	3.845777e-07
76	0x341b43e3	1.4460197e-07
77	0x359e754b	1.1806054e-06
78	0x344d80ae	1.9138926e-07
79	0x3545566e	7.351399e-07
80	0x36212b16	2.4015949e-06
81	0x33a21d4d	7.5490426e-08
82	0x355f08c8	8.308675e-07
83	0x361c5d0a	2.3299967e-06
84	0x00000000	0.0
85	0x35abbf09	1.2796091e-06
86	0x34162201	1.3982209e-07
87	0x355bd73b	8.189706e-07
88	0x322f554e	1.0205737e-08
89	0x3563678b	8.4714765e-07
90	0x352e775f	6.499376e-07
91	0x32df82ea	2.602015e-08
92	0x33f805db	1.1549465e-07
93	0x355e926c	8.2914516e-07
94	0x00000000	0.0
95	0x34c702fd	3.7068813e-07
96	0x315c3c93	3.2048646e-09
97	0x32e0f645	2.6189023e-08
98	0x3081338e	9.400638e-10
99	0x32978d34	1.7642925e-08
100	0x374df278	1.2275406e-05
101	0x3505bff8	4.982571e-07
102	0x36959433	4.4577987e-06
103	0x3793eeec	1.7635022e-05
104	0x00000000	0.0
105	0x36d4d5ba	6.3429734e-06
106	0x358235e6	9.701441e-07
107	0x36eac217	6.9963385e-06
108	0x3587f95e	1.0130859e-06
109	0x368c8f49	4.1890057e-06
110	0x365d8e2c	3.3014321e-06
111	0x33ffd5ae	1.1913231e-07
112	0x35504970	7.7592904e-07
113	0x366381bf	3.3901158e-06
114	0x00000000	0.0
115	0x359a9fe7	1.1520432e-06
116	0x34750e40	2.2822587e-07
117	0x361738f2	2.25339e-06
118	0x350b173d	5.181535e-07
119	0x35bfa886	1.4279656e-06
120	0x37648fc3	1.3623331e-05
121	0x34c2af65	3.6262932e-07
122	0x36ce1d66	6.142701e-06
123	0x37600f0f	1.33549465e-05
124	0x00000000	0.0
125	0x3692843a	4.3665323e-06
126	0x358f8969	1.0694322e-06
127	0x36e30886	6.7661194e-06
128	0x35482c92	7.4570664e-07
129	0x37055540	7.947267e-06
130	0x37341a5b	1.0734972e-05
131	0x349fddec	2.9777527e-07
132	0x36582bd4	3.221202e-06
133	0x36455f2b	2.9410683e-06
134	0x00000000	0.0
135	0x365e258d	3.3102435e-06
136	0x35693b31	8.68854e-07
137	0x36b4b756	5.385761e-06
138	0x33962cf6	6.993098e-08
139	0x3656bea1	3.1999446e-06
140	0x370ab7e7	8.268259e-06
141	0x343cf009	1.7596189e-07
142	0x35cbad07	1.5175036e-06
143	0x36fa4afc	7.45931e-06
144	0x00000000	0.0
145	0x363c66d2	2.8074032e-06
146	0x347b1678	2.338437e-07
147	0x3606442c	2.0007237e-06
148	0x34b3af69	3.3468976e-07
149	0x35945456	1.1051404e-06
150	0x36d2ede6	6.2861827e-06
151	0x345ad11b	2.0378904e-07
152	0x361ffa70	2.383862e-06
153	0x36fbdd19	7.506122e-06
154	0x00000000	0.0
155	0x35bac47b	1.3915263e-06
156	0x35347ec5	6.72397e-07
157	0x36aabfd2	5.0887256e-06
158	0x357244c2	9.025208e-07
159	0x3685e40d	3.9902575e-06
160	0x35c0c626	1.4362784e-06
161	0x3360999b	5.2293768e-08
162	0x34e83232	4.324989e-07
163	0x35f13c3b	1.7973429e-06
164	0x00000000	0.0
165	0x35143238	5.5207374e-07
166	0x330db83b	3.2996677e-08
167	0x341e8103	1.4761831e-07
168	0x31acf764	5.033984e-09
169	0x34256214	1.5402503e-07
170	0x361d506e	2.344164e-06
171	0x33a9adbc	7.901278e-08
172	0x34978171	2.8220123e-07
173	0x36480327	2.9804157e-06
174	0x00000000	0.0
175	0x3491f97a	2.7189873e-07
176	0x34968e28	2.804311e-07
177	0x363a3aa9	2.7750305e-06
178	0x3557e6f6	8.0429834e-07
179	0x35f59bb0	1.8299233e-06
180	0x366e74c4	3.553273e-06
181	0x3403f019	1.2287673e-07
182	0x360ab7a0	2.0670486e-06
183	0x36611157	3.3537706e-06
184	0x00000000	0.0
185	0x35afff35	1.3112791e-06
186	0x345a7bb1	2.0347831e-07
187	0x35b67f31	1.3597074e-06
188	0x34247cc8	1.5319085e-07
189	0x3552dda0	7.8553603e-07
190	0x362d134d	2.5790243e-06
191	0x34179f61	1.4120953e-07
192	0x35b2a80d	1.3310943e-06
193	0x365ea97f	3.3179238e-06
194	0x00000000	0.0
195	0x35c22ccb	1.4467163e-06
196	0x349a441a	2.8734286e-07
197	0x35dd0940	1.6468475e-06
198	0x337534f2	5.709166e-08
199	0x35b922a1	1.3793652e-06
200	0x3750aa3d	1.2437403e-05
201	0x34c52be5	3.6726047e-07
202	0x367612e4	3.6667852e-06
203	0x36a38682	4.8734373e-06
204	0x00000000	0.0
205	0x36ab1753	5.0989124e-06
206	0x35377be4	6.8353097e-07
207	0x368eda1b	4.2573206e-06
208	0x335dc8aa	5.1638075e-08
209	0x35fd44ae	1.8869957e-06
210	0x37157615	8.908585e-06
211	0x3497f7b9	2.8306184e-07
212	0x3655f145	3.187991e-06
213	0x373e7001	1.135096e-05
214	0x00000000	0.0
215	0x366f9273	3.569902e-06
216	0x3548bf3c	7.478409e-07
217	0x36b2c2c2	5.327486e-06
218	0x35bea4d0	1.420407e-06
219	0x3683441e	3.912034e-06
220	0x3687ec96	4.0508558e-06
221	0x3409face	1.2850361e-07
222	0x35b1399b	1.3204293e-06
223	0x365b57c7	3.2684636e-06
224	0x00000000	0.0
225	0x35eb1275	1.7514236e-06
226	0x3498bd02	2.8449728e-07
227	0x35f8c3e5	1.8534453e-06
228	0x34328810	1.6627041e-07
229	0x358c2f0a	1.0444503e-06
230	0x3791bf80	1.7374521e-05
231	0x35295df5	6.309413e-07
232	0x3673f0e6	3.6350043e-06
233	0x37300627	1.049185e-05
234	0x00000000	0.0
235	0x368195df	3.861947e-06
236	0x360702eb	2.0118266e-06
237	0x37920d85	1.7410852e-05
238	0x361bcb59	2.3215164e-06
239	0x3713359d	8.774366e-06
240	0x37049189	7.901698e-06
241	0x349bafd2	2.8998926e-07
242	0x363ac017	2.782797e-06
243	0x370fe2d1	8.576274e-06
244	0x00000000	0.0
245	0x35d05de8	1.5524538e-06
246	0x3568b214	8.668587e-07
247	0x36e35d69	6.7760016e-06
248	0x35cb1909	1.5131965e-06
249	0x368dedc5	4.2298075e-06
250	0x36b5d548	5.4190496e-06
251	0x346e0b00	2.2169479e-07
252	0x353ee60b	7.111527e-07
253	0x36fd11e1	7.542069e-06
254	0x00000000	0.0
255	0x35142130	5.518259e-07
