ML-Agents/Examples/SphereHunt/results/imitation_test_001/SphereHunt/SphereHunt-5041.pt (torch, 538251 bytes, 50 tensors)

network_body._body_endoder.seq_layers.0.weight f4 [128, 10]
0	0x3d255ed1	0.040373627
1	0xbe641573	-0.22273807
2	0xb895083d	-7.106408e-05
3	0xbed53057	-0.41638443
4	0xbe3d2dd0	-0.18474507
5	0x3ded056d	0.115733005
6	0xbe2d8ffe	-0.1694946
7	0xbeb125ab	-0.3459905
8	0xbea78273	-0.32716712
9	0xbe56565e	-0.20931384
10	0xbe41afb2	-0.18914679
11	0xbce1a9ef	-0.027546851
12	0x3d8bb22d	0.06821094
13	0x3d98ac04	0.074546844
14	0x3eae1835	0.34002843
15	0xbe7f2a32	-0.2491844
16	0x3f61a580	0.8814316
17	0x3df2a156	0.11847179
18	0x3cf50a92	0.029912267
19	0x3e83bf9c	0.25732124
20	0x3ef6d34c	0.48208082
21	0x3e83954f	0.2569985
22	0xbf12f335	-0.57402354
23	0xbe8e0223	-0.27736005
24	0xbc8417a4	-0.016124554
25	0x3f0fd578	0.561851
26	0x3e95957a	0.29215604
27	0x3eab0f8f	0.33410308
28	0xbe19ea97	-0.15030895
29	0x3e255e43	0.16149239
30	0xbe4758db	-0.1946749
31	0x3e05094e	0.1299183
32	0x3e8fd0a7	0.28088877
33	0x3d3620a4	0.044464722
34	0xbe26e7af	-0.16299318
35	0x3ea45793	0.32098064
36	0x3ea1affd	0.3157958
37	0x3ef8b1a8	0.4857304
38	0xbf2484ae	-0.64264953
39	0x3ecfe6b6	0.40605706
40	0x3e805dd2	0.2507158
41	0x3f318eeb	0.693587
42	0x3dceb6b2	0.1009344
43	0xbebc575d	-0.36785403
44	0x3f249ddf	0.6430339
45	0xbf139348	-0.5764661
46	0x3dacb260	0.0843246
47	0x3e68e7c9	0.22744669
48	0xbeabc337	-0.33547375
49	0x3eba9084	0.36438382
50	0xbeaa47f8	-0.33258033
51	0x3df81a3d	0.121143796
52	0x3eb0ba19	0.3451698
53	0x3e13dc67	0.14439546
54	0xbefe3b1e	-0.49654478
55	0x3d8ddf0c	0.069273084
56	0xbe2e53ce	-0.17024156
57	0x3b9e5785	0.0048322105
58	0xbc1b324d	-0.009472442
59	0xbdd6af6f	-0.1048268
60	0xbe6b69b3	-0.2298954
61	0xbe195ab2	-0.14976004
62	0x3e93213e	0.287363
63	0xbea90660	-0.33012676
64	0x3e38c3eb	0.18043487
65	0x3d0befc9	0.034164224
66	0xbea42e44	-0.32066548
67	0x3f2bde49	0.67136055
68	0x3d0a333c	0.033740267
69	0xbc3b70a7	-0.011440433
70	0x3e1830f0	0.14862418
71	0xbe1085d1	-0.14113547
72	0xbea866d5	-0.32890955
73	0x3e455518	0.19270742
74	0x3dfef3b0	0.124488235
75	0x3e96bc4b	0.2944053
76	0xbf2a28aa	-0.664683
77	0x3dd8725b	0.105686866
78	0x3cee15ea	0.029063184
79	0xbe859c96	-0.26096028
80	0x3d0efe34	0.034910396
81	0x3df24d40	0.118311405
82	0x3c49bf61	0.012313695
83	0x3d4b0cae	0.04957264
84	0xbf043ddf	-0.5165691
85	0x3d41cc67	0.047314074
86	0xbe09d34b	-0.13459508
87	0x3e443dc6	0.1916419
88	0x3dba6a93	0.09102359
89	0xbe25dd20	-0.16197634
90	0xbe95c188	-0.29249215
91	0x3d383636	0.044973575
92	0xbef3aa26	-0.4759075
93	0x3d1ec1fa	0.03875921
94	0x3e2f85e6	0.17140922
95	0x3e45ec98	0.19328535
96	0x3e99a4fb	0.30008683
97	0xbec750a7	-0.3892872
98	0xbe1fad2e	-0.15593407
99	0x3f680472	0.90631783
100	0xbd7f85b3	-0.062383365
101	0x3ef2e029	0.47436646
102	0xbcb3883d	-0.02191555
103	0xbe3f3954	-0.18674213
104	0x3c9a724d	0.018853331
105	0xbe080031	-0.13281323
106	0x3ea2c20d	0.31788674
107	0x3defe454	0.11713472
108	0xbe6e72fb	-0.23286049
109	0x3ee73e17	0.45164558
110	0x3e14ca1b	0.14530222
111	0x3f1d7c7a	0.6151806
112	0xbe183ebe	-0.14867684
113	0x3e8df6e1	0.27727416
114	0x3d9a8855	0.075455345
115	0x3ef724ce	0.48270267
116	0xbda99646	-0.082806155
117	0xbe781a85	-0.24228866
118	0xbf012f74	-0.5046303
119	0x3e8ced34	0.27524722
120	0xbe35e2f1	-0.17762353
121	0x3e3f822e	0.18702003
122	0xbe0425dd	-0.12905069
123	0x3f582229	0.84427124
124	0x3e8741a9	0.26417282
125	0xbe15353c	-0.14571089
126	0xbe2ef4fd	-0.17085643
127	0x3eba5526	0.36393088
128	0xbdf904cb	-0.12159117
129	0xbcc49c64	-0.024000354
130	0x3bb5f01b	0.0055523044
131	0x3e63b38e	0.22236463
132	0x3ee109df	0.43952844
133	0xbdc5a69f	-0.09650921
134	0xbdad2226	-0.08453779
135	0xbe03c97c	-0.12869829
136	0x3ecc5139	0.39905718
137	0xbe6211eb	-0.22077148
138	0x3e27b548	0.16377747
139	0xbaf38180	-0.0018578023
140	0x3dbc8fe7	0.09207135
141	0x3f1ed486	0.62043035
142	0x3e6fa81a	0.2340397
143	0xbf2ddad7	-0.6791205
144	0x3ebd9b30	0.3703246
145	0xbe2c031f	-0.16798066
146	0xb870f4e8	-5.7448546e-05
147	0x3dc02173	0.0938138
148	0x3e252d51	0.16130568
149	0xbe967210	-0.29383898
150	0x3ec39c2b	0.38205084
151	0x3ce48489	0.027895229
152	0x3e2eee19	0.17083015
153	0xbeb17617	-0.34660408
154	0xbc9b07f3	-0.018924689
155	0x3e096cd1	0.13420416
156	0xbdaf25e3	-0.08552148
157	0x3e1e3c70	0.15452743
158	0x3da9bfe1	0.08288551
159	0x3ed55812	0.41668755
160	0xbe4aa3af	-0.19789003
161	0xbf24c4d0	-0.6436281
162	0xbe2a2f2d	-0.16619559
163	0xbe35e548	-0.17763245
164	0xbd9e2a29	-0.07722885
165	0xbf0f927a	-0.5608288
166	0xbe860a60	-0.2617979
167	0x3ebec838	0.3726213
168	0xbccc2f35	-0.024924854
169	0xbeb8f4f8	-0.36124396
170	0xbe0458e7	-0.12924539
171	0xbe8bba1c	-0.27290428
172	0xbf03f98f	-0.5155267
173	0xbea9fc2b	-0.332002
174	0x3ebe10e6	0.37122267
175	0x3e3b2024	0.1827398
176	0xbeb47f9c	-0.35253608
177	0x3d0e02b7	0.034670558
178	0x3d1e2690	0.038610995
179	0xbd6dd16c	-0.05806105
180	0xbf13f328	-0.577929
181	0xbe77e5de	-0.24208781
182	0x3e5e4277	0.21705042
183	0xbea00c3a	-0.31259328
184	0xba140787	-0.00056468736
185	0xbf027419	-0.509584
186	0x3e0b0868	0.13577425
187	0xbdac5991	-0.08415521
188	0x3ebc41a2	0.36768824
189	0xbd86706e	-0.06564413
190	0x3ec429b9	0.38313082
191	0xbf5a945d	-0.85382634
192	0x3dd99936	0.10624926
193	0x3e421bac	0.18955868
194	0xbdaaacd6	-0.08333747
195	0xbda90a60	-0.08253932
196	0xbe5e438d	-0.21705456
197	0x3e911004	0.2833253
198	0x3ed73686	0.42033786
199	0x3e4b5e01	0.19860078
200	0xbeb0e559	-0.34549978
201	0x3e61b7d7	0.22042786
202	0x3ee695be	0.4503612
203	0x3d035cd6	0.032070957
204	0xbec8dec3	-0.39232454
205	0x3eccafa5	0.39977756
206	0xbd3bca5d	-0.045847286
207	0x3ec17acd	0.37789002
208	0x3f0aac53	0.54169196
209	0x3e3963b7	0.18104444
210	0x3e00f730	0.12594295
211	0x3e7f2a45	0.24918468
212	0xbee9f017	-0.45690987
213	0xbeba44be	-0.3638057
214	0xbf0eb9d1	-0.55752283
215	0x3f084907	0.5323643
216	0xbd96663c	-0.073437184
217	0xbe703f3d	-0.23461623
218	0xbeafb680	-0.34318924
219	0x3ef864e3	0.4851447
220	0xbe7da941	-0.24771596
221	0x3e504ea5	0.203425
222	0xbb3d1b78	-0.0028855484
223	0x3bec3234	0.007208133
224	0x3ee84379	0.45363978
225	0xbe0aa611	-0.13539912
226	0x3eb2d2e5	0.34926525
227	0x3e5f4e4c	0.21807212
228	0x3ecb54ba	0.3971308
229	0xbf270f89	-0.6525808
230	0x3ec208bf	0.37897298
231	0xbe8ce265	-0.27516475
232	0x3e0544be	0.13014504
233	0x3da6b9fd	0.08140943
234	0xbcc76a46	-0.024342667
235	0x3cab60f4	0.020920254
236	0x3ef6a77d	0.48174658
237	0x3e9bfa66	0.30464476
238	0x3c4157fe	0.011800764
239	0x3deb05f3	0.11475744
240	0xbee559a0	-0.4479494
241	0xbeb8fda5	-0.36131015
242	0x3d6ef9a1	0.058343533
243	0xbe34d4eb	-0.17659347
244	0xbf1e84e5	-0.6192153
245	0x3d375e9b	0.044767957
246	0x3d825b0d	0.06365023
247	0xbdb956f1	-0.09049786
248	0x3db29cdd	0.087213255
249	0x3f33b8fb	0.7020413
250	0xbe4ddfc7	-0.20104896
251	0xbec50fd0	-0.38488626
252	0xbd763239	-0.06010649
253	0x3e460d00	0.19340897
254	0x3e00f230	0.12592387
255	0xbc744e83	-0.014911297

network_body._body_endoder.seq_layers.0.bias f4 [128]
0	0x3dbaa434	0.091133505
1	0x3c936225	0.017991135
2	0x3e01a981	0.12662317
3	0x3e300b75	0.1719187
4	0x3e3cb19a	0.18427125
5	0x3d38c621	0.045110825
6	0x3d1c135d	0.038104404
7	0x3db95a9d	0.09050486
8	0x3cb5d17d	0.022194618
9	0x3d9c3484	0.07627204
10	0x3df69409	0.12039954
11	0x3e2de9d0	0.16983724
12	0x3d51e914	0.05124767
13	0x3c4b413e	0.012405692
14	0x3d7220fb	0.059113484
15	0x3db6f6db	0.08933803
16	0xbcff7f2a	-0.031188566
17	0x3d9f0b9c	0.07765886
18	0xbcbfe0c4	-0.023422606
19	0xbd973906	-0.07383923
20	0x3b5e2768	0.0033898
21	0x3ddff1da	0.109348014
22	0xbd8c4b08	-0.068502486
23	0xbc7dbefa	-0.015487427
24	0xbcfee4b8	-0.031114921
25	0xbd690225	-0.05688681
26	0x3d5651d0	0.052324116
27	0x3d3267b2	0.043555923
28	0x3e169e31	0.14708783
29	0x3dd05178	0.10171789
30	0x3e575c51	0.2103131
31	0x3d64d192	0.055863924
32	0x3d9d29ec	0.076740116
33	0x3dc64692	0.09681429
34	0x3d587837	0.05284902
35	0x3d8300b2	0.06396617
36	0x3e141c1b	0.14463846
37	0x3c03798b	0.008024584
38	0xbd4ee523	-0.05051149
39	0x3d454ba9	0.04816786
40	0x3cc76ffe	0.024345394
41	0x3dfc1df2	0.12310399
42	0xbcf1da8f	-0.029523162
43	0x3d874e62	0.06606747
44	0xbc9ad930	-0.018902391
45	0xb8d4a394	-0.000101394166
46	0x3d6e2c7c	0.058147892
47	0x3ca08113	0.019592797
48	0xbcd70a9a	-0.026250172
49	0x3dce4a9e	0.10072826
50	0x3db396a4	0.08768967
51	0xbc842c4d	-0.016134406
52	0xbc491889	-0.012273916
53	0x3e08757c	0.13326067
54	0x3dcd574c	0.10026416
55	0x3d0f420b	0.034975093
56	0x3bf00437	0.007324721
57	0x3bb64f7b	0.005563674
58	0x3d8c2fba	0.068450406
59	0x3e47ef98	0.19524992
60	0x3d848bcb	0.06471976
61	0xbd1ed51e	-0.038777463
62	0x3e0602f3	0.13087063
63	0x3d72a834	0.059242442
64	0x3cb16c08	0.021657959
65	0x3d5c5782	0.05379439
66	0x3d92f5e5	0.07175807
67	0x3e0752cf	0.13215183
68	0x3cef8862	0.029239837
69	0x3e210ecf	0.15728305
70	0x3dc2db48	0.09514481
71	0xbd443dec	-0.047910616
72	0x3e130241	0.14356329
73	0x3e55b522	0.20869878
74	0x3dfb276b	0.12263378
75	0x3d92ad4e	0.071619615
76	0x3d91c668	0.07117921
77	0xbd861d29	-0.065485306
78	0x3c58f898	0.013242863
79	0xbcf56d75	-0.02995942
80	0x3d3fd601	0.04683495
81	0xbda42a4c	-0.0801588
82	0x3d5e2b74	0.05424066
83	0x3d8bd1fa	0.06827159
84	0xbb701cb4	-0.0036638202
85	0x3cce3b48	0.025174752
86	0x3dd7cfdb	0.10537692
87	0xbd0af71b	-0.033927064
88	0x3ddb4e47	0.107082896
89	0x3d5080f2	0.05090422
90	0x3ae5046b	0.001747263
91	0x3aae9b0f	0.0013321358
92	0xbd4ad011	-0.049514834
93	0x3e1621b7	0.14661299
94	0x3d3bf97e	0.04589223
95	0xbb1391e8	-0.0022517387
96	0xbc492ea3	-0.0122791855
97	0x3dbb120c	0.091343015
98	0x3e285309	0.16437925
99	0x3d1dcf6d	0.038527895
100	0xbaec7804	-0.0018041139
101	0x3dcf9f88	0.1013785
102	0x3cdbd8d1	0.026836785
103	0x3d71d7ef	0.05904382
104	0x3dbba0d5	0.09161536
105	0x3dd5c306	0.104375884
106	0xbd6e2861	-0.058143977
107	0x3ce84332	0.028352354
108	0x3db99f35	0.090635695
109	0xbc1ccf35	-0.009570886
110	0x3c7b7532	0.015347766
111	0x3e277af6	0.163555
112	0x3d0b7339	0.03404543
113	0x3d984d96	0.07436673
114	0x3db523cb	0.088447176
115	0x3d5d6eab	0.05406062
116	0x3def1337	0.11673587
117	0x3b205000	0.0024461746
118	0xbd331bf0	-0.043727815
119	0x3e511678	0.20418727
120	0x3cd07496	0.025446218
121	0x3dc4a475	0.0960168
122	0xbd5f3a10	-0.054498732
123	0x3c7dcdc8	0.015490957
124	0x3b57377b	0.0032839465
125	0x3d92b82c	0.07164034
126	0x3da7a9e1	0.08186699
127	0x3e19deeb	0.15026443

network_body._body_endoder.seq_layers.2.weight f4 [128, 128]
0	0xbcb3a83a	-0.021930803
1	0xbd5ade9e	-0.05343496
2	0x3bd1cc97	0.006402563
3	0xbca4376f	-0.020045964
4	0xbc72fd1a	-0.014830852
5	0x3d68eef6	0.056868516
6	0xbb00b03e	-0.0019636299
7	0x3d20e1e0	0.03927791
8	0x3d8e90f9	0.06961245
9	0x3cab8139	0.020935642
10	0x3d7a871d	0.06116401
11	0x3d893f85	0.067015685
12	0xbca06171	-0.019577714
13	0xbe2ac15f	-0.16675328
14	0xbe1793a4	-0.14802414
15	0x3d3d8e9a	0.046278574
16	0xbd0c2c6a	-0.034222044
17	0x3ddc8c51	0.10768951
18	0x3e3329a2	0.1749635
19	0x3e16d48a	0.14729515
20	0x3d90547b	0.07047363
21	0x3d842b12	0.064535275
22	0x3e0eab43	0.13932519
23	0x3ddb71a0	0.107150316
24	0x3c926ede	0.017875131
25	0xbda3e1b7	-0.08002036
26	0xbcc6bb47	-0.024259223
27	0xbd468a4f	-0.048471745
28	0xbd8cb5a1	-0.068705805
29	0xbdbead8d	-0.09310446
30	0x3dcbcc4f	0.09951078
31	0x3d8fbd0e	0.07018481
32	0x3d70501c	0.05867015
33	0xbcae7cce	-0.021299746
34	0xbd34ef73	-0.04417367
35	0xbc9edb74	-0.019391753
36	0x3c02be2f	0.007979914
37	0x3da3a19d	0.0798981
38	0xbe304088	-0.17212117
39	0x3e24ce25	0.16094263
40	0xbc46ffee	-0.012145979
41	0xbdd0b9a8	-0.10191661
42	0xbe1f2f05	-0.1554528
43	0x3da0144d	0.07816372
44	0xbe30ee49	-0.17278399
45	0xbd4b0d1e	-0.049573056
46	0xbda1e9ef	-0.079059474
47	0xbe390a30	-0.18070292
48	0xbd2ff51f	-0.042958375
49	0xbbaded2a	-0.005307813
50	0x3dfc2674	0.12312022
51	0x3d86d812	0.06584181
52	0x3dd53ee6	0.104123875
53	0xbd83b3b5	-0.06430761
54	0xbe18f59c	-0.14937443
55	0x3d6d1e9c	0.05789052
56	0x3dee5f72	0.116392985
57	0x3d15891f	0.036507722
58	0xbe4ed9e7	-0.2020031
59	0x3dbeb07b	0.09311005
60	0xbdc230ed	-0.09481988
61	0x3d85ac66	0.06527023
62	0x3d86a60a	0.06574638
63	0x3d0eaecd	0.03483467
64	0x3d8a024c	0.06738719
65	0x3ab2cb9f	0.0013641006
66	0x3db3a4be	0.087716565
67	0xbda6e78e	-0.08149634
68	0xbd636960	-0.055520415
69	0xbe4a6fda	-0.1976923
70	0xbd8f1f91	-0.06988443
71	0xbe11ad92	-0.14226368
72	0x3cf9942b	0.03046616
73	0x3d395512	0.045247145
74	0xbe1fb6c0	-0.15597057
75	0x3e19a5cc	0.15004653
76	0xbdf176ac	-0.11790213
77	0x3dce805f	0.100830786
78	0x3db06340	0.086126804
79	0xbd7fe204	-0.062471405
80	0xbdad9b35	-0.08476869
81	0x3dc26071	0.09491051
82	0x3db455f3	0.08805456
83	0xbbc4011b	-0.005981577
84	0x3c6d78f1	0.014494167
85	0xbe23b717	-0.15987812
86	0xbdd52c82	-0.1040888
87	0x3d10bdb5	0.03533717
88	0xbe0ca837	-0.13736044
89	0x3d3658cc	0.044518277
90	0xbe18e8e9	-0.14932598
91	0x3ca5dcdf	0.020246921
92	0x3dbe5282	0.09293081
93	0xbd5d7312	-0.054064818
94	0x3d6aeab5	0.05735274
95	0x3e48af70	0.19598174
96	0x3dd8ad46	0.10579924
97	0xbd479121	-0.04872239
98	0xbc895dac	-0.016768299
99	0xbe769b0c	-0.24082583
100	0x3de46ec0	0.111539364
101	0xbdbc8c40	-0.09206438
102	0x3d1741ec	0.036928102
103	0x3cb85b3a	0.022504438
104	0x3c7c6db6	0.0154070165
105	0x3cfd7343	0.03093875
106	0x3e8026e8	0.25029683
107	0xbd34d974	-0.044152692
108	0x3c740bee	0.014895422
109	0xbd8ee3df	-0.06977057
110	0x3e1e96de	0.15487239
111	0xbe03559e	-0.12825629
112	0x3e224ff6	0.15850815
113	0x3d7ec6bf	0.062201258
114	0xbde4ac4f	-0.11165678
115	0x3daf5890	0.08561814
116	0xbd7c58ac	-0.061608
117	0x3d5d05ed	0.05396073
118	0x3e51a953	0.20474748
119	0xbe367aac	-0.17820233
120	0xbda0accd	-0.07845459
121	0xbd56f6da	-0.05248151
122	0x3dca0199	0.09863586
123	0x3e57b6e7	0.21065865
124	0x3e294eeb	0.16534011
125	0x3d2f1612	0.042745657
126	0xbdf400c1	-0.11914206
127	0xbc7497e0	-0.014928788
128	0x3e661f10	0.22472787
129	0x3d8ca61f	0.068676226
130	0x3e0759b8	0.13217819
131	0xbbe9a5ee	-0.007130376
132	0x3e13a4e2	0.14418367
133	0x3d655ada	0.055994846
134	0x3e438171	0.19092347
135	0xbd6bd2f1	-0.057574216
136	0xbb3de194	-0.0028973566
137	0xbda46834	-0.08027688
138	0xbd14980b	-0.036277812
139	0xbd5810f4	-0.052750543
140	0x3cc834e1	0.024439277
141	0x3d0890b7	0.033341136
142	0xbb9f4a71	-0.004861169
143	0xbe12f21f	-0.14350174
144	0x3cf45b31	0.02982864
145	0x3d97b8d1	0.07408298
146	0x3e2eee03	0.17082982
147	0x3dff0025	0.124511994
148	0xbc2bef9d	-0.01049414
149	0x3d82908f	0.063752286
150	0xbd650761	-0.05591524
151	0x3c930ec9	0.017951386
152	0x3de4742d	0.11154971
153	0x3e223022	0.15838674
154	0x3d849889	0.06474406
155	0xbce60834	-0.028080083
156	0xbd3c5d10	-0.04598719
157	0x3d901470	0.07035148
158	0x3dbaa7e8	0.09114057
159	0x3d49deda	0.049284793
160	0xbd1c495e	-0.038155906
161	0x3d016842	0.03159357
162	0x3db4f01e	0.08834861
163	0xbdd209eb	-0.10255798
164	0xbd509fd3	-0.05093367
165	0xbe23a441	-0.15980627
166	0x3d88cc2a	0.06679566
167	0xbd8532d7	-0.065038376
168	0x3ddc8ce4	0.1076906
169	0xbba30f7b	-0.0049762107
170	0x3c1035e0	0.008801907
171	0xbdba7f58	-0.0910632
172	0xbcc289c5	-0.023747334
173	0xbe4267ae	-0.18984863
174	0x3d03d53b	0.032185774
175	0xbdb5fdda	-0.08886309
176	0xbdd943d5	-0.10608641
177	0x3d4c89cc	0.0499361
178	0x3e5a7272	0.2133272
179	0xbdffb767	-0.12486153
180	0x3db60d9e	0.08889316
181	0xbe2c2153	-0.16809587
182	0xbdab452b	-0.08362802
183	0x3e17c94b	0.14822881
184	0x3d567933	0.05236168
185	0xbab9d6e4	-0.0014178422
186	0xbd85a5b3	-0.06525745
187	0xbd0194e3	-0.03163613
188	0x3c01deb2	0.00792663
189	0x3dbc4546	0.091929
190	0xbca14c96	-0.01968984
191	0x3cd53756	0.026027363
192	0xbe317953	-0.17331438
193	0xbc9d3836	-0.019191843
194	0x3dafadf3	0.085781
195	0xbdacb412	-0.08432783
196	0x3d876204	0.06610492
197	0x3e1b3c8f	0.1515982
198	0x3c2741c0	0.010208547
199	0xbe18aaf3	-0.14908962
200	0xbd6bc995	-0.05756529
201	0xbd853a68	-0.06505281
202	0x3d967211	0.07345975
203	0xbdd01700	-0.10160637
204	0x3c40f787	0.011777765
205	0x3bf4c8a1	0.007470206
206	0xbda4f977	-0.08055394
207	0x3dd905b6	0.105967924
208	0x3c010fe0	0.00787732
209	0xbd64c08f	-0.0558477
210	0x3dd590b7	0.10427993
211	0xbdfdfbe4	-0.1240156
212	0xbda037b5	-0.07823125
213	0x3d318621	0.043340806
214	0x3e1e167e	0.15438268
215	0x3db932e7	0.09042912
216	0x3da555d6	0.080730125
217	0x3ddf05b5	0.108897604
218	0x3d339eab	0.04385249
219	0x3ce09815	0.027416268
220	0x3cf8a0a3	0.030350035
221	0x3c658285	0.014008169
222	0xbd4235fb	-0.04741476
223	0x3c45e8de	0.012079446
224	0xbb81b30a	-0.0039581107
225	0x3d0c5d1c	0.034268484
226	0xbe3cddb9	-0.18443955
227	0xbcdc2194	-0.02687148
228	0xbd0570f7	-0.032578435
229	0x3c6d0ef2	0.014468895
230	0x3d2706a9	0.040777836
231	0xbe0dd15e	-0.13849398
232	0xbde371fe	-0.11105727
233	0x3dab009a	0.08349724
234	0xbcf8061a	-0.030276347
235	0xbdfd5fdd	-0.123718
236	0x3e05e8bd	0.13077064
237	0xbc69bc51	-0.01426609
238	0xbd2ef5b7	-0.0427148
239	0xbbc6b1b4	-0.0060636643
240	0xbdd85734	-0.10563508
241	0xbc7031d8	-0.014660321
242	0xbe1b6265	-0.15174253
243	0xbce0f6e5	-0.027461478
244	0x3d64c509	0.05585197
245	0xbd118aeb	-0.035532873
246	0x3d36d59f	0.04463732
247	0x3e062db5	0.13103373
248	0x3c9d867d	0.019229168
249	0xbcc2a981	-0.023762466
250	0x3d0445cb	0.032293122
251	0x3d611c9a	0.054958917
252	0x3e7032fe	0.23456952
253	0xbd0b52b5	-0.034014422
254	0x3e7683a6	0.24073657
255	0x3bb54c1e	0.0055327555

network_body._body_endoder.seq_layers.2.bias f4 [128]
0	0xbd3e6c31	-0.046489898
1	0xbb056c1e	-0.0020358632
2	0x3cd3657c	0.025805227
3	0xbd1910f2	-0.037369676
4	0x3d6d6302	0.05795575
5	0xbd1ac8ed	-0.037789274
6	0x3c3a7038	0.011379294
7	0xbdbc8884	-0.09205726
8	0x3df5b901	0.11998177
9	0x3e3e9cef	0.18614553
10	0x3c21c456	0.00987347
11	0x3dcd7f4a	0.10034044
12	0x3d3bab84	0.045817867
13	0x3ca96685	0.020678768
14	0x3d9a0c3c	0.07521865
15	0x3d6f9350	0.058490098
16	0x3da2c164	0.079470426
17	0x3d8af102	0.0678425
18	0x3d537dd0	0.051633656
19	0x3ca1103d	0.019661063
20	0x3b991ae0	0.004672393
21	0x3c8da6d9	0.017291473
22	0xbd856a47	-0.065144114
23	0x3d3af4b9	0.045643542
24	0x3dab2ab9	0.08357758
25	0x3b5ccd66	0.0033691763
26	0xbcffb85a	-0.031215835
27	0xbb3092cd	-0.0026942969
28	0x3da7613e	0.08172844
29	0x3dc45ee0	0.095884085
30	0x3d91a6ae	0.0711187
31	0x3d9a0653	0.075207375
32	0x3e06629c	0.13123554
33	0x3d5bab3b	0.053630095
34	0x3dc4204c	0.09576473
35	0x3db374f0	0.087625384
36	0x3dd5eaf8	0.10445207
37	0x3e4ccbd5	0.19999631
38	0x3dbd78af	0.09251534
39	0x3d0ef53a	0.034901835
40	0x3dc6c4aa	0.097054794
41	0x3c968fed	0.018379176
42	0x3d742fec	0.059616014
43	0x3d42bf4d	0.04754572
44	0x3e2bef64	0.16790539
45	0xbbd08dfc	-0.006364582
46	0x3c915656	0.017741363
47	0x3dbda6cf	0.09260332
48	0x3d7ea183	0.06216575
49	0x3d72d8b6	0.059288703
50	0xbd40e358	-0.047091812
51	0x3da6e949	0.08149964
52	0x3d0445f0	0.03229326
53	0x3d751045	0.05982997
54	0x3dd847dc	0.10560581
55	0x3acfef6f	0.0015864203
56	0xbda39e74	-0.07989207
57	0xbc60c688	-0.013719209
58	0xbd394f16	-0.045241438
59	0xbd069a43	-0.03286196
60	0x3ccdc550	0.0251185
61	0x3de26e5d	0.110562064
62	0x3caf16d2	0.021373186
63	0x3c27169e	0.010198263
64	0x3dadc800	0.084854126
65	0x3e03b666	0.12862548
66	0x3ce824cb	0.028337857
67	0x3d5e8bc4	0.05433251
68	0x3da59a97	0.08086126
69	0x3daef33b	0.08542486
70	0x3caff4d9	0.021479057
71	0xbd91c7ac	-0.071181625
72	0x3c94c56a	0.01816054
73	0xbd90f013	-0.070770405
74	0x3daaee5f	0.08346247
75	0x3c2e8d88	0.010653861
76	0xbda79a02	-0.081836715
77	0x3cfbf5b3	0.030756807
78	0x3e1e0a21	0.15433551
79	0x3d845ef7	0.064634256
80	0x3c92b878	0.017910227
81	0x3cc97af4	0.024594761
82	0x3d80c305	0.06287197
83	0x3d8a61d0	0.067569375
84	0xbd85468b	-0.06507596
85	0xbbd61baa	-0.0065340595
86	0x3d6c92c7	0.057757165
87	0x3d94b1b3	0.07260456
88	0xbc0ea6bf	-0.008706748
89	0x3dba7e43	0.09106114
90	0x3d581b39	0.052760337
91	0x3ca9e6b9	0.0207399
92	0x3d9493ba	0.07254739
93	0x3d990447	0.07471519
94	0x3dd53e62	0.10412289
95	0x3d1f1b47	0.038844373
96	0x3d4cafa3	0.049972188
97	0xbd3190ce	-0.043350987
98	0x3d1aca90	0.037790835
99	0x3d5702ae	0.05249279
100	0x3d8a28b5	0.067460455
101	0xbc5d3206	-0.013500696
102	0x3e018fdf	0.12652539
103	0xbd3160c1	-0.043305162
104	0x3d9bd0e8	0.07608205
105	0xbce7289f	-0.028217612
106	0xbbfcb93d	-0.007712512
107	0x3dc47e25	0.09594373
108	0x3df7716d	0.12082181
109	0x3d8a0864	0.06739882
110	0x3d970aef	0.07375132
111	0x3cd80e94	0.026374139
112	0x3d5259a1	0.051355008
113	0x3df001b5	0.117190756
114	0xbd1f28e6	-0.038857363
115	0x3d3b6ebf	0.045759913
116	0x3dc07e43	0.093990825
117	0x3d684006	0.056701683
118	0x3ce29e19	0.027663277
119	0x3d28d9a6	0.04122319
120	0x3e2d6086	0.16931352
121	0x3d568978	0.052377194
122	0xbd486f97	-0.048934545
123	0x3d23b4bf	0.039967295
124	0x3b4c052e	0.0031131017
125	0xbddb5b3d	-0.10710762
126	0x3c8b5227	0.017006947
127	0x3dc55505	0.09635357

action_model._continuous_distribution.log_sigma f4 [1, 2]
0	0xbece378f	-0.40276763
1	0xbecc969b	-0.39958653

action_model._continuous_distribution.mu.weight f4 [2, 128]
0	0xbd417d35	-0.047238547
1	0x3d4b2ac2	0.049601324
2	0xbe033f29	-0.12817062
3	0x3c5c05f2	0.013429152
4	0xbd43cfe3	-0.047805678
5	0xbdac0835	-0.08400003
6	0x3d84143d	0.06449173
7	0xbd19ab24	-0.037516728
8	0xbc007d23	-0.007842335
9	0x3c1d5168	0.009601928
10	0xb9a0e265	-0.00030686255
11	0xbe195759	-0.14974727
12	0xbd77cb09	-0.060496364
13	0x3d25da42	0.04049135
14	0x3c18780f	0.009305968
15	0x3b2d986e	0.002648856
16	0x3c5b9bb6	0.013403824
17	0x3cc4ad11	0.024008306
18	0x3d1a4dcc	0.03767185
19	0x3cf1006f	0.029419152
20	0x3d09a6fe	0.03360652
21	0x3da4b447	0.08042198
22	0x3d5704cb	0.052494805
23	0x3c64dc71	0.013968573
24	0x3c09cac1	0.008410157
25	0x3d4d6aa8	0.050150543
26	0x3d016a50	0.031595528
27	0x3d9a590f	0.07536518
28	0xbe2bded1	-0.16784216
29	0xbc7c6600	-0.015405178
30	0xbc413867	-0.0117932325
31	0x3cd780b8	0.026306495
32	0x3b22f59e	0.0024865638
33	0xbcdba69e	-0.026812848
34	0xbce027b6	-0.027362686
35	0x3c610e07	0.013736255
36	0xbc1251d5	-0.008930643
37	0x3b683a5c	0.0035435176
38	0xbcb9105c	-0.022590809
39	0x3caa4daf	0.020788996
40	0x3d6bf4db	0.05760656
41	0x3d16c883	0.036812317
42	0xbd8adbba	-0.06780191
43	0x3afa2af4	0.0019086287
44	0x3cb97cfe	0.022642609
45	0xbc32f376	-0.010922303
46	0x3cbc0bc9	0.022954838
47	0x3ccf078b	0.025272151
48	0xbd2b677e	-0.041846745
49	0xbc8a2f16	-0.016868155
50	0xbcbfa1ff	-0.023392675
51	0x3d28c4ec	0.041203424
52	0x3d9274d6	0.07151191
53	0xbccf4439	-0.025301086
54	0xbdebf42d	-0.11521182
55	0x3dbbf002	0.09176637
56	0x3d72fd25	0.05932345
57	0xbd90bddf	-0.07067465
58	0x3c80cd4d	0.015722895
59	0xbd51b3fc	-0.051197037
60	0xbbdbb858	-0.006705325
61	0xbdbf6293	-0.093449734
62	0xbc895205	-0.016762743
63	0xbd1cc569	-0.038274202
64	0xbc21dd15	-0.00987937
65	0xbe12a968	-0.14322436
66	0xbd773acc	-0.060358807
67	0x3d033715	0.032034952
68	0xbcfdf294	-0.03099946
69	0x3d33b3fd	0.043872822
70	0x3d3cda77	0.04610678
71	0xbd1a5a6c	-0.03768389
72	0x3db9356e	0.09043394
73	0xbcee05b7	-0.02905546
74	0xbd229608	-0.039693862
75	0x3d44c251	0.048036877
76	0x3c23fb1f	0.010008602
77	0x3e0ea37c	0.13929552
78	0x3b2dc336	0.002651406
79	0xbcbd1379	-0.023080574
80	0x3d670b5e	0.056407325
81	0xbc533dcd	-0.012893152
82	0x3e03f8a6	0.1288782
83	0x3e3d1de6	0.18468437
84	0x3d36f3e0	0.04466617
85	0x3d00ed23	0.03147615
86	0x3db92d85	0.09041885
87	0xbd5f806f	-0.054565843
88	0xbd35ffc9	-0.04443339
89	0xbd8597dd	-0.06523106
90	0x3c8a77a2	0.016902748
91	0x3d5f268e	0.054480128
92	0xbc8ef36c	-0.017450057
93	0xbd13c595	-0.0360771
94	0xbc5e3192	-0.013561623
95	0x3d2f96c4	0.04286839
96	0x3b9d9de2	0.004810081
97	0xbd2dcfae	-0.042434387
98	0x3cd67ce2	0.026182596
99	0xbcb29819	-0.021801041
100	0x3d22464c	0.03961782
101	0x3c0fc4dd	0.008774963
102	0xbce0aa87	-0.027425064
103	0xbb555007	-0.003254892
104	0xbd0257b0	-0.031821907
105	0xbd84aa89	-0.064778395
106	0xbcbf81e8	-0.023377374
107	0x39b151dd	0.00033821064
108	0xbbc23364	-0.0059265364
109	0xbcc29c32	-0.02375612
110	0x3bf40c17	0.0074477303
111	0x3e0ac7db	0.13552801
112	0x3e13197c	0.1436519
113	0xbc2903c9	-0.010315844
114	0x3cc0d2cc	0.023538016
115	0xbd719743	-0.058982145
116	0xbd04c169	-0.032411013
117	0x3c59bab1	0.01328914
118	0xbca21e42	-0.019789819
119	0x3bb14c9c	0.005410744
120	0xbce82b58	-0.02834098
121	0xbc695c43	-0.014243188
122	0x3d14f043	0.036361944
123	0x3c5d0234	0.013489295
124	0x3d20271b	0.039099794
125	0xbc97d248	-0.018532887
126	0x3ce81c7e	0.028333899
127	0x3c67cf88	0.0141486
128	0x3d5b525a	0.053545333
129	0x3c744654	0.014909346
130	0x3b51ef98	0.0032033678
131	0x3d56104f	0.052261647
132	0xbb4dd574	-0.0031407746
133	0x3cc58cb4	0.024114944
134	0xbd51c244	-0.051210657
135	0xbc44326f	-0.011974915
136	0xba3575f7	-0.000692218
137	0x3d09daf8	0.03365609
138	0xbd8c9baf	-0.06865632
139	0x3d97c5d1	0.07410777
140	0x3d9205a0	0.07129979
141	0x3a830600	0.0009996295
142	0xbc4874b1	-0.012234853
143	0xbcc91b80	-0.024549246
144	0x3c8c7b59	0.01714866
145	0x3c31cf49	0.010852643
146	0x3cc85170	0.024452895
147	0x3c25b67c	0.010114308
148	0x3ca2ae1e	0.019858416
149	0xbc94303d	-0.018089408
150	0xbdf4b52d	-0.11948619
151	0xbd22dcd1	-0.03976137
152	0x3c8e4284	0.017365701
153	0xbd356f7b	-0.04429577
154	0xbc08dbbf	-0.008353173
155	0xbcd21a2c	-0.025647245
156	0xbdf48452	-0.119393006
157	0x3c0bfeff	0.0085446825
158	0xbd0487ca	-0.03235606
159	0x3ccbe19b	0.02488785
160	0x3c2852f6	0.010273686
161	0xbc08a0b7	-0.008339099
162	0x3c0bfd63	0.008544299
163	0x3c66f639	0.01409679
164	0x3d1c8470	0.03821224
165	0xbc15c9b3	-0.009142327
166	0xbc293a0b	-0.01032878
167	0xbcf20102	-0.029541496
168	0x3e0d100e	0.13775656
169	0xbca3ddae	-0.020003166
170	0x3cd0add4	0.025473513
171	0xbcc628c1	-0.024189355
172	0x3bec4a76	0.007211025
173	0x3d6d86db	0.057989936
174	0x3b66710d	0.0035162598
175	0xbca1d057	-0.019752664
176	0x3beb94c1	0.0071893637
177	0x3d7ed9f9	0.062219594
178	0x3d61ab03	0.05509473
179	0xbd7fe612	-0.06247527
180	0xbde51caa	-0.11187108
181	0xbcc8a6e3	-0.02449364
182	0xbe09786d	-0.13424845
183	0xbd5a3bbf	-0.053279635
184	0x3d5ff944	0.054681078
185	0xbd4c8cb7	-0.049938884
186	0xbcc20337	-0.023683174
187	0xbc739c68	-0.014868833
188	0xbd2b5d52	-0.041837044
189	0x3dde1f20	0.108457804
190	0x3d5e4237	0.054262366
191	0xbd19d606	-0.037557624
192	0x3cc194ee	0.023630586
193	0xbd7e4954	-0.06208165
194	0x3d8f66e9	0.070020504
195	0xbbd8fc52	-0.006621876
196	0xbcc8efeb	-0.024528464
197	0xbc6407f0	-0.013917908
198	0x3df01e22	0.117244974
199	0xbd21a205	-0.039461154
200	0xbd9498fa	-0.072557405
201	0xbca5800c	-0.02020266
202	0xbcb4551e	-0.022013243
203	0xb9084833	-0.00012996867
204	0x3d9e167a	0.07719131
205	0x3c7d335b	0.015454139
206	0x3cc5d4ab	0.02414926
207	0x3d01b79c	0.031669244
208	0x3dc30db9	0.09524102
209	0x3d2b4a06	0.04181864
210	0x3dc36280	0.09540272
211	0xbd64cc32	-0.0558588
212	0x3cfab48a	0.030603666
213	0xbe094a3f	-0.13407229
214	0xbd979fba	-0.07403512
215	0x3bcf7a24	0.006331699
216	0x3bb9f9ef	0.0056755464
217	0x3b93774a	0.0045003043
218	0xbca7e88b	-0.020496627
219	0xbcf00ac5	-0.02930201
220	0xbc9de52c	-0.019274317
221	0xbbd027a0	-0.00635238
222	0xbb8b3d04	-0.004249217
223	0x3d9112c8	0.0708366
224	0x3dc29745	0.095015086
225	0xbb8d857d	-0.0043188916
226	0xbc692c5f	-0.01423177
227	0xbdf96ab6	-0.121785566
228	0xbc1d437c	-0.009598609
229	0xbd5b0cbb	-0.053478938
230	0xbc76dafc	-0.015066858
231	0xbd072fb4	-0.033004478
232	0xbcad5378	-0.021157965
233	0x3d393721	0.04521859
234	0xbb056cfc	-0.002035915
235	0x39b51a15	0.00034542443
236	0xbce79776	-0.028270464
237	0x3d0098ce	0.031395726
238	0x3ca953dd	0.020669872
239	0xbdb87a76	-0.090077326
240	0x3d478836	0.048713885
241	0x3bc70c80	0.006074488
242	0x3d06499d	0.032785047
243	0x3bab9e36	0.005237366
244	0x3cba753a	0.022760976
245	0xbc923ceb	-0.017851314
246	0xbd44e451	-0.048069302
247	0xbd8fd326	-0.07022695
248	0x39ee25ab	0.00045422962
249	0xbc829589	-0.015940445
250	0x3cb5ad26	0.02217729
251	0xbe0f4bad	-0.13993712
252	0x3b529bf3	0.003213641
253	0xbb5194cf	-0.0031979566
254	0xbd230720	-0.039801717
255	0x3a6d358e	0.0009048813

action_model._continuous_distribution.mu.bias f4 [2]
0	0xbc4dd904	-0.012563948
1	0x3c42e541	0.011895479

action_model._discrete_distribution.branches.0.weight f4 [2, 128]
0	0xbd93e210	-0.072208524
1	0x3bd1796d	0.006392649
2	0xbdc206fc	-0.094739884
3	0xbd337267	-0.043810274
4	0x3d23d898	0.04000148
5	0xbdb098ec	-0.086229175
6	0xbd907fa8	-0.070555985
7	0xbe06bb69	-0.13157429
8	0x3d8e6e5c	0.06954643
9	0x3e3b202e	0.18273994
10	0xbc5a67a5	-0.013330375
11	0xbcc9091b	-0.024540475
12	0x3cdfde0e	0.027327564
13	0x3c645fa3	0.013938817
14	0x3d5d910c	0.054093406
15	0x3cd79259	0.026314901
16	0x3d2507f5	0.04029079
17	0x3cf6aaa2	0.030110661
18	0x3ca96937	0.020680053
19	0xbbc51033	-0.006013894
20	0x3b5e3f03	0.003391207
21	0x3d7ed37e	0.062213413
22	0xbda27058	-0.07931584
23	0x3cd641a1	0.026154341
24	0x3d54af28	0.051924855
25	0xbd1b875f	-0.037970897
26	0xbd160155	-0.036622364
27	0xbd0e9aa1	-0.034815434
28	0xbdaae978	-0.08345312
29	0x3d2829cf	0.041055497
30	0x3d96c68b	0.07362088
31	0x3d495eaa	0.049162544
32	0x3da6443b	0.08118483
33	0x3cc15852	0.023601685
34	0x3d95d2ea	0.07315619
35	0x3d190c9e	0.03736555
36	0x3dc6f3fe	0.097145066
37	0x3e2636d7	0.16231857
38	0x3d74aae2	0.05973328
39	0x3cb1f637	0.02172385
40	0xbda0334d	-0.07822285
41	0x3d95ea65	0.07320098
42	0x3c3f580a	0.011678705
43	0x3cf08bb9	0.0293635
44	0x3e099703	0.13436513
45	0xbdb3d72f	-0.087812774
46	0x3b5c8101	0.0033646228
47	0x3da1eb07	0.07906156
48	0x3caf82b3	0.021424627
49	0x3d3ecd6b	0.04658262
50	0xbd8f61be	-0.07001065
51	0x3e1486bd	0.14504524
52	0x3d4ce61e	0.050024144
53	0x3d559d8e	0.05215221
54	0xbd285190	-0.04109341
55	0xbc4f72ff	-0.012661695
56	0xbdc76ec1	-0.097379215
57	0xbdbb51e2	-0.09146477
58	0xbd3c220a	-0.0459309
59	0xbda45e9b	-0.08025857
60	0x3d05a85d	0.032631267
61	0x3dfe4554	0.12415567
62	0x3b803bfe	0.0039134016
63	0x3c1712d0	0.009220794
64	0x3d07aa02	0.033121116
65	0xbad37c27	-0.0016135023
66	0xbc97afe1	-0.018516483
67	0x3ca2de4b	0.019881388
68	0x3d2d4629	0.042303238
69	0x3daf4f25	0.085600175
70	0xbd85b952	-0.06529488
71	0xbde499c8	-0.11162144
72	0xbc1aff98	-0.009460352
73	0xbe08ce4c	-0.13359946
74	0x3d5bed6e	0.053693227
75	0x3a803367	0.0009780944
76	0xbd87fdca	-0.06640203
77	0xbd99e9e3	-0.075153135
78	0x3dd4eb5b	0.10396453
79	0x3d0d491d	0.034493554
80	0xbdb4f547	-0.088358454
81	0xbcb2cdfc	-0.021826737
82	0xbd52f12a	-0.051499523
83	0xbd26b3bf	-0.040698763
84	0xbd7befbc	-0.061507925
85	0xbdee270e	-0.11628543
86	0xbc0cb9d3	-0.008589226
87	0x3d3fb57f	0.046803948
88	0xbad9c064	-0.0016613123
89	0x3d65090a	0.055916823
90	0x3ca1f46e	0.019769873
91	0x3baa5042	0.0051975558
92	0x3d18411b	0.037171464
93	0x3d3893b9	0.045062754
94	0x3d92cbd3	0.07167783
95	0x3d09e680	0.033667088
96	0xbcbc8c52	-0.023016129
97	0xbd3fbd27	-0.04681125
98	0x3cd81c7c	0.02638077
99	0x3d2b2009	0.041778598
100	0x3d680348	0.056643754
101	0xbce4bf7a	-0.027923334
102	0x3debbe4a	0.11510904
103	0xbd37c7e3	-0.04486836
104	0x3d3b644f	0.04574996
105	0xbd9e4aaa	-0.07729085
106	0x3ac471c9	0.0014987524
107	0x3d3e2a0e	0.046426825
108	0x3dc2638e	0.09491645
109	0x3d02e675	0.031958062
110	0x3d2148d7	0.039376106
111	0xbcc4bb34	-0.024015047
112	0xbd9a4e78	-0.07534498
113	0x3d2f3428	0.04277435
114	0xbdd4ebe2	-0.103965536
115	0x3ca0c087	0.019623054
116	0x3d48e0a9	0.049042378
117	0x3d1072c9	0.035265718
118	0x3cb5db20	0.022199214
119	0x3d6c2b06	0.057658218
120	0x3e0a922f	0.13532327
121	0x3cb73f06	0.02236892
122	0xbdde4978	-0.10853857
123	0xbc8a3c4f	-0.01687446
124	0x3c468abd	0.012118039
125	0xbdf3c162	-0.11902119
126	0xbc1e19c0	-0.009649694
127	0x3d98d48d	0.07462416
128	0x3da54ed5	0.08071677
129	0xbbaebdde	-0.0053326925
130	0x3dbf3e1a	0.09338017
131	0x3d111f8a	0.03543047
132	0xbcce178a	-0.025157709
133	0x3d7fed1b	0.06248198
134	0x3db1023b	0.086430036
135	0x3e0d0948	0.13773072
136	0xbd8220cc	-0.06353912
137	0xbe3dec13	-0.18547086
138	0x3d410ace	0.047129445
139	0x3d0bb6fd	0.034110058
140	0xbd131696	-0.03591021
141	0xbca62e39	-0.020285713
142	0xbd5c22f4	-0.05374427
143	0xbd20f868	-0.0392994
144	0xbd4351b9	-0.04768536
145	0xbcc05988	-0.023480192
146	0xbcbbf826	-0.022945475
147	0x3bfcfe52	0.007720747
148	0xbc4b603d	-0.012413082
149	0xbd42d9d0	-0.047571003
150	0x3d89866f	0.06715094
151	0xbd12d8f9	-0.035851452
152	0xbd25f2f8	-0.040514916
153	0x3cb20205	0.021729479
154	0x3cca353d	0.02468359
155	0x3c91df98	0.017806813
156	0x3db52a06	0.08845906
157	0xbd5ba306	-0.05362227
158	0xbd7c027d	-0.06152581
159	0xbd80b1cc	-0.06283912
160	0xbdc07cd1	-0.09398807
161	0xbd214428	-0.03937164
162	0xbd841a04	-0.064502746
163	0xbd424c4d	-0.047436047
164	0xbddc5cdf	-0.10759901
165	0xbe1f2f73	-0.15545444
166	0xbd653426	-0.055957936
167	0xbcb58bef	-0.022161452
168	0x3d7fbf81	0.06243849
169	0xbd98ae16	-0.07455079
170	0xbc8fea90	-0.017567903
171	0xbca24986	-0.01981045
172	0xbdf4d7e9	-0.11955244
173	0x3d9cf375	0.07663623
174	0xbb9b528e	-0.004740066
175	0xbda3bbb5	-0.07994787
176	0xbd0e0570	-0.034673154
177	0xbca8456f	-0.020540921
178	0x3d55963e	0.052145235
179	0xbe1c1954	-0.15244037
180	0xbd3d68ea	-0.046242632
181	0xbd2d6027	-0.042328026
182	0x3d4e26d6	0.050330006
183	0x3cf09529	0.029368
184	0x3df26c89	0.11837108
185	0x3dca063e	0.09864472
186	0x3d4f8417	0.05066308
187	0x3dac06b8	0.08399719
188	0xbcb576f5	-0.02215145
189	0xbdde153f	-0.10843896
190	0x3b0b671e	0.002127118
191	0xbc0fe15c	-0.008781757
192	0xbd3ed494	-0.04658945
193	0xbbce07be	-0.006287544
194	0x3cbd4d52	0.023108158
195	0xbcb8ddc4	-0.022566684
196	0xbd483156	-0.048875175
197	0xbd910022	-0.070801035
198	0x3d79bb79	0.060969803
199	0x3e022260	0.12708426
200	0x3cb1b75a	0.021693874
201	0x3e09b8a7	0.13449346
202	0xbd855715	-0.0651075
203	0xbbde9d84	-0.0067936797
204	0x3da911bf	0.08255338
205	0x3d99d92c	0.075121254
206	0xbdbe8e85	-0.09304527
207	0xbcdf2b18	-0.027242228
208	0x3dc478db	0.09593364
209	0x3c74dbf4	0.014945019
210	0x3d8977f5	0.06712333
211	0x3d3775d0	0.04479009
212	0x3d8552b6	0.065099165
213	0x3dd90b73	0.10597887
214	0x3c29e0c8	0.010368533
215	0xbd2e8b47	-0.042613294
216	0x3c14bc0a	0.009078035
217	0xbd6ba190	-0.057527125
218	0xbce60695	-0.02807931
219	0xbca3c5b1	-0.019991728
220	0xbd0c999c	-0.03432618
221	0xbd2f257b	-0.042760354
222	0xbd90f663	-0.070782445
223	0xbd51067d	-0.05103158
224	0x3cdf5e71	0.027266713
225	0x3d819f2f	0.0632919
226	0xbd14c128	-0.03631702
227	0xbd2d90ae	-0.042374305
228	0xbd912c8c	-0.07088575
229	0x3d30deed	0.04318135
230	0xbddf3cdb	-0.10900279
231	0x3d6df62d	0.0580961
232	0xbd64853f	-0.055791136
233	0x3d64a8c0	0.055824995
234	0xbc8487c2	-0.016178016
235	0xbd298d82	-0.041394718
236	0xbdc88b29	-0.09792168
237	0xbd011a2a	-0.031519093
238	0xbd0724cf	-0.032994088
239	0x3c43ea50	0.01195772
240	0x3d98c7c9	0.07459981
241	0xbd37d399	-0.04487953
242	0x3d9c8a1d	0.076435305
243	0xbcbabcb5	-0.02279506
244	0xbd4a9556	-0.049458824
245	0xbd0a4c01	-0.03376389
246	0xbcf75002	-0.030189518
247	0xbd1e2a20	-0.038614392
248	0xbe1b30b5	-0.15155299
249	0xbd2393c1	-0.03993583
250	0x3dbe9690	0.09306061
251	0x3ce818b4	0.028332092
252	0xbc13877e	-0.009004472
253	0x3df54881	0.1197672
254	0xbc56ea81	-0.0131174335
255	0xbd424063	-0.047424685

action_model._discrete_distribution.branches.0.bias f4 [2]
0	0x3d670e97	0.0564104
1	0xbd670e98	-0.056410402

exp_avg f4 [128, 10]
0	0x3980c017	0.0002455718
1	0x38cf789a	9.892993e-05
2	0x3990455f	0.00027517506
3	0x3975a88f	0.00023427814
4	0x00000000	0.0
5	0xba94ee04	-0.0011362438
6	0xb8975e42	-7.217798e-05
7	0xb3e7f33e	-1.0801021e-07
8	0xb3fb65d9	-1.1706624e-07
9	0xb386d052	-6.2777545e-08
10	0x3bdbb234	0.006704593
11	0x3af6b44d	0.0018822044
12	0x3c07e24b	0.008293699
13	0x3b0b4aea	0.002125437
14	0x00000000	0.0
15	0xbc86e157	-0.016464872
16	0xb9cc9f38	-0.0003902854
17	0x353a3ed4	6.9381827e-07
18	0xb4f83b5b	-4.6236786e-07
19	0x34d87f89	4.032593e-07
20	0x39c6f14b	0.0003794528
21	0xb89f216c	-7.587936e-05
22	0xba72c851	-0.0009261417
23	0x397a9e28	0.00023900776
24	0x00000000	0.0
25	0xb955117b	-0.00020319775
26	0xb90e2e02	-0.00013559315
27	0x34179b6f	1.4119517e-07
28	0xb3de61f7	-1.03555e-07
29	0x33b03bc6	8.2065114e-08
30	0x39fd35b7	0.0004829594
31	0x386aff3a	5.6027646e-05
32	0x3a68d7c2	0.0008882248
33	0x3992b587	0.00027982538
34	0x00000000	0.0
35	0xba8e608c	-0.0010862513
36	0xb8cd1cc8	-9.780523e-05
37	0x344f1823	1.9287158e-07
38	0xb4562ce5	-1.9946636e-07
39	0x33f0bbca	1.12100295e-07
40	0xba4f25ba	-0.0007902045
41	0xb9ef2442	-0.00045612646
42	0xbadc022d	-0.0016785316
43	0x397717a5	0.00023564564
44	0x00000000	0.0
45	0x3b1516b1	0.002274912
46	0xb96da732	-0.00022664366
47	0xb4dd9491	-4.1272554e-07
48	0x34dd3a7d	4.1207014e-07
49	0xb480c951	-2.3988335e-07
50	0xb92dc07f	-0.00016570276
51	0xb97a8d6e	-0.00023894545
52	0xbab4aee6	-0.0013785034
53	0xb9c59cd5	-0.00037691617
54	0x00000000	0.0
55	0x3af7e57d	0.0018912997
56	0x380df4bf	3.3844957e-05
57	0xb4a1470e	-3.0040286e-07
58	0x34c37758	3.6408414e-07
59	0xb43b7989	-1.7459946e-07
60	0xba605b09	-0.0008558487
61	0xb8d10f07	-9.968696e-05
62	0xba1e154a	-0.0006030394
63	0xb9b6e576	-0.00034884707
64	0x00000000	0.0
65	0x3a950a01	0.0011370779
66	0x38ba61be	8.887377e-05
67	0x34beb3b5	3.5521012e-07
68	0xb4e4ea2f	-4.26387e-07
69	0x345dadbf	2.0645437e-07
70	0xb92b12bf	-0.00016314814
71	0x37ac4339	2.05353e-05
72	0xb915bfc7	-0.0001428119
73	0x394953d9	0.0001920009
74	0x00000000	0.0
75	0x39074b99	0.00012902766
76	0x3670c12c	3.5875228e-06
77	0xb28302fa	-1.525176e-08
78	0x326c4e5c	1.3754825e-08
79	0xb2184ae4	-8.864593e-09
80	0xb9888dd9	-0.00026045626
81	0xb8f37a0e	-0.000116098774
82	0xb9c7f10f	-0.0003813584
83	0x398b4901	0.00026566538
84	0x00000000	0.0
85	0x3a8183ea	0.0009881232
86	0xb8631e6e	-5.4149357e-05
87	0x34b6fb24	3.408287e-07
88	0xb495b64f	-2.788606e-07
89	0x3454b41b	1.980956e-07
90	0x3a56efec	0.00081992033
91	0xb942e072	-0.00018584894
92	0xbb266cd7	-0.0025394463
93	0x3a00f26d	0.0004918937
94	0x00000000	0.0
95	0xb9ac09fc	-0.00032813835
96	0xb9ad8107	-0.00033093264
97	0x34cb68c0	3.7887912e-07
98	0xb50d12f5	-5.255418e-07
99	0x346c7325	2.2021102e-07
100	0x3adf2a2c	0.0017026118
101	0x39f31aeb	0.00046368627
102	0x3abbc759	0.0014326378
103	0x3a57927e	0.0008223428
104	0x00000000	0.0
105	0xbb959a7a	-0.004565534
106	0xb94afc1a	-0.00019358136
107	0xb4cb9b24	-3.7924576e-07
108	0x34c5193d	3.6712473e-07
109	0xb46cadbd	-2.2042418e-07
110	0xb9e34668	-0.0004334927
111	0xb84a040a	-4.8164315e-05
112	0xba106864	-0.00055087195
113	0x3905a558	0.00012745464
114	0x00000000	0.0
115	0x37ec067f	2.8136417e-05
116	0xb7e95ff4	-2.7820446e-05
117	0x32b00b22	2.049416e-08
118	0xb3195d35	-3.570786e-08
119	0x324ca3a3	1.19115695e-08
120	0x3a3f83aa	0.0007305691
121	0x398b6acb	0.00026591713
122	0x3ab0132a	0.0013433446
123	0x3985f5ba	0.00025550817
124	0x00000000	0.0
125	0xbae649df	-0.0017569623
126	0x378f94ad	1.7116161e-05
127	0xb376eb2d	-5.749023e-08
128	0x3327689a	3.8977852e-08
129	0xb30f836e	-3.3414317e-08
130	0x3aecfe58	0.0018081171
131	0x39de8ddf	0.00042448842
132	0x3b347326	0.0027534454
133	0x3a3a3d67	0.00071044866
134	0x00000000	0.0
135	0xbb890adb	-0.0041822023
136	0xb93a64be	-0.00017775872
137	0x343ecffd	1.7770795e-07
138	0x33a56e9c	7.703531e-08
139	0x33ddce93	1.032869e-07
140	0xbae35fc0	-0.0017347261
141	0xb9d8f283	-0.00041379416
142	0xbb0470ee	-0.0020208913
143	0xba1ddd98	-0.0006022095
144	0x00000000	0.0
145	0x3b6f3960	0.0036502704
146	0x38f029ad	0.000114518545
147	0xb59106fa	-1.0805372e-06
148	0x3558855c	8.0660334e-07
149	0xb52895b9	-6.280275e-07
150	0x3aac6ea2	0.001315553
151	0x39ebbc6a	0.00044963072
152	0x3b0f549c	0.00218705
153	0x39bdb510	0.0003618379
154	0x00000000	0.0
155	0xbb83cafd	-0.004022001
156	0xb8854148	-6.354094e-05
157	0xb3f91a19	-1.1599713e-07
158	0x33a9d616	7.908618e-08
159	0xb390c849	-6.741954e-08
160	0xb9580261	-0.00020600251
161	0xb799903e	-1.830619e-05
162	0x3981843e	0.00024703325
163	0xb9a110e1	-0.0003072089
164	0x00000000	0.0
165	0x39cd81f8	0.0003919748
166	0x38ae5d02	8.3142906e-05
167	0x355603f9	7.9726993e-07
168	0xb560889b	-8.364529e-07
169	0x34f8c772	4.6338715e-07
170	0xb9fa294e	-0.0004771449
171	0x3909637e	0.00013102402
172	0xba8f2b83	-0.0010923002
173	0xb9a14502	-0.00030759728
174	0x00000000	0.0
175	0xb99f6c95	-0.00030407743
176	0x392cf9f7	0.00016496317
177	0xb497bf1b	-2.826499e-07
178	0xb3c5211e	-9.179551e-08
179	0xb430653b	-1.6428105e-07
180	0x3a929491	0.0011183192
181	0x3901716b	0.0001234465
182	0x3a9ff035	0.0012202325
183	0x3a10ac85	0.00055188715
184	0x00000000	0.0
185	0xbace868f	-0.0015756654
186	0xb92f559c	-0.00016721193
187	0x359c40ba	1.1641744e-06
188	0xb5882d40	-1.0145959e-06
189	0x3535a23e	6.766385e-07
190	0x3ae7596c	0.0017650551
191	0x3a325546	0.0006802868
192	0x3b366bd2	0.0027835262
193	0x3a08292d	0.0005194124
194	0x00000000	0.0
195	0xbb9fadc5	-0.00487301
196	0x37589027	1.2908166e-05
197	0xb44bb5f3	-1.8972041e-07
198	0x3448f4f4	1.8715565e-07
199	0xb3ecccef	-1.10268836e-07
200	0x39d1f881	0.00040048736
201	0x38197981	3.6591202e-05
202	0x3a31b65b	0.0006779187
203	0x37a1d881	1.9293513e-05
204	0x00000000	0.0
205	0xba2af56b	-0.00065215555
206	0xb837e003	-4.3839227e-05
207	0x3519e3a6	5.7328214e-07
208	0xb517e987	-5.659171e-07
209	0x34b2e2de	3.332015e-07
210	0xb6a2b8b3	-4.849478e-06
211	0xb8f20c1e	-0.00011541716
212	0xba6a138a	-0.0008929303
213	0x3a2597cf	0.0006316872
214	0x00000000	0.0
215	0x38d4ea84	0.0001015263
216	0xb9662371	-0.00021947712
217	0xb48c4bc1	-2.613215e-07
218	0x336b94bd	5.4850478e-08
219	0xb42315be	-1.5188468e-07
220	0x3b4b0d40	0.003098324
221	0x3a61b541	0.0008610078
222	0x3b6be175	0.0035992537
223	0x3a827e28	0.000995581
224	0x00000000	0.0
225	0xbbfaed0d	-0.007657653
226	0xb954f33e	-0.0002030851
227	0x35d76dd0	1.6050708e-06
228	0xb5c4e506	-1.4669793e-06
229	0x357a6c15	9.328954e-07
230	0x3b09dbfe	0.0021035667
231	0x3a361062	0.000694519
232	0x3b37af74	0.0028028162
233	0x39f4ba07	0.00046677908
234	0x00000000	0.0
235	0xbbbbf404	-0.005735876
236	0xb827f6d6	-4.0045787e-05
237	0xb1ecae32	-6.8883077e-09
238	0x318fe913	4.1883452e-09
239	0xb1899015	-4.003605e-09
240	0x39e95883	0.0004450717
241	0xb77e4ac8	-1.5156991e-05
242	0x3a082e35	0.00051948737
243	0x3a37f374	0.00070171733
244	0x00000000	0.0
245	0xba06cd48	-0.00051422836
246	0xb960cef3	-0.000214394
247	0x35b598ed	1.3530058e-06
248	0xb5b0fa9d	-1.318596e-06
249	0x3553185e	7.8639084e-07
250	0x39f4b72b	0.00046675777
251	0xb8f905db	-0.00011874336
252	0x39d707cd	0.00041013808
253	0x39fc1f51	0.00048088518
254	0x00000000	0.0
255	0x3a7d49c7	0.0009662178

exp_avg_sq f4 [128, 10]
0	0x3646abba	2.9604257e-06
1	0x34040326	1.2294603e-07
2	0x35e2c2f7	1.6895054e-06
3	0x35fd6621	1.8879692e-06
4	0x00000000	0.0
5	0x35aead55	1.3014456e-06
6	0x33a34506	7.602834e-08
7	0x3328b317	3.927843e-08
8	0x32671090	1.34497355e-08
9	0x3263f4c0	1.3268789e-08
10	0x374f8110	1.2368211e-05
11	0x35a719e0	1.245e-06
12	0x37da0f7e	2.599484e-05
13	0x36b917db	5.516207e-06
14	0x00000000	0.0
15	0x388b37f8	6.6384615e-05
16	0x3463b628	2.120729e-07
17	0x332cb252	4.0209052e-08
18	0x323ec967	1.1105249e-08
19	0x32695b68	1.3583168e-08
20	0x35b12da9	1.3200817e-06
21	0x3376965b	5.7413086e-08
22	0x354c04e0	7.6003016e-07
23	0x35b87605	1.3743417e-06
24	0x00000000	0.0
25	0x3542425e	7.236721e-07
26	0x335b388a	5.1041333e-08
27	0x309e21eb	1.1505653e-09
28	0x2f655a42	2.0859495e-10
29	0x2fd5ad6a	3.8867692e-10
30	0x362b9287	2.5566276e-06
31	0x33e44159	1.0628964e-07
32	0x35ce34d2	1.5363569e-06
33	0x35d571ad	1.5902821e-06
34	0x00000000	0.0
35	0x35a785e3	1.2481436e-06
36	0x334e66a8	4.8056478e-08
37	0x309c59b8	1.1375993e-09
38	0x3041ca98	7.0500894e-10
39	0x2fd344fc	3.8429693e-10
40	0x35dd7971	1.6501127e-06
41	0x34191849	1.425807e-07
42	0x3629df59	2.5312968e-06
43	0x35f2c1bb	1.8086788e-06
44	0x00000000	0.0
45	0x369d3589	4.685197e-06
46	0x33a89997	7.8510475e-08
47	0x33308c0a	4.1105558e-08
48	0x3282b701	1.5217212e-08
49	0x326e8f61	1.3886024e-08
50	0x367c9773	3.7639081e-06
51	0x344e6393	1.922147e-07
52	0x36b4523e	5.3739923e-06
53	0x36538109	3.1516558e-06
54	0x00000000	0.0
55	0x36b148f1	5.2835026e-06
56	0x3205c125	7.785535e-09
57	0x31c06c6d	5.600262e-09
58	0x311e673d	2.305071e-09
59	0x310201b1	1.8918451e-09
60	0x371310eb	8.765822e-06
61	0x34accbd8	3.2185812e-07
62	0x37211c85	9.602988e-06
63	0x36601f47	3.3396807e-06
64	0x00000000	0.0
65	0x36d74bfa	6.416344e-06
66	0x3367eea8	5.4000935e-08
67	0x31cb8180	5.9228e-09
68	0x3143c6f0	2.8489318e-09
69	0x31097e7e	2.0008026e-09
70	0x35634280	8.466086e-07
71	0x32bdfde6	2.2117955e-08
72	0x35377389	6.834094e-07
73	0x3548a4cb	7.474561e-07
74	0x00000000	0.0
75	0x3506f143	5.026997e-07
76	0x2d84d992	1.5103283e-11
77	0x2c91c7ee	4.1433445e-12
78	0x2c1b271c	2.2048535e-12
79	0x2bc4fcc4	1.3996794e-12
80	0x3561dfa2	8.414446e-07
81	0x32f12175	2.8071307e-08
82	0x35605d65	8.358241e-07
83	0x3577f96a	9.2377616e-07
84	0x00000000	0.0
85	0x356aad88	8.7424314e-07
86	0x315a69cc	3.1783314e-09
87	0x3197b6da	4.415466e-09
88	0x30c312be	1.4193444e-09
89	0x30cd0135	1.4916056e-09
90	0x36aebc88	5.207552e-06
91	0x3481a624	2.4149006e-07
92	0x36b717f8	5.4566153e-06
93	0x3719713a	9.145873e-06
94	0x00000000	0.0
95	0x36b3f718	5.363381e-06
96	0x33f9f972	1.164034e-07
97	0x328582f4	1.5542788e-08
98	0x31b71141	5.3279625e-09
99	0x31b4687c	5.250568e-09
100	0x36278394	2.4961528e-06
101	0x346b6414	2.1922489e-07
102	0x366a7800	3.4938566e-06
103	0x35d2a4f8	1.5694231e-06
104	0x00000000	0.0
105	0x37091620	8.170988e-06
106	0x32f69c21	2.8709168e-08
107	0x32c27d9a	2.264169e-08
108	0x3217d63b	8.838067e-09
109	0x32036740	7.64868e-09
110	0x35a5142b	1.2299328e-06
111	0x332b8303	3.9933195e-08
112	0x3578e3f9	9.2718943e-07
113	0x358f7da0	1.0690892e-06
114	0x00000000	0.0
115	0x35142ae6	5.519672e-07
116	0x3109a9c2	2.003262e-09
117	0x2f7d3de0	2.3032198e-10
118	0x2f3082ee	1.6053622e-10
119	0x2eab18db	7.780595e-11
120	0x3690e013	4.31762e-06
121	0x349eeeed	2.9603635e-07
122	0x36fd1a1b	7.5430266e-06
123	0x36aa6ff8	5.0794297e-06
124	0x00000000	0.0
125	0x3767b001	1.3809652e-05
126	0x30214e42	5.868267e-10
127	0x2f7dbeaf	2.307796e-10
128	0x2e9fae65	7.2614616e-11
129	0x2eab6fe5	7.796056e-11
130	0x37385e53	1.0989216e-05
131	0x34b8a522	3.439282e-07
132	0x37525a24	1.2537963e-05
133	0x366c0d1b	3.5174369e-06
134	0x00000000	0.0
135	0x3705c807	7.97399e-06
136	0x33afdd25	8.1892985e-08
137	0x33254d0f	3.848714e-08
138	0x326a6505	1.3643562e-08
139	0x325f5d25	1.3001487e-08
140	0x36419219	2.884428e-06
141	0x3464902c	2.1286604e-07
142	0x3683ddcf	3.929926e-06
143	0x35c5919b	1.472002e-06
144	0x00000000	0.0
145	0x37075565	8.0665095e-06
146	0x33863294	6.2490614e-08
147	0x335e549d	5.1765358e-08
148	0x328884df	1.5892907e-08
149	0x32963670	1.7487054e-08
150	0x36021749	1.9385063e-06
151	0x33f19911	1.12502796e-07
152	0x36367582	2.7188512e-06
153	0x3541b796	7.2165255e-07
154	0x00000000	0.0
155	0x369336c9	4.387319e-06
156	0x31bcff5e	5.500552e-09
157	0x3045b2d2	7.19223e-10
158	0x2f960975	2.729156e-10
159	0x2f859212	2.4296348e-10
160	0x35ea707e	1.7467098e-06
161	0x343ccdfa	1.7583798e-07
162	0x36597d49	3.2408445e-06
163	0x35addb4c	1.2953328e-06
164	0x00000000	0.0
165	0x3724b7b0	9.81793e-06
166	0x321d091b	9.140673e-09
167	0x32e2323f	2.6332712e-08
168	0x325c040c	1.28066056e-08
169	0x3218d30a	8.895549e-09
170	0x363ea7af	2.840981e-06
171	0x340f6eb9	1.3358193e-07
172	0x359ae682	1.1540981e-06
173	0x363628ac	2.7143788e-06
174	0x00000000	0.0
175	0x3591ce40	1.0863369e-06
176	0x33e0251b	1.0437562e-07
177	0x338c1be5	6.524332e-08
178	0x3292e592	1.7101033e-08
179	0x32bd52a6	2.204008e-08
180	0x35c969a8	1.5006417e-06
181	0x343b577d	1.744756e-07
182	0x36273c18	2.4919918e-06
183	0x35c4468c	1.462367e-06
184	0x00000000	0.0
185	0x36ec848f	7.04878e-06
186	0x33dcb793	1.027794e-07
187	0x33912d90	6.7603764e-08
188	0x32d28ea6	2.4512087e-08
189	0x32c42c22	2.2837472e-08
190	0x35367240	6.796654e-07
191	0x33d17e53	9.755299e-08
192	0x36072c9b	2.0142531e-06
193	0x340908fb	1.2762386e-07
194	0x00000000	0.0
195	0x36b5b830	5.4156626e-06
196	0x300563a3	4.852671e-10
197	0x3101b35e	1.887393e-09
198	0x3061675d	8.200141e-10
199	0x302f4232	6.37587e-10
200	0x357e2d68	9.468845e-07
201	0x3337ae7f	4.276671e-08
202	0x35c62f98	1.4766001e-06
203	0x34bf3498	3.561479e-07
204	0x00000000	0.0
205	0x34a0f293	2.9978818e-07
206	0x31bc6f6b	5.484187e-09
207	0x31b0ceff	5.145807e-09
208	0x318607d1	3.900802e-09
209	0x30eee9d2	1.7383235e-09
210	0x3698c5db	4.5529864e-06
211	0x34419a61	1.8030688e-07
212	0x35e071ca	1.6722418e-06
213	0x364c7048	3.0463725e-06
214	0x00000000	0.0
215	0x35bf8acb	1.4271003e-06
216	0x33e6ac3e	1.074154e-07
217	0x331855fd	3.5468464e-08
218	0x32269f0f	9.6986374e-09
219	0x324dd83a	1.1981735e-08
220	0x36601f5e	3.339686e-06
221	0x34ad4e14	3.228057e-07
222	0x36d60020	6.3777115e-06
223	0x360645b1	2.0008122e-06
224	0x00000000	0.0
225	0x377ccc2c	1.5067908e-05
226	0x337b747a	5.8546426e-08
227	0x33af28fb	8.156527e-08
228	0x33197599	3.5730043e-08
229	0x32ecafa2	2.7553885e-08
230	0x35f75ffc	1.8430869e-06
231	0x343dad71	1.7665094e-07
232	0x36813809	3.851023e-06
233	0x3560fe8b	8.381691e-07
234	0x00000000	0.0
235	0x3729a12a	1.0110709e-05
236	0x3207767d	7.884975e-09
237	0x2d38decc	1.050866e-11
238	0x2c95c735	4.256951e-12
239	0x2c79ce95	3.5499704e-12
240	0x365fcb69	3.334799e-06
241	0x33fc5499	1.1750053e-07
242	0x36253ee6	2.4623528e-06
243	0x35d9b447	1.6220228e-06
244	0x00000000	0.0
245	0x357992fe	9.297363e-07
246	0x33503bc3	4.8483127e-08
247	0x336ff642	5.5870494e-08
248	0x32d0bfae	2.4301553e-08
249	0x32a21ff4	1.8873813e-08
250	0x3759ed42	1.2989449e-05
251	0x34fce60c	4.710604e-07
252	0x37667b51	1.373778e-05
253	0x377865dd	1.4805669e-05
254	0x00000000	0.0
255	0x375205a1	1.2518286e-05
