ML-Agents/Examples/SphereHunt/results/imitation_test_001/SphereHunt/SphereHunt-72698.pt (torch, 538336 bytes, 50 tensors)

network_body._body_endoder.seq_layers.0.weight f4 [128, 10]
0.26345184 0.6692812 0.006054254 0.052243926 -0.27987903 -0.14416261 0.78096056 0.6372869
-0.23407724 -0.5783403 0.017991172 0.036673073 0.08900496 -0.060042165 0.37677884 0.7423657
0.024718165 -0.13109516 0.05710282 0.6044314 -0.16846041 0.058268365 -0.86656773 0.5170147
-0.11741069 0.111065425 -0.0407773 0.36094275 0.08736272 -0.44972128 -0.08001789 -0.26163468
0.08152785 -0.4482326 0.12688166 -0.17505494 0.33392197 -0.371193 0.91285366 -0.03241842
-0.17895283 -0.23600166 -0.28096932 -0.32142895 0.22855662 0.21138923 0.83673894 -0.10620813
0.18149127 0.06985319 0.07777975 1.0665975 0.40763512 -0.051524494 0.03548782 -0.5517109
-0.033332143 -0.19606236 0.060621984 0.26977557 -0.004767687 0.65058833 -0.7248346 0.15368283
0.8368755 0.04872811 0.1395352 -0.45754546 -0.027526665 -0.39956963 0.21890418 -0.38809758
0.48747596 0.48769373 -0.42230317 -0.14183098 -1.1869718 -0.11713852 -0.40624353 0.024331674
0.70999473 -0.3525274 -0.18185851 -0.10128285 0.30940512 0.75126624 -0.8876766 -0.20176016
-0.031659283 -0.26897895 -0.0788564 0.24683413 -0.43225166 0.12977234 0.56595176 1.138471
-0.0555955 0.27767885 -0.5014266 0.1850747 0.52232265 -0.50985044 0.29351074 -0.023540247
-0.17112654 -0.13664684 -0.28206104 0.49073073 1.1382772 -0.28226125 -0.072425656 0.33942384
0.87605345 -0.11852678 0.042979237 -0.2315301 -0.36067566 -0.34718993 -0.31414607 -0.25949037
-0.68147343 0.18333974 -0.4222463 -0.22421506 -0.68469024 -0.3994887 -0.27893496 0.07451717
0.23817816 -0.11876885 -0.46908566 -0.3556554 -0.016154204 0.048516963 0.24943705 -0.13591899
-0.19207203 -0.32565722 -0.67886883 0.26577857 -0.4964812 -0.17006579 -0.20663941 -0.13512282
-0.037757684 0.5809073 0.27572745 0.19548622 0.5692083 0.545969 -0.057627182 -0.27445564
0.68865323 0.0823513 -0.50014746 0.03229728 -0.25789067 0.18551672 1.3489993 -0.12931441
0.22669348 0.047179013 0.009687681 -0.0035847246 0.42107868 -0.070586346 0.08906926 -0.11666113
0.6858755 0.045272805 -0.21386321 0.4557194 0.45123717 -0.16286963 -0.48074073 0.23208833
-0.27273813 0.3203119 0.27498627 0.73757607 -0.11720203 -0.3359204 -0.833531 0.15151946
-0.7855841 -0.26112184 -0.22198497 0.1159975 0.76543766 -0.046203453 0.0066675837 0.48588097
-0.14234044 -0.25806904 0.036356065 -0.24163099 -0.027393738 -0.30587208 -0.42548054 0.17620657
-0.08410425 -0.4614464 -0.37790513 0.0618653 -0.31398007 -0.08839545 -0.20227565 0.28944618
0.30575085 0.922285 -0.15606087 -0.1229135 0.45378038 0.37362352 -0.43751314 0.27767727
0.9424533 0.10177782 0.3168435 0.6381791 -0.25291872 -0.4252774 -0.5786788 0.30248824
0.32203498 -0.045683727 -0.8669282 0.45624122 -0.1822221 0.12802745 0.43612117 -0.078723446
0.0026084036 0.7460261 -0.084280476 0.11833133 -0.58694935 -0.34406036 0.34124443 -0.14899261
-0.08536143 -0.22822927 0.21661367 -0.053155974 0.28498247 0.15901761 -0.5174198 -0.0116209
-0.12973408 0.10511569 -0.09855966 0.9600386 0.05346818 -0.32191798 0.17557627 0.047430266
00000000: 29e3 863e 0356 2b3f c362 c63b bafd 553d
00000010: 4e4c 8fbe 5d9f 13be 08ed 473f 3c25 233f
00000020: f2b1 6fbe 1c0e 14bf 3962 933c 8136 163d
00000030: 3c48 b63d c6ee 75bd 28e9 c03e ae0b 3e3f
00000040: c07d ca3c cf3d 06be a6e4 693d 04bc 1a3f
00000050: e380 2cbe cfaa 6e3d 62d7 5dbf 135b 043f
00000060: 0475 f0bd 4576 e33d 1906 27bd 7dcd b83e
00000070: 3aeb b23d de41 e6be 6be0 a3bd fbf4 85be
00000080: 13f8 a63d be7e e5be 44ed 013e 9a41 33be
00000090: d2f7 aa3e 020d bebe c7b0 693f 2dc9 04bd
000000a0: 693f 37be 6baa 71be 36db 8fbe 5692 a4be
000000b0: bf0a 6a3e 6b76 583e 8634 563f a683 d9bd
000000c0: d9d8 393e 300f 8f3d fd4a 9f3d 4486 883f
000000d0: 8db5 d03e 590b 53bd ad5b 113d ed3c 0dbf
000000e0: 4987 08bd 92c4 48be c24e 783d 0620 8a3e
000000f0: 423a 9cbb f58c 263f c38e 39bf 085f 1d3e
00000100: 793d 563f 2097 473d 51e2 0e3e 6643 eabe
00000110: 9a7f e1bc 6494 ccbe 6b28 603e bab4 c6be
00000120: 7396 f93e feb2 f93e 1f38 d8be 243c 11be
00000130: b1ee 97bf 52e6 efbd 27ff cfbe 3853 c73c
00000140: 37c2 353f 797e b4be 1e39 3abe 626d cfbd
00000150: 596a 9e3e fc52 403f c63e 63bf 379a 4ebe
00000160: 2aad 01bd 9cb7 89be 777f a1bd 16c2 7c3e
00000170: 1750 ddbe 0ae3 043e 37e2 103f 6bb9 913f
00000180: 1bb8 63bd ec2b 8e3e 7e5d 00bf 3984 3d3e
00000190: f0b6 053f 8f85 02bf 0a47 963e 7ad7 c0bc
000001a0: cc3b 2fbe 26ed 0bbe 4e6a 90be 0f41 fb3e
000001b0: 11b3 913f 8c84 90be e753 94bd f6c8 ad3e
000001c0: 0a45 603f 2bbe f2bd ff0a 303d 3a16 6dbe
000001d0: 7baa b8be e1c2 b1be c1d7 a0be ecdb 84be
000001e0: 0b75 2ebf 6abd 3b3e ab30 d8be a298 65be
000001f0: dc47 2fbf c889 ccbe 90d0 8ebe 759c 983d
00000200: fae4 733e 153d f3bd ff2b f0be 7718 b6be
00000210: d255 84bc b9b9 463d 6d6c 7f3e 592e 0bbe
00000220: 88ae 44be 8bbc a6be 59ca 2dbf 2114 883e
00000230: c932 febe ba25 2ebe 4899 53be a35d 0abe
00000240: cda7 1abd 57b6 143f 262c 8d3e 8a2d 483e
00000250: a3b7 113f a0c4 0b3f 7b0a 6cbd 7385 8cbe
00000260: 944b 303f cca7 a83d aa09 00bf 274a 043d
00000270: 3f0a 84be 18f8 3d3e 02ac ac3f ff6a 04be
00000280: 5622 683e c83e 413d 14b9 1e3c b3ed 6abb
00000290: a097 d73e 938f 90bd f269 b63d 08ec eebd
000002a0: 8995 2f3f fa6f 393d f5fe 5abe 0e54 e93e
000002b0: 8f08 e73e 4cc7 26be a623 f6be 90a8 6d3e
000002c0: 55a4 8bbe ecff a33e 00cb 8c3e c9d1 3c3f
000002d0: 9e07 f0bd c2fd abbe 4a62 55bf eb27 1b3e
000002e0: 0a1c 49bf c3b1 85be 0750 63be 1990 ed3d
000002f0: b9f3 433f d53f 3dbd bf7b da3b 64c5 f83e
00000300: b1c1 11be a021 84be 19ea 143d 1d6e 77be
00000310: d568 e0bc 449b 9cbe 96d8 d9be 7f6f 343e
00000320: d93e acbd b442 ecbe c87c c1be 7866 7d3d
00000330: ffc1 a0be ac08 b5bd 5921 4fbe 4a32 943e
00000340: 608b 9c3e df1a 6c3f 6cce 1fbe 13ba fbbd
00000350: e755 e83e 954b bf3e b901 e0be b72b 8e3e
00000360: 9f44 713f e470 d03d 5039 a23e b55f 233f
00000370: 907e 81be f6bd d9be 4b24 14bf bddf 9a3e
00000380: c5e1 a43e dc1e 3bbd 02ef 5dbf 7398 e93e
00000390: 6e98 3abe a119 033e 464b df3e c239 a1bd
000003a0: c0f1 2a3b 91fb 3e3f 3e9b acbd b257 f23d
000003b0: 5042 16bf ae28 b0be 97b7 ae3e 8591 18be
000003c0: f9d1 aebd efb4 69be f9cf 5d3e 14ba 59bd
000003d0: 39e9 913e 83d5 223e a075 04bf 9665 3ebc
000003e0: 03d9 04be e546 d73d a6d9 c9bd 17c5 753f
000003f0: 7301 5b3d 6fd2 a4be 44ca 333e 3d46 423d

network_body._body_endoder.seq_layers.0.bias f4 [128]
0.19957691 -0.014876428 -0.2847065 -0.19186096 0.09033509 0.3231075 0.010845005 0.013272928
-0.039690066 0.25896138 -0.25557095 0.29743806 -0.042946182 -0.1830664 -0.09825303 -0.2363457
-0.32166883 -0.022493998 -0.19981366 0.32751817 -0.1205971 0.0036168538 -0.07550188 -0.12800296
-0.019611122 0.32108927 -0.29937208 0.18656757 0.059406348 -0.16050878 -0.23777853 -0.025670826
0.09448017 0.31920123 0.016402753 -0.026760094 -0.06749109 0.18820375 0.089497216 0.0915417
0.05423009 0.3846361 0.019731224 0.20572928 0.09238989 -0.118978485 0.0029992047 -0.2051657
-0.025403252 0.037733305 0.06342137 -0.10500116 0.04776223 0.24031669 0.05759344 -0.14126994
0.061341032 -0.22112642 -0.05893935 -0.19524544 0.18588918 0.02704895 -0.06981763 0.28607598
0.25621486 -0.1891734 0.06869423 -0.020704418 -0.04393304 -0.06248362 -0.10773816 0.0142478775
0.42353553 0.17123373 -0.04103341 -0.22394994 -0.03942994 -0.034619547 -0.04257004 0.10787626
0.42345554 0.4319998 -0.18049833 0.19824883 0.030556958 0.04730394 -0.12575664 0.3194856
0.15991598 0.16410835 -0.24665171 0.31560975 -0.23442486 0.36946735 0.09756106 0.097168654
0.1139723 -0.037769802 0.039188035 0.038922142 -0.23222798 0.034907814 0.028277805 -0.10482306
0.23642181 0.40923333 -0.07692123 0.2709469 0.079191945 0.09109882 -0.19858551 -0.04431681
-0.08739149 0.097728804 0.29063475 0.1218767 0.10108603 0.0025903943 0.16624574 0.093062475
0.19247802 -0.0526974 0.18321462 -0.066098794 0.19729362 0.037263833 0.00992217 0.1639373
00000000: e45d 4c3e 43bc 73bc 0dc5 91be 3377 44be
00000010: 9b01 b93d 596e a53e 3faf 313c b276 593c
00000020: 0d92 22bd 9696 843e 32da 82be cd49 983e
00000030: 56e8 2fbd c275 3bbe e238 c9bd 9b04 72be
00000040: c7b1 a4be 5545 b8bc f49b 4cbe 76b0 a73e
00000050: 9dfb f6bd bd08 6d3b bba0 9abd 3513 03be
00000060: 81a7 a0bc d065 a43e 4c47 99be 920b 3f3e
00000070: 1254 733d 6a5c 24be 377c 73be a04b d2bc
00000080: d27e c13d 586e a33e 115f 863c fc37 dbbc
00000090: c538 8abd 7cb8 403e 514a b73d 377a bb3d
000000a0: 5f20 5e3d 06ef c43e 60a3 a13c b2aa 523e
000000b0: e936 bd3d feaa f3bd 4e8e 443b f516 52be
000000c0: 7b1a d0bc 3d8e 1a3d 10e3 813d d90a d7bd
000000d0: 54a2 433d 9415 763e 19e7 6b3d 11a9 10be
000000e0: bc40 7b3d f76e 62be 636a 71bd 6cee 47be
000000f0: bc59 3e3e c295 dd3c 8cfc 8ebd 8d78 923e
00000100: 982e 833e acb6 41be 8faf 8c3d 509c a9bc
00000110: 22f3 33bd d3ee 7fbd d3a5 dcbd ee6f 693c
00000120: a6d9 d83e e557 2f3e a612 28bd 2253 65be
00000130: 4a81 21bd 3acd 0dbd ec5d 2ebd 3bee dc3d
00000140: 2acf d83e 142f dd3e 8ed4 38be be01 4b3e
00000150: 9652 fa3c c7c1 413d 59c6 00be 9e93 a33e
00000160: 04c1 233e 050c 283e 4492 7cbe 9a97 a13e
00000170: 120d 70be d32a bd3e 18ce c73d 5c00 c73d
00000180: 4f6a e93d 82b4 1abd a283 203d d36c 1f3d
00000190: 2ccd 6dbe 7ffb 0e3d dba6 e73c 79ad d6bd
000001a0: 8f18 723e 0887 d13e e188 9dbd 8db9 8a3e
000001b0: 632f a23d 0592 ba3d 005a 4bbe 8b85 35bd
000001c0: 4ffa b2bd 0a26 c83d 14ce 943e 7e9a f93d
000001d0: 3106 cf3d 9bc3 293b 533c 2a3e 8a97 be3d
000001e0: f518 453e 3bd9 57bd 9d9c 3b3e ce5e 87bd
000001f0: 5707 4a3e f6a1 183d 9990 223c 2edf 273e

network_body._body_endoder.seq_layers.2.weight f4 [128, 128]
-0.09728653 -0.065998495 -0.03341834 -0.19863605 0.060807787 -0.073582105 0.06720698 -0.030458497
-0.01329207 -0.012686442 -0.1106633 -0.21565688 -0.018020157 0.18915756 -0.20044997 -0.33470982
-0.060003024 -0.16124047 -0.20939475 0.0057304366 -0.23194666 0.049676806 -0.041006014 0.003143869
-0.13041174 0.09058804 -0.06984241 -0.23244832 0.055362433 0.04540835 -0.312766 -0.08589437
-0.07121433 0.18353388 -0.1620778 0.018651867 0.034391824 -0.24670891 0.034931056 0.07374735
-0.13235055 -0.14696206 0.13846856 -0.025932612 0.036896728 0.06107952 -0.41856295 0.14778641
-0.21506359 0.25962734 0.20092978 -0.019176668 -0.07139204 0.14089395 0.15513422 0.07120044
-0.11200626 0.06173211 -0.3331252 -0.020558145 0.33591187 0.16814026 -0.23722538 0.37467346
0.0039081443 -0.19211899 0.044891294 -0.09335849 -0.10376724 -0.02511091 0.18127991 -0.03870914
0.12821321 -0.14414208 -0.075601876 0.029721642 -0.14031705 0.13412298 0.01229863 -0.2114044
-0.004292496 0.06976017 -0.16857947 -0.056814168 -0.03529901 -0.050567824 -0.13181694 -0.50367075
-0.07488955 0.008095667 -0.13291247 -0.09866097 -0.03297625 -0.08236175 0.041191798 -0.39376384
-0.045601435 0.18848307 0.10919136 -0.012000856 -0.015620799 -0.04735073 0.0082007805 -0.5521081
0.102668 -0.0690345 -0.2577659 0.25906545 -0.10016391 -0.4106111 -0.37769124 0.107759774
0.008285058 -0.11676604 0.0538759 -0.06488959 0.077404045 0.045469884 -0.07819218 0.09385165
0.30393845 -0.20095254 0.1005852 -0.031335395 0.22068444 -0.11681169 0.23841675 0.21116513
-0.060147967 0.09222549 -0.017119022 0.10150967 0.13164175 -0.07750444 -0.043690074 0.054708388
-0.06488811 -0.09195224 0.0114756655 -0.0091862185 -0.028692197 0.16893631 0.11193869 0.032983575
0.2102281 0.01629607 -0.05723268 -0.1070753 -0.11286639 -0.10445952 0.120516725 0.002387063
-0.0019650355 0.027839309 -0.13548121 0.056274433 -0.07072568 0.03904386 0.21608134 -0.16332707
0.0058529982 -0.073968336 0.030601757 -0.039050788 -0.011156301 -0.06491084 -0.1609203 0.054684475
-0.013280309 -0.10940746 -0.010251476 0.031261098 0.21316221 0.0844309 0.12833217 0.1782532
-0.022697903 0.21744815 -0.013653665 0.03918802 0.10546845 0.055219557 0.12896463 0.114396974
-0.115312956 0.03704755 0.22296101 0.07893861 0.060409117 0.011655074 0.17241165 -0.23147395
-0.03976402 0.122884415 0.0053032143 -0.0043313494 0.08002978 -0.09592417 -0.0044617373 -0.05610906
-0.13034926 0.062513575 0.011445591 0.07189983 0.10754784 -0.043487243 -0.09383861 0.024018552
-0.13610016 -0.11285801 -0.006725776 0.12308473 -0.15289827 -0.16389501 0.018055325 -0.22335672
-0.022970496 0.06903729 0.08595413 -0.0016183314 0.17770101 0.08257247 -0.082911514 0.271868
-0.035454057 0.026154142 -0.063642725 0.1236043 0.2981994 0.07233393 -0.08993083 0.09658076
-0.02267055 -0.13193929 0.11303797 0.04352727 0.113315955 0.019052722 0.08734228 0.038750485
-0.10281392 0.0064660506 0.009561958 -0.100741856 -0.012225581 0.04700912 0.13213713 -0.05450764
0.03317973 -0.112060025 -0.10755644 0.0669069 -0.055032838 0.21165799 -0.11324285 0.0017032181
00000000: 293e c7bd 382a 87bd abe1 08bd 4067 4bbe
00000010: 9611 793d 37b2 96bd d0a3 893d 1984 f9bc
00000020: fbc6 59bc cbda 4fbc 71a3 e2bd 28d5 5cbe
00000030: 029f 93bc 85b2 413e c242 4dbe 165f abbe
00000040: bbc5 75bd 391c 25be 946b 56be 63c6 bb3b
00000050: 6d83 6dbe e879 4b3d ecf5 27bd 5f09 4e3b
00000060: a88a 05be 3986 b93d 8a09 8fbd ef06 6ebe
00000070: b8c3 623d 1bfe 393d dd22 a0be 63e9 afbd
00000080: d2d8 91bd 4ef0 3b3e b9f7 25be cdcb 983c
00000090: 71de 0c3d 43a1 7cbe de13 0f3d da08 973d
000000a0: e786 07be 397d 16be b4ca 0d3e a170 d4bc
000000b0: 0621 173d 852e 7a3d e24d d6be 5255 173e
000000c0: a139 5cbe e0ed 843e 89c0 4d3e 6318 9dbc
000000d0: fd35 92bd 8146 103e 81db 1e3e 89d1 913d
000000e0: 8a63 e5bd cfda 7c3d 638f aabe 8e69 a8bc
000000f0: a4fc ab3e f62c 2c3e 36eb 72be 33d5 bf3e
00000100: e40f 803b d7ba 44be efdf 373d bc32 bfbd
00000110: eb83 d4bd 65b5 cdbc 71a1 393e 7a8d 1ebd
00000120: 534a 033e fb99 13be 28d5 9abd cd7a f33c
00000130: 46af 0fbe 8957 093e 3180 493c 657a 58be
00000140: 11a8 8cbb 6cde 8e3d 19a0 2cbe f9b5 68bd
00000150: b295 10bd 3520 4fbd 05fb 06be 91f0 00bf
00000160: b15f 99bd b0a3 043c 351a 08be c30e cabd
00000170: 1b12 07bd 47ad a8bd bbb8 283d 6a9b c9be
00000180: 92c8 3abd b501 413e b89f df3d 3d9f 44bc
00000190: 61ee 7fbc d7f2 41bd 915c 063c f556 0dbf
000001a0: 9a43 d23d f661 8dbd e4f9 83be 3aa4 843e
000001b0: bc22 cdbd 9e3b d2be bf60 c1be 28b1 dc3d
000001c0: 0dbe 073c 0923 efbd faac 5c3d d5e4 84bd
000001d0: 0386 9e3d a13e 3a3d 3923 a0bd 4b35 c03d
000001e0: d29d 9b3e 81c6 4dbe 9dff cd3d 8b59 00bd
000001f0: 1afb 613e f83a efbd 8523 743e ac3b 583e
00000200: b75d 76bd b8e0 bc3d 313d 8cbc 4de4 cf3d
00000210: 18cd 063e a6ba 9ebd 5df4 32bd e715 603d
00000220: 0fe4 84bd 7551 bcbd 6e04 3c3c cb81 16bc
00000230: e60b ebbc a4fd 2c3e 1d40 e53d c919 073d
00000240: 0946 573e 567f 853c d16c 6abd 4b4a dbbd
00000250: 7e26 e7bd dfee d5bd 79d1 f63d 4670 1c3b
00000260: d3c7 00bb 430f e43c 96bb 0abe 0580 663d
00000270: a0d8 90bd 74ec 1f3d 6d44 5d3e 363f 27be
00000280: 82ca bf3b b67c 97bd 89b0 fa3c b8f3 1fbd
00000290: ebc8 36bc f9ef 84bd 4bc8 24be d4fc 5f3d
000002a0: a795 59bc 0511 e0bd cff5 27bc a30b 003d
000002b0: 3247 5a3e 1cea ac3d 8269 033e 0288 363e
000002c0: f4f0 b9bc baaa 5e3e 9fb3 5fbc 9e83 203d
000002d0: d8ff d73d e72d 623d 4e0f 043e f648 ea3d
000002e0: 3329 ecbd 2cbf 173d e44f 643e 91aa a13d
000002f0: 8d6f 773d ecf4 3e3c ae8c 303e 8207 6dbe
00000300: 99df 22bd d3aa fb3d 96c6 ad3b feed 8dbb
00000310: a7e6 a33d e473 c4bd c433 92bb 9dd2 65bd
00000320: 477a 05be 1e07 803d 4a86 3b3c 3840 933d
00000330: 0b42 dc3d ae1f 32bd 752e c0bd 8ec2 c43c
00000340: d75d 0bbe 1a22 e7bd e663 dcbb d913 fc3d
00000350: 5d91 1cbe 18d4 27be c3e8 933c a0b7 64be
00000360: 9f2c bcbc 6c63 8d3d b808 b03d 311e d4ba
00000370: 41f7 353e c11b a93d 83cd a9bd 4832 8b3e
00000380: 4638 11bd 3641 d63c 1e57 82bd 4024 fd3d
00000390: 97ad 983e d023 943d a82d b8bd 22cc c53d
000003a0: 97b7 b9bc 181b 07be 7480 e73d a749 323d
000003b0: 3212 e83d 7414 9c3c 82e0 b23d d4b8 1e3d
000003c0: 1b90 d2bd 2ae1 d33b c2a9 1c3c bf51 cebd
000003d0: ce4d 48bc a38c 403d f54e 073e 6743 5fbd
000003e0: 78e7 073d ba7f e5bd 8d46 dcbd 7c06 893d
000003f0: 1d6a 61bd dfbc 583e deeb e7bd 843e df3a

network_body._body_endoder.seq_layers.2.bias f4 [128]
0.109412774 -0.10430321 0.017538235 0.34803182 0.075997695 -0.14653811 0.12604915 0.0453841
0.027390987 0.08784848 0.06560232 -0.050245255 0.012449259 0.0042810855 0.102626346 0.19962554
0.097383976 0.07985618 0.065325126 -0.12307492 0.15977013 0.2225579 0.06879957 0.027155794
0.0132069085 0.038255204 0.05319784 0.22297823 0.13027373 0.019733531 0.11609925 0.09471866
-0.068936415 0.20501165 0.3026963 0.022134082 0.005244513 0.0850719 0.013467019 0.09082437
-0.08102561 0.07587313 0.23651975 -0.033719454 0.07843075 0.004785204 -0.015004613 0.1462972
-0.011408788 0.12328038 0.08424213 0.18322104 0.2414869 -0.05963163 0.18277715 0.18507399
-0.09515386 0.07843776 -0.08116508 0.064586304 0.18343237 0.118200384 0.08674697 0.19700906
0.05885638 0.25825295 0.12666868 0.034977842 0.12225977 0.21371447 -0.03684388 0.008574418
0.23153755 0.19848971 0.13641925 -0.014648832 -0.17376462 0.011064476 0.19564928 0.0461925
0.012937495 0.080680296 -0.036174737 0.14524648 0.1596835 0.27626604 0.059251517 0.16501243
0.021356752 0.026516043 0.067521475 0.28407535 -0.06935105 -0.02519212 0.23109244 -0.023545425
-0.0069930614 0.08398729 0.11079239 0.06615396 -0.20446068 -0.06777131 0.14420927 0.104988046
0.21219262 0.014265107 0.16747972 0.10466633 0.07612709 -0.14022961 0.18366322 0.10027439
0.12645875 0.046477217 0.10154594 -0.0894894 -0.08461499 0.3229004 0.18956862 0.08244582
0.21893387 0.1331404 0.14089859 0.42205268 0.1079836 -0.08969661 0.16183503 0.14903705
00000000: ce13 e03d ec9c d5bd 58ac 8f3c 3a31 b23e
00000010: aea4 9b3d 160e 16be 0713 013e aee4 393d
00000020: 1063 e03c e7e9 b33d 825a 863d f8cd 4dbd
00000030: faf7 4b3c 5948 8c3b c32d d23d a36a 4c3e
00000040: 4071 c73d a38b a33d 2ec9 853d b40e fcbd
00000050: c89a 233e 38e6 633e cae6 8c3d d475 de3c
00000060: ca61 583c 7db1 1c3d fae5 593d 6854 643e
00000070: 7a66 053e 37a8 a13c 72c5 ed3d dbfb c13d
00000080: 892e 8dbd 93ee 513e 02fb 9a3e 8952 b53c
00000090: 2ada ab3b 2d3a ae3d c6a4 5c3c 2102 ba3d
000000a0: c1f0 a5bd 5f63 9b3d 3c32 723e 691d 0abd
000000b0: 4da0 a03d 33cd 9c3b e9d5 75bc efce 153e
000000c0: edeb 3abc 6d7a fc3d 2387 ac3d 4c9e 3b3e
000000d0: 5848 773e 4c40 74bd ef29 3b3e 0984 3d3e
000000e0: 07e0 c2bd faa3 a03d e139 a6bd d345 843d
000000f0: b2d5 3b3e 0b13 f23d 65a8 b13d bebc 493e
00000100: 6313 713d bb39 843e 6fb5 013e ed44 0f3d
00000110: 5563 fa3d f7d7 5a3e 9ce9 16bd b77b 0c3c
00000120: 2e18 6d3e e340 4b3e 7db1 0b3e a801 70bc
00000130: 5aef 31be c747 353c 4958 483e 5934 3d3d
00000140: c9f7 533c b63b a53d f62b 14bd 7ebb 143e
00000150: 1284 233e be72 8d3e b8b1 723d 05f9 283e
00000160: 5bf4 ae3c 2c38 d93c b348 8a3d 5372 913e
00000170: ec07 8ebd b45f cebc 7fa3 6c3e 56e2 c0bc
00000180: 0d26 e5bb 8701 ac3d 1fe7 e23d ba7b 873d
00000190: 245e 51be afcb 8abd 98ab 133e f903 d73d
000001a0: 0649 593e 32b8 693c ce7f 2b3e 4d5b d63d
000001b0: 85e8 9b3d 5a98 0fbe 3612 3c3e a95c cd3d
000001c0: 677e 013e e55e 3e3d 51f7 cf3d 3846 b7bd
000001d0: a04a adbd 3453 a53e 471e 423e 5bd9 a83d
000001e0: 3330 603e f555 083e b847 103e 4a17 d83e
000001f0: 8126 dd3d dbb2 b7bd 15b8 253e 2b9d 183e

action_model._continuous_distribution.log_sigma f4 [1, 2]
-4.371109 -4.36082
00000000: 20e0 8bc0 d68b 8bc0

action_model._continuous_distribution.mu.weight f4 [2, 128]
-0.08905746 0.045558546 -0.15951698 -0.021444699 -0.017188564 -0.075803794 0.0345653 -0.116072185
-0.053861033 0.08008118 0.081317104 0.052861743 0.0444539 0.03953693 -0.10386187 0.045986965
0.25028583 0.11559222 0.26929465 -0.07080807 -0.29373032 0.0035174163 0.022175634 0.040327426
0.07955938 0.19317019 0.0021814634 0.03785859 0.046307873 -0.02490203 0.28668684 -0.07423077
0.07136266 -0.3252984 0.014762174 0.06878794 0.10079718 -0.006267041 -0.23121764 -0.22422087
-0.009267474 -0.004872212 0.07801512 0.13864583 -0.019561308 -0.028026389 0.29359788 -0.033296622
-0.036359932 0.24674502 -0.0037575113 0.4012057 0.0037538656 0.005620987 0.1121247 0.12412676
0.090571724 0.00024949652 -0.21204811 -0.08825674 0.004140316 -0.09286355 -0.1643407 0.12043934
0.15672305 -0.0005489252 -0.045327023 0.15736523 -0.055993415 -0.00094281376 -0.10416178 -0.043328244
-0.159902 -2.2476888e-06 -0.002202154 0.20314963 0.005956849 0.23428479 0.21873663 -0.046917602
-0.29149443 -0.1926191 -0.06915169 -0.041454867 0.05861023 0.022632489 -0.09383318 0.0425557
-0.1100478 -0.025446573 0.018415345 -0.016100625 0.014652378 0.3416176 0.09257385 0.06036046
0.05361807 -0.02994821 0.018607669 -0.07213834 0.041319203 0.026667017 -0.12324576 0.090305984
-0.045280386 0.09390823 -0.028207192 0.039468937 -0.07574277 0.048532527 0.005058073 -0.17453976
0.087728634 0.16200686 -0.15770432 -0.13554204 0.041821554 -0.013620169 -0.036039323 0.15573783
-0.16725563 -0.012749747 -0.13305122 0.0008101703 -0.0013578755 -0.10076584 -0.08285249 -0.035665322
0.2349815 -0.010452091 -0.44718504 0.0021954475 -0.0109179 -0.087803744 0.07565564 0.15219721
-0.085126676 0.21920224 0.043645293 -0.0019636534 0.0114970915 -0.092118815 0.049729735 0.0043140273
0.09502526 -0.036185484 -0.020543596 -0.053761903 -0.062135674 0.012653838 -0.18798055 0.014817459
0.14299943 0.2498705 -0.08110185 0.018802155 0.08368545 0.15027857 -0.1572286 -0.18842906
-0.00031798735 -0.14403059 -0.03493255 -0.041347004 0.11400632 0.020769166 0.12851015 0.06598784
-0.036738016 -0.04330927 0.013698092 -0.14621992 0.18366723 0.020119568 -0.31657842 0.14696334
0.052121237 -0.18200515 0.012013683 -0.05420814 -0.0072882907 -0.0064670476 0.07843947 -0.51582074
-0.13920633 -0.05755268 0.06321165 0.047073375 0.05604894 0.08023379 0.3235703 -0.016663944
0.32679933 -0.005783245 0.016302876 -0.18612714 -0.0054321894 0.0007267518 -0.057618 -0.111688964
0.0034618613 -0.0017547351 0.0024903272 0.0029474155 0.052157413 0.022908645 0.20430844 0.10931891
0.023630265 0.029286096 0.08975414 0.0111421915 -0.15734729 0.0025084 -0.040582664 0.0206711
-0.10948565 -0.14707948 -0.015839554 0.0076455413 0.05457823 0.19743901 0.008931484 -0.027687913
-0.0231295 -0.04755806 0.2063 0.01910747 -0.05213102 0.040861834 0.07918821 0.23636529
0.023247872 0.09654125 -0.0077842143 0.0064928844 0.05209686 0.08303438 0.0018391539 0.05231962
-0.05038423 0.06676144 0.19836798 -0.09769145 -0.078823715 -0.010116046 -0.29815343 0.41762015
0.037740313 0.0046938355 0.18486814 -0.009258929 0.0028177162 0.14207321 -0.29321292 -0.028228186
00000000: c263 b6bd 999b 3a3d 6b58 23be cbac afbc
00000010: 08cf 8cbc 053f 9bbd 5894 0d3d 41b7 edbd
00000020: 639d 5cbd 9a01 a43d 9589 a63d 8e85 583d
00000030: 4b15 363d 7af1 213d 88b5 d4bd d45c 3c3d
00000040: 7725 803e 9dbb ec3d fde0 893e d203 91bd
00000050: d263 96be 7484 663b ada9 b53c 5f2e 253d
00000060: 07f0 a23d 68ce 453e e2f6 0e3b 9c11 1b3d
00000070: 53ad 3d3d 58ff cbbc 9ec8 923e 4d06 98bd
00000080: 9626 923d 838d a6be 0cdd 713c b1e0 8c3d
00000090: c06e ce3d c05b cdbb 51c4 6cbe 289a 65be
000000a0: 9ad6 17bc 14a7 9fbb 64c6 9f3d 2cf9 0d3e
000000b0: 093f a0bc 9997 e5bc 7652 963e 0a62 08bd
000000c0: 27ee 14bd baaa 7c3e 9440 76bb d56a cd3e
000000d0: 6a03 763b 4230 b83b a2a1 e53d 2c36 fe3d
000000e0: ab7d b93d dbce 8239 2423 59be f3bf b4bd
000000f0: 7dab 873b 3f2f bebd ee48 28be e7a8 f63d
00000100: 027c 203e bfe5 0fba d4a8 39bd 5a24 213e
00000110: 5a59 65bd 2927 77ba c552 d5bd f578 31bd
00000120: 5abd 23be 00d7 16b6 0352 10bb 7506 503e
00000130: ac31 c33b 5ae8 6f3e 7ffc 5f3e ac2c 40bd
00000140: c23e 95be f13d 45be 679f 8dbd 94cc 29bd
00000150: 4811 703d c567 b93c 9c2b c0bd e34e 2e3d
00000160: be60 e1bd 5575 d0bc c7db 963c 75e5 83bc
00000170: 8710 703c 81e8 ae3e 5c97 bd3d 883c 773d
00000180: 9f9e 5b3d f355 f5bc 1c6f 983c 44bd 93bd
00000190: 533e 293d ca74 da3c 4668 fcbd 58f2 b83d
000001a0: ed77 39bd f552 c03d c512 e7bc 2eaa 213d
000001b0: 071f 9bbd 0bca 463d 31be a53b 8dba 32be
000001c0: 12ab b33d 20e5 253e 3e7d 21be 88cb 0abe
000001d0: 144d 2b3d 2127 5fbc f89d 13bd bd79 1f3e
000001e0: 0f45 2bbe 51e4 50bc 943e 08be 9c61 543a
000001f0: befa b1ba 525e cebd 91ae a9bd cd15 12bd
00000200: fe9e 703e 3f3f 2bbc 70f5 e4be 7fe1 0f3b
00000210: fee0 32bc 73d2 b3bd 58f1 9a3d 96d9 1b3e
00000220: e556 aebd 8d76 603e 68c5 323d a3b0 00bb
00000230: 4c5e 3c3c caa8 bcbd 68b1 4b3d af5c 8d3b
00000240: 9a9c c23d 3b37 14bd 0b4b a8bc 7135 5cbd
00000250: fa81 7ebd 0b52 4f3c f97d 40be edc4 723c
00000260: 716e 123e 0dde 7f3e ba18 a6bd fa06 9a3c
00000270: 4763 ab3d a0e2 193e 8900 21be 8cf3 40be
00000280: 8ab7 a6b9 c17c 13be 6f15 0fbd 7a5b 29bd
00000290: 257c e93d 1924 aa3c 2a98 033e a224 873d
000002a0: 9a7a 16bd 1065 31bd f66d 603c adba 15be
000002b0: 4313 3c3e cbd1 a43c 9116 a2be 8f7d 163e
000002c0: 147d 553d 8f5f 3abe 0ad5 443c 5b09 5ebd
000002d0: 9dd2 eebb 87e9 d3bb dfa4 a03d d40c 04bf
000002e0: 1b8c 0ebe 5cbc 6bbd 1c75 813d 03d0 403d
000002f0: 9393 653d 9d51 a43d 02ab a53e d382 88bc
00000300: 3e52 a73e 6081 bdbb 9c8d 853c 1d98 3ebe
00000310: 8200 b2bb 7d83 3e3a da00 6cbd 2fbd e4bd
00000320: 65e0 623b 24ff e5ba c234 233b 6d29 413b
00000330: 03a3 553d e9aa bb3c 3b36 513e 98e2 df3d
00000340: 4294 c13c 65e9 ef3c 05d1 b73d bd8d 363c
00000350: a61f 21be f863 243b 023a 26bd 7056 a93c
00000360: 033a e0bd 019c 16be f4c1 81bc 7387 fa3b
00000370: 6c8d 5f3d 742d 4a3e 5c55 123c c3d1 e2bc
00000380: 147a bdbc 3ecc 42bd 4f40 533e 4587 9c3c
00000390: 5687 55bd bd5e 273d 6e2d a23d be09 723e
000003a0: 5272 be3c 6bb7 c53d b912 ffbb 43c2 d43b
000003b0: 8463 553d ee0d aa3d c40f f13a 194d 563d
000003c0: b25f 4ebd 39ba 883d fa20 4b3e 7412 c8bd
000003d0: 546e a1bd c6bd 25bc 91a7 98be 4fd2 d53e
000003e0: 9695 1a3d bfce 993b 134e 3d3e c3b2 17bc
000003f0: 6fa9 383b a47b 113e 0120 96be cc3e e7bc

action_model._continuous_distribution.mu.bias f4 [2]
-0.026522104 0.0056763855
00000000: e244 d9bc f900 ba3b

action_model._discrete_distribution.branches.0.weight f4 [2, 128]
-0.129366 -0.10595966 -0.27130353 0.4725492 0.12540367 -0.25339034 0.2232796 -0.027687764
0.022343691 0.11789316 0.13262658 0.024082527 0.02762399 -0.11684159 0.058508467 0.3579379
-0.04891952 -0.008173164 -0.32442948 -0.1864262 -0.24818492 0.21598488 0.08656163 0.054115668
-0.11440953 -0.09190019 0.005470891 0.2959609 0.20827 -0.024995118 0.2902814 -0.08979318
-0.010247518 -0.49000052 0.48843566 0.095205426 -0.20297714 0.055055607 -0.1469534 -0.17971534
-0.2174076 0.13813682 0.33572826 -0.2296526 0.05782116 -0.0033558651 -0.25782534 0.12806234
-0.047704216 -0.14658496 0.22036183 -0.46231806 0.25497895 -0.008963382 0.13853806 -0.18714806
-0.17517394 0.2126761 -0.3397518 0.02266598 0.3289684 -0.03564972 0.09100272 0.097201355
-0.18117015 0.36555257 0.20609486 -0.32634655 0.18348987 0.20491475 -0.030378114 0.20491767
0.25576785 0.21902843 0.24250428 -0.05713647 -0.39695004 -0.28917432 -0.060762655 -0.020567786
-0.3034039 -0.013667913 -0.031102823 0.18327263 -0.09404233 0.33596197 0.118501216 0.2520542
-0.21023336 -0.027043605 0.22384687 0.45408824 -0.20178904 -0.62482584 0.19289838 -0.059655983
-0.022172177 -0.00023397378 0.0015052265 0.11642314 -0.28478256 -0.12151072 0.020329056 -0.08049244
0.29303062 -0.079373814 0.14025934 0.19031572 0.14055689 -0.33736387 0.2504688 -0.087673314
0.26412508 -0.103871144 0.001262374 -0.0024048826 -0.06510662 0.40109375 -0.48241317 -0.09575539
0.10310614 0.13144931 -0.0812796 0.42607456 0.16259547 -0.29586986 -0.36538225 0.21795212
0.14822493 0.12170134 0.28414434 -0.47954628 -0.13204618 0.2638768 -0.22908689 0.019346192
-0.020381596 -0.116917826 -0.14815255 -0.021937381 -0.02424558 0.121165656 -0.06351372 -0.34887382
0.04833134 -0.002043455 0.31867144 0.19053747 0.25967267 -0.2277971 -0.094548814 -0.06371979
0.08423642 0.08380766 -0.017214082 -0.30776462 -0.1963387 0.029084368 -0.3009654 0.08249088
0.008502388 0.47435698 -0.49766248 -0.087152466 0.23383696 -0.058584068 0.1598061 0.16899233
0.22480808 -0.13205265 -0.36289477 0.2286641 -0.046092115 0.0053919125 0.26524657 -0.12615989
0.073524125 0.14824364 -0.23274013 0.45727146 -0.2790434 0.0068313205 -0.13113768 0.19448923
0.16730574 -0.17239992 0.3450122 -0.013879244 -0.3225377 0.04434373 -0.08814026 -0.105698064
0.175653 -0.35772526 -0.2312604 0.3372486 -0.17532419 -0.21336082 0.049885437 -0.23054612
-0.24141163 -0.22686546 -0.23496649 0.065137684 0.37789875 0.28621233 0.08223187 0.012005161
0.3088689 0.017852765 0.03268652 -0.192136 0.09514588 -0.32911468 -0.14471386 -0.2549085
0.21467586 0.013395313 -0.2165152 -0.44840628 0.20799223 0.6231801 -0.20234509 0.077627674
0.03305684 -0.0030766877 -0.0017869706 -0.09072787 0.26587406 0.1163932 -0.005301533 0.09280582
-0.29362473 0.09541147 -0.14255065 -0.17559527 -0.11987585 0.36129987 -0.23980951 0.090247266
-0.28162676 0.12170022 0.024303336 0.0154472515 0.06311307 -0.41690218 0.46812928 0.07789672
-0.09804819 -0.11696982 0.09974319 -0.4189452 -0.1661337 0.29498056 0.3758366 -0.21429051
00000000: 8578 04be 6101 d9bd 4ce8 8abe f8f1 f13e
00000010: d269 003e 61bc 81be 68a3 643e 73d1 e2bc
00000020: 1e0a b73c f871 f13d 43cf 073e b848 c53c
00000030: b54b e23c a54a efbd 93a6 6f3d a343 b73e
00000040: d65f 48bd bce8 05bc 9f1b a6be 83e6 3ebe
00000050: 3024 7ebe 242b 5d3e 3947 b13d 64a8 5d3d
00000060: 8b4f eabd 2b36 bcbd 2945 b33b 3088 973e
00000070: bb44 553e 90c2 ccbc c39f 943e 7de5 b7bd
00000080: 35e5 27bc 59e1 fabe 3d14 fa3e 10fb c23d
00000090: 3dd9 4fbe fd81 613d f47a 16be 4c07 38be
000000a0: 19a0 5ebe bd73 0d3e 93e4 ab3e 0d2a 6bbe
000000b0: e1d5 6c3d 13ee 5bbb af01 84be c622 033e
000000c0: 7f65 43bd 5e1a 16be 88a6 613e f4b4 ecbe
000000d0: 9a8c 823e 26db 12bc ecdc 0d3e bea3 3fbe
000000e0: cc60 33be c3c7 593e f3f3 adbe 01ae b93c
000000f0: 8c6e a83e 7105 12bd a25f ba3d 8111 c73d
00000100: ab84 39be b529 bb3e 880a 533e e516 a7be
00000110: c5e4 3b3e 2cd5 513e 86db f8bc f0d5 513e
00000120: 01f4 823e fd48 603e 0b53 783e ee07 6abd
00000130: 093d cbbe a80e 94be 43e2 78bd c67d a8bc
00000140: c257 9bbe 62ef 5fbc 59cb febc d2ab 3b3e
00000150: 4499 c0bd 3503 ac3e c4b0 f23d 400d 813e
00000160: 6a47 57be 8d8a ddbc 1d38 653e 417e e83e
00000170: c9a1 4ebe 96f4 1fbf 2787 453e d559 74bd
00000180: 6da2 b5bc dc56 75b9 054b c53a 416f ee3d
00000190: 05cf 91be 9dda f8bd 1f89 a63c 38d9 a4bd
000001a0: 1c08 963e bd8e a2bd 25a0 0f3e 20e2 423e
000001b0: 25ee 0f3e f5ba acbe 723d 803e 118e b3bd
000001c0: 673b 873e 65ba d4bd 3e76 a53a 3c9b 1dbb
000001d0: 9f56 85bd 295c cd3e dcfe f6be 671b c4bd
000001e0: 5029 d33d a69a 063e eb75 a6bd 7226 da3e
000001f0: 6d7f 263e 417c 97be 6213 bbbe d72e 5f3e
00000200: 47c8 173e 8d3e f93d 5e7b 913e 1787 f5be
00000210: 1d37 07be dc1a 873e c195 6abe e87b 9e3c
00000220: 4ef7 a6bc 9d72 efbd 4db5 17be 06b6 b3bc
00000230: ab9e c6bc b325 f83d 7b13 82bd 979f b2be
00000240: 15f7 453d 7ceb 05bb e728 a33e 411c 433e
00000250: d1f3 843e a543 69be cfa2 c1bd 857f 82bd
00000260: 2584 ac3d 5aa3 ab3d 8c04 8dbc 5393 9dbe
00000270: 030d 49be 5742 ee3c 2318 9abe faf0 a83d
00000280: 9a4d 0b3c ebde f23e 9ecd febe fe7c b2bd
00000290: f572 6f3e d9f5 6fbd 36a4 233e 530c 2d3e
000002a0: 1734 663e cf38 07be 58cd b9be ec26 6a3e
000002b0: 16cb 3cbd a4ae b03b 66ce 873e 0f30 01be
000002c0: d193 963d 2ecd 173e 6e53 6ebe 7c1f ea3e
000002d0: c7de 8ebe 45d9 df3b f548 06be 2f28 473e
000002e0: 3252 2b3e 9b89 30be 70a5 b03e c565 63bc
000002f0: a923 a5be c5a1 353d e182 b4bd 3a78 d8bd
00000300: 61de 333e c427 b7be 87cf 6cbe d9ab ac3e
00000310: 2f88 33be 427b 5abe ac54 4c3d 4814 6cbe
00000320: 9c34 77be 6b4f 68be 0e9b 70be e866 853d
00000330: f27b c13e 6c8a 923e 2f69 a83d 4bb1 443c
00000340: 1124 9e3e f63f 923c 4de2 053d 4dbf 44be
00000350: d8db c23d b881 a8be df2f 14be 5e83 82be
00000360: fdd3 5b3e 0478 5b3c 29b6 5dbe 8295 e5be
00000370: eafb 543e bb88 1f3f 8d33 4fbe 42fb 9e3d
00000380: 9c66 073d 41a2 49bb c938 eaba 89cf b9bd
00000390: a520 883e 8f5f ee3d 7bb8 adbb fa10 be3d
000003a0: fb55 96be 1767 c33d ccf8 11be 3fcf 33be
000003b0: 7881 f5bd 4cfc b83e a090 75be 8fd3 b83d
000003c0: 6231 90be f73d f93d ca17 c73c 7816 7d3c
000003d0: 6d41 813d 3474 d5be a4ae ef3e 5188 9f3d
000003e0: 7dcd c8bd df8d efbd 2846 cc3d fc7f d6be
000003f0: f41e 2abe b107 973e a86d c03e f96e 5bbe

action_model._discrete_distribution.branches.0.bias f4 [2]
0.13200924 -0.13200916
00000000: 6e2d 073e 692d 07be

exp_avg f4 [128, 10]
-0.0071735606 -0.0013073661 0.0024517705 -0.0050855693 0.0 0.002523478 -6.048e-41 -1.43615e-40
5.014e-42 1.62511e-40 0.0008935102 -0.00017510186 -4.30184e-06 -0.0012975914 0.0 -0.0002537292
5.483e-42 5.225e-42 3.349e-42 -1.4229e-41 -0.0017698435 -0.00078386685 0.0038876983 -0.0065926667
0.0 0.0041400576 -7.7275e-41 -1.74125e-40 1.235e-42 2.07032e-40 0.0017493634 -0.00031892862
-0.00046467764 0.002736173 0.0 0.00045365584 7.6e-43 1.0143e-41 -3.991e-42 -2.583e-42
0.00087325956 0.00011300115 -0.00033686808 0.002648883 0.0 -4.120063e-05 -3.8354e-41 -1.0318e-41
-3.6037e-41 9.782e-41 0.010862133 0.003497986 -0.0069805966 0.02653241 0.0 -0.01037348
3.547e-42 3.947e-42 1.865e-42 -9.237e-42 0.0029019362 0.0005550805 -0.0007926496 -0.00028280297
0.0 -3.741164e-05 6.29e-41 2.92012e-40 -7.3935e-41 -1.78272e-40 -0.018342383 -0.0045077926
0.017968828 -0.035774816 0.0 0.019831823 5.1984e-41 2.63087e-40 -7.1186e-41 -1.48748e-40
0.0008507052 -3.806476e-05 0.0014564763 -0.0010986304 0.0 0.00022402145 6.8413e-41 3.61847e-40
-1.01458e-40 -1.96772e-40 -0.010582835 -0.0018786691 0.004097203 -0.01173675 0.0 0.003566498
9.6915e-41 1.48532e-40 3.1853e-41 -2.55127e-40 0.003976643 0.0014834312 -0.007832648 0.014720968
0.0 -0.0077365483 -8.562e-42 -1.13467e-40 4.6984e-41 2.9032e-41 0.0018281245 5.3162043e-05
0.0012079122 -0.00095154194 0.0 0.00024135801 1.2012e-41 3.774e-42 1.0933e-41 -3.0666e-41
-0.0040963716 -0.00033639726 0.0037876498 -0.0017104766 0.0 0.0029520588 -3.2523e-41 -3.517e-41
-1.7781e-41 8.4666e-41 -0.003289345 0.00039923712 0.0006167945 -0.0005651856 0.0 2.4386647e-05
2.503e-42 -1.07e-42 3.206e-42 -6.271e-42 -0.0035936902 -3.955685e-05 0.0033885532 -0.0028088046
0.0 0.0030328138 -6.296e-42 1.4461e-41 -1.3715e-41 1.5011e-41 0.00060824165 0.00029464313
0.0006639985 0.00034282278 0.0 0.00044997266 5.0735e-41 6.6237e-41 2.1866e-41 -1.3281e-40
0.010356962 0.0035580257 -0.016720312 0.030513268 0.0 -0.017951576 2.8871e-41 9.233e-42
2.623e-41 -7.3727e-41 -0.00077749154 0.00035394912 0.0004934918 -0.00019805784 0.0 -0.0005369132
-7.466e-42 -4.1073e-41 1.1684e-41 2.158e-41 0.004312028 0.00065326446 0.00129368 0.0013404394
0.0 0.0015075657 -1.62598e-40 -3.21955e-40 -1.7733e-41 4.32748e-40 0.00083461823 -0.00019170562
0.0030348892 -0.0063331816 0.0 0.003293859 2.1347e-41 1.7809e-41 1.4117e-41 -5.5231e-41
0.003079349 0.0006651572 -0.0023554985 0.0061006304 0.0 -0.0027720507 -6.36e-42 -3.052e-42
-5.26e-42 1.631e-41 0.0053081093 0.00038963358 -0.0038782072 0.004380421 0.0 -0.0022682298
6.202e-42 2.0947e-41 -3.29e-42 -1.7069e-41 -0.0016880967 -0.0015153451 0.013076753 -0.013077618
0.0 0.012116194 -3.72758e-40 -6.86228e-40 -6.8483e-41 9.88737e-40 -0.007125061 -0.0019711128
0.013136445 -0.020504737 0.0 0.013430351 -1.0781e-40 2.53419e-40 -2.37961e-40 2.5665e-40
-0.00020948212 -0.00020850435 -0.00037784522 -0.0006036815 0.0 -0.0003280518 5.832e-42 -1.9513e-41
1.5605e-41 -1.351e-41 0.00039673893 -0.0002621578 7.705446e-06 -0.0017105204 0.0 0.00027275333
00000000: 3010 ebbb ed5b abba e2ad 203b d9a4 a6bb
00000010: 0000 0000 ef60 253b 98a8 0080 5790 0180
00000020: fa0d 0000 04c5 0100 743a 6a3a 8c9b 37b9
00000030: 8658 90b6 f113 aaba 0000 0000 f506 85b9
00000040: 490f 0000 910e 0000 5609 0000 aa27 0080
00000050: 18fa e7ba 6a7c 4dba c1c8 7e3b 4c07 d8bb
00000060: 0000 0000 52a9 873b 69d7 0080 64e5 0180
00000070: 7103 0000 1f41 0200 e54a e53a e035 a7b9
00000080: fa9f f3b9 5e51 333b 0000 0000 a8d8 ed39
00000090: 1e02 0000 461c 0000 200b 0080 3307 0080
000000a0: 75eb 643a 08fb ec38 ab9d b0b9 e298 2d3b
000000b0: 0000 0000 d7ce 2cb8 ea6a 0080 c31c 0080
000000c0: 7564 0080 af10 0100 16f7 313c 773e 653b
000000d0: 7dbd e4bb 7f5a d93c 0000 0000 87f5 29bc
000000e0: e309 0000 010b 0000 3305 0000 c019 0080
000000f0: 692e 3e3b d282 113a d0c9 4fba 2c45 94b9
00000100: 0000 0000 71ea 1cb8 57af 0000 032e 0300
00000110: 1ace 0080 f3f0 0180 c442 96bc 1bb6 93bb
00000120: 5d33 933c 9d88 12bd 0000 0000 5976 a23c
00000130: e990 0000 61dd 0200 70c6 0080 a69e 0180
00000140: dc01 5f3a baa7 1fb8 3ce7 be3a ebff 8fba
00000150: 0000 0000 4de7 6a39 b5be 0000 aff0 0300
00000160: d31a 0180 8524 0280 a163 2dbc ad3d f6ba
00000170: d441 863b 7f4b 40bc 0000 0000 e8bb 693b
00000180: 290e 0100 0c9e 0100 cb58 0000 31c7 0280
00000190: 804e 823b b16f c23a 8254 00bc 3730 713c
000001a0: 0000 0000 df82 fdbb de17 0080 4d3c 0180
000001b0: f982 0000 ee50 0000 ae9d ef3a 4ffa 5e38
000001c0: cf52 9e3a e670 79ba 0000 0000 0c15 7d39
000001d0: 7c21 0000 850a 0000 7a1e 0000 7c55 0080
000001e0: db3a 86bb 7a5e b0b9 383a 783b 1232 e0ba
000001f0: 0000 0000 5477 413b a95a 0080 0a62 0080
00000200: 9131 0080 04ec 0000 0d92 57bb b350 d139
00000210: 61b0 213a f728 14ba 0000 0000 ed91 cc37
00000220: fa06 0000 fc02 0080 f008 0000 7b11 0080
00000230: 1e84 6bbb d8e9 25b8 7d12 5e3b ec13 38bb
00000240: 0000 0000 2cc2 463b 8d11 0080 5028 0000
00000250: 3b26 0080 d829 0000 6872 1f3a 557a 9a39
00000260: 2f10 2e3a e5bc b339 0000 0000 4fea eb39
00000270: 6e8d 0000 a4b8 0000 f43c 0000 3872 0180
00000280: 3fb0 293c c42d 693b 09f9 88bc f6f6 f93c
00000290: 0000 0000 2f0f 93bc 7b50 0000 bd19 0000
000002a0: 1e49 0000 85cd 0080 93d0 4bba 3f92 b939
000002b0: ad5d 013a bfad 4fb9 0000 0000 a3bf 0cba
000002c0: d014 0080 7f72 0080 9220 0000 283c 0000
000002d0: ea4b 8d3b d63f 2b3a b390 a93a afb1 af3a
000002e0: 0000 0000 8399 c53a 42c5 0180 7b81 0380
000002f0: 6f31 0080 53b6 0400 48ca 5a3a 9604 49b9
00000300: fee4 463b 9486 cfbb 0000 0000 c9dd 573b
00000310: 823b 0000 a531 0000 5a27 0000 f699 0080
00000320: e7ce 493b f25d 2e3a b55e 1abb cce7 c73b
00000330: 0000 0000 4bab 35bb bb11 0080 8208 0080
00000340: aa0e 0080 772d 0000 a6ef ad3b bc47 cc39
00000350: 8529 7ebb a289 8f3b 0000 0000 95a6 14bb
00000360: 4a11 0000 643a 0000 2c09 0080 952f 0080
00000370: 2043 ddba 8b9e c6ba e13f 563c 8143 56bc
00000380: 0000 0000 0083 463c 190f 0480 ed78 0780
00000390: e7be 0080 32c4 0a00 5879 e9bb c92d 01bb
000003a0: 3e3a 573c 8df9 a7bc 0000 0000 fa0a 5c3c
000003b0: 882c 0180 6ec2 0200 5797 0280 70cb 0200
000003c0: 6ea8 5bb9 f6a1 5ab9 8719 c6b9 6140 1eba
000003d0: 0000 0000 5efe abb9 4210 0000 6536 0080
000003e0: 802b 0000 a925 0080 6601 d039 3972 89b9
000003f0: a346 0137 8a33 e0ba 0000 0000 5500 8f39

exp_avg_sq f4 [128, 10]
0.20138861 0.006110516 0.19374831 0.13110736 0.0 0.13386811 3.7739377e-05 0.00010271483
3.6375688e-05 0.00028364203 0.03925605 0.001818898 0.021004172 0.043416355 0.0 0.019820469
0.000100836245 7.047512e-05 5.907966e-05 0.00083078217 0.07448999 0.0015269909 0.038030572 0.050746724
0.0 0.038838692 3.2545486e-05 0.00017523173 4.7933576e-05 0.0002957099 0.18233514 0.0057416665
0.032507777 0.25614613 0.0 0.041330535 0.0007105345 0.0005704546 0.00042074503 0.0058595496
0.22094448 0.008305596 0.040814165 0.34649 0.0 0.05325699 0.00045535035 0.0003185998
0.00026586984 0.0037798462 0.2712692 0.008967583 0.27273425 0.107198425 0.0 0.24743916
0.00041520252 0.00027289524 0.00024478283 0.0034836675 0.0774764 0.0035681904 0.054938097 0.053109746
0.0 0.057048373 3.289997e-05 0.0004119525 5.5080447e-05 0.00030824653 0.43274054 0.012014373
0.30931965 0.32381532 0.0 0.237452 8.7557266e-05 0.0007602479 0.00026534635 0.0007167252
0.4521131 0.009259398 0.34021387 0.25847912 0.0 0.20889795 8.043446e-05 0.00072243955
0.00014321269 0.00058808614 0.10662409 0.004844431 0.035243418 0.10102367 0.0 0.028168984
0.00033132717 0.0002610396 0.0001963599 0.0027669463 0.3233193 0.0065516806 0.30466145 0.11210374
0.0 0.20228492 4.540495e-05 0.00016900677 6.6458364e-05 0.00036600407 0.19130237 0.00544366
0.060403418 0.16974531 0.0 0.09084861 8.927682e-05 0.00015454058 5.377138e-05 0.000664796
0.2415186 0.007576505 0.29704955 0.19215308 0.0 0.15285218 0.00014717809 0.000100869525
8.63057e-05 0.0012574866 0.2888563 0.0053700954 0.025692342 0.23667051 0.0 0.07564794
5.9630125e-05 8.514506e-05 3.4829238e-05 0.0004931067 0.1138678 0.00326289 0.030268122 0.0931348
0.0 0.03790856 0.00010089645 0.00013093012 5.935942e-05 0.00081466197 0.71850336 0.014299892
0.40731558 0.5058119 0.0 0.34920374 0.00070248515 0.00044514998 0.0005043621 0.005904936
0.114269145 0.0050941943 0.098747775 0.068669565 0.0 0.116669945 2.2336735e-05 3.3148677e-05
2.7462842e-05 0.00016521517 0.19162142 0.0049204053 0.10011548 0.16020912 0.0 0.08732427
0.00050531956 0.00032678086 0.0002975497 0.0042528785 0.23772942 0.005725752 0.21363765 0.112504885
0.0 0.12196465 4.985607e-05 0.00045720077 7.67514e-05 0.00035040543 0.18091017 0.0053330488
0.17644429 0.10556692 0.0 0.1121051 4.9512993e-05 3.441589e-05 2.9312714e-05 0.00040956942
0.15940599 0.0040082354 0.12453256 0.07835531 0.0 0.0972512 9.756995e-05 6.1751794e-05
5.7695794e-05 0.000820433 0.39326704 0.008946594 0.18574728 0.35087824 0.0 0.20602222
0.00010103341 9.0188405e-05 6.8630565e-05 0.00088978064 1.4665284 0.037568852 1.1719944 0.56748205
0.0 1.132526 9.346421e-05 0.0019756588 0.00045613942 0.0007387333 0.47843906 0.014777782
0.34990278 0.30244455 0.0 0.23030104 0.00027586232 0.001130039 0.00031689712 0.0020839598
0.025447162 0.00073839317 0.008343504 0.028396204 0.0 0.008174718 9.721799e-06 1.0792851e-05
6.376025e-06 8.035769e-05 0.01829328 0.0011577685 0.018814946 0.014896116 0.0 0.017047854
00000000: d138 4e3e b93a c83b f565 463e 0241 063e
00000010: 0000 0000 b914 093e 594a 1e38 9b68 d738
00000020: 1992 1838 cab5 9439 f4ca 203d 1768 ee3a
00000030: f110 ac3c 59d5 313d 0000 0000 895e a23c
00000040: 0c78 d338 0bcc 9338 4dcc 7738 d9c8 593a
00000050: 358e 983d 5025 c83a f2c5 1b3d ccdb 4f3d
00000060: 0000 0000 5215 1f3d 7381 0838 69be 3739
00000070: 490c 4938 8309 9b39 10b6 3a3e 9724 bc3b
00000080: e026 053d 9625 833e 0000 0000 354a 293d
00000090: 2a43 3a3a 8f8a 153a 7197 dc39 7701 c03b
000000a0: 453f 623e 3214 083c c12c 273d 2367 b13e
000000b0: 0000 0000 0024 5a3d 17bc ee39 be09 a739
000000c0: 7264 8b39 4cb7 773b cce3 8a3e c5ec 123c
000000d0: d3a3 8b3e d98a db3d 0000 0000 b160 7d3e
000000e0: 8aaf d939 6113 8f39 3256 8039 3e4e 643b
000000f0: f2ab 9e3d 4dd8 693b c506 613d 9b89 593d
00000100: 0000 0000 8eab 693d 13fe 0938 54fb d739
00000110: 2e06 6738 269c a139 2b90 dd3e efd7 443c
00000120: 255f 9e3e 1fcb a53e 0000 0000 9e26 733e
00000130: f39e b738 5f4b 473a 2f1e 8b39 9de2 3b3a
00000140: 5e7b e73e bbb4 173c 8330 ae3e 6057 843e
00000150: 0000 0000 58e9 553e ecae a838 1962 3d3a
00000160: 5d2b 1639 cb29 1a3a bb5d da3d 08be 9e3b
00000170: 675b 103d 7fe5 ce3d 0000 0000 a4c2 e63c
00000180: fbb5 ad39 24dc 8839 f6e5 4d39 a855 353b
00000190: 1b8a a53e 7baf d63b 96fc 9b3e a596 e53d
000001a0: 0000 0000 c723 4f3e 3271 3e38 6937 3139
000001b0: 905f 8b38 3ce4 bf39 c5e4 433e bb60 b23b
000001c0: 9369 773d b7d1 2d3e 0000 0000 d60e ba3d
000001d0: 213a bb38 2c0c 2239 9488 6138 b445 2e3a
000001e0: a750 773e 5544 f83b e116 983e c7c3 443e
000001f0: 0000 0000 4885 1c3e d153 1a39 ea89 d338
00000200: 05ff b438 40d2 a43a f9e4 933e a0f7 af3b
00000210: bf78 d23c c159 723e 0000 0000 4fed 9a3d
00000220: 5c1b 7a38 e88f b238 9c15 1238 d543 013a
00000230: 8533 e93d 36d6 553b daf4 f73c 75bd be3d
00000240: 0000 0000 0246 1b3d 5e98 d338 494a 0939
00000250: b1f8 7838 0a8f 553a d6ef 373f 184a 6a3c
00000260: ab8b d03e e47c 013f 0000 0000 d5ca b23e
00000270: fb26 383a 0563 e939 2b37 043a 327e c13b
00000280: f105 ea3d 33ed a63b 463c ca3d a1a2 8c3d
00000290: 0000 0000 a7f0 ee3d c65f bb37 1f09 0b38
000002a0: 0160 e637 9c3d 2d39 6838 443e 5a3b a13b
000002b0: 5809 cd3d dc0d 243e 0000 0000 11d7 b23d
000002c0: 6c77 043a c953 ab39 7200 9c39 bb5b 8b3b
000002d0: 576f 733e 179f bb3b d4c3 5a3e f668 e63d
000002e0: 0000 0000 9ac8 f93d 8c1c 5138 73b4 ef39
000002f0: 98f5 a038 9fb6 b739 8440 393e dbc0 ae3b
00000300: d0ad 343e 7833 d83d 0000 0000 5c97 e53d
00000310: 2cac 4f38 c859 1038 93e4 f537 7abb d639
00000320: 533b 233e 8457 833b ed0a ff3d c078 a03d
00000330: 0000 0000 a32b c73d 789e cc38 be80 8138
00000340: 63fe 7138 5412 573a 4c5a c93e bc94 123c
00000350: 8934 3e3e 50a6 b33e 0000 0000 7df7 523e
00000360: e6e1 d338 8823 bd38 c1ed 8f38 2b40 693a
00000370: 34b7 bb3f cce1 193d ea03 963f 8146 113f
00000380: 0000 0000 9df6 903f 3702 c438 0e7a 013b
00000390: ff25 ef39 8da7 413a f7f5 f43e 831e 723c
000003a0: 7526 b33e 03da 9a3e 0000 0000 09d4 6b3e
000003b0: 9da1 9039 d11d 943a 3625 a639 0b93 083b
000003c0: 9176 d03c ba90 413a 31b3 083c 289f e83c
000003d0: 0000 0000 41ef 053c cf1a 2337 f112 3537
000003e0: a3f1 d536 b585 a838 cadb 953c 44c0 973a
000003f0: cd21 9a3c d70e 743c 0000 0000 f1a7 8b3c

exp_avg f4 [128]
-0.0026147335 -0.00035020325 -0.0015677314 -0.0006378572 0.0002260023 0.006995973 0.0011101617 -0.009015589
-7.613069e-05 -0.0037573383 0.0029668624 0.00010632398 -0.0006727952 0.00079847436 -7.9113466e-05 0.0005892861
0.007116054 0.00070789846 0.0013065274 -0.00038341145 0.0013303141 0.0007792667 -0.0030306845 -0.003942222
-0.0004170087 -0.0005243152 0.005171636 -0.002825131 0.0007933477 0.008503304 -0.0006709128 -0.00059010624
-0.00071066635 -0.004007659 6.715159e-05 -0.0074734795 0.0023653435 0.018093674 0.001265957 -0.002514017
-0.002952641 0.007935222 -0.00029288666 -0.0010391824 -0.0029770657 0.0012251199 -0.0015407999 0.0044308873
0.0041854414 -0.0052751116 -0.0012180248 0.0020532582 -0.0018818385 -0.0037800164 -0.00019863222 0.0090007745
0.0021360216 -0.001601075 0.009303163 0.0002210293 -0.0030478484 -0.0006855395 0.0007092494 -0.0005224897
0.001593083 0.0021482285 0.005344038 0.0032699364 -0.0011484121 -0.003969482 0.0014965641 0.009845761
-0.002539497 0.0006393453 -0.00013138779 0.0014171962 -0.0011529468 -0.00035420634 -0.009182605 0.006506153
-0.002869077 -0.0023274424 0.008421438 -0.00019092069 0.00025445124 -0.00021392496 -0.0006303924 0.0019834277
0.0033856218 0.004117796 -0.0022316922 -0.00091949187 0.0018895003 0.008670653 0.0065200753 -0.00062999007
-0.0032254048 0.00096892763 1.005974e-05 -0.0020575572 0.0009929155 -0.00029710654 0.0007788899 -0.000732806
-0.001925734 -0.002711858 0.00061630754 -0.006828234 -0.0008945085 0.008828036 0.0029458245 0.0006566945
-0.00021951013 3.714127e-05 -0.0008738797 0.00027481792 0.0006903087 -0.00012109984 -0.0012699148 3.2984863e-05
-0.0009898398 -0.0013822526 0.003861199 0.003368015 -0.0076640924 -0.001412981 -0.0060027177 -0.0018490193
00000000: f35b 2bbb 7c9b b7b9 567c cdba df35 27ba
00000010: 08fb 6c39 7a3e e53b d882 913a 1fb6 13bc
00000020: 5aa8 9fb8 ad3d 76bb b16f 423b 41fa de38
00000030: 865e 30ba b550 513a b8e9 a5b8 527a 1a3a
00000040: ca2d e93b 4392 393a c93f ab3a 9d04 c9b9
00000050: ef5d ae3a b447 4c3a 739e 46bb c12d 81bb
00000060: f6a1 dab9 3372 09ba d476 a93b d525 39bb
00000070: aaf8 4f3a 7151 0b3c 32e0 2fba 5cb1 1aba
00000080: 034c 3aba ae52 83bb bcd3 8c38 17e4 f4bb
00000090: e103 1b3b 2f39 943c 78ee a53a 35c2 24bb
000000a0: 1981 41bb bc02 023c 958e 99b9 2d35 88ba
000000b0: e01a 43bb 3494 a03a aaf4 c9ba fa30 913b
000000c0: 0726 893b d8da acbb 21a6 9fba f58f 063b
000000d0: 06a8 f6ba 27ba 77bb ee47 50b9 fc77 133c
000000e0: 7ffc 0b3b 2adb d1ba 4b6c 183c 1ac4 6739
000000f0: 69be 47bb c7b5 33ba ecec 393a b1f7 08ba
00000100: ffce d03a 4bc9 0c3b 0a1d af3b 6e4c 563b
00000110: 5186 96ba 6e12 82bb 5c28 c43a 1d50 213c
00000120: b16d 26bb bd99 273a 24c5 09b9 37c1 b93a
00000130: 7a1e 97ba c5b4 b9b9 a372 16bc 9131 d53b
00000140: 2007 3cbb 0188 18bb 12fa 093c e231 48b9
00000150: de67 8539 0b51 60b9 eb40 25ba 65fc 013b
00000160: 4fe1 5d3b 94ee 863b 9541 12bb 0e0a 71ba
00000170: 1ca9 f73a 5b0f 0e3c 5ba6 d53b eb25 25ba
00000180: 5061 53bb a2ff 7d3a 41c6 2837 15d8 06bb
00000190: b724 823a f7c4 9bb9 6b2e 4c3a c719 40ba
000001a0: e968 fcba 6db9 31bb b38f 213a 61bf dfbb
000001b0: 737d 6aba 77a3 103c bc0e 413b 0626 2c3a
000001c0: 4d2c 66b9 23c8 1b38 1315 65ba 7015 9039
000001d0: d5f5 343a fbf6 fdb8 4573 a6ba 3a59 0a38
000001e0: 83bd 81ba b32c b5ba 2b0c 7d3b eab9 5c3b
000001f0: 1123 fbbb c633 b9ba 72b2 c4bb cb5a f2ba

exp_avg_sq f4 [128]
0.024442064 0.007275593 0.006107963 0.022966666 0.03322238 0.035870336 0.0142727615 0.04805749
0.037037592 0.019377723 0.026206715 0.021774644 0.03030602 0.02148038 0.01305156 0.057199568
0.020376777 0.019681623 0.022903012 0.021332191 0.016032938 0.035786364 0.15027542 0.05911113
0.0029535724 0.0046310737 0.0054328996 0.012234158 0.0074941535 0.013645982 0.032275707 0.012585753
0.0052467394 0.029090142 0.0050900998 0.05049082 0.026926234 0.039233055 0.038658317 0.05373316
0.038784783 0.11810208 0.033569474 0.026236806 0.0061584623 0.08524471 0.056518003 0.021124847
0.021457154 0.012852066 0.049129043 0.020368338 0.03814525 0.0937631 0.022595929 0.010276205
0.028361514 0.018019265 0.026973343 0.0064014737 0.022901252 0.024838286 0.010221087 0.013585822
0.035384912 0.0045020203 0.038475856 0.030591596 0.0073113344 0.028722096 0.024496239 0.059769347
0.004193853 0.0021588441 0.009555411 0.009513319 0.00859808 0.011605405 0.02247272 0.014274911
0.022990644 0.012216412 0.050600875 0.017507482 0.048588704 0.02719024 0.016797291 0.04958358
0.0720013 0.012808803 0.01663153 0.0066759214 0.04640538 0.049124267 0.056278635 0.043297976
0.020528244 0.031241156 0.005253422 0.016069196 0.03030011 0.0077450406 0.07430032 0.026267381
0.035618212 0.019064112 0.018914267 0.031649243 0.0033252803 0.022995835 0.00751693 0.05307049
0.027027806 0.008094045 0.0135061275 0.035801273 0.0041540987 0.03655691 0.042345956 0.036170825
0.0531994 0.019072602 0.0476456 0.042283274 0.03535687 0.02555387 0.039703295 0.011929549
00000000: b93a c83c 1968 ee3b 4f25 c83b 9724 bc3c
00000010: 3114 083d c6ec 123d 4dd8 693c eed7 443d
00000020: bbb4 173d 08be 9e3c 77af d63c bd60 b23c
00000030: 5544 f83c 9ff7 af3c 36d6 553c 184a 6a3d
00000040: 33ed a63c 5b3b a13c 199f bb3c d9c0 ae3c
00000050: 8257 833c b994 123d cde1 193e 831e 723d
00000060: b990 413b 43c0 973b 7706 b23b c771 483c
00000070: 8491 f53b 6693 5f3c 8833 043d 7934 4e3c
00000080: d7ec ab3b 734e ee3c daca a63b 76cf 4e3d
00000090: 6894 dc3c d7b2 203d 2f58 1e3d 4d17 5c3d
000000a0: cbdc 1e3d 81df f13d 2580 093d 92ee d63c
000000b0: edcc c93b c794 ae3d 6c7f 673d 040e ad3c
000000c0: eac6 af3c 7991 523c 893b 493d 80db a63c
000000d0: 323e 1c3d de06 c03d 191b b93c 875d 283c
000000e0: 6856 e83c 239d 933c 33f7 dc3c 74c3 d13b
000000f0: 689b bb3c a979 cb3c 5976 273c 1197 5e3c
00000100: c5ef 103d af85 933b dc98 1d3d 3a9b fa3c
00000110: eb93 ef3b 9a4a eb3c 56ac c83c b4d0 743d
00000120: 976c 893b 657b 0d3b 4c8e 1c3c c0dd 1b3c
00000130: f6de 0c3c 9924 3e3c b618 b83c 51e1 693c
00000140: e056 bc3c 5927 483c dd42 4f3d da6b 8f3c
00000150: f304 473d 11be de3c 799a 893c 2718 4b3d
00000160: 6b75 933d 03dc 513c d93e 883c b0c1 da3b
00000170: 9113 3e3d 8736 493d 6d84 663d 3859 313d
00000180: d92a a83c 74ed ff3c e624 ac3b 8ca3 833c
00000190: f037 f83c 1cca fd3b c42a 983d b12e d73c
000001a0: 67e4 113d 572c 9c3c 18f2 9a3c a3a2 013d
000001b0: f2ec 593b c361 bc3c 9450 f63b 7160 593d
000001c0: 6b69 dd3c e39c 043c ce48 5d3c 5ba4 123d
000001d0: 1b1f 883b b3bc 153d f472 2d3d dc27 143d
000001e0: 9de7 593d 253e 9c3c 0828 433d 3a31 2d3d
000001f0: 5ed2 103d 5956 d13c ec9f 223d 2874 433c
