ML-Agents/Examples/SphereHunt/results/imitation_test_001/SphereHunt/SphereHunt-21761.pt (torch, 538336 bytes, 50 tensors)

network_body._body_endoder.seq_layers.0.weight f4 [128, 10]
00000000: 07fb fc3d 1e0f a4bc 7122 41be e745 ad3d
00000010: 92df 83bd abb8 813d 74c9 9c3e 3f32 793e
00000020: 9c4b b53c e69b 81be 0d69 833d 87f8 eb3d
00000030: a50b cf3e d303 51be 5e8a f23e ead7 01bf
00000040: a983 e1be 7b0b 673e c731 0ebe 8094 29be
00000050: ac1d 80be 9643 213f 5caf 923d 0144 ce3e
00000060: a64a 82be c3aa e83d a0f9 0c3f 8324 96bc
00000070: 189e 9cbe 8110 aabd f58a 2e3c 962f f0be
00000080: eab1 d2bd 07c0 ccbe 14b7 9c3d d102 2ebe
00000090: 20a3 54bd d8cc 06bf 067b 8ebd 8fcf 8b3d
000000a0: bafb 1c3f 0e28 ecbe d46c 7f3d 8133 153c
000000b0: 8362 ccbe afd6 69be 9087 b4bc 2fc0 32bc
000000c0: 3df5 7a3d f468 863e df62 cb3c 4346 6fbe
000000d0: 400a dd3e 81c0 603e 20c3 133d 7dd1 9c3e
000000e0: b60a c23e 082d 1cbf a8af 0fbf 3f7a 603e
000000f0: e38d f8be a193 89bd 3f62 1fbf 4e49 3c3f
00000100: aa6c 0cbe 4d20 9b3d ec04 563e 8106 0fbf
00000110: 5b25 1a3c e7a5 24be b80b bcbc f03b aabc
00000120: 1bee 89bd d074 6e3e b079 13be 315d b1bd
00000130: 522e 89bf b826 2dbe 4960 b73c 512b 663d
00000140: 421b 823d 346c 5ebe e059 e0be 2a00 d53e
00000150: e3b1 42bf c77f 413d 6b1b e4bd 28dc b9bd
00000160: cd0b 4a3f 95a4 ba3b 3635 4fbf 6d40 0abf
00000170: aab2 ad3e 89d6 153e 9b31 623e 2303 c53e
00000180: 0998 7c3d 6b4e fd3e 32aa 46be d811 7b3c
00000190: c1f0 d9be a12f f13e 75b9 29bd 74e9 053f
000001a0: d663 ecbe 4276 36bf 2e7b f6bc c70c 6b3f
000001b0: 192e 03be aace 90be dc5b 763e aed3 aabe
000001c0: d09e 08bf a499 553e ea3b 853e d414 14bf
000001d0: 7e9c 1c3e e818 87bf 6322 063f fcc1 7b3e
000001e0: 1771 503d 84e4 cd3c a49b 3bbe 7a27 593e
000001f0: 9344 3fbe 54a2 e03d 7630 fcbe 51fa 7d3d
00000200: 38d3 8abf 0528 1dbc 8c15 093e 4a33 a03d
00000210: 9382 98be 8213 b83e cadf 813e a9f6 44bd
00000220: 463c 3d3e d925 d33e ecc5 4ebf 7544 3bbe
00000230: 4851 babe cb5f 0dbf 9229 8a3c 22b4 8c3d
00000240: 04f4 51be 3371 f1bd c8ac 66be 801b 48bf
00000250: 4300 9c3d 93c2 303f 1165 093e f0ef 373e
00000260: ca6e 7abc d146 3bbf bae5 93be 5b64 7cbe
00000270: fe0f 543e 875e 2b3e 1d2f d43d 802f f13e
00000280: e47b 90be abaf eebe 704e 6c3e 9b9c 0abf
00000290: 7053 e8bd a285 dcbd 6946 7dbe e1a6 bc3e
000002a0: 33fd 043e b6f8 debe 84b5 0ebf 8b5e 9dbe
000002b0: 5139 8bbd 5aa7 843d 8dce efbd bf26 af3e
000002c0: dbca c2be 69fa ba3e 9451 8f3d c78f 94be
000002d0: fe9c 0abe 250c cd3e bdf3 3dbf f29b 7d3f
000002e0: 4835 783e 083c d1be e1b8 edbe 1001 50bd
000002f0: 35cd 86bd 21ae 59bc 35b9 a8be 8c98 39be
00000300: e958 d1be 08d5 f53d c9d9 ff3e a738 073f
00000310: ec64 0abd c599 8bbd 2d15 153d ba55 dbbb
00000320: a838 a33e 4c4b fabd 1d96 4f3f ed9a 11be
00000330: 4632 a63e fc1d 9a3d d349 a23d 12b8 073e
00000340: e3ba cc3d c85a 91bd 6789 363e 3f4c b9be
00000350: 1688 243e 8ffa 083a 617b f83e 3d92 87be
00000360: 6b1e 94bc 1c3d 74be 8a96 afbe a138 ebbd
00000370: d78d 1cbd a566 773e cdbe 133e 8d98 29bf
00000380: 78d6 e1bd 4da9 24bf d7bf 69be c012 713e
00000390: dc62 4bbe 3b93 953e fb19 b9bd fbbb ac3d
000003a0: 0333 afbd 3328 9abd 596a 92bd 9aa3 b2bd
000003b0: 4e88 67bd ce2f bbbc 2c11 b23e 3305 aabe
000003c0: e830 1f3f 79ae 353e 4f06 373e c26c 5fbf
000003d0: cc27 2f3e 7145 8abf 0d89 9cbe 27d9 f73d
000003e0: 17fd 7fbe 64f3 763e 6c89 0a3e ecc1 203e
000003f0: b524 9f3e e525 d6bd 2e70 9cbc 3f7e f4be
0.12352567 -0.02002674 -0.18860795 0.084605984 -0.06439127 0.06334051 0.30622447 0.24335574
0.02213078 -0.25314254 0.06416521 0.11522012 0.40438572 -0.20411615 0.4737119 -0.50720084
-0.4404576 0.22562973 -0.13886176 -0.16560555 -0.25022638 0.6299375 0.071623534 0.40286258
-0.25447577 0.11360695 0.550684 -0.018327957 -0.30589366 -0.08303929 0.010653247 -0.46911305
-0.10287841 -0.39990255 0.07652107 -0.16993262 -0.05191338 -0.52656317 -0.069570586 0.06826698
0.61321604 -0.4612431 0.062359646 0.009106518 -0.39918908 -0.22835802 -0.022037297 -0.010910078
0.061269034 0.26251948 0.024827419 -0.23366646 0.43171883 0.21948434 0.036074758 0.30628577
0.37898797 -0.6100621 -0.56127405 0.21921633 -0.4854575 -0.06717611 -0.62259287 0.73549354
-0.13713327 0.0757452 0.20900315 -0.558693 0.00940832 -0.16078912 -0.022954807 -0.020780534
-0.06734868 0.23286748 -0.14401889 -0.08660353 -1.0717261 -0.16909301 0.02238478 0.056193653
0.06352855 -0.21720964 -0.4381857 0.41601688 -0.76052684 0.047241 -0.11138042 -0.090751946
0.78924257 0.0056958892 -0.8094057 -0.54004556 0.33925372 0.1463262 0.22089235 0.38478956
0.06166843 0.4947389 -0.19400862 0.0153240785 -0.42566493 0.4710665 -0.04143663 0.52309346
-0.4616992 -0.712742 -0.030088034 0.9181637 -0.12810554 -0.28282672 0.24058479 -0.33364624
-0.5336733 0.2085939 0.26022273 -0.5784428 0.15294072 -1.0554476 0.5239622 0.24585718
0.0508891 0.025133379 -0.18321091 0.21206465 -0.18678503 0.10968462 -0.49255723 0.0620063
-1.0845709 -0.009592061 0.13387126 0.078222826 -0.2978712 0.35952383 0.2536605 -0.048086796
0.18480024 0.41239813 -0.80770755 -0.18287833 -0.36390138 -0.55224293 0.016865525 0.06870295
-0.20503241 -0.11789169 -0.22526848 -0.7816696 0.076172374 0.69046897 0.1341746 0.17962623
-0.015285203 -0.7315493 -0.28886205 -0.24647658 0.20709226 0.16735278 0.10360549 0.47106552
-0.2821952 -0.466184 0.23076797 -0.5414521 -0.113440394 -0.10767676 -0.2473389 0.36846069
0.12987213 -0.43549126 -0.5574572 -0.30736193 -0.067980416 0.06477232 -0.11709318 0.34209248
-0.3804539 0.36519173 0.06997982 -0.29015943 -0.1353645 0.40048328 -0.7420004 0.9906608
0.24239075 -0.40866113 -0.46430114 -0.050782263 -0.06582109 -0.0132861445 -0.32953802 -0.18124598
-0.40888146 0.12003523 0.49970844 0.5282082 -0.033787653 -0.068164386 0.036397148 -0.006693569
0.31879163 -0.12221393 0.8108843 -0.14219256 0.3246023 0.0752525 0.07924237 0.13253811
0.09996583 -0.07097393 0.17825852 -0.36190984 0.16067538 0.00052253244 0.4853163 -0.26478758
-0.01808091 -0.23851436 -0.3429454 -0.114854105 -0.038221207 0.2416025 0.14428253 -0.662484
-0.11027235 -0.6432083 -0.22827087 0.23542309 -0.1986193 0.2921389 -0.090381585 0.08434292
-0.085546516 -0.07527199 -0.071491905 -0.08722611 -0.056526475 -0.022849943 0.34778726 -0.33207092
0.62184 0.17742337 0.178735 -0.87275326 0.17105025 -1.0802442 -0.3057331 0.121019654
-0.2499889 0.24116284 0.13528985 0.15698975 0.31082693 -0.104564466 -0.01909646 -0.47752568

network_body._body_endoder.seq_layers.0.bias f4 [128]
00000000: 109b 97bd fabc f23d 5ad5 373e 97d3 5abb
00000010: da02 aebd deff b33d 5215 293d 7481 d5ba
00000020: b623 afbc 5e3d a13c a4fb ba3c 03ab 0bbc
00000030: eeb6 cf3d 4216 de3d 268b 0bbe b415 273d
00000040: 4c76 92bd a228 99bd b9f3 253e 2056 533d
00000050: d592 063c 0be0 1cbe 8b61 9b3d 3c25 d2bc
00000060: c510 4d3e 3dbb 023e 4601 e33c 0014 133e
00000070: 581c b83d e11f e33d a5b1 a6bc 6039 9a3d
00000080: d375 18bd 691b 913e 7a43 82bd 410a 103e
00000090: b054 0b3e 72b0 303e 7195 a33c d266 b33e
000000a0: 649b 093e b3d0 5ebc d68b d4ba 3972 473e
000000b0: 11aa 51bc 32dd 953d b5db f4bd 5609 653e
000000c0: 9251 a7bd fa80 783e d6b2 b9bb c2ff 19bd
000000d0: b753 f23d e799 9d3e dd09 413e 7758 033e
000000e0: 6bf5 45bd b914 e0bd ee61 603e 9006 72bd
000000f0: ee55 913d b42a fcbc ad3c 663c 3069 b5bd
00000100: 2b32 703d 3b92 823c 7658 d33d 902b 0e3d
00000110: 6af7 263e 4dcf 313e a4f0 aabd eb1a 533e
00000120: 7c08 853e a18b 123d 1caa 093e 20b2 d83d
00000130: 6e54 1a3e 8f7a d2bd 7a84 a33d fdd1 bb3c
00000140: c8a8 6c3d 8ebb c6bd 6dbe fc3c bab5 3d3e
00000150: 39c1 563d 3268 ab3d 921a f3bd e0b0 b13d
00000160: cfbf 7b3e fa30 023e 8c73 5a3d 1b80 613d
00000170: 1504 7abd 408f 55bd 1b9f 123e 8d2d e63d
00000180: f35c e7bd aa29 13be f6c8 0b3e a670 113d
00000190: ab88 ab3d ab6f 323e 16c4 253e 0467 35bd
000001a0: 875e 063e 9696 3a3e df3d ff3d 0495 e6bd
000001b0: 7f4d 823d bfbf 473d 00bc 203e eb4f f93d
000001c0: dff3 833a 4d61 01be 0e45 db3c 258b b73d
000001d0: 270b 0e3e 7ee4 dabd 1588 f2bd 4bf0 b0bd
000001e0: 1897 e5bd b9c8 d03c f652 fc3d cc06 4d3e
000001f0: d836 0f3d ad33 bb3d 86f0 ddbd b0b3 893d
-0.07402623 0.11852451 0.17952481 -0.0033390278 -0.08496638 0.08789037 0.0412801 -0.001628919
-0.021379333 0.019682582 0.02282507 -0.008524659 0.10142313 0.10844089 -0.136273 0.040792182
-0.071514696 -0.07478453 0.16206254 0.051595807 0.008213718 -0.1531984 0.07586964 -0.02565252
0.20025928 0.12766738 0.027710568 0.14363098 0.08989781 0.11090065 -0.02034838 0.07530475
-0.03722174 0.28341225 -0.063605264 0.14066412 0.13606524 0.17254809 0.01996872 0.35039383
0.13438183 -0.013599562 -0.0016215991 0.19477166 -0.012796895 0.0731758 -0.11955968 0.22366843
-0.08169855 0.2426795 -0.005667071 -0.037597425 0.118323736 0.3078148 0.18851419 0.12826715
-0.048329752 -0.109414525 0.21912357 -0.05908829 0.07096468 -0.030782081 0.014052552 -0.088579535
0.058641594 0.015938869 0.10319607 0.034709513 0.16305318 0.17364235 -0.0834668 0.20615737
0.25983036 0.03577769 0.13443798 0.1058085 0.1507127 -0.102772824 0.07984252 0.022927279
0.05777815 -0.09703742 0.03085252 0.18526354 0.052430365 0.08369483 -0.11870302 0.08676314
0.24584888 0.12713996 0.05333285 0.05505381 -0.06103905 -0.052138567 0.14318506 0.11239157
-0.112970255 -0.14371362 0.1365088 0.03550782 0.08375677 0.1742541 0.16188082 -0.044287696
0.13121997 0.18221506 0.12462973 -0.11258891 0.063624375 0.048766848 0.15696716 0.12173446
0.0010067186 -0.12634774 0.026766326 0.089620866 0.13871442 -0.10688113 -0.11842362 -0.08639582
-0.112104595 0.025486337 0.12320511 0.20022124 0.034964412 0.09140716 -0.10836892 0.06723726

network_body._body_endoder.seq_layers.2.weight f4 [128, 128]
00000000: 9591 42be 345f 043e dada 28bd 5459 b33c
00000010: b906 153e 71f1 f5bd 59c7 2bbd 0ceb d53d
00000020: 9858 1e3d 145b 61bd 8858 1ebd 57e4 1bbd
00000030: 8203 1c3e a3c4 78be e15a a5bd 7d88 5ebd
00000040: d5cd c3bd dc19 863c 3733 063d 7829 d5be
00000050: 5fb7 eebd 4d3d 90bd 25d4 4cbc fa7b 89bd
00000060: 9728 35be f6ca 0b3d e527 a6bd 263e 473d
00000070: 87ae ccbd c6a9 33be 0434 f73c 6bdb 82be
00000080: 2847 dabc 17d8 2fbe a5ea f33d b734 6dbd
00000090: 9eef 3dbd 1d8f 23bd 0842 913c 9e22 073d
000000a0: fb8d b0bd 4293 aabe 7b9e 8dbd 41e1 533d
000000b0: 1b66 09be bc42 5c3d 3a89 d2bc dc9e a13d
000000c0: 2769 32be f0bb 2c3d cb3d 873d dba6 2dbe
000000d0: 6626 6bbb 0f6e 123e 7443 fa3d 08cb 62be
000000e0: e5a0 fa3c b1cc 29bb 853c 77be e554 b5bd
000000f0: 0313 2cbe 0215 5e3d f08d 373d a7fa ba3d
00000100: c85b e5bc 78ea 153d fd96 b5be a413 e9bd
00000110: be8c 5fbe 8f1a a5bd 085f 6dbb 0e76 38be
00000120: 39b6 9f3d 18d7 e5bd ec84 c93d 6cd1 f33d
00000130: 1b06 413c d2f3 8d3c a4df a1be 0f31 2a3c
00000140: 48be 603e bb50 9dbc 2348 c2be 7ab8 2e3e
00000150: 3d53 8bbd 87ed 893c 64e7 9d3c 4b87 b8bd
00000160: 091f 063e e111 5c3c 00bf a83b e9bd f33d
00000170: 97ab 26bd ee0d b6bc 5ec7 adbe 2353 893e
00000180: def0 b7bd 17b0 393d 9717 53be 315f ebbc
00000190: 72d7 dc3d 2d5f 57be fbd9 01bf 784f acbd
000001a0: 3760 7bbd 1ce0 00be 17e0 febc 816b 45be
000001b0: 4ae1 d53c 20b8 26be 9c5f e3bd 66de 45bd
000001c0: dab8 683d bda5 4f3d 2941 203d 3ed3 893d
000001d0: 6f35 86bd 085d ee3c 3e31 663d 5fe4 aabd
000001e0: 8d28 1b3e 26a0 a5bd 1240 90be 9d3f a83d
000001f0: e005 a0bd 11de 64be 252c e7bd a097 c0bd
00000200: 418a 583d 21f9 e9bb 0a4e e8bd 199a 213e
00000210: 2ebd 813d fe4a c3bc 87a4 8e3c ee0b e63d
00000220: 5934 933e 5e79 a73d 6e94 4c3e 2a0d bcbd
00000230: 542d 36bd 9248 e83c dfb4 c73d 4a25 cf3d
00000240: 3ce8 b1bc 15cb 133d b712 263e 129b f03d
00000250: a6f4 0d3d 8e76 4f3e 1ab3 6cbd 68e8 94bd
00000260: 56bb 5d3c 6ea7 9dbd cf94 633d ecaa b6bd
00000270: a070 37bd 6b36 19bd 726b 4dbc ba41 d4bc
00000280: 32b7 093e 6327 54be 91c9 313e 8783 cebc
00000290: 8a81 2d3d f923 9a3d 7436 81bc 5ec1 81be
000002a0: 0ef7 c9bc 1c3e 1d3e 597b 753d 1cc1 2ebe
000002b0: 1d6d febd 4433 15be 4b19 833e 0d73 b4bd
000002c0: 0703 363e 6f06 14bd efe0 a63d 1627 933d
000002d0: 14ea 4e3d e21a dabd d7cb 85bd c8a4 db3c
000002e0: 97b8 2dbd cb71 613d fc35 cebd f7d3 33bd
000002f0: f517 4c3e 072b 283e da1e 3c3e ab22 79bd
00000300: 4bd2 96bd 2362 a7bd 6847 27bc f88a 4a3d
00000310: e80c 44bd da2d 3f3d 7bea 14be 5eac 083d
00000320: 8889 a9bd be2b 82bd 8770 35be a435 4c3e
00000330: df13 ebbd 4600 043e d35c 883a 87b1 293e
00000340: 8180 383e d9d7 073e df71 033d 9196 943c
00000350: 79ae f13d 13bd f9bd 2c67 003e cd13 fa3d
00000360: f7de 113d e712 49bd 98aa 1f3e c92b 6bbb
00000370: 983b 833e d688 593e cad7 723c b638 eb3d
00000380: 79c6 72ba 6cbc fe3d 94d9 1fbe 0cea 4e3d
00000390: 60c2 523d ccde 0bbc 3fe3 a73d d49d 4f3d
000003a0: 66c0 a5bd 4c64 a83d a92f e2bc e366 203e
000003b0: 4f5d 0a3d d46c 5cbb 2c3e 853c b023 9dbc
000003c0: e354 763d 8072 b43d 7f0d c5bd 00b1 d9bd
000003d0: c228 38bc 59dc f53c b480 183e 8f92 49bd
000003e0: 399d 2f3e beac 86bd 2a44 bf3d 343b 243d
000003f0: df3e 6c3d 0705 86bd 837f 253e 8629 1cbe
-0.19000848 0.12926942 -0.041224338 0.02189318 0.14553346 -0.12008942 -0.04193816 0.10445222
0.03865871 -0.0550185 -0.03865865 -0.03805956 0.15235713 -0.24293761 -0.080739744 -0.054329384
-0.09560744 0.016369753 0.032763686 -0.416332 -0.11656069 -0.07042942 -0.012501751 -0.067131
-0.17691265 0.034129106 -0.08113078 0.048643254 -0.09994226 -0.17545232 0.03017617 -0.25558028
-0.026645258 -0.17172275 0.11909989 -0.0579116 -0.046371095 -0.039931405 0.017731681 0.032991998
-0.086208306 -0.33315474 -0.069149934 0.05172849 -0.13417856 0.05377458 -0.0257002 0.07891628
-0.17422925 0.04217142 0.06603583 -0.16958182 -0.0035881042 0.14299797 0.12219897 -0.22147763
0.030594299 -0.002590936 -0.2414418 -0.08854083 -0.16804127 0.054219253 0.044813097 0.091298394
-0.027997866 0.03660056 -0.35466757 -0.11380699 -0.21831033 -0.08061706 -0.0036219973 -0.18013784
0.07798428 -0.112226665 0.09839806 0.119051784 0.011781241 0.017328177 -0.31615937 0.010387673
0.21947587 -0.019203534 -0.3794566 0.1706256 -0.06802986 0.016836895 0.019275375 -0.0901018
0.13097776 0.013431997 0.005149722 0.11901457 -0.040690985 -0.022223439 -0.33941168 0.2682124
-0.08981489 0.045333948 -0.20614468 -0.028731914 0.107832804 -0.210324 -0.50723237 -0.08413595
-0.061371055 -0.12585491 -0.031112714 -0.1927929 0.026108403 -0.16281176 -0.111022204 -0.0483078
0.056816913 0.05069517 0.03912464 0.067297444 -0.065531604 0.029097095 0.056199305 -0.083443396
0.15152188 -0.080871865 -0.28173882 0.08215258 -0.078136206 -0.22350337 -0.11287717 -0.0940392
0.052866224 -0.007140294 -0.1134301 0.1578144 0.06334911 -0.02383947 0.017412437 0.11232744
0.28750876 0.08177446 0.19978496 -0.09182198 -0.044476822 0.028354917 0.09751295 0.10114534
-0.021717183 0.036082346 0.16218077 0.11748327 0.034657143 0.20260069 -0.057787992 -0.072708905
0.013533434 -0.0769795 0.055561837 -0.089193195 -0.044785142 -0.037405413 -0.012537824 -0.025910247
0.1344879 -0.2071815 0.17362048 -0.025209201 0.042359866 0.075263925 -0.015773036 -0.2534284
-0.024653938 0.15355724 0.059932087 -0.17065853 -0.124231555 -0.14570338 0.25605235 -0.08811007
0.17774592 -0.036138948 0.081483714 0.071851894 0.050516203 -0.10649659 -0.0653302 0.026811972
-0.042412367 0.055040162 -0.100688905 -0.043903317 0.19931014 0.16422664 0.18371144 -0.060824078
-0.07364329 -0.08173015 -0.010209896 0.049448937 -0.04786387 0.046674587 -0.14542572 0.033367507
-0.08278185 -0.063559994 -0.17718707 0.19942337 -0.114783995 0.1289073 0.001040364 0.16571628
0.1801777 0.13265933 0.032091018 0.018138202 0.11800856 -0.12194266 0.12539357 0.12210808
0.035613026 -0.049090292 0.1559242 -0.0035884252 0.25631404 0.21243605 0.014821956 0.11485426
-0.0009261142 0.12438282 -0.15610343 0.050516173 0.0514549 -0.008537006 0.08197641 0.050687626
-0.08093338 0.08222255 -0.027610617 0.15664248 0.033780392 -0.0033634203 0.016264997 -0.019182056
0.060139548 0.08810902 -0.09621715 -0.10629463 -0.011240186 0.030012297 0.14892846 -0.049212035
0.1714982 -0.06575917 0.09339173 0.040095523 0.057677146 -0.06543928 0.16161923 -0.15250215

network_body._body_endoder.seq_layers.2.bias f4 [128]
00000000: 3987 de3b 60b7 f9bd 093e c9bc fd82 c93d
00000010: f680 903d 7797 52bc 2bac 2b3e c186 c4bd
00000020: bf75 353e 75f9 07bc 5676 3f3d ac65 853c
00000030: 416a 463d 9056 a43d 6461 ce3c abc0 1b3e
00000040: 3793 f83c ba97 613e 2b26 cd3d 4551 15be
00000050: c825 023e 9055 e13d 71a4 4e3d cba6 d53d
00000060: 27d3 1b3e b54f f63d 7e61 b33d 53dd 37bb
00000070: 1b3b 9d3d b84d a2bc e337 433e 46fd 353b
00000080: 3ecd 453e f0c9 9e3d c243 7abc 520e e3bd
00000090: f659 913d f135 873d 4973 103d 61dc 0d3e
000000a0: 2483 e43c 395f 973d a2d6 123d 4c3f 183e
000000b0: feed 9b3c 6711 173d 900d e33d 618f e03d
000000c0: 5522 043e 6166 5abc 8942 633d 7b12 6e3e
000000d0: 3791 ce3c 6a44 be3d 5402 67bd ef77 a2bb
000000e0: 4b7f b23d 5715 893d 0f21 013e eb3f 8f3d
000000f0: 03bd 6cbd 2b95 ca3a 37fe 003d 234c 40bd
00000100: 0783 b33d 16a8 193d 1f76 ac3d 950d b23c
00000110: 95eb 593d dd16 7e3c d570 ab3d 58d9 b73d
00000120: 913f d03d 6456 d83d a6d0 9f3c 6eea 113e
00000130: cf4b 803d d5c9 2f3d ea37 323e 92a8 3a3e
00000140: f722 773d ad18 0e3d 97be 4a3d bcf2 603d
00000150: ab82 d33d 2e5e 28bd 0764 b13d e4a6 823d
00000160: 09ca 933d 3ac6 8f3d 9d6b 9e3b d3c6 073d
00000170: b0c2 913d 6b70 863e 6f16 e93c c459 343e
00000180: 4dcc e43c 44f9 873c 7788 e93d 8c42 97bb
00000190: e1a1 25be 0db7 633d 820d 543d c348 d43c
000001a0: 1613 c93b cad5 e83c eae6 ce3d 2891 fc3b
000001b0: d16c 193d cb3d 6a3d a5e0 2a3d 12ee ca3d
000001c0: 4609 5dbd bb90 243e 2ad1 8d3d e85f 163e
000001d0: b135 943d c3cc 4abd 7077 123e 7091 ee3d
000001e0: 4321 613d edb5 2c3d 09d1 0c3d 44e2 9dbd
000001f0: 47d1 743c 6dc4 6f3d 05bb 643d 5f54 663c
0.006791022 -0.12193179 -0.024565713 0.09839437 0.07055847 -0.012853495 0.16764896 -0.09596015
0.17720698 -0.008299221 0.046743713 0.016283832 0.048441175 0.08024323 0.025192924 0.15210216
0.030343635 0.22030535 0.100170456 -0.14581783 0.12709725 0.11002648 0.050449792 0.10432204
0.15217267 0.12026922 0.087588295 -0.0028055503 0.07677289 -0.01981245 0.19064288 0.002776937
0.19316575 0.0775336 -0.015274944 -0.11086716 0.07097237 0.066020854 0.035266194 0.13853599
0.027894564 0.07391209 0.03584922 0.14867896 0.019034382 0.03688183 0.11086571 0.10964847
0.12903722 -0.013330073 0.055483375 0.23249237 0.025215728 0.09290393 -0.056398705 -0.004958145
0.087156855 0.066935234 0.12610267 0.06994613 -0.057797443 0.0015455832 0.03149244 -0.04694761
0.08765226 0.037513815 0.08420967 0.021734992 0.053203184 0.015508381 0.083711304 0.08977002
0.10168374 0.10563353 0.019508671 0.14249584 0.06264459 0.04291709 0.17404142 0.18228367
0.06033608 0.0346915 0.049498167 0.05491899 0.10327657 -0.04110544 0.08661657 0.06379488
0.072162695 0.070202306 0.004834606 0.033148598 0.07117212 0.26257643 0.02845308 0.17612368
0.02792945 0.016598351 0.11402982 -0.0046160873 -0.16175033 0.055594493 0.051770695 0.025913602
0.0061363084 0.028422255 0.10102637 0.0077077337 0.03745729 0.057187837 0.041718144 0.099086896
-0.053963922 0.16070835 0.069246605 0.14685023 0.07236803 -0.049511682 0.14303374 0.11648834
0.05496336 0.042165685 0.03437904 -0.07709172 0.014942474 0.058536936 0.05584242 0.014058202

action_model._continuous_distribution.log_sigma f4 [1, 2]
00000000: 09a4 88bf 35d9 89bf
-1.067506 -1.0769411

action_model._continuous_distribution.mu.weight f4 [2, 128]
00000000: 3187 403d 1fcf 95ba 2270 d13d f5fa a2bc
00000010: b52b 14be 3845 e7bc e5e0 6abc 3c49 ad3d
00000020: 494d 51bc bf63 393e 1408 213d be8a c2bd
00000030: 9a05 45bd 9f6f 313e cd3f e13d 502f 5bbd
00000040: de8f 933d a013 77bc 32e6 093c 5210 03bd
00000050: 93fe c9bc 7ac7 833c 45c0 a93c 71d1 56bd
00000060: 21e4 08bc 68e1 5dbd 2bbd 61be 51c7 383d
00000070: 1c1a 6e3d dafd 973c f073 c93a 9df3 2a3d
00000080: 848a 84ba c10e 843d 5bcb d03d 464d 423c
00000090: 6b12 e33b 4e7a f2bc 5df5 3dbd c935 b8bd
000000a0: 69c8 3e3d bc5d 2dbd 4eed 803c 5122 99bc
000000b0: c1f5 883c 6c64 f73d 0f76 ac3d 33b6 223e
000000c0: c01a 7f3c 3305 903d 0f20 263d 062c b3bb
000000d0: a219 6c3d 9fa2 133b 13c9 6d3d 18d2 bbbd
000000e0: 5732 99bd ce5c 853d 5bfb e83c ad0c c5bd
000000f0: ccfc b83c fecd 543c 7178 cc3c 9fe8 de3d
00000100: 7852 9f3c 520a b53d 22bb febc f257 8f3d
00000110: a087 4a3d 6ddd 40bd 3fec 313e 4159 c93c
00000120: 97af 14bc 368a 07be 01e0 563c 1142 15be
00000130: 1325 dcbc d46c 073d a0d9 69bb 8601 29bd
00000140: 47d5 013d df5e 87bd 15ab 58bd f0fa 0b3d
00000150: 0f3d 30bd 0ec1 86bc b18c 8b3c 9821 6f3a
00000160: 7488 39bc dd19 183e 9734 813d 74f4 6a3d
00000170: fa88 2ebc 1693 3bbb c7d2 a63d 549b e5ba
00000180: 8627 02bc 4990 6d3c fea6 51be 7282 4e3b
00000190: f834 aabd 0b0e a23c 2946 f03d 0542 aebd
000001a0: 7de9 93bc c578 f73c 8ed9 e23c 2376 90bd
000001b0: 0f2d fbbb c476 503d 8b94 663c 67c4 ba3b
000001c0: a0b1 693c 2d6a 123c 3d3c df3b d94a 1bbd
000001d0: 5db5 8fbd b141 c33d 654d 103e d12d 95bd
000001e0: 6141 26bd 3d69 3abc bfa1 c8bc b00d b33d
000001f0: 2607 3bbd 2cad e0bc 9f88 dc3d 792d c5bd
00000200: 8d49 72be c3e2 173d f70a c53c eb3a 253b
00000210: a3a9 b83d 2fa1 a7bb d5f4 643b 4ea8 90bc
00000220: c4e9 113c 5241 87ba a90b 0dbb 13b3 0fbe
00000230: 79e3 9f3c 4b3b 883e e247 52bc 2fcc 583d
00000240: 06fe babb e395 8ebd db10 b33b 254d c13c
00000250: a5a3 24bd 8a37 f4bb e05c 5f3c c15a 85bd
00000260: 80d4 2e3b 03e4 99bb d8fd 87bc 8bf0 4c3d
00000270: 4b9d af3c a9dd 8f3c 063c e93b 95f0 c8bd
00000280: fe65 8cbc c5c4 813d 27ae 1ebd e40f 17be
00000290: d836 80bd d53b 413d ca61 70bc 6c48 623d
000002a0: 7076 f4bc 5f8b 7d3c 2714 eaba 4929 733d
000002b0: 762e 39bd 95b1 d5bd 9ed5 0d3c fd12 fe3d
000002c0: e168 0d3d 64a5 79bd 3af8 933b c4a5 953c
000002d0: 4f4c a13b 00b8 fcbc 9a73 9dbd 1760 51be
000002e0: 9e12 d3bd 6412 233d 7781 d83b 740b 02bc
000002f0: 240a 4b3d c539 34bd eb84 903d 0c52 c6bd
00000300: 64b1 383c 2992 ba3d d6be 07bc 1440 6e3d
00000310: e4d0 00bd 998c 5b3c eee6 4a3e 72ea a4bb
00000320: 0a79 67bd c06b 40be 84b3 23bd 8404 a03d
00000330: 8624 423d 3ab8 863d 401a fa3a 3682 8b3e
00000340: 561c 123d d6d2 043e 0450 253d 7f55 93bb
00000350: 154e 3bbb 2b90 5b3d 50c0 6dba 759c 6ebe
00000360: e7fe aabd 528b 07be f9c2 c73c 0a72 b9bd
00000370: 9b17 98bc e41d 083b 4938 3f3e ce3d e9bb
00000380: 510e a8bd 1409 9a3b f6b7 183c b88a c73c
00000390: 4c3a 763d 9604 06bd 3a6e 91bc c3a0 e2bd
000003a0: 5394 4f3b cffe 0fbd c926 d1bc f705 86bd
000003b0: f8ab 0cbd 01a7 85bc 0bd6 19bd 32a7 3e3c
000003c0: 1bb2 03bc dfb9 d23c 589f 4b3d cfe7 3cbc
000003d0: d0b2 623c a785 8ebd 6a46 283e 9f00 15bd
000003e0: 33f6 9cbc 35b2 babb d663 e63c d977 3bbd
000003f0: c9a8 003d ad26 62bb df17 89bd 868b 9d3c
0.04700393 -0.0011429525 0.10226466 -0.019895056 -0.14469798 -0.028231248 -0.014335846 0.08461234
-0.012774774 0.18104456 0.039314345 -0.09499119 -0.048101045 0.17327736 0.10998497 -0.053511918
0.07205175 -0.015080363 0.008416699 -0.031997986 -0.024657523 0.016086329 0.020721564 -0.052445833
-0.008355171 -0.054170042 -0.22044818 0.045111958 0.05813037 0.018553663 0.0015369635 0.041736234
-0.0010112082 0.064481266 0.10195037 0.011859244 0.006929686 -0.029599335 -0.046376575 -0.08994634
0.046577845 -0.04232572 0.015738156 -0.018693121 0.016718747 0.12079701 0.084209554 0.15889816
0.015570343 0.07032242 0.040557917 -0.0054678945 0.057641633 0.002252735 0.058053087 -0.091709316
-0.07480305 0.06511842 0.028440168 -0.09621558 0.02258148 0.0129885655 0.024959775 0.10884213
0.019448504 0.08839859 -0.031095091 0.06999196 0.04944575 -0.047086168 0.17375277 0.024578692
-0.009075067 -0.13236317 0.01311493 -0.14575984 -0.026873147 0.03306277 -0.0035682693 -0.04126122
0.031697538 -0.06609892 -0.05289753 0.03417486 -0.04302698 -0.016449478 0.01703486 0.00091221323
-0.011324037 0.14853616 0.06308859 0.057362035 -0.010652775 -0.0028621606 0.08145671 -0.0017517605
-0.007943993 0.014499732 -0.20473859 0.0031510857 -0.08310884 0.019782087 0.11732132 -0.08508686
-0.018055672 0.030208955 0.027691629 -0.07053783 -0.0076652835 0.050894514 0.014073501 0.0056996825
0.0142635405 0.008936447 0.006812601 -0.037913177 -0.07017014 0.09534014 0.14092024 -0.072841294
-0.040589694 -0.01137763 -0.024491189 0.08742845 -0.045661114 -0.027426325 0.10768246 -0.09627814
-0.2366087 0.03708149 0.02405308 0.002521212 0.09016731 -0.00511565 0.003493597 -0.017658379
0.008905832 -0.001031915 -0.0021521843 -0.14033155 0.019517647 0.26607737 -0.012834521 0.0529291
-0.0057065515 -0.069621824 0.005464656 0.023596356 -0.040195126 -0.00745291 0.013632983 -0.065114506
0.0026676953 -0.0046963706 -0.016600534 0.050034087 0.021437308 0.01756175 0.007117751 -0.098115124
-0.017138477 0.06336359 -0.038740303 -0.14752156 -0.062604606 0.0471762 -0.014671752 0.055244848
-0.029841632 0.015475123 -0.0017858789 0.059365544 -0.045210324 -0.10434262 0.008656887 0.124059655
0.03452385 -0.060948744 0.004515675 0.01826752 0.004922427 -0.030849457 -0.07688065 -0.20446812
-0.10306285 0.03981246 0.0066072303 -0.007937301 0.049570218 -0.044000406 0.07056602 -0.09683618
0.011272762 0.09109909 -0.008285245 0.05816658 -0.031449214 0.01340022 0.19814655 -0.005032831
-0.056511916 -0.18791103 -0.03996612 0.07813361 0.047398113 0.06578107 0.001908131 0.2724778
0.035671555 0.12971053 0.040359512 -0.004496276 -0.0028580476 0.053604286 -0.00090694893 -0.23301871
-0.083494 -0.1323674 0.024384962 -0.09054954 -0.018565943 0.002076977 0.18673815 -0.0071179634
-0.08205856 0.004700789 0.009321203 0.024358138 0.06011419 -0.032719217 -0.017752755 -0.11065819
0.0031674101 -0.035155114 -0.02553119 -0.065441065 -0.03434369 -0.016314985 -0.037557643 0.011636542
-0.008038069 0.025723396 0.04971251 -0.011529877 0.013836578 -0.06959086 0.16433111 -0.036377545
-0.019160366 -0.0056975135 0.028123777 -0.045768593 0.031410966 -0.0034507916 -0.06694006 0.019231569

action_model._continuous_distribution.mu.bias f4 [2]
00000000: 1808 54bc 9f2d 9a3c
-0.012941383 0.018820582

action_model._discrete_distribution.branches.0.weight f4 [2, 128]
00000000: 6685 ebbd 8002 ebbd 2272 3ebd 9c24 563d
00000010: 3802 a9bd 0c9c 90bd c70a 2f3e fc4f e4bc
00000020: 33ed 123e 93fa b5bd bd39 e93c 2513 a6be
00000030: 6dd7 323c e67f 1fbe 1545 67bd c64d 0b3c
00000040: fdf2 d23b ec97 923e c1b4 243d 348c 45be
00000050: 7f00 013e 644b 243e 05a4 1c3d e009 a03c
00000060: 25a7 193e 2856 473e 2580 09be 6068 993c
00000070: 0617 9b3d 0c17 babc 9fbd 1b3e 7636 c5bc
00000080: 9227 783e 4dcb 45be d193 9b3d b6dd 61be
00000090: 9829 093d d214 923c fbbd cc3c 154a 1abd
000000a0: 6873 993a 9ade 61bd ab1c e1bc c5ce 5e3e
000000b0: 2064 9fbc 3bf7 c33d d925 e63d 78f3 c83d
000000c0: bd6d 223e 4ba7 8dbc 5cf7 0f3d b244 973e
000000d0: 2b4a 8b3c 515c f73d dde2 cebd 9771 06be
000000e0: 5c27 413d f912 103e 11a5 0f3e 77ff 0c3e
000000f0: 6154 e0bd c705 83bc 75be 0f3c f9ca 0ebd
00000100: bf50 bd3d ca25 82be 7bb9 4a3d 4d7d 5abd
00000110: b075 973c d4ae 8abc fc74 88bd afbd c33d
00000120: d207 2e3d b0fd 40be 03bc 513b dd04 67bd
00000130: 0958 4c3d f5bc a53d 502b e33d 8f64 51be
00000140: f883 2b3d b8bb f9bd 38d8 933d da55 afbc
00000150: f09c b33d 1f18 a8bd ba22 803d 3642 5fbe
00000160: 0f19 743d 4fd8 b1bd a833 bf3d 15c2 e13c
00000170: 6d91 a53c 4341 903e b229 d3bd dab4 113e
00000180: 892e 193d f976 36bd ddec b6bd 7656 85bd
00000190: 8e12 41be 3197 853d 72c1 063e 776c 0dbe
000001a0: 557d 45bd 953f 803a dc8d f93d af2f f73d
000001b0: 8b99 0d3c 1617 3fbc 9bf4 8a3c 9263 8a3d
000001c0: 0226 a7bd 7d8f 123e e1f3 f53c 2f9b 1b3e
000001d0: e419 6b3d 5a8c f4bd e2e4 33bc 6784 543d
000001e0: 0b1e 5c3d 8ec6 213d 2730 503c 9a51 08be
000001f0: c855 21bd b54b 2a3d ac72 a4bc 95f6 dfbd
00000200: 6660 133e c3bc 193e cafe 8d3d 6e63 8fbd
00000210: 3cea c33d 6070 a63d f91a 22be 7151 463d
00000220: 2468 16be 01d8 983d 706f f8bc 6b22 9d3e
00000230: 1049 b7bc 50d2 1d3e c72d 543d 8464 9dbb
00000240: 19da 883b d174 9cbe 7226 48bd 51dc 4e3e
00000250: d4b8 debd 8ac7 0dbe 204e d3bc 1226 27bd
00000260: b4e5 10be e736 37be 0483 ff3d 55c7 07bd
00000270: 4c1c a8bd 4668 1d3c 003f 1ebe 6193 1f3c
00000280: 1a01 74be ffe8 5f3e cfff 8dbd e3b7 483e
00000290: 602d 38bc 42be 9c3a 9817 85bc 78ea cf3c
000002a0: e8d4 91bc 4463 1d3d 3be6 903c b694 4cbe
000002b0: f78f 0c3c 8f26 e4bd c33b dfbd c2d2 a4bd
000002c0: a828 19be d43d 333d f0e9 41bd 1eaf 92be
000002d0: f6ec 92bc ce7f e6bd 8c73 d03d 4699 123e
000002e0: e680 31bd f2ac 16be 31a6 16be 087f fabd
000002f0: fa64 a83d 1af0 d73c 2d63 c3bc 55ac 2a3d
00000300: 314e bbbd c64d 8f3e 1349 48bd 213e 693d
00000310: c864 b8bc 544a d8bb 9296 693d e513 c7bd
00000320: 64af 86bd d620 4e3e b6eb 4f3c cff7 303d
00000330: 1610 6ebd f718 98bd 8f31 e1bd f948 513e
00000340: 49f9 12bd 86e8 093e 1567 8cbd 2233 3a3c
00000350: f244 d4bd b9a8 893d 8761 73bd d1dc 723e
00000360: c070 87bd 5e6a 9e3d 3cde c9bd d5e6 e5bc
00000370: 3ea5 cebc c300 91be 242d d43d 892f 0cbe
00000380: d12f 10bd a13e c43c 4f54 d23d e8eb 423d
00000390: c799 453e e23f 5fbd 07b7 13be 4a3d 073e
000003a0: 10e9 1e3d c19e c8b9 13e0 00be 34eb e4bd
000003b0: de4e adbc 34cd af3b bade c5bc 97ba 91bd
000003c0: e4af 953d 1a1e 11be 0cba 03bd 05e3 2dbe
000003d0: f41a 48bd 121a 063e 263b 3f3b 5d41 2abd
000003e0: 45c3 27bd c3a9 d7bc 319b aabc e1b5 0c3e
000003f0: 5bd9 393d bbb7 48bd 673e 063d e1cd ee3d
-0.11500053 -0.11475086 -0.046495564 0.052281007 -0.08252376 -0.070610136 0.17093955 -0.02787017
0.14348297 -0.08885684 0.028469915 -0.3243648 0.010915619 -0.15576133 -0.056462366 0.008502429
0.006437658 0.28631532 0.040211443 -0.19291764 0.12597845 0.16044384 0.03824236 0.019535959
0.15005167 0.1946646 -0.1342779 0.018726528 0.07572751 -0.022716068 0.15209053 -0.02407382
0.24233845 -0.19315834 0.07596553 -0.22057232 0.033486933 0.017832194 0.024992933 -0.037668306
0.0011707367 -0.05514393 -0.02747949 0.21758564 -0.019456923 0.0956864 0.112376876 0.09812063
0.15862174 -0.017291686 0.03514801 0.29544598 0.01700314 0.12078155 -0.101018645 -0.13129269
0.047156677 0.14069737 0.14027812 0.13769327 -0.10953594 -0.015993966 0.008773436 -0.03486154
0.09243917 -0.25419456 0.049493294 -0.053342152 0.018488735 -0.016929068 -0.06662938 0.09557664
0.042487927 -0.18846774 0.0032002933 -0.056401122 0.049888644 0.08092681 0.110922456 -0.20448516
0.041873902 -0.12194008 0.07218975 -0.021403242 0.08770168 -0.08207726 0.062566236 -0.21802601
0.05959421 -0.08683836 0.093360245 0.027558366 0.020210946 0.2817479 -0.10310687 0.14229146
0.037397895 -0.044547055 -0.08931897 -0.06510632 -0.18854734 0.06522978 0.13159731 -0.13810907
-0.04821523 0.0009784574 0.12185261 0.12069642 0.0086425645 -0.011663219 0.01696234 0.06757273
-0.08161546 0.14312549 0.030023517 0.15195917 0.057397738 -0.119408324 -0.010979863 0.05188408
0.05373959 0.039495997 0.012706793 -0.13312379 -0.039388448 0.041576106 -0.020074211 -0.10935704
0.14392242 0.15013413 0.06933363 -0.070013866 0.09566161 0.081269026 -0.15830602 0.048417512
-0.14688164 0.074630745 -0.030326575 0.3069032 -0.022373706 0.15412259 0.05180147 -0.004803242
0.00417639 -0.30557874 -0.04886479 0.20201232 -0.10875097 -0.1384565 -0.025794089 -0.04080779
-0.14150125 -0.17892037 0.12476161 -0.033149082 -0.08208522 0.00960738 -0.1545372 0.009739728
-0.23828545 0.21866225 -0.06933557 0.19601397 -0.011241287 0.0011958557 -0.016246602 0.025380358
-0.017801717 0.038424745 0.017687907 -0.19978604 0.008579246 -0.11140167 -0.109000705 -0.08048011
-0.14956915 0.043760136 -0.04734224 -0.2864923 -0.017935257 -0.112548456 0.10178289 0.14316282
-0.043335818 -0.14714411 -0.14711834 -0.122312605 0.08222385 0.026359607 -0.023851002 0.041668255
-0.09145773 0.27989024 -0.048897814 0.056944016 -0.022508994 -0.0066006575 0.05702836 -0.097205915
-0.06576422 0.20129713 0.012690475 0.04320508 -0.05812081 -0.07426637 -0.10995781 0.20437993
-0.035882268 0.13467607 -0.06855599 0.01136473 -0.10364713 0.067216344 -0.05941918 0.23717047
-0.06613302 0.07735132 -0.09856841 -0.02806417 -0.025225278 -0.28320894 0.103601724 -0.13690008
-0.03520185 0.023955645 0.10269987 0.04758826 0.19296943 -0.054504283 -0.14425288 0.13206974
0.038796484 -0.00038265254 -0.12585478 -0.11177674 -0.02115577 0.0053650383 -0.024154056 -0.07115667
0.07308939 -0.14171639 -0.03215985 -0.16981132 -0.04885383 0.13095883 0.0029179542 -0.04156624
-0.040957708 -0.026326066 -0.020825954 0.13741256 0.045373302 -0.049003344 0.032774355 0.11660362

action_model._discrete_distribution.branches.0.bias f4 [2]
00000000: 75ec d63d 70ec d6bd
0.10494319 -0.104943156

exp_avg f4 [128, 10]
00000000: 7e3f 2d3c ccd7 ab3a 731c 82bc 239c 6c3b
00000010: 0000 0000 5b32 d7bb 364c da38 749c 1138
00000020: e2c6 e738 0b4b 9637 0741 87bb 8a9c ecb9
00000030: 2ddd 2e3c b1a0 92ba 0000 0000 fbb6 2c3b
00000040: fc65 da38 aec2 0d38 bccd 3e37 11a9 9837
00000050: eeee 7a3b f90d de39 9d5e a0bb 7648 803a
00000060: 0000 0000 e653 30bb 491f bab8 4ece 2bb8
00000070: 28fc 6b38 2b5b 48b7 247b 333c d051 bb3a
00000080: d245 64bc dfa9 8d3b 0000 0000 19e0 ebbb
00000090: 8ab6 2ab7 2eef 81b6 7d18 c536 b913 d8b5
000000a0: 82bf a1bc dc49 35bb 4dfc a13c 9077 fdbb
000000b0: 0000 0000 70ab 5d3c 0591 e7b7 b90d cab6
000000c0: 1b6b 0a37 0dc4 beb6 a927 b1ba 57f3 46b9
000000d0: cd0a 213a c718 0dba 0000 0000 40cf 623a
000000e0: 3fe6 d338 71b4 1b38 503c 4038 1075 8937
000000f0: 9a39 8cbc 3ef4 1fbb 7313 a93c 7183 dcbb
00000100: 0000 0000 7481 453c cdd1 e8b8 3acc 03b8
00000110: 14ba 9bb8 b013 aeb7 c9d7 2ebd 4e78 b3bb
00000120: 8647 623d 875e 76bc 0000 0000 8378 ec3c
00000130: 6235 a238 841d 9c37 591e 86b8 fb5c 8137
00000140: 53bd 3bbc 4974 d4ba d833 313c fd81 96bb
00000150: 0000 0000 f0be 013c cf27 b3b8 3a44 d8b7
00000160: 044f 53b9 0204 82b7 b389 2b3a 1cb8 c238
00000170: 2282 1438 7ee4 3b39 0000 0000 148f f5b9
00000180: 5d25 6437 768c a537 7bef a237 b234 0eb6
00000190: 93d1 8ebc c0b7 15bb 5800 ad3c 3516 cdbb
000001a0: 0000 0000 fb7f 4c3c 8c4f 2d39 ecab 5938
000001b0: 80bc 5a38 7095 f637 7c44 28bc 5f32 bcba
000001c0: 0cab 613c 1358 88bb 0000 0000 d173 d13b
000001d0: f07e 0ab9 58b4 19b8 5048 24b9 93ec d0b7
000001e0: 63ce dcbc b5eb 69bb 0875 fc3c 37e9 21bc
000001f0: 0000 0000 dca5 953c 176f a6b7 d626 bab7
00000200: c84f 7437 67fc 9a35 ef4e 2e3c 3fba c83a
00000210: d249 29bc 39a3 913b 0000 0000 5e2a edbb
00000220: 2ba1 b338 b926 d137 20af 7939 b99d 8437
00000230: 67a6 e039 7dfc a538 49b4 2bba edad 2cb9
00000240: 0000 0000 7f1f b6b9 19db 58b7 9902 13b7
00000250: 48fd 43b7 de84 76b5 5ae9 9e3b 1203 393a
00000260: 5e52 fcbb 5dc7 c63a 0000 0000 715a 61bb
00000270: 346a 28b7 16c7 7fb6 b207 2a37 7aaf d5b5
00000280: 55a8 783a 066e 8738 9dfd 96ba 1a78 1c3a
00000290: 0000 0000 9849 d3b9 1e8f 31b7 da40 92b6
000002a0: caed 19b7 87d7 d3b5 d0f4 2e3b cf28 ca39
000002b0: adf6 21bb 747d 9c3a 0000 0000 4c43 f8ba
000002c0: 70c5 d533 d6b4 adb4 dbec 9035 85ca 0234
000002d0: 7ad2 5dba b5d5 20b9 0fb3 86b9 fce2 e8b9
000002e0: 0000 0000 81ae e839 bfd0 8bb9 01fd 9eb8
000002f0: 7543 e9b8 bbac 50b8 3e2c 503a c26f 4c38
00000300: 4b04 1f39 3cc8 6db9 0000 0000 8c04 5aba
00000310: 3ea3 acb8 45ef 4636 7c50 cc38 16ba c1b7
00000320: 18a2 83ba 9593 68b9 51f9 d6b8 d0ea bbb9
00000330: 0000 0000 52ec 353a bb72 3736 fdaa 9f36
00000340: acb9 00b7 00d4 30b5 bb24 35bb 61bd dfb9
00000350: 4f40 ddb8 11b5 9cba 0000 0000 0c83 e73a
00000360: 7fc6 1738 3a5a c037 4b01 1338 d31d 4c36
00000370: 6b7f 7fbc ae55 0cbb 5f43 993c 4062 bdbb
00000380: 0000 0000 5ac7 2d3c 7453 cb37 55fa 0837
00000390: c975 9636 7e2f 8b36 66af 413c 18e0 cb3a
000003a0: 0c2d 72bc ed20 9a3b 0000 0000 83f1 fdbb
000003b0: 94fe f336 63dc 9f36 1200 8e38 bdbe 1735
000003c0: b7a6 523a 0f25 6b38 380f 6abb 5b3b 5539
000003d0: 0000 0000 4c89 d6b9 045f 3d38 354a 7237
000003e0: e7f5 8e38 e26a 0537 f97a 15bc d7ed 8fba
000003f0: 8512 933c 73e5 21bb 0000 0000 af0f c53b
0.01057422 0.0013110577 -0.015882706 0.0036103807 0.0 -0.006567282 0.000104092454 3.4716402e-05
0.00011051983 1.7916338e-05 -0.004127625 -0.00045130058 0.01067285 -0.0011186806 0.0 0.0026354182
0.00010414046 3.379833e-05 1.1372784e-05 1.819854e-05 0.0038289386 0.0004235355 -0.0048940913 0.000978722
0.0 -0.0026905476 -8.8749985e-05 -4.0961713e-05 5.6263205e-05 -1.1942156e-05 0.010954652 0.001429135
-0.013932662 0.0043232287 0.0 -0.0071983454 -1.017529e-05 -3.8723438e-06 5.8739083e-06 -1.6098994e-06
-0.019744638 -0.0027662432 0.019773627 -0.0077352 0.0 0.013529643 -2.7604876e-05 -6.0216666e-06
8.250378e-06 -5.6852646e-06 -0.0013515848 -0.00018973403 0.0006143272 -0.0005382415 0.0 0.00086520985
0.00010104151 3.712293e-05 4.5832538e-05 1.6386184e-05 -0.01711731 -0.0024407054 0.020639157 -0.006729536
0.0 0.01205479 -0.000111017005 -3.1423035e-05 -7.425636e-05 -2.0751584e-05 -0.042686258 -0.005476988
0.05524399 -0.0150371855 0.0 0.028866058 7.734705e-05 1.8610393e-05 -6.3952706e-05 1.5421296e-05
-0.011458713 -0.0016208972 0.010815583 -0.0045931325 0.0 0.007919058 -8.5428e-05 -2.5780977e-05
-0.00020151964 -1.5499074e-05 0.0006543651 9.284934e-05 3.5407145e-05 0.0001791883 0.0 -0.00046836643
1.3598558e-05 1.973494e-05 1.9423422e-05 -2.1190322e-06 -0.017433917 -0.002284512 0.021118328 -0.006258751
0.0 0.012481685 0.00016528199 5.1896946e-05 5.2150805e-05 2.9395072e-05 -0.010270234 -0.0014358273
0.013773691 -0.00416089 0.0 0.00639198 -0.00013207993 -3.6646e-05 -0.00015667197 -2.4905696e-05
-0.026953882 -0.003569347 0.030817524 -0.009882263 0.0 0.018267564 -1.9840472e-05 -2.2191012e-05
1.4562109e-05 1.1547353e-06 0.010638936 0.0015314295 -0.010332542 0.0044445065 0.0 -0.0072377166
8.565405e-05 2.4932773e-05 0.0002381173 1.5809072e-05 0.0004284859 7.914843e-05 -0.0006549997 -0.0001646799
0.0 -0.00034737212 -1.2925616e-05 -8.762488e-06 -1.1681877e-05 -9.183549e-07 0.004849595 0.00070576475
-0.0077002486 0.0015165616 0.0 -0.0034386183 -1.0038308e-05 -3.8113844e-06 1.0134581e-05 -1.5920807e-06
0.00094855326 6.457795e-05 -0.0011519674 0.0005968824 0.0 -0.00040299888 -1.0583344e-05 -4.358689e-06
-9.174875e-06 -1.5783452e-06 0.0026696213 0.00038558847 -0.002471368 0.0011939243 0.0 -0.0018940954
9.954499e-08 -3.2355337e-07 1.079777e-06 1.218087e-07 -0.00084618444 -0.00015338401 -0.0002569188 -0.00044419605
0.0 0.00044380504 -0.00026667674 -7.581153e-05 -0.00011122871 -4.9751932e-05 0.0007941163 4.8741473e-05
0.00015165021 -0.00022676674 0.0 -0.00083167176 -8.232005e-05 2.9643572e-06 9.7424694e-05 -2.3094046e-05
-0.0010042815 -0.00022180223 -0.00010250754 -0.00035842368 0.0 0.00069398165 2.7335907e-06 4.758475e-06
-7.672625e-06 -6.587361e-07 -0.0027640301 -0.00042674973 -0.000105500796 -0.0011955817 0.0 0.0017662956
3.618607e-05 2.2930199e-05 3.5048735e-05 3.0415729e-06 -0.015594344 -0.0021413374 0.018708883 -0.0057795346
0.0 0.010606611 2.4238347e-05 8.164517e-06 4.4840604e-06 4.1480516e-06 0.011821603 0.0015554456
-0.014781248 0.004703632 0.0 -0.0077497377 7.271601e-06 4.7642257e-06 6.771101e-05 5.6529444e-07
0.00080357067 5.606288e-05 -0.0035714637 0.00020335375 0.0 -0.00040919555 4.51496e-05 1.4441602e-05
6.8168905e-05 7.952303e-06 -0.009123557 -0.0010980916 0.017953167 -0.0024703413 0.0 0.0060138325

exp_avg_sq f4 [128, 10]
00000000: e768 cd38 be6d 0e36 07c8 ec38 baef 4338
00000010: 0000 0000 0dac 7c38 d1dd 7835 d000 c236
00000020: b6d1 e134 5fb8 e335 1193 5639 f708 da36
00000030: 0f6c 4439 54f5 1339 0000 0000 bfae bd38
00000040: 6834 3b35 0e39 0737 4579 b333 7932 1a36
00000050: b1d1 3439 37b5 9536 0d3b 0139 8aab 0739
00000060: 0000 0000 2651 e538 6a79 9236 42c0 e837
00000070: d983 5f36 5576 af37 503a 8738 1a49 fa35
00000080: 6ce7 d038 c7f5 e837 0000 0000 cc40 1d38
00000090: 8fdb 7d35 e7b1 ff36 9976 e233 009c de36
000000a0: a89c ed38 3773 1636 4945 0939 ae65 1038
000000b0: 0000 0000 ec95 7238 7c69 6835 eee0 c736
000000c0: 8efc 9034 c3e1 5b36 dc9c 6b38 0063 be35
000000d0: 2efc 2938 58a1 6438 0000 0000 5613 2938
000000e0: 036e d735 710b 0737 96f8 fe34 d222 8236
000000f0: 5b2b 2739 6778 ae36 fd8c 8139 e5a2 3438
00000100: 0000 0000 7d82 a238 71bf cf35 943b 2637
00000110: bfad c634 d07d fa36 39a7 393a 5a4f cb37
00000120: 0219 903a 9d96 9d39 0000 0000 ecc0 e139
00000130: c17f 7b36 bca1 9237 394d 6835 ba97 3637
00000140: 0fd8 3339 9427 9736 b4c7 0639 51bf 2139
00000150: 0000 0000 cd47 1339 723d c236 1c32 a837
00000160: a789 7f36 82a1 f736 27ca 4139 323f cc36
00000170: b659 0e39 1ac4 5539 0000 0000 9616 f138
00000180: 44be 6b36 9fe5 8237 ad33 a834 eb17 e336
00000190: 45cf f138 4015 c236 dd77 5d39 9947 5538
000001a0: 0000 0000 1e4e a138 b804 1935 7c32 2f36
000001b0: c622 8533 2356 8e35 4b9e 7938 67bb 0e36
000001c0: dde6 c438 7a94 d037 0000 0000 14ed 1738
000001d0: 893b 7935 cc10 d035 73d8 9b34 2635 b235
000001e0: cf73 523a 4ceb 8237 d057 203a 0592 e739
000001f0: 0000 0000 5495 0a3a 0ae0 e635 4f35 b736
00000200: 4c04 1234 6eee 1436 8807 a738 8246 ef35
00000210: fe84 d338 2b8f f137 0000 0000 7679 3238
00000220: c0f5 4f35 35a9 d236 a8ec f333 630f 0836
00000230: 533f d738 2eab 1836 7ebc 8038 2cb0 d338
00000240: 0000 0000 252e 3538 fde2 ed35 bac9 3337
00000250: ac4b 7e34 2e46 1a37 1962 f837 1239 6935
00000260: 841a 1c38 1bf1 6737 0000 0000 ddf7 3537
00000270: 70c3 ce35 e158 8a37 5785 3c34 4249 1337
00000280: 1da3 3c38 3f54 c135 8fc7 7938 6898 2f38
00000290: 0000 0000 2775 d337 a0ec 1c33 af4f d534
000002a0: c603 7e32 6565 fa33 cff5 b238 09bc f735
000002b0: c7d3 9338 f5e5 a138 0000 0000 aabe 3738
000002c0: dc11 ce33 8538 b434 ac3e 1d34 cae2 0434
000002d0: fb3d 3e38 1f3d 1536 dd13 8938 66d2 3c38
000002e0: 0000 0000 04d8 1a38 6875 0536 276b e636
000002f0: 18d9 9a34 951e 6036 0aa9 c238 5247 8736
00000300: 437c 9f38 545f 1939 0000 0000 217b ac38
00000310: 604b a736 a6d5 9437 1033 1935 00db f436
00000320: 8d81 6739 1091 9936 a02e 1439 a957 3139
00000330: 0000 0000 ea46 fc38 6761 0336 b37c 5437
00000340: 9cc4 c734 045b e336 001b ab38 ee65 0336
00000350: 3f56 5038 c9a4 7a38 0000 0000 1998 6738
00000360: 9e7c c234 ba62 9e35 184d d433 df1b 4735
00000370: eeae f738 61f1 8036 4436 7f39 656a 4a38
00000380: 0000 0000 64b4 a638 508c 4434 9900 1736
00000390: f39b c332 e729 6435 dc88 c038 b555 1236
000003a0: 9777 0339 1fbe 4f38 0000 0000 bdf0 4438
000003b0: cfa3 d233 ad60 b634 749a 3c34 a0fe 3a34
000003c0: 5c9a 1838 00ba e535 74a4 8438 eb2b 4c37
000003d0: 0000 0000 d83d b137 6dbe 3034 439c 8335
000003e0: 880d 4933 b35d 1935 35c4 7e39 e127 ef36
000003f0: 9304 a139 d2d6 0039 0000 0000 9006 1439
9.794701e-05 2.1223527e-06 0.00011290615 4.6714886e-05 0.0 6.0241717e-05 9.2709985e-07 5.781745e-06
4.20621e-07 1.6966477e-06 0.00020463417 6.49795e-06 0.00018732272 0.00014110404 0.0 9.044771e-05
6.973919e-07 8.059911e-06 8.357396e-08 2.2977167e-06 0.00017244254 4.461642e-06 0.00012324397 0.00012938507
0.0 0.00010934686 4.3652735e-06 2.7746082e-05 3.3306335e-06 2.0916728e-05 6.448163e-05 1.8647727e-06
9.9613186e-05 2.7771004e-05 0.0 3.7492064e-05 9.4569344e-07 7.6203028e-06 1.0545518e-07 6.6342764e-06
0.0001133022 2.2418806e-06 0.00013091149 3.4426972e-05 0.0 5.783692e-05 8.6580235e-07 5.9568474e-06
2.7005848e-07 3.2764954e-06 5.6174453e-05 1.4184916e-06 4.05276e-05 5.45097e-05 0.0 4.0310748e-05
1.6050766e-06 8.049291e-06 4.7492057e-07 3.8783555e-06 0.00015942512 5.199621e-06 0.00024709842 4.306705e-05
0.0 7.749067e-05 1.5478419e-06 9.908243e-06 3.700679e-07 7.465227e-06 0.0007082108 2.4236437e-05
0.0010993781 0.0003005759 0.0 0.00043059082 3.7476277e-06 1.747987e-05 8.653911e-07 1.0883372e-05
0.00017151258 4.504758e-06 0.00012853631 0.00015425427 0.0 0.0001404576 5.7888037e-06 2.0050495e-05
3.8078085e-06 7.3799756e-06 0.00018481222 6.0870307e-06 0.00013575595 0.00020386316 0.0 0.000114959825
3.5128478e-06 1.5604133e-05 3.1330038e-07 6.7679116e-06 0.000115303825 5.7841244e-06 0.00021120855 5.0849838e-05
0.0 7.691629e-05 5.700381e-07 2.6106418e-06 6.1996204e-08 1.0604894e-06 5.9513648e-05 2.1268731e-06
9.38901e-05 2.4864672e-05 0.0 3.6222e-05 9.2846363e-07 1.5502096e-06 2.9028487e-07 1.3277502e-06
0.0008028121 1.5606776e-05 0.00061166007 0.00044168546 0.0 0.0005286534 1.7201539e-06 5.460031e-06
1.3598873e-07 2.2192503e-06 7.964583e-05 1.7827408e-06 0.00010086036 2.8796107e-05 0.0 4.2551626e-05
7.747112e-07 6.278186e-06 1.1358617e-07 2.0274535e-06 0.00010263794 2.2749405e-06 6.138625e-05 0.000100940786
0.0 4.319674e-05 1.7723938e-06 1.07161995e-05 2.3683123e-07 9.195455e-06 2.9609584e-05 8.688231e-07
3.7217993e-05 1.382481e-05 0.0 1.0846151e-05 1.5405076e-06 1.649227e-05 1.7557373e-07 8.778939e-06
4.4974604e-05 1.4404139e-06 5.955208e-05 4.186519e-05 0.0 2.5207713e-05 3.653679e-08 3.973232e-07
1.4785604e-08 1.1659976e-07 8.533487e-05 1.845766e-06 7.048953e-05 7.719911e-05 0.0 4.380817e-05
9.595871e-08 3.3568736e-07 1.4644564e-07 1.2375963e-07 4.5357254e-05 2.2238307e-06 6.536369e-05 4.501864e-05
0.0 3.691764e-05 1.9886884e-06 6.8670083e-06 2.8842692e-07 3.3396402e-06 9.282127e-05 4.0316163e-06
7.6048564e-05 0.0001462673 0.0 8.224534e-05 4.9857626e-06 1.7742463e-05 5.707125e-07 7.2972616e-06
0.00022078138 4.576643e-06 0.00014131749 0.00016912691 0.0 0.00012029505 1.9577217e-06 1.26652185e-05
3.720969e-07 6.775723e-06 8.1589445e-05 1.9579852e-06 4.9671387e-05 5.9758113e-05 0.0 5.5216344e-05
3.6225987e-07 1.180065e-06 9.8860426e-08 7.4173835e-07 0.00011810461 3.8427975e-06 0.0002433891 4.825964e-05
0.0 7.949097e-05 1.8304968e-07 2.2501101e-06 2.2771905e-08 8.4997595e-07 9.1807655e-05 2.1805583e-06
0.00012537684 4.952971e-05 0.0 4.6954246e-05 9.8086836e-08 3.3970483e-07 1.7565054e-07 1.7415232e-07
3.6383382e-05 1.7115963e-06 6.324882e-05 1.2169573e-05 0.0 2.1128842e-05 1.6460554e-07 9.805739e-07
4.6811266e-08 5.713329e-07 0.0002429642 7.1273976e-06 0.0003071172 0.00012287058 0.0 0.00014116825

exp_avg f4 [128]
00000000: cdd7 2b3b 859c 6cba f90d 5e3a d051 3b3b
00000010: dc49 b5bb 51f3 c6b9 3ef4 9fbb 4b78 33bc
00000020: 4974 54bb 1ab8 4239 c0b7 95bb 5f32 3cbb
00000030: b2eb e9bb 3eba 483b 7cfc 2539 1103 b93a
00000040: 016e 0739 cc28 4a3a a9d5 a0b9 c86f cc38
00000050: 9093 e8b9 66bd 5fba ae55 8cbb 18e0 4b3b
00000060: 2b25 eb38 d7ed 0fbb ce73 64b8 bb20 6cbb
00000070: 5d5c 773a eade f8ba df9a 6dba 2f41 e739
00000080: 3409 01bb b774 573b 6b65 99ba 9ea9 02bb
00000090: 50df 6db9 1739 25ba 2598 3438 9dc2 0b3b
000000a0: 2d67 9e3a 74c7 02b8 de57 c3bb a8f9 e13a
000000b0: 7af3 e0ba fead 573a 3693 bbb9 b0c8 52b8
000000c0: f3f9 ff39 ba04 1abb c363 36bb 3ccc 15bb
000000d0: 57ad 20ba 825c e73b 4c5d 923a 92dd 89bb
000000e0: ea30 c13a 06c4 98ba e6d6 8539 eec1 35bb
000000f0: 7522 ccb9 3b48 51b9 4aeb 3638 0157 abbb
00000100: e515 733b 4d0b 023a 714b 193b 7ed7 10bc
00000110: a43f 173b 10e4 b6ba bc01 82ba eb63 98bb
00000120: 3982 d23b 92d8 5f39 389c de3a 6a09 e1b9
00000130: 3d34 98bb 707b d536 40af 44bb 353b 41b8
00000140: c6da 323a ae58 93bb 99ab 05bb ded1 e138
00000150: 7759 25ba 287d 05ba b2a5 56bb f016 aeb9
00000160: 8cdc c43a 1b4f 693b 7926 de3a 1e70 533a
00000170: d743 8e39 1748 07bc df85 a839 4187 fdb9
00000180: a82e 083a 8a0d 48bb 2533 1fb7 eccf 8239
00000190: 1cc6 61ba 1113 29b7 1518 123b 9148 5439
000001a0: a7c6 003c 6dfc a53a 3d46 59b8 01af f5ba
000001b0: 8fec 9ab9 cd82 bfba 46e1 7f38 80e3 e2ba
000001c0: 8930 06bc 7af1 d139 cc5a 4e3a 5ea0 e338
000001d0: ed9d 963b 2a42 81b9 42bf ff37 da55 f2ba
000001e0: b1ff c8b8 9647 a0ba d65f 2cb8 da3c f1ba
000001f0: c0db f5b9 3492 d5ba 61c0 5939 a41c 93b8
0.0026221157 -0.0009026009 0.000847071 0.00285827 -0.0055324864 -0.00037946788 -0.004881411 -0.010953973
-0.0032417944 0.00018569865 -0.004569024 -0.0028716547 -0.007138693 0.0030628587 0.00015829684 0.0014115294
0.00012915583 0.00077117677 -0.00030676767 9.748299e-05 -0.0004436043 -0.00085349975 -0.0042826748 0.0031108912
0.00011212596 -0.0021961832 -5.4467288e-05 -0.003603025 0.00094360654 -0.0018987332 -0.000906391 0.0004410832
-0.0019689323 0.0032875964 -0.0011703199 -0.0019937526 -0.00022685272 -0.00063027575 4.305704e-05 0.0021325715
0.0012085192 -3.118017e-05 -0.0059614023 0.0017240541 -0.0017162405 0.0008227526 -0.000357771 -5.0254806e-05
0.00048823617 -0.0023501352 -0.0027830459 -0.002285733 -0.0006129345 0.0070605883 0.0011166721 -0.0042073214
0.0014739309 -0.0011655099 0.0002552785 -0.0027734 -0.00038935585 -0.00019958701 4.361131e-05 -0.0052288775
0.0037091908 0.00049607904 0.0023390914 -0.00884044 0.0023078704 -0.0013953466 -0.000991873 -0.004650583
0.006424215 0.00021347616 0.0016983813 -0.00042922358 -0.004644899 6.3622647e-06 -0.0030011684 -4.6069927e-05
0.0006822761 -0.0044966554 -0.002039647 0.00010767927 -0.0006307582 -0.0005092197 -0.003275257 -0.00033204956
0.0015019341 0.003560013 0.0016948722 0.0008065718 0.00027134895 -0.008256934 0.000321432 -0.00048356692
0.00051949406 -0.0030525648 -9.4890465e-06 0.00024950446 -0.00086125894 -1.0077624e-05 0.0022292186 0.00020244929
0.007859862 0.001266373 -5.1802246e-05 -0.0018744172 -0.0002954942 -0.0014611125 6.100654e-05 -0.0017310232
-0.008190283 0.000400435 0.0007871806 0.00010854074 0.004596463 -0.00024654093 3.048743e-05 -0.001848872
-9.5843694e-05 -0.0012228366 -4.109725e-05 -0.0018404976 -0.00046893768 -0.0016294182 0.000207664 -7.014841e-05
