ML-Agents/Examples/SphereHunt/results/imitation_test_001/SphereHunt/SphereHunt-50477.pt (torch, 538336 bytes, 50 tensors)

network_body._body_endoder.seq_layers.0.weight f4 [128, 10]
0	0x3da09dab	0.07842573
1	0xbe37fecc	-0.17968291
2	0xbec6a761	-0.38799575
3	0x3f0094cd	0.5022705
4	0xbe73a952	-0.2379506
5	0xbe9ab96d	-0.30219594
6	0xbec8921c	-0.39173973
7	0x3e9d91bb	0.30775246
8	0xbe96929d	-0.29408732
9	0xbea7dc91	-0.32785466
10	0xbec94441	-0.39309886
11	0xbde5371c	-0.11192152
12	0xbcdf22d3	-0.027238285
13	0x3f15d127	0.58522266
14	0x3d4662a0	0.0484339
15	0x3ed750b5	0.42053762
16	0xbe177e90	-0.14794374
17	0xbc0f290d	-0.008737815
18	0xbe85a9e4	-0.2610618
19	0x3d4206e0	0.047369838
20	0xbdd71ba3	-0.10503318
21	0xbef121e2	-0.47096163
22	0xbea59838	-0.32342696
23	0xbea8c20b	-0.32960543
24	0x3dc6217e	0.09674357
25	0x3e90a454	0.28250372
26	0xbcc3a423	-0.023881977
27	0x3d349af1	0.044093076
28	0x3f66183a	0.89880717
29	0xbde16042	-0.11004688
30	0xbf71d70c	-0.9446876
31	0x3e33cdbd	0.17558952
32	0xbea17cc0	-0.3154049
33	0x3e83d44c	0.25747907
34	0x3d9f0565	0.07764701
35	0x3ddfd6c2	0.10929634
36	0x3f5084ae	0.81452453
37	0xbe49091f	-0.19632386
38	0x3e745ddf	0.23863934
39	0xbdebb7cf	-0.11509668
40	0xbea5fb41	-0.32418254
41	0xbcfaab88	-0.03059937
42	0x3e766615	0.24062379
43	0x3eb406eb	0.35161528
44	0x3e0a40f8	0.13501346
45	0xbe64c184	-0.22339445
46	0xbe40da5c	-0.18833297
47	0xbe2325e9	-0.1593243
48	0x3e61851e	0.22023436
49	0xbeb67470	-0.3563571
50	0x3eef356a	0.4672044
51	0xbe8065f0	-0.25077772
52	0x3e99cd0d	0.30039254
53	0x3eae33aa	0.34023792
54	0x3c320573	0.010865557
55	0x3efb26e0	0.49053097
56	0xbe968af5	-0.2940289
57	0x3e45e008	0.19323742
58	0x3ec8880f	0.39166304
59	0xbe9bfba6	-0.3046543
60	0x3d1a70f8	0.03770539
61	0x3f2b02d7	0.6680121
62	0xbe4d3ca7	-0.20042668
63	0xbb539301	-0.0032283666
64	0x3ed92d88	0.4241755
65	0x3e521859	0.205171
66	0x3dfa3412	0.12216963
67	0xbe078021	-0.13232471
68	0xbe4c11d2	-0.19928673
69	0x3e9fc2c2	0.31203276
70	0xbeafc73b	-0.34331688
71	0xbe927b34	-0.28609622
72	0x3da2fd02	0.07958414
73	0x3e5c09a3	0.21488051
74	0xbcb382bc	-0.021912925
75	0xbe3d0ecc	-0.18462676
76	0xbe58fed8	-0.21190965
77	0x3ea60dc8	0.3243239
78	0x3ea3916b	0.31946883
79	0xbd2d9d70	-0.042386472
80	0xbe6fa7c2	-0.23403838
81	0x3bcaa1ae	0.0061838245
82	0x3f2a36a4	0.66489625
83	0x3e1cb61f	0.15303849
84	0x3e7f65b3	0.24941139
85	0xbefaed66	-0.49009246
86	0x3d1b45f8	0.037908524
87	0x3df52043	0.11969044
88	0xbc986b19	-0.018605756
89	0x3eafc90d	0.34333077
90	0x3cd32920	0.025776446
91	0x3dbf6246	0.09344916
92	0x3e0b8e15	0.13628419
93	0x3e2da79e	0.16958472
94	0x3d3b9b9e	0.045802705
95	0x3e61a481	0.2203541
96	0xbf2d1f3e	-0.67625797
97	0x3e43de23	0.19127707
98	0xbf0c487c	-0.547981
99	0x3eab2e7a	0.33433896
100	0x3ce032d0	0.02736798
101	0xbe95a6a6	-0.29228705
102	0x3eb4788e	0.35248226
103	0x3e2f4766	0.1711708
104	0xbd5ee4c8	-0.0544174
105	0xbe9987f1	-0.29986528
106	0x3e6c79fb	0.23093407
107	0xbcba1043	-0.022712832
108	0x3e9c45f5	0.30522123
109	0x3f31950f	0.6936807
110	0xbdbf0fb6	-0.093291685
111	0xbe5e63ec	-0.21717805
112	0x3f2a175d	0.664419
113	0xbd9144fa	-0.07093234
114	0xbef4ab83	-0.47787103
115	0xbe147671	-0.14498307
116	0x3e99140b	0.29898104
117	0xbd8f4c2d	-0.06996951
118	0xbf056f33	-0.521228
119	0xbe83613f	-0.2566013
120	0xbe02df78	-0.12780559
121	0xbe43fb86	-0.19138917
122	0xbe9a6d93	-0.30161723
123	0x3e9638ab	0.2934011
124	0xbd2e72a5	-0.042589802
125	0xbe08fc04	-0.13377386
126	0xbf333031	-0.6999541
127	0xbbb3709a	-0.0054760696
128	0x3b942498	0.004520964
129	0xbe86a938	-0.2630098
130	0xbdc67049	-0.096893854
131	0x3e25df24	0.16198403
132	0xbe17b93d	-0.14816757
133	0x3d00f2ec	0.03148167
134	0x3e1ad28f	0.15119384
135	0x3f09f9e5	0.53896934
136	0xbe7e56b5	-0.24837764
137	0x3f418344	0.7559092
138	0xbe1a2cb3	-0.15056114
139	0xbe42803f	-0.18994235
140	0xbea95fb9	-0.33080843
141	0x3f0624a0	0.52399635
142	0x3e0d4739	0.137967
143	0xbf053281	-0.5203019
144	0x3ea95996	0.3307616
145	0x3e85d665	0.26140133
146	0xbe96c86f	-0.29449794
147	0x3f0c4792	0.5479671
148	0xbf190358	-0.5977073
149	0x3e728c2b	0.23686282
150	0xbd9c2cdc	-0.07625744
151	0xbe80cc7a	-0.25156003
152	0x3ef68dfc	0.481552
153	0xbf08583d	-0.5325964
154	0x3f05b184	0.5222399
155	0xbe003e52	-0.12523773
156	0xbdcd0032	-0.10009803
157	0x3e652433	0.2237709
158	0x3e235025	0.15948541
159	0xbcd723db	-0.026262214
160	0x3e6e1085	0.23248489
161	0x3e88b8b2	0.2670341
162	0xbf40b5ab	-0.75277203
163	0x3e571cf7	0.21007143
164	0x3e82f68f	0.25578734
165	0x3ed15a5a	0.40889245
166	0xbea4cffa	-0.32189924
167	0xbe49b002	-0.19696048
168	0x3f0cd8a8	0.5501809
169	0x3f17e84f	0.5933885
170	0x3e894c7f	0.26816174
171	0x3e26d0b1	0.16290547
172	0xbdf4b26f	-0.11948096
173	0xbeca328d	-0.39491692
174	0x3ecb2e71	0.3968387
175	0xbf12baa8	-0.57316065
176	0x3b2abf90	0.0026054122
177	0xbda0c764	-0.07850531
178	0xbedcda16	-0.43135136
179	0xbd3f84a5	-0.04675736
180	0x3e0a7d18	0.13524282
181	0x3da4e58a	0.080515936
182	0xbe74806d	-0.23877116
183	0xbea87b7a	-0.32906705
184	0x3e94aca8	0.29037976
185	0x3f0accd1	0.54218775
186	0xbf5b20fd	-0.8559721
187	0xbe005b32	-0.12534788
188	0x3e16cefc	0.14727396
189	0xbdfeb39d	-0.12436602
190	0xbe0ad16c	-0.1355645
191	0x3f0c4ae1	0.54801756
192	0xbeaa0032	-0.33203274
193	0x3da10828	0.07862884
194	0xbf07a5bd	-0.5298727
195	0xbe8afc13	-0.27145442
196	0x3ea90396	0.33010548
197	0xbea89a72	-0.32930332
198	0xbf01028e	-0.50394523
199	0xbe960140	-0.2929783
200	0xbc4168ca	-0.011804769
201	0x3f3c13ce	0.7346772
202	0xbec69930	-0.38788748
203	0xbe47669f	-0.1947274
204	0xbc5ee7a7	-0.013605035
205	0xbd4e4db3	-0.05036707
206	0x3ec14488	0.37747598
207	0x3edcb465	0.4310638
208	0xbe05c924	-0.1306501
209	0x3cfa2bba	0.030538429
210	0xbed4bc95	-0.41550127
211	0x3e8ca681	0.27470782
212	0x3d964ebf	0.073392384
213	0xbdf85f6f	-0.121275775
214	0x3e39e119	0.18152274
215	0x3da7d37b	0.081946336
216	0x3e26b6c9	0.16280665
217	0xbe86273c	-0.26201808
218	0x3e4f7aee	0.20261738
219	0x3e1a7d34	0.15086824
220	0xbd45586d	-0.048180033
221	0xbda067da	-0.07832308
222	0xbebf01b5	-0.3730599
223	0x3e3ce2da	0.18445912
224	0x3ebe836c	0.37209642
225	0xbebb138a	-0.36538345
226	0xbe3566a3	-0.17714934
227	0xbd585272	-0.052813
228	0xbdaee0a4	-0.085389405
229	0xbe33a4d0	-0.1754334
230	0x3f321ea4	0.69578004
231	0xbdd76606	-0.10517506
232	0x3f105df1	0.56393343
233	0x3f97731e	1.1832006
234	0x3eb05a28	0.34443784
235	0x3edb76c4	0.42864048
236	0x3f74574b	0.954457
237	0xbcaf5da9	-0.021406965
238	0xbedbaa54	-0.42903388
239	0xbe89b3b3	-0.26894912
240	0xbf7ca220	-0.98684883
241	0x3e59ee6b	0.21282355
242	0xbec3f36e	-0.3827166
243	0x3d71eb37	0.05906221
244	0x3de42bce	0.111411676
245	0xbd2ada8b	-0.041712325
246	0x3e8bc6d0	0.2730012
247	0x3e81f146	0.2537939
248	0x3c5086ba	0.012727434
249	0xbde51c73	-0.11187067
250	0xbf478d7c	-0.77950263
251	0xbed58955	-0.4170634
252	0x3eb19b98	0.3468902
253	0xbd8e4da8	-0.069484055
254	0x3ed0177e	0.40642923
255	0xbdcd6106	-0.100282714

network_body._body_endoder.seq_layers.0.bias f4 [128]
0	0x3d19b2f4	0.03752418
1	0x3d80a654	0.062817246
2	0xbd53cd08	-0.051709205
3	0x3d8528d3	0.06501927
4	0x3e03290b	0.12808625
5	0x3cc59694	0.024119653
6	0x3e645e17	0.22301517
7	0x3ba0616b	0.0048944256
8	0x3e0a2081	0.13488962
9	0x3e04e6a5	0.12978609
10	0xbe083b27	-0.13303815
11	0x3de8a9f4	0.11360541
12	0x3c9e920a	0.019356746
13	0x3e10d625	0.1414419
14	0x3e5162b1	0.20447804
15	0xbdc2244c	-0.09479579
16	0x3db3815a	0.08764906
17	0x3e1b6d00	0.15178299
18	0x3e1cdcb3	0.15318565
19	0x3e45e8e1	0.19327118
20	0x3e4686f0	0.19387412
21	0x3d969ad9	0.073537536
22	0xbd95b8bc	-0.07310626
23	0xbd14ddf1	-0.036344472
24	0xbcdb0c87	-0.026739372
25	0xbdabbec6	-0.083859965
26	0x3e30dc14	0.17271453
27	0x3e51e0e2	0.20495942
28	0x3d3eceac	0.046583816
29	0x3d949037	0.07254069
30	0x3e356352	0.17713669
31	0xbaba900b	-0.0014233602
32	0x3dd66dad	0.10470138
33	0x3c8fb827	0.017543865
34	0x3e28c855	0.1648267
35	0xbe023144	-0.12714106
36	0x3ce3442c	0.027742468
37	0x3d5063de	0.05087649
38	0xbd396e4b	-0.0452712
39	0xbd3043ef	-0.043033537
40	0x3e63c752	0.22244003
41	0x3da7253b	0.08161398
42	0x3d231a06	0.03981974
43	0xbdcdf54b	-0.100565515
44	0xbe2a9ac1	-0.16660596
45	0xbd2bb3f9	-0.041919682
46	0x3e3d61c3	0.18494324
47	0xbccf593a	-0.025311101
48	0x3dbf41bb	0.09338709
49	0xbca57a13	-0.020199811
50	0x3d9165f4	0.07099524
51	0x3e529ccd	0.20567627
52	0x3d46cbfa	0.04853437
53	0xbb953980	-0.0045539737
54	0x3d8ceae9	0.06880743
55	0xbaaafb19	-0.0013044804
56	0x3dede101	0.11615182
57	0xbd6c7106	-0.057724975
58	0x3d8e2cd1	0.06942142
59	0x3d61ac0b	0.055095714
60	0xbd28eaed	-0.041239668
61	0x3e3e880c	0.18606585
62	0xbd95fa62	-0.07323147
63	0x3df41cda	0.119195655
64	0x3d94577b	0.07243248
65	0x3e1ffcd2	0.15623787
66	0x3db1b795	0.086775936
67	0x3dcab277	0.09897321
68	0x3d9b1bc1	0.07573653
69	0x3d8fcc5b	0.070213996
70	0xbe02533d	-0.12727065
71	0x3d9b94e0	0.07596755
72	0x3dbde896	0.09272878
73	0xbc9d46d6	-0.019198816
74	0x3e445447	0.19172774
75	0xbc9985f5	-0.018740634
76	0x3d6c2ff8	0.057662934
77	0x3cabdb26	0.020978522
78	0xbd093c12	-0.033504553
79	0xbc613c85	-0.013747339
80	0x3d9cce75	0.07656566
81	0x3b60cbf9	0.0034301265
82	0x3db5d3b9	0.088782735
83	0x3d45f5db	0.04833017
84	0xbdef9869	-0.11698992
85	0x3e000489	0.1250173
86	0xbbb0913b	-0.0053884066
87	0xbce08823	-0.027408665
88	0xbc86d13e	-0.016457196
89	0x3e84456e	0.2583422
90	0xbcbf1eb7	-0.023330076
91	0x3d711c35	0.05886479
92	0xbd076f64	-0.033065215
93	0x3ddf0ff8	0.10891718
94	0xbbcd7398	-0.0062698834
95	0xbdf95c17	-0.12175768
96	0xbd084b36	-0.03327485
97	0x3d1b33d4	0.037891224
98	0x3e22ec9c	0.15910572
99	0x3da69f1e	0.08135818
100	0xbdf968ea	-0.12178214
101	0x3d948d76	0.07253544
102	0x3c8a3ab9	0.016873704
103	0x3d0f59cb	0.034997743
104	0xbe24d8aa	-0.16098276
105	0x3e1a7813	0.15084867
106	0xbd847cfc	-0.064691514
107	0x3e15a866	0.1461502
108	0x3d2ca5ef	0.042150434
109	0x3c4aca9b	0.0123774065
110	0x3d346290	0.04403931
111	0xbe2c9fcc	-0.16857833
112	0x3e3d3a57	0.18479286
113	0x3e374284	0.17896467
114	0x3eb5c07f	0.35498425
115	0xbd10a56c	-0.03531401
116	0x3e18e3ff	0.14930724
117	0xbdb041ef	-0.08606326
118	0xbcf892de	-0.03034347
119	0xbd29527e	-0.041338436
120	0xbd831acd	-0.06401596
121	0xbd6db116	-0.05803021
122	0x3dce0fd7	0.10061615
123	0x3df2fbe5	0.11864451
124	0x3d65a23d	0.056062926
125	0x3d44ea49	0.048074994
126	0x3daa6647	0.08320289
127	0x3dcf2942	0.10115291

network_body._body_endoder.seq_layers.2.weight f4 [128, 128]
0	0x3dc2035d	0.09473298
1	0xbd7fc1ea	-0.06244079
2	0x3b1cf2fd	0.0023948543
3	0x3e64f89c	0.22360462
4	0x3da8494a	0.08217104
5	0x3e08ebfe	0.13371274
6	0x3dd1b39d	0.10239337
7	0xbd25c90c	-0.040474936
8	0x3e0f3c41	0.13987829
9	0xbe888eb9	-0.2667139
10	0x3d4b6b3e	0.04966282
11	0x3cd3cc6c	0.025854312
12	0x3cea874b	0.028628966
13	0x3dc3dedc	0.095639914
14	0xbcab56e7	-0.020915462
15	0xbdfbcd49	-0.122950144
16	0x3bdb00a2	0.006683425
17	0x3d420515	0.047368128
18	0x3cfb04d6	0.030641954
19	0x3cd2fdc6	0.025755774
20	0xbac2ef40	-0.0014872327
21	0xbe23d574	-0.15999395
22	0xbcd3383c	-0.02578365
23	0x3d5cc0e0	0.053894877
24	0xbc0e6282	-0.008690478
25	0x3c3d9a0e	0.011572374
26	0xbc2d1d9a	-0.01056614
27	0x3c40d54c	0.011769604
28	0x3cbd68de	0.023121294
29	0x3d59a926	0.05313983
30	0xbcae8a01	-0.02130604
31	0xbc6f3be7	-0.014601684
32	0x3d79e4bc	0.061009154
33	0x3cf14a03	0.029454237
34	0xbdf0a183	-0.11749556
35	0xbd5df777	-0.05419108
36	0x3de65f87	0.11248689
37	0x3d8297cd	0.0637661
38	0xbd0e926e	-0.034807615
39	0xbe1f8c42	-0.15580848
40	0xbc9d6e20	-0.01921755
41	0x3d0bed15	0.034161646
42	0xbdfb4e0f	-0.12270748
43	0xbd0053e3	-0.03133
44	0x3c69c8f2	0.0142691005
45	0xbdb1aac7	-0.08675151
46	0x3d227920	0.039666295
47	0xbe03cef3	-0.12871914
48	0x3ccbb16e	0.024864879
49	0x3dff1452	0.12455048
50	0x3d4f9c02	0.05068589
51	0x3d3d7f2d	0.046263862
52	0x3d8b7c19	0.06810779
53	0x3e2ea6f7	0.1705588
54	0x3d9441ee	0.072391376
55	0xbcfe78d5	-0.031063477
56	0x3d355ba5	0.044276852
57	0x3d16df28	0.036833912
58	0x3d988a61	0.07448269
59	0xbb97a6ff	-0.004628062
60	0xbdc07a3f	-0.093983166
61	0xbd77cd3b	-0.060498457
62	0xbda1e33e	-0.07904671
63	0xbe28262a	-0.16420808
64	0xbd6eeba3	-0.05833019
65	0x3e379c9c	0.17930835
66	0xbdb9d811	-0.090744145
67	0xbe0395a6	-0.12850055
68	0xbc94132f	-0.018075554
69	0x3ddbd5ed	0.107341625
70	0xbdc50da0	-0.096217394
71	0x3cd20ca9	0.025640802
72	0x3e325389	0.17414679
73	0x3d4ccf6b	0.050002497
74	0xbd8a6652	-0.06757797
75	0xbdb62e0e	-0.08895503
76	0x3d3b9725	0.04579844
77	0xbd2b4b4c	-0.041819856
78	0xbe251452	-0.16121033
79	0x3d30c9c5	0.043161172
80	0x3e1d4527	0.15358411
81	0xbd0ffc31	-0.035152618
82	0x3e264715	0.16238053
83	0xbc362d02	-0.011119129
84	0x3d374fa1	0.044753674
85	0x3d92cc94	0.071679264
86	0xbe1fb8e3	-0.15597872
87	0x3c901b02	0.017591003
88	0x3ca3694d	0.019947672
89	0xbd63dfd1	-0.05563337
90	0x3e4983bc	0.19679159
91	0xbdbddb21	-0.09270311
92	0xbe556636	-0.20839772
93	0xbe06f464	-0.13179165
94	0xbdf0f620	-0.117656946
95	0xb9ba3176	-0.00035513536
96	0xbda1a3e4	-0.07892588
97	0xbc2ec2b2	-0.010666536
98	0xbe079073	-0.13238697
99	0xbdc59dde	-0.096492514
100	0xbca73ad7	-0.0204138
101	0x3cb96cf3	0.022634959
102	0xbdb7246f	-0.08942496
103	0x3e3ebcb9	0.1862668
104	0xbe09b696	-0.13448557
105	0x3d92ca2a	0.07167466
106	0xbd8d3e82	-0.06896688
107	0xbe0e9672	-0.13924578
108	0xba231e1b	-0.00062224426
109	0x3e0494f9	0.12947454
110	0x3c06a927	0.00821904
111	0x3d891261	0.066929586
112	0x3e078309	0.1323358
113	0x3d1a1897	0.037621107
114	0x3de8a40a	0.11359413
115	0xbcdac738	-0.026706323
116	0x3bf69669	0.0075252545
117	0x3e29ccb1	0.1658199
118	0xbe18a2aa	-0.14905801
119	0xbe0390d9	-0.12848224
120	0x3cbcd3b4	0.023050167
121	0x3dd865fd	0.10566328
122	0x3ce124a8	0.0274833
123	0x3c578903	0.013155225
124	0xbdd3d05b	-0.10342475
125	0x3dce64c2	0.10077812
126	0x3dd4f515	0.10398308
127	0xbe06fcca	-0.13182369
128	0xbd86795c	-0.06566116
129	0x3de40803	0.111343406
130	0xbdc9750b	-0.09836777
131	0x3de657d1	0.112472184
132	0xbddc0ee1	-0.107450254
133	0x3ddfda4c	0.10930309
134	0x3e0505b1	0.12990452
135	0x3df28e82	0.118435875
136	0xbc870b31	-0.016484829
137	0xbcd66fba	-0.026176322
138	0x3cd4b648	0.025965825
139	0x3c3ca237	0.011513284
140	0xbd46a117	-0.04849347
141	0x3c9e4bc8	0.019323245
142	0x3dc98efa	0.09841724
143	0xbd666d9c	-0.056256875
144	0x3d798e32	0.060926624
145	0x3e4ee887	0.2020589
146	0xbbbb6725	-0.005719083
147	0x3e31b669	0.1735474
148	0x3c2ff174	0.010738719
149	0x3daa600b	0.083191
150	0xbe1b9edc	-0.15197319
151	0x3cdf1686	0.02723242
152	0x3ddc955c	0.107706755
153	0xbdcf0925	-0.10109166
154	0x3b818fab	0.003953894
155	0x3dd8f86a	0.10594256
156	0xbd840171	-0.064455874
157	0x3cd29f63	0.025710767
158	0x3e033a03	0.12815098
159	0xbd769473	-0.060200166
160	0x3e0d52bc	0.13801092
161	0xbdefd823	-0.11711147
162	0xbe15ce0e	-0.14629385
163	0xbd01381b	-0.031547647
164	0x3d46b839	0.048515532
165	0xbd9721e6	-0.073795125
166	0xbc49486a	-0.012285331
167	0x3e32ee6e	0.17473766
168	0x3e8b42d2	0.27199417
169	0xbd30e302	-0.04318524
170	0x3d8f94ef	0.07010829
171	0x3cc0aa12	0.023518596
172	0xbe71777c	-0.23580736
173	0x3d0da6e7	0.034583
174	0x3e0d0713	0.1377223
175	0xbe73926d	-0.23786326
176	0xbcf40912	-0.029789481
177	0xbd954572	-0.07288636
178	0x3d7e6356	0.062106453
179	0x3d9ea749	0.07746751
180	0x3d8b89c3	0.06813385
181	0xbe1a94c4	-0.15095812
182	0xbe007835	-0.12545855
183	0xbe204dde	-0.15654704
184	0x3e251e55	0.16124852
185	0xbd8ff33c	-0.07028815
186	0xbd80f6d3	-0.06297078
187	0x3dcd3dc1	0.10021544
188	0x3c838b45	0.01605762
189	0x3d2dbb3e	0.042414896
190	0x3b8afc5e	0.0042415103
191	0xbc457559	-0.012051904
192	0xbcdfe4a1	-0.027330698
193	0x3e1c4e87	0.15264331
194	0x3dec7265	0.115452565
195	0x3dac0246	0.08398871
196	0x3bb13d42	0.005408914
197	0xbde7892f	-0.113054626
198	0xbe0f895e	-0.14017245
199	0x3d57ed7e	0.052716725
200	0xbda32aa4	-0.079671174
201	0x3cf8758f	0.030329494
202	0x3e0a3628	0.13497221
203	0xbdd3bf24	-0.103391916
204	0xbcf42020	-0.029800475
205	0xbc6243ed	-0.01381014
206	0xbe97c165	-0.29639736
207	0x3e5dc861	0.2165847
208	0x3b180e75	0.0023201976
209	0xbd16e692	-0.036840983
210	0x3b62f072	0.003462818
211	0xbd8889d1	-0.066669114
212	0xbd721c4d	-0.05910902
213	0xbddcf26f	-0.10788428
214	0x3e0d1aeb	0.137798
215	0x3d01c974	0.03168626
216	0xbdac104e	-0.08401547
217	0x3d750947	0.0598233
218	0x3ce33a6d	0.02773782
219	0x3d22e4df	0.03976905
220	0xbdfab69f	-0.122418635
221	0xbd0bc12a	-0.034119762
222	0xbcb1b934	-0.021694757
223	0x3da8f3d2	0.0824963
224	0x3e35cde6	0.17754325
225	0xbe53a2e3	-0.20667605
226	0x3d9f571e	0.07780288
227	0x39686acc	0.00022165029
228	0xbc574dc0	-0.013141096
229	0x3e1da56c	0.15395135
230	0x3e1a6c0a	0.15080276
231	0x3decb831	0.11558569
232	0xbd4f3995	-0.050592024
233	0x3c0c334b	0.008557151
234	0x3d945c38	0.07244152
235	0x3cfcb00a	0.03084566
236	0x3e25349f	0.16133355
237	0xbdf5e57e	-0.12006663
238	0x3d94e3b6	0.07269995
239	0xbd2f00e7	-0.04272547
240	0x3d8416bb	0.06449648
241	0x3e0d88dd	0.1382174
242	0x3c4f93bf	0.012669503
243	0x3db47362	0.0881107
244	0x3ccc5a37	0.024945362
245	0xbe269e15	-0.16271241
246	0x3d9fcc3d	0.07802627
247	0xbd8ac797	-0.0677635
248	0xbd558e4b	-0.052137654
249	0xbe23ff9c	-0.16015476
250	0xbb3e7638	-0.0029062163
251	0x3e1e12cd	0.1543686
252	0x3d564ef7	0.0523214
253	0xbc521272	-0.0128217805
254	0x3c74dce4	0.014945243
255	0x3dcb117e	0.09915446

network_body._body_endoder.seq_layers.2.bias f4 [128]
0	0x3d946a5f	0.07246851
1	0x3db3591b	0.0875723
2	0x3d914dc3	0.0709491
3	0x3c751311	0.014958159
4	0x3dd6c015	0.104858555
5	0x3d14cbea	0.03632728
6	0xbcf069fc	-0.029347412
7	0x3d4e0a3a	0.05030272
8	0x3d7ca915	0.061684687
9	0x3d711d6d	0.058865953
10	0x3e24aecf	0.16082309
11	0x3e8a7c5d	0.27048007
12	0x3ce8eecb	0.028434178
13	0x3d6c1f64	0.057647124
14	0xbd0e0ece	-0.034682088
15	0x3d00ba7b	0.03142784
16	0x3c2cbb7d	0.010542748
17	0x3daad7a5	0.08341912
18	0xbd13e129	-0.0361034
19	0x3d8a6bbf	0.06758832
20	0x3da4ded8	0.080503166
21	0x3cb66d63	0.022268957
22	0x3e7a1fef	0.24426244
23	0xbcce9a40	-0.025220037
24	0x3c6cc50a	0.014451275
25	0x3e10be7f	0.14135168
26	0x3d970343	0.07373669
27	0x3dd988e7	0.10621815
28	0x3ce529c6	0.02797402
29	0x3de022c4	0.10944131
30	0x3d4fb0ef	0.050705846
31	0x3d28e4e3	0.04123391
32	0x3d61b3a2	0.05510295
33	0x3c8b9675	0.017039517
34	0x3b61ab2b	0.00344343
35	0x3d2368da	0.039894916
36	0x3dfa4fe5	0.1222227
37	0x3d7c9f63	0.06167544
38	0x3d933299	0.07187385
39	0x3d0a931d	0.033831704
40	0x3decca42	0.11562015
41	0x3e451994	0.19248039
42	0x3d4f46ef	0.050604757
43	0x3e0a1b98	0.13487089
44	0x3d5c95fa	0.053853966
45	0x3ceee97c	0.029164068
46	0x3ded33e7	0.11582165
47	0x3da47734	0.08030549
48	0x3dc79a20	0.09746194
49	0x3dcbd04a	0.09951837
50	0xbb4f103d	-0.0031595372
51	0x3bb6578a	0.0055646347
52	0x3d157eb8	0.0364978
53	0x3d1b71f9	0.03795049
54	0x3dce9e0c	0.10088739
55	0x3d5055cd	0.050863076
56	0xbd7174f9	-0.058949444
57	0x3bc6fbe7	0.0060725096
58	0x3affa9f6	0.0019505608
59	0x3cef6d9e	0.029227074
60	0x3e19f759	0.15035762
61	0x3db8ef4e	0.09030019
62	0x3d930f9a	0.0718071
63	0x3e0ad00e	0.13555929
64	0x3e0674d2	0.13130501
65	0x3e26f106	0.1630288
66	0x3dbb43ac	0.09143767
67	0x3e273b99	0.16331328
68	0x3d2b7918	0.04186353
69	0x3db7d8f9	0.08976931
70	0x3c853e0f	0.016264943
71	0xbbb0b2f6	-0.0053924276
72	0x3e1f7ce0	0.1557498
73	0x3d714b94	0.058909968
74	0x3d9c7b16	0.07640664
75	0x3c98237e	0.018571611
76	0x3e953fff	0.29150388
77	0x3d69d15c	0.057084426
78	0x3c9c395c	0.01907032
79	0x3d5ff11e	0.054673307
80	0xbbbee97f	-0.0058261747
81	0xbc0f52dd	-0.0087477835
82	0x3cccb848	0.024990216
83	0x3d38fed7	0.04516491
84	0x3df679c2	0.12034942
85	0xbdb3b1d7	-0.08774155
86	0x3cfd3625	0.030909607
87	0x3d7e685c	0.062111244
88	0x3d0b1d02	0.03396321
89	0x3cbd3de7	0.023100806
90	0x3d7bc3f5	0.061466176
91	0xbd0b0c75	-0.033947427
92	0x3de22e09	0.11043937
93	0xbd1fa83a	-0.038978793
94	0x3c88c983	0.01669765
95	0xbb4ad7a5	-0.0030951288
96	0x3d89c2f9	0.06726641
97	0x3e03d8f2	0.12875727
98	0x3c386ec8	0.011256881
99	0x3da16cb4	0.078820616
100	0xbdfe301c	-0.1241152
101	0xbceff1ce	-0.029290106
102	0x3d619d0f	0.055081423
103	0x3de3244d	0.11090908
104	0x3d8cca38	0.06874508
105	0x3d25f8ff	0.040520664
106	0x3d93cc67	0.07216721
107	0xbceb008b	-0.028686782
108	0x3d64ce61	0.05586088
109	0xbdf3f4db	-0.11911937
110	0x3df71fe6	0.12066631
111	0xbd1c3f41	-0.03814626
112	0x3d6e1ac0	0.05813098
113	0x3d9682dc	0.07349178
114	0xbd342098	-0.043976396
115	0x3bee4fa7	0.007272679
116	0x3d552e28	0.05204597
117	0x3d780a7b	0.06055687
118	0x3d0d22f9	0.03445718
119	0xbdc87c5e	-0.09789346
120	0x3d567f7e	0.05236768
121	0x3cb66782	0.022266153
122	0x3d3ce895	0.046120245
123	0x3d985427	0.07437926
124	0x3e0f6e28	0.14006865
125	0x3d521026	0.05128493
126	0x3dc4d8ac	0.096116394
127	0x3dca5337	0.09879153

action_model._continuous_distribution.log_sigma f4 [1, 2]
0	0xbf0e73ef	-0.5564565
1	0xbf19308b	-0.59839696

action_model._continuous_distribution.mu.weight f4 [2, 128]
0	0xbd13f675	-0.03612371
1	0xbac09a3a	-0.0014694401
2	0x3e35f5ea	0.1776959
3	0xbc758c41	-0.014987052
4	0x3dba1430	0.09085882
5	0xbcaa1595	-0.020762244
6	0x3d4f42fd	0.050600994
7	0x3bfeaebe	0.0077722957
8	0xbbb4e5f6	-0.0055205775
9	0xba5da878	-0.0008455585
10	0xbc2a34aa	-0.010388533
11	0xbc639f3c	-0.013892945
12	0x3d689b6a	0.05678884
13	0x3d129928	0.035790592
14	0x3d006fa5	0.031356473
15	0xbd8bc7fb	-0.068252526
16	0xbab61a5e	-0.0013893356
17	0xbcea83cc	-0.028627299
18	0x3db82bb1	0.089927085
19	0xbc193d7f	-0.009353041
20	0x3c5e4655	0.013566573
21	0x3db2ecd2	0.08736576
22	0x3bbb905b	0.0057239956
23	0xbb5a5ce7	-0.0033319534
24	0xbcd541a2	-0.026032273
25	0xbdf72daf	-0.1206926
26	0x3cb060d2	0.021530543
27	0x3adca20b	0.001683296
28	0x3d170200	0.03686714
29	0x3af68f52	0.0018811023
30	0x3bd85728	0.0066021867
31	0xbd6caac5	-0.057780046
32	0xbc2451b3	-0.010029244
33	0x3cda4143	0.026642447
34	0x3ccae9d0	0.024769694
35	0x3d14a4bc	0.036289915
36	0xbb1f300a	-0.0024290108
37	0xbd397daa	-0.04528586
38	0xbc8366cc	-0.016040228
39	0x3e34bff0	0.17651343
40	0xbd72a1d2	-0.059236355
41	0xbd04d656	-0.03243097
42	0x3cf9d214	0.03049568
43	0xbdf60346	-0.12012343
44	0xbc9f519f	-0.0194481
45	0xbd348baf	-0.044078525
46	0x3d4e88a0	0.050423265
47	0xbcbd0cf2	-0.023077462
48	0x3cc40200	0.023926735
49	0xbd0f869a	-0.035040475
50	0x3c2d5da0	0.010581404
51	0xbd54cccc	-0.051953122
52	0x3de1dec4	0.11028817
53	0x3df4bbd9	0.119498916
54	0x3d9e4bad	0.07729278
55	0xbcad4a90	-0.021153718
56	0x3d4cc1b5	0.04998942
57	0xbbc2b4fc	-0.005941985
58	0xbd4f26f5	-0.05057426
59	0x3befc1ec	0.0073168185
60	0xbab34ab7	-0.0013678883
61	0xbd3022c5	-0.04300191
62	0x3ddedd92	0.10882105
63	0xbd2b306e	-0.041794233
64	0xbdd7aadf	-0.10530638
65	0x3c4efd40	0.012633622
66	0xbcf53b31	-0.029935451
67	0xbcd99ab6	-0.02656303
68	0xbce1f0b0	-0.027580589
69	0x3c4d31c1	0.012524069
70	0x3deb8303	0.11499598
71	0x3d0a35df	0.03374278
72	0xbe236877	-0.15957819
73	0xbd0645fb	-0.032781582
74	0x3d5c035c	0.05371414
75	0x3cf8d722	0.03037602
76	0x3b007554	0.0019601183
77	0x3c2dad9b	0.010600473
78	0x3cc65a0d	0.024212861
79	0x3ca87254	0.020562328
80	0xbd5cfee9	-0.05395404
81	0xbcc81295	-0.024422923
82	0xbd1b14b7	-0.037861552
83	0x3d167430	0.0367319
84	0xbda8f69d	-0.08250163
85	0xbd00a89e	-0.031410806
86	0x3c89c1c8	0.016816035
87	0x3dcb1fcf	0.099181764
88	0xbd2c7514	-0.042103842
89	0xbd346316	-0.04403981
90	0xbae3f3ff	-0.0017391442
91	0x3d087afe	0.03332042
92	0xbc12f5f9	-0.008969777
93	0xbd85613f	-0.06512689
94	0x3d6ec305	0.058291454
95	0x3ddd8f5f	0.108183615
96	0x3dd96975	0.106158175
97	0x3a3c8bc7	0.00071924593
98	0x3c85363c	0.016261213
99	0x3ce89eaa	0.02839597
100	0x3c5def42	0.013545813
101	0xbc437ffe	-0.011932371
102	0x3c13ce04	0.009021286
103	0xbbfb0a4f	-0.007661141
104	0x3c406527	0.011742867
105	0x3db6b52c	0.089212745
106	0xbe138b40	-0.14408588
107	0xbd5d96c3	-0.054098856
108	0x3cb5ec6f	0.022207467
109	0xbcf4adef	-0.029868094
110	0xbca3a9ec	-0.019978486
111	0xbd23e797	-0.040015783
112	0x3c405c2a	0.011740724
113	0x3e161028	0.146546
114	0x3c86ecd1	0.016470345
115	0x3c7c41a0	0.015396506
116	0xbd2423f7	-0.04007336
117	0xbdf3b0c4	-0.1189895
118	0xbc22cdca	-0.009936759
119	0x3d22fe31	0.039793197
120	0xbb8f4f11	-0.004373439
121	0x3c66f2b3	0.01409595
122	0x3d932477	0.071846895
123	0xbde26d64	-0.11056021
124	0xbe198813	-0.14993314
125	0x3cd1941a	0.025583316
126	0x3c7c7d9f	0.01541081
127	0x3aaf4c49	0.0013374175
128	0xbcaf6399	-0.021409797
129	0xbc825bf3	-0.015912985
130	0xbd8c0a5e	-0.06837915
131	0x3d1e8b70	0.038707197
132	0x3e1bcf2b	0.15215747
133	0x3ca49ad1	0.020093353
134	0x3c3462b3	0.01100986
135	0xbde9fb17	-0.11424845
136	0x3c8b9d09	0.017042654
137	0xbba00182	-0.0048829922
138	0x3bffb5a8	0.0078036375
139	0xbc4629af	-0.012094899
140	0xbd4c2475	-0.049839456
141	0xbd837474	-0.06418696
142	0xbd948b4c	-0.07253131
143	0xbe1aaec8	-0.15105736
144	0x3e0a5b3c	0.13511366
145	0x3dd6da2c	0.10490832
146	0x3d2eaf07	0.042647388
147	0x3d68ef3d	0.05686878
148	0xbb01d2fa	-0.001980959
149	0x3b4c9b9d	0.0031220682
150	0x3c00f105	0.0078699635
151	0xbd687261	-0.056749705
152	0xbd824a10	-0.063617826
153	0x3d2664da	0.040623523
154	0xbe18463c	-0.14870542
155	0xbc7d4beb	-0.015459995
156	0xbbdcc6a7	-0.0067375484
157	0x3d651ad5	0.055933792
158	0x3d4f51bb	0.050615054
159	0xbe45b2b4	-0.19306451
160	0x3d07f40c	0.033191726
161	0xbd35f5a9	-0.044423733
162	0xbd01abc0	-0.031657934
163	0x3cf9e0df	0.030502735
164	0x3c1ad5e4	0.00945041
165	0xbbc6520c	-0.006052261
166	0xbd2966e2	-0.041357882
167	0x3d142908	0.036171943
168	0xbe532a8a	-0.20621696
169	0x3d3efb0e	0.046626143
170	0x3c941237	0.018075092
171	0xbd5687b6	-0.052375518
172	0x3ce7232a	0.02821501
173	0x3b09eac2	0.0021044468
174	0x3d4e8a68	0.050424963
175	0xbcf6f568	-0.030146316
176	0xbcb461b7	-0.02201925
177	0xbdccf9fc	-0.10008618
178	0xbdb12794	-0.08650127
179	0xbcac3fcb	-0.021026513
180	0x3c900a53	0.017583048
181	0xbdded7ed	-0.10881028
182	0x3d36ef75	0.044661958
183	0xbb81bd3f	-0.0039593275
184	0x3dcc3f0c	0.09972963
185	0xbd35a17b	-0.044343453
186	0x3d41dad0	0.047327816
187	0xbcf57b35	-0.029965976
188	0x39a33b32	0.00031133887
189	0x3ca472b6	0.02007423
190	0xbd9a6621	-0.07539011
191	0x3d2890f7	0.041153874
192	0x3decb806	0.11558537
193	0xbc2c946f	-0.010533436
194	0x3d339333	0.043841552
195	0x3d03e97a	0.032205082
196	0x3d8e62bc	0.06952426
197	0x3c1b540c	0.009480488
198	0xbdcf6869	-0.101273365
199	0xbd46c0e6	-0.048523806
200	0xbceb2167	-0.02870245
201	0x3d0b1fd4	0.0339659
202	0xbd24313a	-0.04008601
203	0x3d8101dc	0.06299183
204	0xbc2c79a4	-0.010527048
205	0x3c363250	0.011120394
206	0x3d11006a	0.035400786
207	0x3c617335	0.013760378
208	0xbd55b500	-0.05217457
209	0xbd1740d5	-0.036927063
210	0x3d900eef	0.07034098
211	0xbbfcbcd4	-0.0077129398
212	0x3d8e76d7	0.06956261
213	0x3cbe6b45	0.02324451
214	0xbe12460c	-0.14284533
215	0xbca85007	-0.020545973
216	0xbcf6e02c	-0.03013619
217	0x3c634024	0.013870273
218	0xbcd788bc	-0.026310317
219	0x3d2a72df	0.041613456
220	0x3ca39f36	0.019973379
221	0xbb9d38a7	-0.0047980133
222	0xbc7e66b4	-0.015527416
223	0x3c671c68	0.014105894
224	0x3e1b612f	0.15173791
225	0xbc92596b	-0.017864903
226	0x3b7c4058	0.00384905
227	0xbb3674d7	-0.0027840638
228	0xbd971f1f	-0.07378983
229	0xbccc923a	-0.02497207
230	0xbc98715d	-0.018608743
231	0x3d8d98ae	0.06913887
232	0xbc944dfe	-0.018103596
233	0xbaee6b89	-0.0018190007
234	0xbd2b00cc	-0.041748807
235	0x3d60e93a	0.054909922
236	0x3b9c6d0f	0.004773743
237	0xbd0224af	-0.031773265
238	0x3cc2933d	0.02375185
239	0xbcc187dd	-0.023624355
240	0xbc859f9b	-0.016311457
241	0x3e2525bd	0.16127677
242	0x3c863766	0.016383838
243	0x3d576554	0.05258687
244	0x3c9777bc	0.018489711
245	0xbe220e89	-0.15825857
246	0xbd77f6b4	-0.06053801
247	0xbb9e919e	-0.0048391363
248	0x3c6822fb	0.014168496
249	0xbcbe246f	-0.023210732
250	0xbc0f44f0	-0.008744463
251	0x3c99467e	0.018710371
252	0xbd59fed3	-0.053221535
253	0xbcbd8f0f	-0.023139505
254	0xbe08fde0	-0.13378096
255	0xbb2672a3	-0.0025397919

action_model._continuous_distribution.mu.bias f4 [2]
0	0xbca08547	-0.019594802
1	0x3c48ce66	0.0122562405

action_model._discrete_distribution.branches.0.weight f4 [2, 128]
0	0x3d9f764e	0.07786237
1	0x3d33cd9f	0.043897267
2	0x3d9f1557	0.07767742
3	0x3c1e8ec5	0.009677594
4	0xbcddfcf2	-0.027098153
5	0x3c1696e3	0.009191248
6	0xbd0e77b4	-0.034782127
7	0xbcb0f5d7	-0.0216016
8	0x3d49919c	0.04921113
9	0x3c74dc39	0.014945083
10	0x3da8d27a	0.0824327
11	0x3e78bb16	0.24290118
12	0xbbca7074	-0.0061779562
13	0x3cadf7f9	0.021236407
14	0xbdac45d7	-0.084117584
15	0xbe053eda	-0.13012257
16	0xbd244459	-0.040104244
17	0x3ce7411f	0.028229294
18	0x3cccefb9	0.025016652
19	0x3d69d854	0.057091072
20	0x3d6ce23c	0.05783294
21	0x3cc97c85	0.024595508
22	0x3e6c2977	0.23062693
23	0xbbe35214	-0.0069372747
24	0xb7e85e46	-2.7700455e-05
25	0xbd00b5ca	-0.031423368
26	0x3ca10095	0.019653598
27	0x3d7b2e99	0.061323736
28	0x3d11dade	0.03560912
29	0x3d88fad8	0.0668847
30	0x3cc62f4e	0.024192479
31	0xbde72789	-0.112868376
32	0x3ca3ab34	0.019979097
33	0xbbfe3631	-0.007757925
34	0xbcce7124	-0.025200434
35	0x3c526998	0.012842558
36	0x3dac1573	0.084025286
37	0x3d0ac471	0.033878747
38	0x3d8f090e	0.06984149
39	0xbdfeddc8	-0.12444645
40	0xbd81ffe1	-0.06347633
41	0x3e2fa3ce	0.1715233
42	0x3cbb6e63	0.022879785
43	0x3e3ebcba	0.18626681
44	0x3d1fd5d2	0.039022274
45	0xbd026f4c	-0.031844422
46	0x3e2908dc	0.16507286
47	0x3d09f5a0	0.033681512
48	0x3dcba213	0.099430226
49	0x3e2fe985	0.17178924
50	0xbc480312	-0.012207763
51	0xbd371e2e	-0.044706516
52	0xbd59cbc9	-0.05317286
53	0x3d8c2817	0.06843584
54	0x3d32ea55	0.043680508
55	0x3c68f024	0.01421741
56	0xbe20cde6	-0.15703544
57	0x3c6bbb83	0.014387968
58	0x3c76873f	0.015046894
59	0xb95b16c1	-0.00020893944
60	0x3d8361ef	0.06415164
61	0x3ddbdca1	0.10735441
62	0x3daa152d	0.0830482
63	0x3d215235	0.03938504
64	0x3d9d30b9	0.07675309
65	0x3e1c1d04	0.15245444
66	0x3d9e8d49	0.07741792
67	0x3e06edb8	0.1317662
68	0x3c68072e	0.014161868
69	0x3d67d070	0.056595266
70	0xbd118354	-0.035525635
71	0x3cac81e8	0.021058038
72	0x3d1ff8cc	0.03905563
73	0x3c4ed3db	0.0126237525
74	0x3dde6856	0.10859744
75	0x3cb6445f	0.022249399
76	0x3e876afc	0.2644881
77	0x3c6bd5dc	0.01439425
78	0x3a949826	0.0011336848
79	0x3cda47a9	0.026645498
80	0xbce91de2	-0.028456632
81	0xbc4b6215	-0.012413521
82	0x3d1d2c0a	0.038372077
83	0x3d25d48c	0.040485904
84	0x3d9284df	0.071542494
85	0xbdee274c	-0.11628589
86	0x3cc7274a	0.024310727
87	0x3e137347	0.14399444
88	0x3c130437	0.008973173
89	0x3c8e4413	0.017366445
90	0x3cadb75a	0.021205593
91	0xbdd3af4b	-0.10336169
92	0x3d6abdb7	0.057309832
93	0xbe1009f8	-0.14066303
94	0x3c2ce27e	0.010552047
95	0xbd4c306f	-0.049850877
96	0xbd95136b	-0.07279094
97	0x3db570e7	0.08859425
98	0x3c0c8306	0.00857616
99	0x3d0ce81e	0.03440105
100	0xbe3bd9d3	-0.18344812
101	0xbc46d0f5	-0.01213478
102	0x3ccc7d59	0.024962114
103	0x3d99ca02	0.07509233
104	0x3d4a9773	0.04946084
105	0xbd41250d	-0.047154475
106	0xbde83c81	-0.11339665
107	0xbd67788f	-0.056511458
108	0x3c983bce	0.018583205
109	0xbe22c50e	-0.15895483
110	0x3d87a932	0.06624068
111	0xbe0f6293	-0.14002447
112	0x3c604c6c	0.013690095
113	0xbde135d1	-0.10996593
114	0xbcc54022	-0.024078432
115	0xbdf2d7a9	-0.1185754
116	0x3cdf360a	0.027247448
117	0xbdac456b	-0.08411678
118	0x3d545dd3	0.05184729
119	0xbe0d861a	-0.13820687
120	0x3be0cbe0	0.0068602413
121	0x3bb4dbe0	0.005519375
122	0x3d8e1d50	0.06939185
123	0x3d86a96e	0.06575285
124	0x3d3a5509	0.045491252
125	0x3d5e2135	0.054230887
126	0x3de4b86c	0.11167988
127	0x3d7d6ac8	0.061869413
128	0xbdd817d3	-0.10551419
129	0xbcd18aec	-0.025578938
130	0xbda895cb	-0.08231696
131	0xbc21a7fb	-0.00986671
132	0x3d2670f4	0.040635064
133	0xbc5e2bd4	-0.013560254
134	0x3d27d723	0.040976655
135	0x3d141149	0.036149297
136	0xbd220a8c	-0.03956084
137	0xbbd6cbdb	-0.006555063
138	0xbdc78626	-0.09742384
139	0xbe7c3b73	-0.24632053
140	0x3c771bf9	0.015082353
141	0xbcd071ca	-0.025444884
142	0x3dc0985c	0.0940406
143	0x3e05d310	0.13068795
144	0x3d268e8c	0.040663287
145	0xbd206ea6	-0.039168023
146	0xbd015c38	-0.031582087
147	0xbd699b2f	-0.05703276
148	0xbd0f0cf3	-0.03492446
149	0xbc4f0e01	-0.012637616
150	0xbe72681b	-0.23672526
151	0x3c968675	0.018374661
152	0x3c9e4853	0.019321596
153	0x3d367308	0.044543296
154	0xbbc24ad5	-0.005929331
155	0xbd601daa	-0.05471579
156	0xbd0eb7dc	-0.03484331
157	0xbd4a85fb	-0.04944418
158	0xbc84beb7	-0.016204221
159	0x3deaabc0	0.1145854
160	0xbc25f027	-0.010128058
161	0xbc8b0060	-0.016967952
162	0x3bcaec9d	0.0061927573
163	0xbcb4211c	-0.021988444
164	0xbdb04003	-0.08605959
165	0xbcf4645a	-0.029833008
166	0xbd9828ac	-0.074296325
167	0x3df87d66	0.12133293
168	0x3d6badf1	0.05753893
169	0xbe2d6921	-0.16934635
170	0xbc5089f2	-0.012728201
171	0xbe29ab09	-0.16569151
172	0xbd33e596	-0.043920122
173	0x3d0fb672	0.035086103
174	0xbe332b2e	-0.1749694
175	0xbcdb3e51	-0.026763113
176	0xbddbb7e4	-0.10728434
177	0xbe2e0e56	-0.16997656
178	0x3d23187f	0.039818283
179	0x3cbfcda3	0.023413485
180	0x3d6e9f37	0.058257308
181	0xbd3a8a11	-0.045541827
182	0xbd102ef5	-0.03520103
183	0xbcde7134	-0.027153589
184	0x3e1b23cc	0.15150374
185	0xbc06457b	-0.008195276
186	0xbbfdd01e	-0.007745757
187	0x3c239769	0.009984829
188	0xbd2fa0c4	-0.042877927
189	0xbddeadc3	-0.10872986
190	0xbdc72d6a	-0.09725459
191	0xbd1ff775	-0.039054353
192	0xbd79c03d	-0.06097435
193	0xbe220017	-0.15820347
194	0xbd94c778	-0.07264608
195	0xbe0c1e7e	-0.13683507
196	0x38778ca4	5.902037e-05
197	0xbd556507	-0.0520983
198	0x3d15bbc6	0.036556028
199	0xbcadc54c	-0.021212243
200	0xbcdda995	-0.027058402
201	0x3c1d0440	0.009583533
202	0xbddfc5ac	-0.10926375
203	0xbc253def	-0.010085567
204	0xbe8a45c0	-0.2700634
205	0xbcbf7e10	-0.023375541
206	0xbbc5182c	-0.0060148444
207	0xbd1e74d9	-0.038685653
208	0x3c1833b5	0.009289672
209	0x3b8ce56f	0.0042998116
210	0xbd88e815	-0.06684891
211	0xbd0acf90	-0.033889353
212	0xbda4dfb5	-0.08050481
213	0x3de4ffea	0.11181624
214	0xbd216f97	-0.03941306
215	0xbdfde964	-0.12398031
216	0xbca48f53	-0.020087874
217	0xbc970cf0	-0.018438786
218	0xbcf85f98	-0.03031902
219	0x3dd9b311	0.10629857
220	0xbd73aaeb	-0.059489172
221	0x3dfe9747	0.124311976
222	0xbc825e39	-0.01591407
223	0x3d55d5fb	0.05220602
224	0x3d398c26	0.04529967
225	0xbd8ac019	-0.06774921
226	0xba88e166	-0.001044315
227	0xbd1eafc5	-0.038741846
228	0x3e37b232	0.1793907
229	0x3c36f026	0.011165654
230	0xbd1bed16	-0.0380679
231	0xbd92bc3b	-0.07164808
232	0xbd3596da	-0.044333316
233	0x3d2b940d	0.04188924
234	0x3df6f87b	0.12059113
235	0x3d60621d	0.054781068
236	0xbc07ce6d	-0.008288962
237	0x3e29d669	0.16585697
238	0xbd80f1e3	-0.06296136
239	0x3e270c71	0.1631334
240	0xbcbe356a	-0.02321883
241	0x3e004f19	0.12530173
242	0x3ca87508	0.020563617
243	0x3dee3254	0.11630693
244	0xbcf6dfe3	-0.030136054
245	0x3d9bacc7	0.07601314
246	0xbd140ef7	-0.036147084
247	0x3e0b352a	0.13594499
248	0xbc43ee7a	-0.011958713
249	0xbc5eac99	-0.013590955
250	0xbd7178fc	-0.05895327
251	0xbd9421ab	-0.07232984
252	0xbd411f4a	-0.04714898
253	0xbd55f3b5	-0.05223437
254	0xbdee5502	-0.11637308
255	0xbd648c3d	-0.055797804

action_model._discrete_distribution.branches.0.bias f4 [2]
0	0x3d80056a	0.06251033
1	0xbd800568	-0.06251031

exp_avg f4 [128, 10]
0	0x3b725a10	0.003697995
1	0xb7cc9ae1	-2.4390816e-05
2	0xb9ce0ea4	-0.0003930229
3	0xb9bbaf02	-0.0003579781
4	0x00000000	0.0
5	0xb93be74b	-0.00017919873
6	0xb0806451	-9.341737e-10
7	0xad459161	-1.1230434e-11
8	0xb08ea147	-1.0377698e-09
9	0x2f28dcec	1.5357998e-10
10	0x3ab99e60	0.0014161579
11	0xb91e1529	-0.00015075937
12	0xba9370d2	-0.0011248833
13	0x3ab6b277	0.0013938685
14	0x00000000	0.0
15	0xba542d22	-0.00080938835
16	0x31b90950	5.3852673e-09
17	0x31d25cf6	6.122373e-09
18	0x31c0d8fa	5.612603e-09
19	0x3283dda9	1.5351207e-08
20	0xbb2b151f	-0.0026105118
21	0x3815b7b2	3.5695448e-05
22	0x3a8e5401	0.0010858775
23	0xb994f4fc	-0.00028411287
24	0x00000000	0.0
25	0x39ecf186	0.00045193377
26	0x3142421d	2.8268297e-09
27	0xb20c7333	-8.175266e-09
28	0x31f609f9	7.160676e-09
29	0x31db1700	6.3763537e-09
30	0x3ab0ac3b	0.0013479063
31	0xb92dad08	-0.00016563025
32	0xbac42b34	-0.0014966489
33	0x3a8ec457	0.0010892254
34	0x00000000	0.0
35	0xba85feba	-0.0010223009
36	0xb1f86e8e	-7.2303186e-09
37	0x32b9b960	2.1621133e-08
38	0xb1fb3deb	-7.3121007e-09
39	0x32916d8d	1.693004e-08
40	0x3b0f6dd0	0.0021885522
41	0xb9dfc5bb	-0.00042681195
42	0xb923c60b	-0.00015618668
43	0x3b37a9fe	0.0028024907
44	0x00000000	0.0
45	0x3a57b454	0.000822847
46	0x314aae36	2.9493896e-09
47	0xb1ba5333	-5.422771e-09
48	0x31889473	3.9749977e-09
49	0xb15f9263	-3.2533982e-09
50	0xba1346d6	-0.00056181604
51	0x37bf8b87	2.2833947e-05
52	0x399ff193	0.0003050683
53	0xb7c46e77	-2.341646e-05
54	0x00000000	0.0
55	0xb8bad552	-8.908905e-05
56	0x31d2765e	6.125261e-09
57	0xb0ad1910	-1.259453e-09
58	0x3247e3ef	1.1635151e-08
59	0x328ddfc3	1.6516315e-08
60	0xbbf6e69e	-0.007534816
61	0x37ec2eaa	2.8155122e-05
62	0x3b4b612f	0.0031033268
63	0x393058ec	0.00016817794
64	0x00000000	0.0
65	0x3b3de32c	0.0028974516
66	0xb1f496e4	-7.118489e-09
67	0x31eeba90	6.9479213e-09
68	0xb282ce34	-1.5227762e-08
69	0xb28f2232	-1.6662941e-08
70	0xba149c08	-0.00056690024
71	0xb916a504	-0.00014366588
72	0x3b04be7f	0.0020255146
73	0x3a1a020e	0.000587494
74	0x00000000	0.0
75	0x3b110999	0.0022130965
76	0xb0b860b6	-1.3415249e-09
77	0xb203c75c	-7.670533e-09
78	0x303ecaac	6.940961e-10
79	0xb119cf8b	-2.2382405e-09
80	0xbabceb41	-0.0014413373
81	0x390da5dc	0.00013508595
82	0x3ac8d41e	0.0015322005
83	0xbad1be27	-0.0016002104
84	0x00000000	0.0
85	0x3a829b4d	0.0009964496
86	0xb0eacbfa	-1.7083714e-09
87	0xb08f758f	-1.0438032e-09
88	0xb15f2f68	-3.2477718e-09
89	0xb199c8e5	-4.475725e-09
90	0xbb1cf386	-0.0023948862
91	0x39cdbc82	0.00039241096
92	0x3b0a829f	0.0021134985
93	0xbb0b65ad	-0.002127032
94	0x00000000	0.0
95	0x3a780c8a	0.00094623177
96	0xb1855bac	-3.8812313e-09
97	0xb107efc2	-1.9781372e-09
98	0xb183fc20	-3.841265e-09
99	0xb18f1a26	-4.1648205e-09
100	0xbb05f03b	-0.0020437378
101	0x38dc4bd9	0.00010504545
102	0x3a7f9cea	0.000975086
103	0xb9bcaa71	-0.00035985143
104	0x00000000	0.0
105	0x39bf03a7	0.0003643308
106	0xb16ae72e	-3.4182892e-09
107	0xb1e3cca9	-6.6298367e-09
108	0xb109ea44	-2.0069288e-09
109	0xb1c09e3a	-5.6059237e-09
110	0xb971ea42	-0.00023070819
111	0xb8b93afd	-8.832475e-05
112	0x3a393ff1	0.0007066718
113	0x340f2894	1.3332675e-07
114	0x00000000	0.0
115	0x3ab20f54	0.001358489
116	0xae3a133e	-4.2308594e-11
117	0x32120fa1	8.501872e-09
118	0xafb2d8b7	-3.2531997e-10
119	0x3213bbc1	8.5992165e-09
120	0x3bcb5d7a	0.0062062116
121	0xb9ee0357	-0.00045397386
122	0x3aafd926	0.0013416156
123	0x3a8ceac4	0.0010751118
124	0x00000000	0.0
125	0x3b116051	0.0022182653
126	0xafa1a829	-2.9405214e-10
127	0xb122233b	-2.3594129e-09
128	0xb0532743	-7.6817147e-10
129	0xb0ac3b16	-1.253144e-09
130	0xb9bdc862	-0.00036198186
131	0x399eea0b	0.00030310484
132	0x393a256f	0.00017752287
133	0xbac452c7	-0.0014978283
134	0x00000000	0.0
135	0xba1ba79c	-0.00059377565
136	0xb0521669	-7.64294e-10
137	0x316482c1	3.3252692e-09
138	0xb113d407	-2.151184e-09
139	0xb151bb7a	-3.052007e-09
140	0xbb1fb7d3	-0.0024371042
141	0x39ed4797	0.000452575
142	0x38e50993	0.00010921354
143	0xbb1b5c2c	-0.0023706062
144	0x00000000	0.0
145	0xba74072e	-0.0009308931
146	0x3055d9a5	7.779824e-10
147	0x31a78f1c	4.8766093e-09
148	0x310f929b	2.0892574e-09
149	0x314f0ddd	3.0130345e-09
150	0xbb5799a4	-0.0032897973
151	0xb8906612	-6.885467e-05
152	0x39c62490	0.00037792744
153	0x3a1cfc99	0.0005988568
154	0x00000000	0.0
155	0x389d6b42	7.506322e-05
156	0xb0027504	-4.7460014e-10
157	0x3009ca88	5.0128124e-10
158	0xafd372dd	-3.8462292e-10
159	0x30615a0f	8.1982504e-10
160	0xba9bc710	-0.0011884887
161	0xb9349427	-0.00017221329
162	0x39779929	0.00023612812
163	0x3a648c51	0.00087184185
164	0x00000000	0.0
165	0x398144ed	0.0002465615
166	0x320af1f5	8.087672e-09
167	0xb1758c5a	-3.5731973e-09
168	0x322e7da2	1.0156699e-08
169	0x320cbce3	8.19202e-09
170	0xbb2e18da	-0.0026565106
171	0x399beefc	0.0002974196
172	0x3a5cccca	0.000842285
173	0xbade8fdd	-0.001698013
174	0x00000000	0.0
175	0x38d99475	0.000103750186
176	0x3044d620	7.1608675e-10
177	0xaf01321d	-1.1750285e-10
178	0x30bd2f8f	1.3765077e-09
179	0x30930f72	1.0700048e-09
180	0xbc131156	-0.008976301
181	0x38d2502f	0.00010028516
182	0x3b97e74b	0.0046357266
183	0xba2533b1	-0.0006301953
184	0x00000000	0.0
185	0x3b6fce1c	0.0036591357
186	0x3082d0f5	9.518134e-10
187	0xb17825a8	-3.6110155e-09
188	0x3081b387	9.43701e-10
189	0xb1591fe5	-3.1595786e-09
190	0xbbd99428	-0.006639976
191	0x39e19271	0.00043024452
192	0x3925d8b5	0.00015816356
193	0xbacbc33d	-0.0015545856
194	0x00000000	0.0
195	0xba5f5afc	-0.00085203326
196	0xb0eec152	-1.7371724e-09
197	0x31ecf0c8	6.8958776e-09
198	0xaf507db7	-1.8962153e-10
199	0x31eb60d9	6.8504105e-09
200	0xbb75b702	-0.0037493114
201	0xba3339ec	-0.0006836939
202	0x3b1df973	0.0024104982
203	0x3b793fbb	0.003803237
204	0x00000000	0.0
205	0x3b50c2ef	0.003185447
206	0x316ddc2a	3.4613188e-09
207	0x32530967	1.2283954e-08
208	0x31578502	3.1362224e-09
209	0x3053b8d1	7.702399e-10
210	0xba4fa7e3	-0.00079214404
211	0x3960536f	0.00021393386
212	0xb8952794	-7.112246e-05
213	0xba9dbf89	-0.0012035231
214	0x00000000	0.0
215	0xb9cbc432	-0.00038865354
216	0x311bb9e9	2.2661146e-09
217	0xb18581ae	-3.8855523e-09
218	0x31111e94	2.1117659e-09
219	0xb0c92750	-1.4635848e-09
220	0x3be6fc7e	0.0070491424
221	0x39ac1764	0.00032823824
222	0xbb2fd815	-0.0026831676
223	0xbb106bdd	-0.0022036948
224	0x00000000	0.0
225	0xbb36dafe	-0.0027901526
226	0xb17f8495	-3.7182748e-09
227	0x3208aa9e	7.955036e-09
228	0xb18059c4	-3.7354955e-09
229	0x31f30931	7.0732757e-09
230	0x3a1b7195	0.0005929706
231	0x37a7fc66	2.0025484e-05
232	0xb9ebbbfe	-0.00044962758
233	0xb995b125	-0.00028551478
234	0x00000000	0.0
235	0xb98d1756	-0.00026911002
236	0xb1d40af3	-6.171257e-09
237	0x326fd3ae	1.3959761e-08
238	0xb1e724b2	-6.7271566e-09
239	0x31f8b37c	7.238155e-09
240	0xb988d232	-0.0002609655
241	0xb880f161	-6.148476e-05
242	0x39babc90	0.00035617175
243	0x3a01802f	0.00049400603
244	0x00000000	0.0
245	0x3a0ef424	0.000545325
246	0xb10b8a8a	-2.0305913e-09
247	0x314f5fbe	3.0176888e-09
248	0xb10b3f4d	-2.0263144e-09
249	0x3114d36f	2.165702e-09
250	0xb9f8a991	-0.00047428583
251	0x39599a33	0.00020752176
252	0x3a3bfbb0	0.0007170988
253	0xba290d69	-0.00064488366
254	0x00000000	0.0
255	0x38fe4dfe	0.00012126191

exp_avg_sq f4 [128, 10]
0	0x37dc5b46	2.6268546e-05
1	0x3552dcbf	7.8552324e-07
2	0x38061dbd	3.1975786e-05
3	0x37b111cc	2.1108332e-05
4	0x00000000	0.0
5	0x37dc33d7	2.6250184e-05
6	0x351922b0	5.704742e-07
7	0x36cb7f76	6.06471e-06
8	0x34d4afcd	3.961599e-07
9	0x369f49b3	4.747149e-06
10	0x3778cd5d	1.4829767e-05
11	0x350d5685	5.2652496e-07
12	0x378cbd30	1.6777398e-05
13	0x3781dee9	1.5481799e-05
14	0x00000000	0.0
15	0x3744aec8	1.1723205e-05
16	0x3512f55c	5.4746283e-07
17	0x357115cf	8.981123e-07
18	0x34ff4cc8	4.7553317e-07
19	0x3655562e	3.1789637e-06
20	0x37fabc0b	2.9889887e-05
21	0x353ae12a	6.9618056e-07
22	0x37c883ab	2.390317e-05
23	0x37e15d48	2.6865528e-05
24	0x00000000	0.0
25	0x37a965d1	2.0193782e-05
26	0x35311907	6.597406e-07
27	0x365c198c	3.2797425e-06
28	0x3565ead9	8.5650896e-07
29	0x36beeae5	5.6897866e-06
30	0x379808d5	1.8123925e-05
31	0x351d4a23	5.859494e-07
32	0x3794ff86	1.7761962e-05
33	0x37d13334	2.4938585e-05
34	0x00000000	0.0
35	0x37822858	1.5515994e-05
36	0x357d81c0	9.4438656e-07
37	0x3615279a	2.2225781e-06
38	0x351ff20d	5.9584346e-07
39	0x36dfdbb8	6.6714965e-06
40	0x3742b8a3	1.160629e-05
41	0x34c49811	3.6618488e-07
42	0x37583eae	1.2889197e-05
43	0x372a2b9b	1.0142942e-05
44	0x00000000	0.0
45	0x36f4b73d	7.2930984e-06
46	0x34934ffe	2.7439086e-07
47	0x35630ec4	8.4585577e-07
48	0x34545557	1.9775085e-07
49	0x35df6c74	1.6646359e-06
50	0x37083495	8.118474e-06
51	0x34c514e6	3.6709315e-07
52	0x371c8757	9.329836e-06
53	0x373ab811	1.112932e-05
54	0x00000000	0.0
55	0x36e3d56f	6.789974e-06
56	0x34e49f61	4.2584273e-07
57	0x35a381c5	1.2182214e-06
58	0x35394b38	6.902733e-07
59	0x361467ec	2.211421e-06
60	0x38d20fa2	0.00010016492
61	0x362264c9	2.4198546e-06
62	0x38a4366c	7.830266e-05
63	0x38cb8906	9.705317e-05
64	0x00000000	0.0
65	0x38c52903	9.401331e-05
66	0x358b9d08	1.0402009e-06
67	0x362c1446	2.5641798e-06
68	0x35edd5d0	1.7720104e-06
69	0x36a4a756	4.9070613e-06
70	0x36bf8fb5	5.7089733e-06
71	0x3466ed2e	2.1506705e-07
72	0x36eeacf4	7.113087e-06
73	0x36afc5da	5.2384394e-06
74	0x00000000	0.0
75	0x368b59f4	4.1529947e-06
76	0x348821a9	2.5356465e-07
77	0x35c4e646	1.4670156e-06
78	0x34b00452	3.2785698e-07
79	0x35d76c0f	1.6050197e-06
80	0x36d5a9b2	6.36765e-06
81	0x344e5678	1.9216702e-07
82	0x36dc9da1	6.5748613e-06
83	0x36ac8669	5.141647e-06
84	0x00000000	0.0
85	0x367b13ed	3.7413513e-06
86	0x33d166d5	9.751026e-08
87	0x339138bd	6.762409e-08
88	0x33dc09f4	1.0246359e-07
89	0x3507a2c5	5.052828e-07
90	0x38312f56	4.2244174e-05
91	0x35c7021e	1.4827272e-06
92	0x383f5dfd	4.5625482e-05
93	0x384e4764	4.9180715e-05
94	0x00000000	0.0
95	0x382da228	4.1397434e-05
96	0x355aa073	8.1444813e-07
97	0x35eb752b	1.7542965e-06
98	0x3517a643	5.6493826e-07
99	0x368963fe	4.094559e-06
100	0x37032791	7.817421e-06
101	0x34d45363	3.954875e-07
102	0x37324f7f	1.0628136e-05
103	0x3710a4c2	8.6214295e-06
104	0x00000000	0.0
105	0x3737bc80	1.0951539e-05
106	0x3444126a	1.8260621e-07
107	0x34b722b5	3.411166e-07
108	0x343ba798	1.7476702e-07
109	0x3583e81a	9.827811e-07
110	0x37d78660	2.569257e-05
111	0x353ad25a	6.95965e-07
112	0x37b7726a	2.1868578e-05
113	0x37eda24b	2.8328175e-05
114	0x00000000	0.0
115	0x37af275b	2.0879952e-05
116	0x34427248	1.8109233e-07
117	0x34b3edf3	3.351448e-07
118	0x3416ce4f	1.4044893e-07
119	0x35aed218	1.3025156e-06
120	0x38fe3eec	0.00012123384
121	0x366031e0	3.3407632e-06
122	0x39372889	0.0001746734
123	0x38b3cbf5	8.573375e-05
124	0x00000000	0.0
125	0x3908bf24	0.00013041176
126	0x35b8ab10	1.3758854e-06
127	0x373d8327	1.1295814e-05
128	0x35685976	8.655692e-07
129	0x3728b89c	1.0056563e-05
130	0x37489c0f	1.1957264e-05
131	0x34efd9c5	4.4675667e-07
132	0x3717c1ab	9.045393e-06
133	0x377c5e9c	1.5042398e-05
134	0x00000000	0.0
135	0x372f57be	1.0451242e-05
136	0x348837e9	2.5372654e-07
137	0x35f00f59	1.788586e-06
138	0x34759957	2.2873188e-07
139	0x35be2792	1.416762e-06
140	0x37d90ad1	2.5873453e-05
141	0x353d859f	7.060243e-07
142	0x378b670b	1.6618074e-05
143	0x381fe516	3.8121907e-05
144	0x00000000	0.0
145	0x37f9d80f	2.9783723e-05
146	0x3408f817	1.2756242e-07
147	0x34cac15c	3.776612e-07
148	0x33b5a215	8.457952e-08
149	0x35631620	8.4596286e-07
150	0x37676e5c	1.3794368e-05
151	0x34ab28dc	3.188096e-07
152	0x372176ab	9.623977e-06
153	0x378121dc	1.5393765e-05
154	0x00000000	0.0
155	0x374ced15	1.22145475e-05
156	0x33a0e4bd	7.492188e-08
157	0x33a41929	7.641422e-08
158	0x334556ca	4.594657e-08
159	0x3513706a	5.492535e-07
160	0x378c1cd2	1.6702721e-05
161	0x3516c841	5.617076e-07
162	0x3767e289	1.3821417e-05
163	0x378b58fe	1.6611531e-05
164	0x00000000	0.0
165	0x377e95cc	1.5174457e-05
166	0x34e3786f	4.2369672e-07
167	0x35b0fb21	1.318611e-06
168	0x34ee622f	4.4402393e-07
169	0x36252019	2.46056e-06
170	0x372048f3	9.553728e-06
171	0x348b3bc5	2.5934256e-07
172	0x36e0c691	6.6988364e-06
173	0x371020ab	8.590675e-06
174	0x00000000	0.0
175	0x3702055a	7.74985e-06
176	0x3397814c	7.0550044e-08
177	0x355aa307	8.1448565e-07
178	0x3398ee09	7.12135e-08
179	0x35188c71	5.682878e-07
180	0x388c6577	6.6946195e-05
181	0x35c071ed	1.4338272e-06
182	0x383d28b3	4.5099016e-05
183	0x387d5507	6.039909e-05
184	0x00000000	0.0
185	0x386121b8	5.3675583e-05
186	0x34653c44	2.1349211e-07
187	0x3524e6be	6.1430535e-07
188	0x3415b6a2	1.3943148e-07
189	0x35c59a33	1.4722522e-06
190	0x3899ed5c	7.33982e-05
191	0x35f22eec	1.8044061e-06
192	0x389141e1	6.92641e-05
193	0x38899182	6.559772e-05
194	0x00000000	0.0
195	0x3898737f	7.2694376e-05
196	0x353098b1	6.5787304e-07
197	0x36877a6e	4.037566e-06
198	0x34fabd02	4.670365e-07
199	0x369dcc49	4.7027465e-06
200	0x3839f714	4.4337547e-05
201	0x35669b5c	8.5907755e-07
202	0x37fb4211	2.9952296e-05
203	0x37ff4268	3.0429292e-05
204	0x00000000	0.0
205	0x38142cf1	3.5327805e-05
206	0x34d98307	4.0514735e-07
207	0x368d1f70	4.2057873e-06
208	0x35025836	4.855714e-07
209	0x35ffb4ca	1.9051597e-06
210	0x367b33cb	3.7432062e-06
211	0x33e1c750	1.0513634e-07
212	0x3653bcf5	3.1551438e-06
213	0x3694a4d1	4.429931e-06
214	0x00000000	0.0
215	0x36666299	3.4330062e-06
216	0x3364472b	5.3150114e-08
217	0x3419a52a	1.4309322e-07
218	0x3364576e	5.3164904e-08
219	0x349364f8	2.7454348e-07
220	0x38536e13	5.0408835e-05
221	0x3582a9e6	9.735202e-07
222	0x383c463e	4.488811e-05
223	0x37f04d9b	2.8646367e-05
224	0x00000000	0.0
225	0x3837036e	4.3633794e-05
226	0x34683393	2.1625446e-07
227	0x35b474b9	1.3445016e-06
228	0x343a2e6d	1.733949e-07
229	0x35e00200	1.6689883e-06
230	0x372dab4b	1.0351486e-05
231	0x34d26541	3.918922e-07
232	0x3759e441	1.2987352e-05
233	0x37501e42	1.2404811e-05
234	0x00000000	0.0
235	0x37474391	1.1877056e-05
236	0x3539abae	6.91677e-07
237	0x364a2f0d	3.0127733e-06
238	0x3500b7bf	4.79511e-07
239	0x369a844f	4.6049604e-06
240	0x36c275cd	5.7953644e-06
241	0x344345f5	1.818624e-07
242	0x36cacfe4	6.044271e-06
243	0x3701b47c	7.7310215e-06
244	0x00000000	0.0
245	0x36e03926	6.682373e-06
246	0x33d81a45	1.0063062e-07
247	0x34a76ff7	3.118764e-07
248	0x33946534	6.910196e-08
249	0x3541413a	7.199302e-07
250	0x3804a4c9	3.162472e-05
251	0x352604f0	6.1847004e-07
252	0x3796aa96	1.7960829e-05
253	0x38049e65	3.161877e-05
254	0x00000000	0.0
255	0x377f0437	1.5200166e-05
