ML-Agents/Examples/SphereHunt/results/imitation_test_001/SphereHunt/SphereHunt-6355.pt (torch, 538251 bytes, 50 tensors)

network_body._body_endoder.seq_layers.0.weight f4 [128, 10]
00000000: b894 2d3c e4ac bb3e 3592 12bd 98ae 193d
00000010: dcf6 8cbe 88f7 ec3c f861 bd3e 5f03 c63e
00000020: d760 32be 7ead 593e b14d 2fbc 5cf1 63be
00000030: dc1b 88be b74c 713e 7421 3f3f 3a54 9fbe
00000040: 4e24 1bbe 2dbf ce3e da88 22bf 58c6 4abe
00000050: c1a7 8fbd ed86 9f3e a9bb 503e aaed 4bbe
00000060: 4f0d 4c3e 38b6 e6be 05f0 09bf 621a 0dbe
00000070: 823f 0fbe 0871 acbe 3006 c9bd a4ea 9ebe
00000080: 3c72 073e 7afc 063f a176 833e 07f9 283f
00000090: 387e 0dbf 7e10 843e a91d db3e ea6e 2fbe
000000a0: 34df d93e b0a1 a23e b1ad 473e e1e0 fdbd
000000b0: 9038 dcbd dc40 013f 382d 393e c813 a03e
000000c0: 6396 993e 0d04 523f b8ec e43c 5431 1abe
000000d0: 0c95 3fbf eb50 7a3e 67f4 9d3c b918 803e
000000e0: ec1b 89be bf72 cfbe ec56 d2be 375f 91bd
000000f0: ac82 893e 6875 50be 87b0 813d dd5d afbd
00000100: 5343 b43e 251b 74be e49e 153e 1a55 81be
00000110: 56c7 a63e 3778 7b3c 6dcf 813d 8366 963d
00000120: 9054 503e 7932 043c 6f03 a43e 0e3e 9c3e
00000130: 4720 f0be 03d8 94be 7c29 8b3e 4c10 babe
00000140: 1784 abbe 147e ddbe 32b0 083d 710f 51be
00000150: c0e0 f43e a0a7 02be 1a78 17be 48c8 4bbd
00000160: 96f8 383f c4f0 ab3e 31a4 a8be 740c 96bd
00000170: 6fbb 8f3e 5c1b 07bf 7fd5 2c3d e7d3 313e
00000180: aa3f 56be 6a99 173f 3bf0 0c3f 4efc 1dbf
00000190: 6df8 af3e 7856 503e 913d 093f 6f18 16bf
000001a0: 733c acbd ee44 e8bd b62c f0be 1670 d1bd
000001b0: 4e7a d1be a737 f93e bf59 60be 8eab dbbe
000001c0: 80b1 04bf 32c2 1f3e 6cc2 8cbe 9c9b ee3e
000001d0: 2b85 40be 8876 08bf 5c43 24bc adb6 063f
000001e0: 5453 d0be d41b ec3d 8ea2 243c e9bc c5bd
000001f0: 8fb6 2bbf 34be 48be 7fb4 c1be 4e2c cdbc
00000200: e116 e1bd c2e5 14be 43be e73d 074b 263e
00000210: 6f05 46be 8a05 eebc 4e09 d33e 740b fdbe
00000220: ad0f 583e e943 e7be 6573 223d 9d59 e43e
00000230: 73cc 27be 4ac1 b6be ecfe 1fbe c2c4 85be
00000240: 46e6 b73d 6d09 8fbe 2e2a 2f3e 4dad 3dbe
00000250: 5d62 71bf 0476 cbbe f287 43be 6501 78be
00000260: 9bdd 0c3e 21e4 a2be d68f f0bb 079f e93e
00000270: a0f3 82be aeb4 54be de04 b2be e62e 42bd
00000280: 152a 093e bded 4d3e a777 53be 3dc4 ed3c
00000290: 8e86 253e a02d 2e3c c885 073f fb70 cbbe
000002a0: 2e05 0d3f 46e8 c2be a629 f43e b510 50be
000002b0: 64f7 f5bd 44c6 0c3f 40af d3be 2668 923d
000002c0: cd05 10be 3eae 5c3f f06e e63d d2fa 673f
000002d0: a936 4c3e 9770 463f 3bf2 b0be b655 8d3e
000002e0: cce8 b0bd 8b2c 32be 55be 0bbf 0b70 11be
000002f0: f377 4e3e 70be 5ebe bdae 6e3e c130 99bc
00000300: 5cf6 c33e 774a f2be 310d b8bd e75c 3c3e
00000310: 6dc6 08bc c92c 8d3e fbfe 613e db8c 283e
00000320: 71f8 b0bd d2f7 c23d ec18 14bf e56d a0be
00000330: d1a9 3cbe c2ca 383e bc10 d53e af36 d63e
00000340: 40f5 a43d 1175 b1be c109 0bbb ad4c 263d
00000350: 5e41 f13e f0c1 273e 4118 8cbe 40b3 653e
00000360: 0283 ae3e 9b29 51be 1272 0cbf 04e3 8bbe
00000370: 2848 b03d a9ed 3d3e 5d86 4bbe 8f7e ca3d
00000380: 737f c13d 9072 02be a77d 4f3d b65a 79be
00000390: 96a8 cc3e 8962 f43e 6d12 9bbe 7c12 3b3f
000003a0: b43f 8cbe 1aa0 243e eed3 0d3f bd8d 9f3e
000003b0: f423 f3bd 6844 b1be 974c 38be 4ad2 98bd
000003c0: 6d54 e1be c9cc ab3d 1859 8dbe fd85 5138
000003d0: 7de3 b4be 6f45 00bd a198 c6be d9ec 2abe
000003e0: 87d1 333e e0af 9ebe c9f6 973e f49b 3fbf
000003f0: a74f 6ebf 6e99 973f df5f 06bf 8ea5 183f
0.010594539 0.36655343 -0.035783965 0.03752002 -0.2753209 0.028926626 0.36988807 0.38674447
-0.17419754 0.21257588 -0.010699675 -0.2226004 -0.26583755 0.2356442 0.7466042 -0.31118947
-0.15150568 0.4038023 -0.6349007 -0.19802225 -0.070144184 0.31157628 0.20384087 -0.1991488
0.19926952 -0.45060897 -0.53881866 -0.13779595 -0.1398907 -0.33679986 -0.09815633 -0.31038392
0.1322717 0.52729 0.25676444 0.66004986 -0.5527072 0.25793833 0.42796066 -0.17132154
0.42553103 0.31763983 0.19499852 -0.12396408 -0.10752976 0.5048959 0.18083656 0.31265092
0.29997548 0.8203743 0.027944908 -0.1505788 -0.748368 0.2444493 0.01928158 0.25018862
-0.26779115 -0.40517232 -0.4108194 -0.07098239 0.26857507 -0.20357287 0.06332498 -0.08562825
0.35207614 -0.2383848 0.14611393 -0.2526024 0.32573956 0.015348486 0.063383915 0.07343771
0.20344758 0.008068674 0.3203387 0.30516094 -0.46899626 -0.29071054 0.27180088 -0.3634056
-0.33499214 -0.43260252 0.033371158 -0.20416047 0.4782772 -0.12759256 -0.14791909 -0.04975155
0.7225431 0.33582127 -0.32937768 -0.07326594 0.28072688 -0.5277612 0.042195793 0.1736599
-0.20922723 0.59218466 0.5505406 -0.6171311 0.3436922 0.20345485 0.5360957 -0.5863103
-0.08409967 -0.11341272 -0.46909112 -0.10226457 -0.40913624 0.48675272 -0.21909235 -0.42904323
-0.51833344 0.15601423 -0.27492082 0.46603096 -0.188008 -0.53305864 -0.010025825 0.5262249
-0.40688574 0.11528745 0.010048522 -0.096551724 -0.6707544 -0.19603807 -0.3783302 -0.02504554
-0.10990692 -0.1454077 0.113155864 0.16239558 -0.1933801 -0.029055376 0.41218036 -0.494228
0.2109973 -0.45169 0.03966083 0.4459962 -0.16386585 -0.35694343 -0.15624589 -0.26126677
0.08979468 -0.2793688 0.17105934 -0.1852314 -0.94290715 -0.39738476 -0.19094828 -0.24219282
0.13756411 -0.31814674 -0.0073413653 0.4562914 -0.25576496 -0.20772049 -0.34769338 -0.047408007
0.1339496 0.20110221 -0.20651112 0.029024238 0.1616461 0.010630995 0.5293851 -0.39734635
0.5508603 -0.38067836 0.47688025 -0.20318873 -0.12010077 0.5499003 -0.41344643 0.07148771
-0.14064713 0.8620337 0.112516284 0.90617096 0.19942726 0.7751555 -0.34559807 0.27604455
-0.086381525 -0.17399804 -0.545873 -0.14202897 0.20162944 -0.21752334 0.23308845 -0.018700005
0.38273895 -0.47322437 -0.08986891 0.18394814 -0.00834809 0.2757323 0.22069924 0.16459982
-0.086411364 0.09519924 -0.5785053 -0.31333843 -0.18424155 0.18046096 0.4161433 0.41838595
0.0805459 -0.34659627 -0.002121553 0.040600467 0.47120184 0.16382575 -0.27362254 0.2243166
0.34084326 -0.20426027 -0.5486156 -0.27321637 0.08607513 0.18547691 -0.19875474 0.098874204
0.09448137 -0.12739015 0.05065694 -0.2435101 0.3997237 0.47731426 -0.30287495 0.7307508
-0.27392352 0.16076699 0.55401504 0.31162825 -0.11872092 -0.34622502 -0.17997967 -0.074619845
-0.44009724 0.08388669 -0.27607036 4.995427e-05 -0.3532981 -0.031316217 -0.38788322 -0.16691913
0.17560397 -0.30993557 0.2968047 -0.7484734 -0.9309029 1.1843698 -0.5249004 0.59627616

network_body._body_endoder.seq_layers.0.bias f4 [128]
00000000: f7fe a63d 3881 cf3d f530 383e 4cb1 263d
00000010: aba2 3cbc 79fe 013e ddeb fbbd ff3d 7a3d
00000020: 53d0 a2bd 7a08 03bd 3117 1b3e ad65 843d
00000030: c75a af3d 5570 aa3c 0d46 133e 6343 dc3c
00000040: ea6d 1dbd 150e 353d 6878 583d 1e18 a23d
00000050: b676 c83d ffb2 8f3c 64aa 853c 77fa 383e
00000060: abd0 e03d 56e5 8e3d 4fbb 873d 7638 573d
00000070: e56e fa3d 8af7 583d 8343 8dbd 16e7 603d
00000080: 9109 a73d f023 0eba fbf9 e53d f404 f53c
00000090: 1956 453e 6dc0 9fbd 5e88 6c3d 6d98 aa39
000000a0: 80d3 513d a9a4 f33c d0ef 413d dc8c 863d
000000b0: 73cd 9cbc 6ff0 a0bd 74e3 fe3d 4de5 7b3e
000000c0: ac97 5d3d 3e54 86bd b1b5 1f3e 97ce df3d
000000d0: ae85 423d 33de 413e 3def b43c 1630 a73d
000000e0: 17fd 163d 9e5d 8a3e 8376 a5bd aa7e a9bd
000000f0: 185d 153e 1312 093d 75d3 093e dba5 ec3d
00000100: ebed 003e b3a8 3fbe f0fe be3d 3e04 963d
00000110: 6e1c d5bd d0f4 583e b3b8 df3d 0c74 c33d
00000120: 8b2c 7d3e ed39 693e 1285 823d 4fdc 333d
00000130: 6aeb a4bb f0dd dc3d 45ef a5bd 7923 2cbe
00000140: 5c88 d53c 6285 103e 90c7 c43d c94e 7c3d
00000150: c54b b23d a577 8b3d dfe3 2dbc 477d 9fbd
00000160: 1402 273e e572 d5bd 509a 8b3d f112 ce3d
00000170: ec0b ce3d 1741 3dbd ef27 ed3c 4bb6 2b3e
00000180: 9c6c 9d3d 3a60 323d 601f 783d 4f43 efbd
00000190: b602 1e3e 6f72 dc3b 8558 533e a2ba e03d
000001a0: 293c 9ebd a5da 6d3d 3f01 86bd 7351 0f3e
000001b0: f91a d23c e406 7e3b 09d1 923d 15be f23d
000001c0: 9d0e 8cbd df0e 023e 8a01 2f3e 38fc 9abd
000001d0: 191b 46bd 1d68 4bbc 22d9 503d a0a7 db3d
000001e0: 16d7 2bbd 7de9 28bd 36a4 383d 4172 fb3d
000001f0: dc2f c3bd e223 8abc 288c a93c 8b45 943e
0.081540994 0.101320684 0.17987426 0.040696427 -0.011513392 0.1269473 -0.12300847 0.06109428
-0.07949891 -0.031990506 0.15145566 0.064647056 0.08562236 0.020805517 0.14382191 0.026887601
-0.0384349 0.044202883 0.052849203 0.07914756 0.09788267 0.017541407 0.0163166 0.18064295
0.109773 0.06977336 0.06627523 0.05254408 0.12228183 0.052970447 -0.068976425 0.05490788
0.081561215 -0.0005422225 0.112293206 0.029909588 0.19271125 -0.07800374 0.057747237 0.00032538493
0.051227093 0.029741602 0.047347844 0.065698355 -0.019140935 -0.07858359 0.12445727 0.2459919
0.054099724 -0.06559037 0.15596654 0.10928076 0.047490768 0.18932419 0.022086734 0.081634685
0.03686246 0.2702455 -0.08079245 -0.082761124 0.14586294 0.033464503 0.1345957 0.11555072
0.12590759 -0.18716697 0.09325969 0.07325028 -0.10405813 0.21187139 0.109239005 0.095436186
0.24724023 0.22776003 0.063730374 0.043911275 -0.0050329464 0.10784519 -0.08102278 -0.16810407
0.026065998 0.14113382 0.09608376 0.061598573 0.08705858 0.0680993 -0.010613411 -0.07787567
0.16309386 -0.10422305 0.06816542 0.100622065 0.10060868 -0.046204653 0.028949706 0.16768758
0.07686731 0.0435488 0.060576797 -0.1168276 0.15430722 0.0067275087 0.20639236 0.109730974
-0.077263184 0.058069844 -0.065432064 0.13995914 0.025647627 0.0038761431 0.071687765 0.118526615
-0.06838725 0.12700985 0.17090431 -0.07567638 -0.048365686 -0.012414959 0.050988324 0.10725331
-0.04195317 -0.041238297 0.04507848 0.122776516 -0.09530613 -0.016862813 0.020696715 0.28959307

network_body._body_endoder.seq_layers.2.weight f4 [128, 128]
00000000: 3afa 6abb 3d8e eb3c 9aeb 733d 3c4f dbbd
00000010: 2d76 363c c62c e23d 2278 3abe 7ea2 a1bd
00000020: 0e7d 47be 7a1c 8dbe b4c3 933e 63bf fd3c
00000030: bb20 8f3d a7fa 52bc 38ee 953d fcec 013e
00000040: 12a2 d0b9 cf9d bebc 846f 093e 0170 683d
00000050: 24d8 0b3e 643d 10be 87cb 8abd f10d b23e
00000060: 05d2 123e 3b4f 4cbd a85c 35bc a4d0 99bd
00000070: 90cb 90bd b6e5 92bb ecb5 863c 81ea dd3d
00000080: 95ba c4bb fc6b 403d 7fea 2b3c 8a87 003e
00000090: 8b33 773e a72e 15bd 6086 fd3c 7c01 17be
000000a0: 5180 c83d 469f a1bd 9e22 de3d 6d93 363c
000000b0: 6d79 78bb 5645 d5bd 0f35 873e 716e 403e
000000c0: 7852 613d 783a d93c 93af 4d3e aada 113d
000000d0: 380e 143e 3d9d cf3d 86b6 83bd 990e 313e
000000e0: 0b80 333d 4caa 7f3e 8731 5f3d a023 84be
000000f0: 6640 d3bc 0705 a93d ff7f ce3d 4da3 e43d
00000100: 9783 403e 9a6e d2bd a7ac 0b3e c443 a1bb
00000110: 4a3e 38be de88 523e 83f0 4bbb 7fc7 133e
00000120: 03e0 bf3e 5fb2 263d 46d5 403e eca0 d6bc
00000130: 7e72 bd3c 8dfd 473e 07fd 15be bfb1 edbd
00000140: fdd6 583c 41ef ff3a 766e d23b 0ff7 25bd
00000150: 9faf 053e f6f6 cfbc cec6 2d3e 9b2f 52bd
00000160: 1e88 fa3d 2fbb 32bd 08fb 303c e565 0b3e
00000170: e540 373e 2b1d 70bc 282b a63b 1e85 6fbd
00000180: 574b d33d 1e59 4e3d 52cf 253d 8229 92bd
00000190: 8bbf 803e 233d 16bd 116d dc3d 6425 253e
000001a0: 25ce 1b3d 5b6c 193e 6ce4 b3bc 9b3a 743e
000001b0: 703d 553d f458 1c3d 2fa6 45bb d255 f53b
000001c0: c8b7 02bd eb8c 593d 481b 063e af2c 2fbe
000001d0: 5c0c ea3d 3396 14be 7cc8 acbd c1fe 483d
000001e0: e974 c3bd 9805 c83d c756 b9bd 76a2 c1bc
000001f0: 715a 43be 3e23 dabd 7742 6b3e 8371 f53d
00000200: 4be7 e4ba 0e63 82be 8924 d2bc 8d57 cdbd
00000210: a764 a43d f205 0b3d 0429 d33d 6bd6 423e
00000220: edc7 883d 0d75 81bd de4d c1bd aeae 9bbd
00000230: 4596 a33c bb82 b03b ef52 45bc 5a19 1a3d
00000240: 7743 0abd b204 b03d be03 b13d 4096 063e
00000250: 9fa4 03be 7981 283e c121 073e 013b 12be
00000260: 085a e7bd 40dc 8cbd 97f4 193e 73b9 88bd
00000270: 0a04 f23c 62e0 9c3d 1c0c 503c 8ce2 82bc
00000280: 5cad 22bd 8232 753d fd6b 733d 3169 7f3e
00000290: a256 25be cb7b 093c b35a 36bc bcd7 dabd
000002a0: 30e1 4ebe a60b 7e3d 44de f63d 9149 51bd
000002b0: 622d e83d ebca e4bd ea95 4bbd 14d9 efbc
000002c0: 46b1 56bd c331 a7bc df8f 3bbd f6c3 bd3d
000002d0: 4936 0abe 7ba7 eabd 569b 33be 826f 50bd
000002e0: a19b c5bd d254 cebd 6e17 513d 938e 353e
000002f0: e5f8 61bd 7b0e dabc a5ce eabb bea5 cfbc
00000300: f498 ea3c b58c 48bd 5dc3 063d b086 873d
00000310: 5d2b cd3c 4cbd 0c3d 09f6 eabd abb9 13bd
00000320: 91a2 3dbe c265 2f3d 0736 85bb 9d80 223e
00000330: a6cf c2bc 60c8 12be c5b3 b43d a8eb edbd
00000340: 660e 9c3d 2ece c53c 73fe 1d3e fc46 febd
00000350: e9df 26be 2cf2 943d 8897 abbd 4303 c63d
00000360: 6e64 be3d 861b 083d be76 523b bdb7 d9bb
00000370: 0fc1 253c bfd4 23bd c574 063e 6422 c43d
00000380: 6e21 163e ffec 19bd be72 2d3e 0fa3 be3d
00000390: 42d3 c3bd bb00 4fbe e241 12be 0014 133e
000003a0: 0645 753d 8a8c 2f3d 2e59 b8be 3fe3 a33b
000003b0: ecaa 7b3d 2852 6ebb bb0c 9a3d 71f9 1d3b
000003c0: 2df7 d3bd 7027 b5bd d9ec 883d 68b3 dabd
000003d0: f665 0c3d 4571 c0bd 24f2 763d 2c6e a1bc
000003e0: e334 213d 7fb7 be3c 48ca c93d 9127 643b
000003f0: 66aa 073e 439f 1d3c 841c 323d 9396 94bd
-0.0035854713 0.028754348 0.05955086 -0.10708472 0.011136574 0.11043696 -0.1820989 -0.07892321
-0.19481298 -0.27560788 0.28860247 0.03097505 0.06988665 -0.012877143 0.07320827 0.12688059
-0.00039793603 -0.023268608 0.13421446 0.05674744 0.1365667 -0.14085919 -0.06777101 0.3477626
0.14337929 -0.049880248 -0.011069454 -0.07510498 -0.070700765 -0.00448295 0.016444169 0.10835744
-0.0060036876 0.046977982 0.01049292 0.12551704 0.24140756 -0.036421444 0.030947864 -0.1474666
0.097900994 -0.07891707 0.108464465 0.0111435475 -0.0037914172 -0.104136154 0.26407668 0.1879213
0.05501029 0.026517138 0.20086507 0.035608925 0.14458549 0.10137413 -0.06431298 0.17290725
0.043823283 0.24967307 0.054490592 -0.2580843 -0.025787544 0.08252912 0.10083007 0.1116396
0.18800198 -0.10275002 0.1364008 -0.0049214084 -0.17992511 0.20560023 -0.0031118698 0.1443157
0.37475595 0.04069745 0.18831357 -0.02619978 0.023125883 0.19530316 -0.14647304 -0.11606168
0.013234851 0.0019526259 0.0064218594 -0.040518817 0.13055275 -0.025386315 0.16970369 -0.05131493
0.122329935 -0.043635543 0.010802038 0.13613088 0.17895849 -0.014655392 0.0050710626 -0.05847656
0.10317104 0.050377958 0.04048092 -0.07136823 0.25146136 -0.0366794 0.1076299 0.16127545
0.03803839 0.1498274 -0.021959506 0.23850481 0.052060544 0.03817077 -0.0030158868 0.007487037
-0.03191355 0.053112905 0.13096344 -0.17106889 0.114281386 -0.14510421 -0.08436677 0.049071077
-0.09543783 0.09766692 -0.090497546 -0.023637038 -0.1907747 -0.10651253 0.22974573 0.11984541
-0.001746395 -0.25466198 -0.025652187 -0.100264646 0.080270104 0.033941217 0.103105575 0.19027106
0.06678758 -0.06321154 -0.0943868 -0.07601677 0.019969115 0.005386678 -0.012043699 0.037621833
-0.033755746 0.085946456 0.08643292 0.13143253 -0.12855767 0.1645564 0.1319647 -0.1428032
-0.11296469 -0.06877947 0.1503471 -0.06675997 0.029542942 0.07659985 0.0126982 -0.015977167
-0.03971611 0.05986262 0.059429158 0.24942471 -0.16146329 0.008391331 -0.011130023 -0.10685679
-0.2020309 0.062022828 0.120541126 -0.05109555 0.11336781 -0.11171516 -0.049703516 -0.029278316
-0.052415155 -0.02040947 -0.045791503 0.09265892 -0.1349727 -0.114577256 -0.17539725 -0.050887592
-0.096488245 -0.10074772 0.051047735 0.17730169 -0.055169005 -0.026618233 -0.007165747 -0.025347587
0.028637387 -0.048962314 0.032901157 0.066174865 0.025045091 0.034360215 -0.11472709 -0.03606574
-0.18519045 0.042821653 -0.0040652785 0.15869375 -0.023780655 -0.1433425 0.08823351 -0.116172135
0.07619934 0.024146166 0.15429096 -0.12415883 -0.16296352 0.07272753 -0.08378512 0.09668591
0.09296499 0.033229373 0.0032114233 -0.0066442178 0.01011683 -0.039997812 0.13130482 0.09576872
0.1466119 -0.037579533 0.16938302 0.09308445 -0.095617786 -0.20215122 -0.14282945 0.14363098
0.05988028 0.042858638 -0.3600554 0.005001455 0.0614423 -0.0036364887 0.075219594 0.0024104977
-0.103498794 -0.08845413 0.066858 -0.1067875 0.034276925 -0.093966044 0.060289517 -0.019705854
0.039357077 0.023280857 0.09853035 0.0034813622 0.13248596 0.0096204905 0.043484226 -0.07255282

network_body._body_endoder.seq_layers.2.bias f4 [128]
00000000: a7e1 7f3e 596a b9bc 4af4 8bbc b87e 333e
00000010: 0b7c 043d f51a 343d 2e92 e73d d50c 0d3c
00000020: 2876 8e3d 15a1 113e 440a 733d e81f 873d
00000030: 52c0 023e 29bd 3b3d 06cc a03d 3761 f03d
00000040: 1313 bebc 03cc be3d 12a0 ad3d a5e6 d53c
00000050: a0b5 203e 617a 95bd b350 98bd 3f86 fb3d
00000060: 19b5 d9bc 27ef a23a ed5e ec3a 0a76 d63d
00000070: 03fe 373d 741e 5e3d f376 ca3c b9bd da3c
00000080: 3ccc 36bd 371a a3bd 15bb 5d3c 07eb fb3c
00000090: 1736 3d3d 2475 6f3d 2da9 613d 0e7c 983d
000000a0: 41dc d5bb 8b2e a53d c246 aa3d 3923 52bd
000000b0: 99ae c03c 88fd f33d ae5d ac3d c85f 3d3d
000000c0: a9dd 713d 4725 9b3d 08ce 3dbd 798a 973d
000000d0: fbda 9b3d ab6f 403c 0c4f 033e 2227 733d
000000e0: be3e b5bb effb ba3d 6403 c33d 79f4 1b3d
000000f0: e232 5d3d 5472 8a3d 75d2 1d3e b14a c43c
00000100: 89e3 c43d 13b6 753b 31f0 d43d 986d c2bd
00000110: b8ae 2ebc 4d22 97bc ee1d f1bc 6b76 0e3d
00000120: 5c46 983d cad1 09be 09a8 c9bc e7df 1e3e
00000130: 160c 993d 9c0f 363d 44e1 703d 7596 24bc
00000140: 9c35 81ba b713 6d3d df53 2c3e ee6b 493d
00000150: 8710 aa3d 3e34 103e 35fa 183e 162c 593d
00000160: fc56 333c 1969 22bd 3cdd f23d 10ea 283d
00000170: d401 f6bc 1a71 9d3d 5904 683d 83a4 0a3e
00000180: aeb9 33bc fd37 c53d 59b2 313e ab94 633d
00000190: 34d4 523d 9004 9b3d 9523 7d3d 2971 f43a
000001a0: 67f1 d83d 7d03 75bd 4fa4 a73d 23b3 8cbb
000001b0: 69ef 9d3d b416 cf3c d559 7c3d 3b3f a83d
000001c0: 5fe3 e43c 8645 0f3e 244d ca3d 5981 7fbd
000001d0: f314 083e edad ca3d 21f4 3a3b 5e39 2c3d
000001e0: dd74 e13d 4773 c53d 6ff8 e33b c034 1f3d
000001f0: 85a2 7d3d 6c03 7bbc b324 663d 75e5 7e3d
0.24988423 -0.022633718 -0.01708426 0.17528808 0.03234486 0.04397102 0.113071784 0.008609016
0.0695613 0.14221604 0.059335962 0.065978825 0.12768677 0.045834694 0.078514144 0.11737292
-0.023202455 0.09316256 0.084777966 0.026110956 0.15694284 -0.072987325 -0.07437267 0.12281465
-0.026575612 0.0012430892 0.0018033661 0.10471733 0.04491998 0.05422826 0.024714923 0.026701795
-0.044628367 -0.079639845 0.013533373 0.030751718 0.046194162 0.058461323 0.05509298 0.074455366
-0.0065265005 0.08065518 0.08314277 -0.051303122 0.023520755 0.119135916 0.084163055 0.046233922
0.059049282 0.075754695 -0.046339065 0.073994584 0.076101266 0.011745374 0.12823123 0.05936349
-0.005531161 0.09130084 0.09522131 0.038074944 0.054003604 0.067600876 0.15412314 0.023961397
0.096137114 0.0037492558 0.103973754 -0.094935596 -0.010661773 -0.018448973 -0.029433217 0.0347809
0.07435295 -0.13458934 -0.024616258 0.155151 0.07473008 0.04444848 0.05880858 -0.010045637
-0.0009857896 0.05788013 0.1682887 0.049175195 0.083039336 0.14082429 0.14939196 0.05302056
0.010946032 -0.03965101 0.11858603 0.041238844 -0.030030169 0.07687588 0.05664477 0.13539319
-0.010969562 0.096298195 0.1735319 0.055561703 0.051471904 0.075692296 0.06180151 0.0018649447
0.10592919 -0.05981778 0.08185636 -0.0042938157 0.077116795 0.02527938 0.061609108 0.08215185
0.02794045 0.13991365 0.09877995 -0.062379215 0.13289241 0.09896455 0.002852686 0.042046897
0.11008618 0.09641128 0.006957106 0.038868666 0.06192257 -0.01532064 0.056187343 0.062230546

action_model._continuous_distribution.log_sigma f4 [1, 2]
00000000: d3c2 12bf 6892 14bf
-0.5732853 -0.580359

action_model._continuous_distribution.mu.weight f4 [2, 128]
00000000: c9ae 763c 4684 d33c 8b7a 6c3d ab3d a93c
00000010: ea78 92bd ab8c 1b3d 7441 99bb 36c2 35bc
00000020: 1ff6 1abd 0434 d1bc ea80 53bd 89c0 8b3c
00000030: ebd3 bebb 57f6 853d 0e94 023d 9562 d8bd
00000040: 6a1c e63d 8203 86ba f18c 043c f493 c53d
00000050: 985f 59bb 30e9 953c d195 a23c 5de9 e53b
00000060: 0f66 d9bc 4bef 573c fbec 573c ad3c 7bbb
00000070: 9328 20bd 70fa 263e 1033 8f3c b18b 4b3c
00000080: bd35 84bd f0ca 81bd dd82 4b3d 7a22 b73d
00000090: 3462 5bbd d2c6 db3c 219a a0bc 1d90 daba
000000a0: 85aa 3abd b80e d9bd 2aa6 1abb 6af3 e3bd
000000b0: 5b1e e23c ef9b 2bbe 4348 1c3a 91e2 14bd
000000c0: 281e 02be 69d3 59bd b757 b4bc d2f8 0dbd
000000d0: 15d9 2a3d 8e49 bf3d 7ccd dd3c 2de0 13bc
000000e0: e5c7 5c3d b55f 66bb cd2b 0b3d 3e77 32bd
000000f0: e3d2 db3c 360b b6bd 2038 0cbb 4717 043d
00000100: 192a ecbc 4315 a43c 0296 2fbe 79a5 bb3d
00000110: d919 0e3e ed07 833d 2c9e 72bd 93f3 203d
00000120: 566f 86ba f27e 433c b095 2fbd 8518 a5bc
00000130: 8d08 8c3d c586 10bb 394f 393c e154 f8bc
00000140: c9da 91bc 94b5 db3c b62a 56bd b9b5 5bbd
00000150: 3fe2 5b3c 7988 133c 5efe 67bb 7121 b6bc
00000160: 6098 e0bc 69d0 b63c 2ca1 383c 0abc 3ebd
00000170: 44e7 e9bc ebe7 81bd cb09 fcbc 6de5 86bc
00000180: c83f 37bc 0daa 0a3b 8076 f13b fe37 9c3c
00000190: b9a3 853c 5100 e13c 6543 fcbd 0564 983d
000001a0: b43b eb3c 15b3 a3bc d7a2 f9bb 1cec dc3c
000001b0: dc45 e2bb ebf1 383d 800d 813c 77c0 c13b
000001c0: 67c7 b53c ade9 12bd 82ad cfbd 551a 983c
000001d0: 8387 193c a6fb b73d 7337 9c3c 75ff 18bc
000001e0: c4c3 2dbd 1976 8fbb 4603 30bd 32b5 e23c
000001f0: 5512 4cbd d1c3 06bd 62cb 153e 7680 15be
00000200: e3e1 813a a277 54bd a5e6 00be 5328 813b
00000210: 8960 013b 11f0 6a3c 05ab 833c 6c48 ba3d
00000220: 786a a7bc 012b 2ebc fc47 d03b 2110 1e3c
00000230: 6ed3 193c 3f1c aabd 39bf 0cbc 89ee 33bd
00000240: 9f94 e83c 04ea b63a 80aa be3c 5710 61bb
00000250: 74c3 42bd c443 f23c 8bf1 e7bb 3d2b d0ba
00000260: a7a1 753c 02be 0dbd bfab 9c3d a2c9 30bc
00000270: 0de1 f4bc 0c7b 8b3d 13f2 1f3d 76c6 fcbc
00000280: 3ed0 4a3c 5316 e6bc 8275 d93b 66ed 883d
00000290: d159 1ebd 5dd8 373d bb0b 593d 0aec 1dbe
000002a0: 2d6f 1cbd 4524 7a3c d467 9cbc 55ac 383d
000002b0: fd8a 07bd a1ab 843b e1b8 2fbd f6b1 2ebe
000002c0: 8113 69bb e273 403b e966 e4bc 87dd 05bd
000002d0: 0a03 f23c 4524 33bd 19a2 37bc 4168 dc3d
000002e0: 5696 04be 567e cabc 0dcf f33b 6ba1 0dbc
000002f0: 7c3c 85bd 5200 a63c 5b4c 64bc 1f97 ac3c
00000300: 9d46 75bc 2896 8dbd 4fa9 b4bd d697 a2bd
00000310: be9a b03d 121f 733c 2a97 94bd aee8 efbd
00000320: 3751 f23c e6c3 67bc f8c3 febb 5bb5 893c
00000330: e320 19be 1174 be3d a9d6 e53c c734 68bd
00000340: eedb b93c 5899 64bc 9553 123d f50e 8e3d
00000350: 5428 1abc e40c 193c 5212 cd3c 592a 18be
00000360: 7165 7f3d 540d 923d 93c7 2e3c 6dfc 34bc
00000370: 3e04 b13d 1144 103d b39b ef3c 3b8b 68bb
00000380: 24dd 5dbd bc67 8b3c f82d ca3a 22fa 1e3b
00000390: cb53 06bd 53d8 0bbd 3a46 10be cb0b e8bc
000003a0: 81a8 0f3d 54e3 8f3c 7c6e 90ba a17b 1a3d
000003b0: 9c9b 043e 52ba cbbc 44dd c23c 5095 03bd
000003c0: 86e4 2bbe fb8c 96bc 57c1 de3d bc6f 8a3b
000003d0: 547d 5d3c 4284 09bd c184 c0bd a252 30bc
000003e0: 338f 033c 7d7f f0bc 7f30 403c 8cfe fa3a
000003f0: 57d1 8ebd f1c6 143d 0ab9 a5bd 4313 08be
0.0150563205 0.025819909 0.057734054 0.020659288 -0.07151969 0.03797595 -0.004676992 -0.011093667
-0.037832376 -0.025537498 -0.051636614 0.017059581 -0.0058236024 0.06541126 0.031879477 -0.10565678
0.11235888 -0.0010224434 0.008090244 0.096473604 -0.003316855 0.018299669 0.019846829 0.0070163445
-0.026537923 0.0131796105 0.013179059 -0.0038335726 -0.039101195 0.16306472 0.017480403 0.012423442
-0.06455562 -0.063375354 0.049685348 0.08942123 -0.05356045 0.026828203 -0.019604744 -0.0016675029
-0.045572776 -0.105985105 -0.0023597577 -0.11130412 0.027602365 -0.16758703 0.00059616956 -0.036348883
-0.12706816 -0.053180132 -0.022014482 -0.03466112 0.04171093 0.09340201 0.027075522 -0.009025616
0.05390157 -0.003515226 0.03397732 -0.04357075 0.026833957 -0.08888857 -0.0021395758 0.03224876
-0.028828667 0.02002967 -0.17147067 0.09162421 0.13877048 0.06397996 -0.059232876 0.03929479
-0.0010256569 0.011932122 -0.042867362 -0.020153293 0.068375684 -0.0022052985 0.011310392 -0.03031391
-0.01780452 0.026819982 -0.052286826 -0.0536401 0.0134206405 0.009004706 -0.0035399417 -0.022232743
-0.027416408 0.022316175 0.011268895 -0.046566047 -0.028552659 -0.06343063 -0.030766388 -0.01646682
-0.01118464 0.0021158487 0.0073688626 0.019069668 0.01631342 0.027465971 -0.12317542 0.07440952
0.028714992 -0.019982854 -0.007618289 0.026968054 -0.0069053005 0.045152586 0.015753508 0.005912836
0.022189809 -0.03586738 -0.10140516 0.018567244 0.009370687 0.08983545 0.019069409 -0.009338249
-0.042423025 -0.004378092 -0.04297187 0.027674291 -0.04982217 -0.03290159 0.14628366 -0.14599785
0.0009909238 -0.051871903 -0.12587984 0.0039415746 0.0019741377 0.014339463 0.01607276 0.090958446
-0.02043651 -0.01063037 0.0063562375 0.0096474 0.009388788 -0.08306169 -0.008590513 -0.043928657
0.02839118 0.001395524 0.02327466 -0.0034342015 -0.04754968 0.029573329 -0.0070783547 -0.0015882027
0.014992154 -0.034605034 0.076499455 -0.0107902605 -0.029892469 0.06810579 0.03904922 -0.030856352
0.01237875 -0.028086817 0.0066363225 0.06685905 -0.038659874 0.044884074 0.052989703 -0.15422073
-0.038191963 0.015267436 -0.019092478 0.045086224 -0.033091534 0.00404878 -0.042900924 -0.17060074
-0.0035564604 0.0029365947 -0.027881103 -0.032681968 0.029542465 -0.04373576 -0.011208081 0.10762072
-0.12947974 -0.024718445 0.007440454 -0.008644442 -0.06505677 0.020263825 -0.01393422 0.021068154
-0.014970449 -0.06913406 -0.088213556 -0.07939117 0.08623265 0.014838951 -0.07255395 -0.11714302
0.029579742 -0.014145827 -0.007774826 0.01681011 -0.14953952 0.09299482 0.02805646 -0.056690957
0.022687878 -0.013952576 0.03572424 0.069364466 -0.009409029 0.009341452 0.02503315 -0.14859904
0.0623526 0.071314484 0.010667699 -0.011046511 0.08643387 0.035221163 0.029249048 -0.0035483378
-0.054165974 0.017017238 0.0015425077 0.0024257977 -0.032794755 -0.03414185 -0.1408929 -0.028325936
0.035072807 0.017564453 -0.0011019255 0.037715558 0.12949985 -0.024869118 0.023787148 -0.032124817
-0.16786394 -0.018377772 0.108767204 0.0042247456 0.01351865 -0.033573397 -0.09400321 -0.010761889
0.008029747 -0.029357666 0.011730312 0.0019149347 -0.06973522 0.036322538 -0.08091934 -0.13288598

action_model._continuous_distribution.mu.bias f4 [2]
00000000: b049 55bc 108f 5bbb
-0.013018057 -0.003350202

action_model._discrete_distribution.branches.0.weight f4 [2, 128]
00000000: 4927 463e adff 19bd fbaa babd 4089 073e
00000010: 468c c5bc ddb4 e7ba 6b31 683d 18b8 99bb
00000020: 008f 463d bb9d bb3d cd35 573d 2da7 173d
00000030: df15 a33d 68a3 443c 116d 5f3d 2927 7f3d
00000040: 9d21 e5bd 19fe 3c3d 41d0 5c3d e2a5 07bd
00000050: 5d59 263e 5ff0 86bd c0f4 17be a62e 563d
00000060: 418a 02bd 3839 a7bb 92f2 ab3c 9cf5 1e3d
00000070: dc8e 093d 75f6 b6bd b980 12bc 00e1 1c3d
00000080: 20f1 2ebe b157 0cbe 5a1a 173c 5101 163c
00000090: 9605 703d 5862 c63c a21f 9a3c 5e53 a83c
000000a0: 7bd7 3fbe 967d 34bd c9c6 203d 20fe b9bd
000000b0: 9d83 053c 6b06 4dbd 939f b73d 469e 09be
000000c0: e6ec cfbd 92ae 993d cb50 37bd f6ed 663d
000000d0: 99eb 573d d29c 8bbd 19cb d93d aea7 a23d
000000e0: 6364 54bd acd8 a73d d8b5 b73d 9674 d73c
000000f0: 1ffe 183d 9dfd 9dbb 681c ca3d 342f a53d
00000100: e438 ca3c efbc 103d c0ae 63bd 5e20 08be
00000110: 87d9 f2bd e6d8 31be 72a3 91bd d130 f4bd
00000120: 1c46 1d3d 7bd4 39be a86d 8abd 825d c23d
00000130: 65d8 f03c d03a 5abd 8827 37bc 61da 47bd
00000140: 91bd 703c 7ef4 3f3d 6b9f 633e 885b 913c
00000150: 76de 443d 4b8f cd3d 4751 d73d 7dc2 13bd
00000160: 5aad c43b 0b09 bbbd 0d44 9c3d a0a3 683d
00000170: 7082 d1bd 0173 503d 9e0b fe3c 5841 c33d
00000180: 3de6 2cbd 15f8 3d3d 8e2a e93d 9481 b83c
00000190: 029a 343d 87dc 743d 51af a2bd 0404 173c
000001a0: 133b ff3d 3b8d 2fbe 95f0 753c 7277 2cbc
000001b0: c880 b83b 66f8 b23d 07d7 6a3c 5670 a43d
000001c0: b8b1 7ebd 8cb7 ac3d 11db e03d b640 a2bd
000001d0: 4814 8f3d 2b33 183d c906 23be 93b2 9f3c
000001e0: 2dd7 c73d 4f19 c03d 655a 2d3d 5e93 3cbb
000001f0: b55f 913d b9a6 90bd eb51 46bd 813b 18be
00000200: 75fd 4bbe ee14 463d 91e2 be3d 5ac7 c5bd
00000210: 5671 e03c b9d2 58bc 0234 73bd bde1 273c
00000220: 448b 09bd 128a c4bd 8876 26bd 6a6e 35bd
00000230: ed86 97bd 4d19 98bc ca10 78bd d91d 54bd
00000240: 4fc1 e63d 4fd3 e5bc dd6f 34bd d250 623c
00000250: 7ad8 2ebe 61fe 393d c771 263e 4ee3 6bbd
00000260: 63eb 203d 8781 c23b 18b2 3cbc 8adf 36bd
00000270: c705 debc 7bbe a33d 83eb 9ebb b1eb abbc
00000280: 4904 253e 344c 1b3e 7d82 9fbc a542 a6bc
00000290: 5277 41bd 6af6 80bc 3d7b ffbc f2c6 24bd
000002a0: 27a3 2b3e 78f7 0d3d 09d4 3dbd 4b48 aa3d
000002b0: fa77 21bd 06e7 d73c 1d1e a5bd b23e 173e
000002c0: 46ad bd3d 1f32 70bd 22b0 833d 5d85 6cbd
000002d0: f9dd 6cbd b5b8 7e3d 57d8 b8bd a587 a7bd
000002e0: 82fc 843d 90aa 7cbd 8c56 cfbd 0f33 66bc
000002f0: 452e 51bd 55c3 cc38 eaa9 c5bd 4062 aebd
00000300: 4a28 07bd 1a02 39bd c765 953d 1cfe 083e
00000310: 3647 d83d 1e46 2e3e 4e0c 553d 6cf5 eb3d
00000320: a7c7 0ebd d56e 2f3e a390 613d e045 d6bd
00000330: 7cd1 b5bc a0bd 3d3d 9cf9 2a3c fad2 383d
00000340: 491a f83b 9b65 4dbd fd67 5ebe 3f0c 35bc
00000350: 6641 72bd 9c86 adbd 9b37 cfbd eb40 f43c
00000360: 1455 883c 7126 a13d e6d7 abbd d508 75bd
00000370: c39b ad3d 512d 4fbd 4e6a 0cbd f05c d0bd
00000380: fd34 483d 7f06 0fbd 16c1 e7bd 085a 7fbc
00000390: 32c9 2dbd 32d1 6fbd a349 963d 5fa8 763b
000003a0: a1c4 ccbd 5504 1a3e e82d 4abd f65f 423c
000003b0: 8392 afbc fd7c 81bd 90b2 e9bc 9b07 81bd
000003c0: 8497 1b3d a615 d9bd 22fa cabd a82b ae3d
000003d0: 2f43 8cbd f03e 1cbd 2f3a 2a3e e24c 83bc
000003e0: 674b b2bd 1a20 cbbd 8d53 33bd c29c a63b
000003f0: ffae 97bd 43dd 173d f914 3f3d b423 183e
0.19350924 -0.037597347 -0.09114643 0.1323595 -0.02411474 -0.0017677803 0.056687754 -0.004691135
0.04847622 0.09160944 0.052541543 0.037024666 0.07963156 0.01200185 0.054547373 0.062293205
-0.11188052 0.046140764 0.053909544 -0.033117183 0.16245027 -0.06588816 -0.14839458 0.05229058
-0.03187013 -0.0051032566 0.02098969 0.03880845 0.033583507 -0.08933727 -0.008941823 0.038300514
-0.1708417 -0.13705327 0.009222591 0.009155587 0.058599077 0.024216816 0.018813912 0.020547565
-0.18734543 -0.04406508 0.039252076 -0.090816736 0.008149055 -0.05005495 0.08965983 -0.13439283
-0.10152607 0.07504 -0.044754785 0.05637928 0.052714918 -0.068170205 0.10634441 0.079421386
-0.05185355 0.08195624 0.08970231 0.02630071 0.037351724 -0.004821493 0.09868699 0.08065644
0.02468533 0.03533643 -0.055586576 -0.13293597 -0.11857896 -0.17367896 -0.07111253 -0.119233735
0.03839694 -0.18147461 -0.067591965 0.094904914 0.02940006 -0.053278744 -0.011178859 -0.048792247
0.014693634 0.046864025 0.22228782 0.01774384 0.048063718 0.100370966 0.10513549 -0.03607415
0.0060021104 -0.09132584 0.07630167 0.05679667 -0.10229957 0.050890926 0.031011399 0.09533948
-0.04221176 0.046379168 0.1138507 0.022522725 0.044092186 0.059780624 -0.07943595 0.009217266
0.124624394 -0.17143719 0.0150109725 -0.010526525 0.0056305863 0.087387845 0.014333493 0.08029239
-0.062181205 0.08433446 0.109792836 -0.07922499 0.0698629 0.037158173 -0.15920557 0.01949433
0.097578384 0.09379827 0.042322535 -0.002877436 0.07098333 -0.0706305 -0.048417967 -0.14866449
-0.19920905 0.048359804 0.09320558 -0.09657164 0.027397793 -0.013233834 -0.05937577 0.010246691
-0.03358008 -0.09596647 -0.040640384 -0.044294752 -0.07398782 -0.018566752 -0.060562886 -0.051786277
0.112673394 -0.028054861 -0.044051994 0.013813214 -0.17074767 0.04540861 0.1625434 -0.05758982
0.039286982 0.005935851 -0.01151707 -0.044646777 -0.027102364 0.07995316 -0.0048498525 -0.02098641
0.16114916 0.15165788 -0.019471401 -0.02029545 -0.047232933 -0.0157425 -0.031186694 -0.04022879
0.16761456 0.034659833 -0.04634479 0.0831457 -0.03942106 0.026355278 -0.08062384 0.1477001
0.09261565 -0.05864155 0.06430079 -0.057744373 -0.057828877 0.06218787 -0.090256386 -0.08180169
0.064934745 -0.0616861 -0.101239294 -0.014050259 -0.051069517 9.7638615e-05 -0.09651549 -0.085148335
-0.032997407 -0.04516802 0.07294803 0.13378185 0.105604574 0.17018935 0.052013688 0.1152142
-0.034858372 0.17132123 0.055069577 -0.10462546 -0.022194616 0.04632342 0.010435488 0.045123078
0.007571493 -0.050145727 -0.21719356 -0.011050283 -0.0591444 -0.0847294 -0.10118028 0.029816112
0.01664213 0.0786866 -0.08390789 -0.059822876 0.08476975 -0.050580326 -0.034281068 -0.101739764
0.04887866 -0.034918305 -0.11316125 -0.01558543 -0.042428203 -0.058549114 0.07338264 0.0037636978
-0.099984415 0.15040715 -0.049360186 0.011863699 -0.021432167 -0.06322668 -0.028527528 -0.06300279
0.037986293 -0.10599832 -0.0991099 0.085044205 -0.06848752 -0.03814596 0.16623758 -0.016027872
-0.08705788 -0.09918232 -0.043780852 0.005084605 -0.07406425 0.037076246 0.04665086 0.1485737

action_model._discrete_distribution.branches.0.bias f4 [2]
00000000: 3d66 a13d 3d66 a1bd
0.078808285 -0.078808285

exp_avg f4 [128, 10]
00000000: 7db4 8539 ebab 2538 c79e 0db6 1496 4338
00000010: 0000 0000 a177 5d39 33fe 7b2d 65dd 0cae
00000020: 143a 872d cbe4 512e 5089 9db8 5850 b836
00000030: cf62 9638 fc39 d5b7 0000 0000 8e2d cab7
00000040: 2e0a be2c 3fd8 6cad 08f5 e02c 0528 8e2d
00000050: cf24 8db9 a2c6 ee38 0612 043a dbe8 01b9
00000060: 0000 0000 4db6 3039 a4ac c4ae d1ae cd2f
00000070: d6c3 e3ae 30b3 11ae 4fff 4cb9 0159 9db8
00000080: fbd4 eeb8 63b9 93b7 0000 0000 64b2 91b9
00000090: a270 142e ad95 a2ae cc9f 192e af94 022f
000000a0: 962a 013a 8d8d 2338 8901 38b9 ae7f 1c38
000000b0: 0000 0000 8694 4b39 56e0 532e 8b43 e6ae
000000c0: 4ef8 592e eb90 3d2f 038f 22b8 a7e1 85b7
000000d0: f388 34b7 1bbd 49b7 0000 0000 645d 99b8
000000e0: 1a21 e82d 7b78 adae c697 d02d 1eb9 802e
000000f0: c17f f3b7 2dd6 41b7 c659 dcb7 40b2 05b8
00000100: 0000 0000 b912 c2b8 730c bc2d 766c e7ae
00000110: e6c3 952d 7d2d 97ad 5dd8 793a 8c27 d5b7
00000120: 3b5f 15ba 6c17 a939 0000 0000 556b f439
00000130: 0508 672e eeac 2eaf 5345 7e2e 366d fc2e
00000140: a8a0 433a 6686 17b9 6e3d 63ba a511 8b39
00000150: 0000 0000 a966 fab7 dd00 e82e 67c3 ceaf
00000160: 4c77 d32e 9f68 1b2f 2eba d63a 7276 23b9
00000170: ec34 bbba 0ac0 113a 0000 0000 1562 e039
00000180: 0d3e 292c a3e6 89ad d02e fa2c af9c 09ad
00000190: 83be 633a 292e 7b38 de19 8ab9 3cdc 2339
000001a0: 0000 0000 9b3e f539 eb83 4a2e 57ee f6ae
000001b0: 34e6 682e 1826 1e2f e206 60b9 adc5 41b8
000001c0: 7dcf ce36 0576 6237 0000 0000 f96d 08b9
000001d0: 651d 00ae 8609 f52e b5be 0fae bd2c e8ad
000001e0: 765a a1b8 df6e 6e37 787b 4d38 f091 c0b7
000001f0: 0000 0000 08c7 0b37 289d aead 001c b42e
00000200: b39e f9ad 55cb 1fad 160a f1b8 a3b9 e836
00000210: 2bbe ef38 e4ff cab7 0000 0000 8af8 94b7
00000220: 789a b4ac 52ca 662e 93fe fc2b b32c 4a2e
00000230: b413 59b9 fcba 0d38 effe 5239 5bf0 9db8
00000240: 0000 0000 3d0d 7fb7 ea65 31ad c590 6c2e
00000250: d32e bdad 8d0d 7d2d a8fc 1d3a 51f3 02b9
00000260: 2b3b 42ba 2216 8439 0000 0000 7531 4537
00000270: defb c42d b7b8 c7ae 0dea b02d bd3e 652d
00000280: 52b8 6038 5103 6837 962a 8536 a5eb 9a36
00000290: 0000 0000 2b88 6138 a1d9 5e2d 99d8 43ae
000002a0: 2dcf d02d 7e35 a02d dd1f 1b38 afb9 5837
000002b0: 7bd7 d537 cf70 5ab7 0000 0000 1acd ad37
000002c0: 2d79 832e a236 19af 65b5 882e 3308 5c2f
000002d0: 91ee 20b9 b900 2938 906d 6e39 7f9d 38b7
000002e0: 0000 0000 da99 f038 48c7 5cad 598a 042e
000002f0: 5775 65ad 6e1c 2fae 56f1 aeb8 64eb 4639
00000300: c564 353a c76e 0bb9 0000 0000 f2db d539
00000310: 4040 f8ad 1c23 932e c9b5 0bae 5f06 ceae
00000320: a939 fc38 3afb 09b8 f830 4bb9 3c1f 1637
00000330: 0000 0000 e9bb c4b8 b29e 1e2e 0436 1daf
00000340: 54d1 ff2d e345 e32d 4050 c4b9 b310 1fb8
00000350: f6c6 8a38 eb6c 59b8 0000 0000 38d6 61b9
00000360: 0af4 65ae 3c66 082f 9384 5bae 8564 3caf
00000370: 1dc7 80b7 00ce 6937 96ae 5038 8ed1 6db7
00000380: 0000 0000 60af ba37 baa4 272e 4bdc e8ae
00000390: 046a 3d2e ba52 db2e afa0 8738 7c84 2cb8
000003a0: c3ff e9b8 39ca 8338 0000 0000 a3e1 ecb7
000003b0: f5bc 08af 4474 e82f b11a fdae a9b6 59af
000003c0: b504 8f39 78fe 67b8 96e1 b2b9 32a1 dd38
000003d0: 0000 0000 4a27 9cb6 f8cb 82ad 5393 832e
000003e0: 16c2 3aad 4ce6 28ad 7963 b837 08ea 4bb8
000003f0: cc20 26b9 2f41 0a37 0000 0000 d927 1ab9
0.0002550221 3.9499177e-05 -2.1103058e-06 4.6631394e-05 0.0 0.00021120768 1.4324142e-11 -3.2028952e-11
1.5373515e-11 4.7724307e-11 -7.51192e-05 5.4929806e-06 7.170962e-05 -2.541858e-05 0.0 -2.410149e-05
5.401255e-12 -1.3463063e-11 6.393667e-12 1.6161303e-11 -0.0002692104 0.000113857226 0.0005038086 -0.00012389144
0.0 0.0001685258 -8.943715e-11 3.7413497e-10 -1.0357552e-10 -3.3128333e-11 -0.00019550066 -7.502922e-05
-0.00011388395 -1.7610093e-05 0.0 -0.00027789467 3.3751342e-11 -7.393495e-11 3.49301e-11 1.1876254e-10
0.0004927305 3.8994058e-05 -0.0001754818 3.731221e-05 0.0 0.00019414918 4.8175096e-11 -1.0471187e-10
4.9560626e-11 1.7240935e-10 -3.8757e-05 -1.5959913e-05 -1.0760722e-05 -1.2024563e-05 0.0 -7.313004e-05
2.6390046e-11 -7.888531e-11 2.3714263e-11 5.8536495e-11 -2.9027347e-05 -1.1553563e-05 -2.6267848e-05 -3.187568e-05
0.0 -9.254128e-05 2.1378654e-11 -1.052393e-10 1.7026335e-11 -1.7186913e-11 0.0009530837 -2.5409994e-05
-0.00056980894 0.00032251643 0.0 0.00046619275 5.2530442e-11 -1.5886645e-10 5.7814486e-11 1.1479033e-10
0.00074625993 -0.0001445055 -0.00086685165 0.00026525292 0.0 -2.9850127e-05 1.0550292e-10 -3.7610023e-10
9.6163605e-11 1.4134337e-10 0.001638239 -0.00015589016 -0.001428274 0.0005559927 0.0 0.00042797686
2.405079e-12 -1.567752e-11 7.1106246e-12 -7.822339e-12 0.0008687751 5.9886053e-05 -0.00026340684 0.00015626935
0.0 0.00046776686 4.604665e-11 -1.12291225e-10 5.2955154e-11 1.438355e-10 -0.00021364869 -4.6198886e-05
6.163433e-06 1.3498128e-05 0.0 -0.00013010939 -2.9129938e-11 1.1143002e-10 -3.2683817e-11 -2.6395214e-11
-7.693928e-05 1.421172e-05 4.8990798e-05 -2.2956141e-05 0.0 8.331386e-06 -1.9851301e-11 8.190426e-11
-2.83785e-11 -9.083252e-12 -0.00011493654 6.9357498e-06 0.000114318296 -2.4199435e-05 0.0 -1.775871e-05
-5.133057e-12 5.2475642e-11 1.7976335e-12 4.5969183e-11 -0.00020702073 3.3791162e-05 0.00020122131 -7.531113e-05
0.0 -1.5202267e-05 -1.0083915e-11 5.378877e-11 -2.1507606e-11 1.4384394e-11 0.00060267234 -0.00012488409
-0.00074093294 0.00025193492 0.0 1.175363e-05 2.2394472e-11 -9.082284e-11 2.0112823e-11 1.3031074e-11
5.3577423e-05 1.382905e-05 3.9686665e-06 4.6169903e-06 0.0 5.3770997e-05 1.2667562e-11 -4.4530244e-11
2.3738867e-11 1.821365e-11 3.6984555e-05 1.2917836e-05 2.549192e-05 -1.3020078e-05 0.0 2.0718715e-05
5.9787154e-11 -1.3934678e-10 6.216786e-11 2.0011796e-10 -0.00015347662 4.0293413e-05 0.00022738264 -1.1003925e-05
0.0 0.00011472749 -1.25498015e-11 3.0136203e-11 -1.3043198e-11 -3.9815644e-11 -8.341919e-05 0.00018970441
0.0006919618 -0.00013297341 0.0 0.00040790398 -2.8222868e-11 6.691023e-11 -3.17664e-11 -9.368927e-11
0.000120270364 -3.289732e-05 -0.00019377831 8.947969e-06 0.0 -9.381009e-05 3.606599e-11 -1.4298257e-10
2.9083104e-11 2.5837948e-11 -0.00037443824 -3.7924106e-05 6.617412e-05 -5.183827e-05 0.0 -0.00021537475
-5.2285322e-11 1.2405449e-10 -4.9912584e-11 -1.7134212e-10 -1.5351508e-05 1.3935845e-05 4.975366e-05 -1.4175092e-05
0.0 2.2254593e-05 3.811771e-11 -1.05892704e-10 4.3067785e-11 9.973662e-11 6.467231e-05 -4.113138e-05
-0.00011157945 6.284234e-05 0.0 -2.8238463e-05 -1.2436259e-10 4.2283166e-10 -1.1509849e-10 -1.9800929e-10
0.00027278592 -5.5311684e-05 -0.0003411888 0.00010568126 0.0 -4.653736e-06 -1.486987e-11 5.98336e-11
-1.0615972e-11 -9.6008305e-12 2.198083e-05 -4.861693e-05 -0.00015843211 8.240618e-06 0.0 -0.00014701429

exp_avg_sq f4 [128, 10]
00000000: 426a 2035 9b9b 3733 c355 9a35 16a0 0a35
00000010: 0000 0000 a0e9 1535 6436 c432 316d 4633
00000020: 61d7 9132 1b27 b134 807d 0635 be1b 1a33
00000030: e821 d234 1ba2 2935 0000 0000 517c 6c34
00000040: 2d9e ef30 6047 ee32 3998 9b30 1b45 1331
00000050: d2ee 1337 79f9 1d35 b520 5937 a8b4 aa36
00000060: 0000 0000 b4b2 4c36 cd24 ba34 260a bb36
00000070: bb8e b534 7a87 3934 4ab1 4236 bf89 dd34
00000080: 7c59 9637 51b5 5335 0000 0000 e59c f936
00000090: 5d43 d932 d777 6133 51c8 b132 681f c334
000000a0: 0a9d 1236 6427 1034 89d9 5f36 a7ca 2f36
000000b0: 0000 0000 3498 b135 c4c3 cb33 be8c 3b34
000000c0: 73c3 9b33 a5a2 ba35 19e7 4135 b200 1433
000000d0: 6c98 b934 a161 e634 0000 0000 fd87 dc34
000000e0: 7806 d032 67d8 c234 5bda 8432 ad00 1033
000000f0: 14e0 2736 b2f5 0034 e7f0 3235 4e96 2135
00000100: 0000 0000 b3ea 7e35 3f05 7733 ba0d 5435
00000110: f1c9 3233 9c2d 1234 863c 6e36 ec22 ef34
00000120: 01f1 9337 28a8 5835 0000 0000 3e2f e836
00000130: 804f 7232 b22a 3d34 7f1b a632 e268 8133
00000140: 4676 7e36 ce55 4034 9f4b c336 5570 c535
00000150: 0000 0000 c89e 5235 764a 5234 355e 2c36
00000160: e37b 7f34 8ba7 1635 6235 a936 bdc0 0a35
00000170: 59f6 9337 6f8f bc35 0000 0000 4c31 8b36
00000180: 2886 5a31 3cb2 5033 bf9b 9631 202c 6731
00000190: 3315 9036 eaca c834 dc42 4e37 a0dc d535
000001a0: 0000 0000 b81f 8a36 e291 0834 8635 7235
000001b0: 060b ba33 ed00 9435 c552 9535 7bcd 6933
000001c0: 485c 4035 8b98 8135 0000 0000 9c13 f334
000001d0: b948 8733 7e7e 3c35 5096 4233 f7ac c634
000001e0: e364 d935 3202 8c33 f415 fa35 5479 2935
000001f0: 0000 0000 ef1d 3534 fe13 4833 4b6f 4935
00000200: c6ae 2133 a2b8 b432 eef2 9935 2993 2033
00000210: 64ef 0935 fe44 7b35 0000 0000 bcbb 6034
00000220: 23cf b633 e357 9635 cf8e 7133 68f0 a634
00000230: d58a 3936 b254 e533 b7c8 f235 1ebc c535
00000240: 0000 0000 db2e c534 b51a e233 5a77 e235
00000250: 62a4 bc33 b7ae 5333 726f c935 7355 e833
00000260: 57dd 7836 966c fd34 0000 0000 f4c6 5835
00000270: 41ec be32 fc69 bd34 e580 8632 20eb 8f32
00000280: 9aa6 6f35 7f7f 7133 bce6 1b35 9e96 a435
00000290: 0000 0000 37bf 1535 e818 3c33 8dc7 3035
000002a0: adb2 5733 e524 df33 6391 7836 006b 3034
000002b0: f53d 5b36 408d 7a36 0000 0000 5da0 1836
000002c0: 8775 3534 4ba5 9034 87ad 0a34 47f7 2836
000002d0: 53e9 8136 d81a 3c34 f7bf d534 8544 1935
000002e0: 0000 0000 3090 f535 907a b630 a22d 2f32
000002f0: e938 c530 282c 4732 9c49 4b36 ee60 a234
00000300: 5cfd 5d37 2e66 d235 0000 0000 7d49 a336
00000310: 8491 af33 71df 1834 d3cc 8633 62ea a135
00000320: 794b d635 19d0 b433 eeb1 ed34 d7aa 1335
00000330: 0000 0000 86fb 2035 d2f3 4a33 44e9 4b35
00000340: eed4 0533 5b8e b132 33e5 af36 2677 dd34
00000350: 80b9 8d37 c053 2836 0000 0000 71ef fa36
00000360: 0d10 f233 4f1d 5334 c873 ac33 87d8 de35
00000370: 696d 3235 9a20 d832 6968 4835 e04e 8535
00000380: 0000 0000 d068 7834 915d 7e33 ae25 a634
00000390: 605a 5f33 f510 3735 0fa1 f036 f66f 0235
000003a0: baa7 6037 9cad 4536 0000 0000 d4ef a936
000003b0: 0435 a334 b55d 8c36 d32b ac34 0119 3735
000003c0: cd47 9735 6671 3833 dd2a 3735 2527 2d35
000003d0: 0000 0000 c4c8 7134 eb9b 3e33 97c3 3c35
000003e0: d3b5 1833 b9a1 e632 4426 bc35 2c3e a533
000003f0: e1a2 b835 1699 1136 0000 0000 c932 5535
5.975927e-07 4.274953e-08 1.1498854e-06 5.164196e-07 0.0 5.5846795e-07 2.2842137e-08 4.6199776e-08
1.6978165e-08 3.2997272e-07 5.0101517e-07 3.588115e-08 3.9140218e-07 6.31933e-07 0.0 2.2024439e-07
1.7434495e-09 2.7739304e-08 1.1320999e-09 2.1430597e-09 8.8174875e-06 5.885009e-07 1.2941823e-05 5.087426e-06
0.0 3.0502388e-06 3.4671976e-07 5.5742157e-06 3.3817727e-07 1.7278754e-07 2.9011449e-06 4.126468e-07
1.7923063e-05 7.8867475e-07 0.0 7.439043e-06 2.5292758e-08 5.249589e-08 2.0696605e-08 3.6344431e-07
2.1847104e-06 1.3425375e-07 3.3356212e-06 2.6194991e-06 0.0 1.3231825e-06 9.488534e-08 1.7466934e-07
7.253302e-08 1.3905416e-06 7.2234394e-07 3.4459568e-08 3.4569837e-07 4.2911873e-07 0.0 4.1077138e-07
2.4217329e-08 3.629277e-07 1.5466119e-08 3.3528227e-08 2.501537e-06 1.2010312e-07 6.6660726e-07 6.0195896e-07
0.0 9.4963906e-07 5.751394e-08 7.899613e-07 4.162752e-08 1.3613902e-07 3.5499993e-06 4.4542628e-07
1.7635992e-05 8.071097e-07 0.0 6.9196385e-06 1.410433e-08 1.7617529e-07 1.9337447e-08 6.026109e-08
3.7917794e-06 1.7912609e-07 5.8202563e-06 1.4710337e-06 0.0 7.8462153e-07 1.9584863e-07 2.5684833e-06
2.3793795e-07 5.612316e-07 5.042807e-06 5.168948e-07 1.763848e-05 1.4048836e-06 0.0 4.1482617e-06
3.1799434e-09 4.8590877e-08 4.383281e-09 3.3640006e-09 4.2940023e-06 3.7400542e-07 1.2294124e-05 1.5933947e-06
0.0 4.116413e-06 1.2719059e-07 9.022991e-07 8.663305e-08 1.1027129e-06 1.1125454e-06 5.4436423e-08
7.165986e-07 9.655645e-07 0.0 4.5276545e-07 6.2996556e-08 7.021953e-07 4.5305853e-08 3.7006222e-07
1.6197122e-06 6.519657e-08 1.8632841e-06 6.313396e-07 0.0 1.6867828e-07 4.658431e-08 7.504029e-07
3.764469e-08 2.103872e-08 1.147009e-06 3.7386744e-08 5.1384836e-07 9.3605183e-07 0.0 2.0929923e-07
8.5127134e-08 1.1201449e-06 5.624207e-08 3.1094828e-07 2.764796e-06 1.06790495e-07 1.8088821e-06 1.4732393e-06
0.0 3.67282e-07 1.0528803e-07 1.6873048e-06 8.784333e-08 4.9286168e-08 1.5008102e-06 1.0818885e-07
3.7083717e-06 4.720393e-07 0.0 8.0755785e-07 2.2226347e-08 3.5281107e-07 1.5658268e-08 1.6754313e-08
8.9276875e-07 5.6228142e-08 5.807776e-07 1.2262788e-06 0.0 5.578508e-07 4.3794813e-08 6.5855494e-07
5.0221093e-08 1.0390958e-07 3.7039506e-06 1.6430204e-07 3.2669607e-06 3.7335121e-06 0.0 2.2743109e-06
1.6899695e-07 2.6942357e-07 1.291538e-07 2.5177885e-06 3.871662e-06 1.751863e-07 3.9814014e-07 5.709665e-07
0.0 1.8295887e-06 1.3277077e-09 1.0196716e-08 1.4349811e-09 1.15933645e-08 3.0292204e-06 3.0245377e-07
1.3231616e-05 1.5675957e-06 0.0 4.8663337e-06 8.175542e-08 1.423739e-07 6.2771186e-08 1.2063649e-06
1.5966208e-06 8.419756e-08 4.427415e-07 5.501037e-07 0.0 5.997066e-07 4.7253543e-08 7.596284e-07
3.1160134e-08 2.0670248e-08 5.2420887e-06 4.125115e-07 1.689489e-05 2.50827e-06 0.0 7.4784552e-06
1.1271923e-07 1.9661569e-07 8.0304346e-08 1.6603307e-06 6.646938e-07 2.5160535e-08 7.465774e-07 9.932228e-07
0.0 2.313493e-07 5.922408e-08 3.0947325e-07 5.200343e-08 6.819749e-07 7.171307e-06 4.85917e-07
1.3390492e-05 2.9456342e-06 0.0 5.064512e-06 3.039969e-07 4.183234e-06 3.2069383e-07 6.82092e-07
1.1271273e-06 4.2943974e-08 6.8235187e-07 6.4504485e-07 0.0 2.2517912e-07 4.437963e-08 7.032008e-07
3.5555626e-08 2.6849067e-08 1.4018228e-06 7.69472e-08 1.3756472e-06 2.1695791e-06 0.0 7.9422585e-07

exp_avg f4 [128]
00000000: f0ab a538 4a50 3837 a0c6 6e39 0559 1db9
00000010: 888d a338 a9e1 05b8 1dd6 c1b7 9927 55b8
00000020: 6286 97b9 7376 a3b9 112e fb38 aec5 c1b8
00000030: f46e ee37 95b9 6837 f4ba 8d38 53f3 82b9
00000040: 4803 e837 d5b9 d837 b700 a938 64eb c639
00000050: 3dfb 89b8 af10 9fb8 03ce e937 7a84 acb8
00000060: 76fe e7b8 07ea cbb8 6bb2 5db9 64d4 8d37
00000070: ca95 0f39 d6a6 d638 1760 e136 3582 8e38
00000080: bd01 f038 ab56 4db9 8d2c 0e39 e0bb 1236
00000090: bbd1 c239 237e 29b9 eee4 1ab8 e439 aa38
000000a0: be05 ebb6 fe3b afb5 20a9 c038 b1d5 2ab8
000000b0: c20f 1338 ca72 dbb8 2f85 58b8 5d02 133a
000000c0: 892e 9db7 41f8 79b9 8033 7939 fc1b a4b8
000000d0: 4b25 55b8 b63c 6b39 ab0a 3eb8 ef0e 2cb8
000000e0: c5e2 17b9 6129 ac39 5ac1 11ba a0e9 82b8
000000f0: b093 42b7 9bbe 87b8 59ae 4639 240f 88b7
00000100: 32ea 23b9 d59f 56b9 a0de 2eb6 f177 afb9
00000110: 7548 f5b8 99c7 f139 8818 7938 912b 17b9
00000120: 088a 1239 c84d c138 5fea 5fb7 2371 2a38
00000130: c7cd 2039 699d c1b8 a400 32b9 a37f db37
00000140: c4ae 1238 bca7 5b39 6a42 09b9 f917 bb37
00000150: 57c7 38b9 891f ab38 6005 2db9 0d61 68b8
00000160: 8de5 9439 3b35 2fb7 64ec 28b9 486b 7338
00000170: 2192 a3b8 c83d 26b9 ba55 41b9 6849 6e39
00000180: 1f68 46b8 fc6d 88b8 4647 93b8 1f0d 91b8
00000190: 3589 b138 8cab 48b9 dd02 72b7 5d6a 9938
000001a0: 45f9 f2b8 09b0 25b9 d500 08b9 dab6 8a39
000001b0: da23 b1b8 8d0f 36b8 8957 1c37 bdfe 1cb9
000001c0: 553e da38 acd6 2739 5257 8936 50a1 51b8
000001d0: 24dc 9539 71b9 2337 9487 4d38 f30f 07b8
000001e0: b8e0 2c38 22d2 4639 2f8a 6c39 aa15 bc38
000001f0: b55d 46b9 e0ef 1cba f2c1 a2b8 ae1d 5139
7.899839e-05 1.0985948e-05 0.00022771442 -0.00015005849 7.798808e-05 -3.1919833e-05 -2.3107097e-05 -5.0820036e-05
-0.00028901087 -0.00031178034 0.00011977193 -9.239778e-05 2.8423477e-05 1.3871487e-05 6.758227e-05 -0.00024976823
2.7658083e-05 2.5835741e-05 8.058681e-05 0.00037940883 -6.579466e-05 -7.5848184e-05 2.7871696e-05 -8.226275e-05
-0.000110623354 -9.723385e-05 -0.00021142668 1.6907412e-05 0.00013693343 0.00010235391 6.716709e-06 6.7953406e-05
0.000114444156 -0.0001958261 0.00013558772 2.1865053e-06 0.00037158825 -0.00016164086 -3.692967e-05 8.117015e-05
-7.0042142e-06 -1.3055976e-06 9.1867754e-05 -4.0730174e-05 3.5062207e-05 -0.00010464115 -5.162245e-05 0.0005607957
-1.8737528e-05 -0.00023838972 0.00023765676 -7.825342e-05 -5.081789e-05 0.00022433963 -4.5309465e-05 -4.1021904e-05
-0.0001448496 0.00032837226 -0.00055601227 -6.242399e-05 -1.1597687e-05 -6.472805e-05 0.00018947701 -1.6219514e-05
-0.00015632136 -0.00020468172 -2.6057605e-06 -0.00033467964 -0.000116960065 0.00046115814 5.9389073e-05 -0.00014416712
0.00013975066 9.217445e-05 -1.3346405e-05 4.0636525e-05 0.00015335447 -9.232277e-05 -0.00016975641 2.616627e-05
3.4971876e-05 0.00020947953 -0.0001309008 2.23033e-05 -0.00017621867 8.159789e-05 -0.00016500568 -5.5403496e-05
0.00028399788 -1.04432065e-05 -0.00016109791 5.8035628e-05 -7.799664e-05 -0.00015854009 -0.0001843785 0.00022724795
-4.730385e-05 -6.5054715e-05 -7.022782e-05 -6.916583e-05 8.4655745e-05 -0.00019137393 -1.4424991e-05 7.31542e-05
-0.00011585889 -0.00015801204 -0.0001297028 0.00026457646 -8.4466956e-05 -4.3406664e-05 9.318705e-06 -0.00014972217
0.0001040666 0.00016006333 4.0930836e-06 -4.9979717e-05 0.00028583512 9.7587335e-06 4.9002076e-05 -3.2201362e-05
4.121728e-05 0.00018961032 0.00022558191 8.968574e-05 -0.0001891766 -0.0005986672 -7.760887e-05 0.0001994285
