ML-Agents/Examples/Basic1/results/movetogoal_imitation1/MoveToGoal/MoveToGoal-30677.pt (torch, 518384 bytes, 44 tensors)

network_body._body_endoder.seq_layers.0.weight f4 [128, 6]
000000 f6 f3 2d bf f9 b4 2a 3f 01 1a 4f be b9 a6 2d 3f
       -0.6795038 0.6668239 -0.20224763 0.67832524
000010 53 34 7e bf e6 96 c4 bd f1 65 45 bf c7 8b bc bd
       -0.9929859 -0.09599094 -0.77108675 -0.09206348
000020 ea 14 61 be 3e a8 1f 3f 60 33 84 3f 2d 54 a6 3f
       -0.21980634 0.6236609 1.0328178 1.2994438
000030 bc 6a 0a 3f 83 d1 08 be 27 c6 a1 be 56 72 df bd
       0.54069114 -0.13361172 -0.3159649 -0.1091048
000040 45 bc 1e 3e be bf 17 bf 4f 83 d6 be 6c 55 0f bf
       0.15501507 -0.5927695 -0.41897056 -0.5598972
000050 e9 33 18 3e 83 17 28 bf 21 a4 6f bf 09 37 af 3e
       0.14863552 -0.65660876 -0.93609816 0.34221676
000060 bf 4f 81 3e c0 63 51 3f 8d 06 4a 3f 2c eb 68 be
       0.25256154 0.8179283 0.78916246 -0.22745961
000070 34 9a 5e bf c1 4d 06 bf 79 33 4f 3f 6d 0b 65 3f
       -0.86954045 -0.52462393 0.80937916 0.8947056
000080 28 90 6f be 8b 84 87 3e 7a b3 96 bf 33 b5 82 bd
       -0.23394835 0.2646831 -1.1773522 -0.06382217
000090 a8 a3 a5 bd 49 e1 0d 3f 7b 61 fd be 67 8e 74 be
       -0.080878556 0.5542188 -0.49488434 -0.23882447
0000a0 6a b3 00 be 22 f7 0c 3f 5b 10 fb 3d 6b 91 c1 3e
       -0.12568441 0.55064595 0.12258979 0.37806258
0000b0 c1 6a e1 be 52 7a 71 3e a6 2f bc 3f 7e 7a 33 bf
       -0.4402676 0.23581818 1.4702041 -0.70108783
0000c0 6e 44 b4 3e 6b 9e d5 be 0c 21 24 3f d6 a1 09 be
       0.35208458 -0.41722426 0.64112926 -0.13440642
0000d0 e4 54 05 bf 98 26 d0 be a6 2b 80 bf e4 a4 d1 3e
       -0.5208266 -0.40654445 -1.001332 0.40946114
0000e0 74 15 a6 bd 2a bd 9e bf 60 2f 7a bf 4c 40 1d be
       -0.081095606 -1.2401478 -0.9772854 -0.15356559
0000f0 67 d8 1e be fe 4c f7 3e 79 9f 7d 3f d0 51 a0 be
       -0.15512238 0.48300928 0.9907146 -0.31312418
000100 1e ac cf 3d 7d 72 e0 bd 48 75 60 bd b6 eb 13 3f
       0.101402506 -0.10959337 -0.054799348 0.5778154
000110 95 66 8d 3f 85 5b 59 3f 29 22 67 3c bd fd 2d be
       1.104693 0.8490527 0.0141072655 -0.16991325
000120 7e 82 68 3e 5d 14 24 be db 33 2b 3f 18 0c c9 3d
       0.22706029 -0.16023393 0.66876 0.0981676
000130 fb 7a d9 3e 7a c4 14 bf 53 1c 91 be c7 b6 aa 3e
       0.4247664 -0.581123 -0.28341922 0.33342573
000140 8f 0e ce be 49 01 97 3e 10 b8 c8 bf ee 92 10 be
       -0.40245482 0.29493168 -1.5681171 -0.14118549
000150 69 d2 51 be 54 8c 40 bc 0f 1e e6 be d5 75 5b be
       -0.20490421 -0.011752207 -0.44944808 -0.21431668
000160 dc 5f 14 40 fb e3 67 3f 57 a7 bf 3e 77 52 23 3d
       2.3183508 0.90582246 0.37432358 0.039873566
000170 c6 80 9a be 10 fe 00 bf 23 5b 14 3e 76 8f 38 3f
       -0.3017637 -0.5038767 0.14487891 0.72093904
000180 74 a5 45 bf 39 de f7 3e 96 5f 83 3e 4f d8 5f 3d
       -0.77205586 0.4841173 0.25658864 0.054649647
000190 8e 91 bd bf df d7 d1 3d 8b 2d cf 3e e2 b9 34 bf
       -1.4810045 0.10246252 0.40464434 -0.70596135
0001a0 fa 36 a2 3c 7d 3a 6e be 66 5e 8d bd 29 4a 10 be
       0.019801605 -0.23264499 -0.06902771 -0.1409079
0001b0 a4 6a f1 3e 9d 0d 98 bf 78 34 c9 3e 16 7d 1f be
       0.47151673 -1.1879154 0.39297843 -0.1557506
0001c0 20 f4 ab bf be 3d d9 3e a1 ea 67 be 62 f6 3e 3e
       -1.3433876 0.42429918 -0.22648098 0.18648675
0001d0 c9 28 22 3d 79 27 77 3f 07 15 28 3f 82 35 37 3e
       0.039589677 0.96544605 0.65657085 0.17891505
0001e0 1d c8 1e 3f 4d ab b1 ba 4e b4 09 be 40 a0 49 3d
       0.620241 -0.001355508 -0.13447687 0.049225092
0001f0 a8 f5 b6 3e 59 ed 38 3f ef d2 b5 be 03 d2 7a 3f
       0.35734296 0.72237164 -0.35512492 0.979767
000200 bc 90 bf 3e aa c2 4d 3e 6c cb 77 bd d0 eb 3d bf
       0.3741511 0.2009379 -0.060496733 -0.74187946
000210 ca 7b 5a 3e 47 5c af 3e 18 b8 92 be 3c 7c 7d bd
       0.21336284 0.3425009 -0.28656077 -0.061886057
000220 d7 d7 8d be 58 bb 18 bf 42 ec 80 3f f6 ec 25 3e
       -0.27703735 -0.59660864 1.00721 0.16203675
000230 b0 33 9c 3e 27 22 bb bd 8f 85 92 3f 37 f8 6e bd
       0.30508184 -0.091373734 1.1447009 -0.058342185
000240 11 1a 0f bf 1c 96 29 bf 63 01 40 3f 5a 8d 0a be
       -0.5589915 -0.66244674 0.75002116 -0.13530484
000250 bd f3 6b 3f 39 05 9b 3e 25 68 79 3e 68 86 8f be
       0.9216879 0.30277422 0.24356134 -0.2803223
000260 65 e2 2c bc 4a f4 e1 be 1e d4 e7 bf 28 d7 36 3b
       -0.010552024 -0.4413169 -1.8111608 0.002789924
000270 91 a2 98 be e5 3e 7d 3e 27 81 6f bf c1 5a 6b 3e
       -0.29811528 0.24731024 -0.93556446 0.22983839
000280 59 1e 21 bd 6e ab af 3e 20 34 46 be e6 e0 5c 3f
       -0.039335582 0.34310478 -0.19355822 0.8628067
000290 98 c3 61 3f 64 b9 2a 3d 96 3a 3f 3f 0b 7c 08 3f
       0.8818908 0.04168071 0.7469877 0.53314275
0002a0 13 ed dd bd c0 6f 8b 3e 87 5a 36 bf 9e 54 da be
       -0.10836234 0.27233696 -0.71231884 -0.42642683
0002b0 a7 3a 32 be ce db 0c 3e 3c cc 86 3e 20 9b d8 be
       -0.17405187 0.13755724 0.26327693 -0.4230585
0002c0 a7 ef 56 be f3 6d 0e 3e c7 43 52 bf 58 2f 62 bf
       -0.20989858 0.1390913 -0.8213467 -0.8835349
0002d0 1d b9 31 bf 9f d2 0b bf b7 4e 1d be 0a 09 1c bf
       -0.69423085 -0.5461826 -0.15362059 -0.6095129
0002e0 c6 0a a6 3e 8b e0 eb 3e e0 dc d7 3e 7e f8 35 3f
       0.32430094 0.4606975 0.42160702 0.71082294
0002f0 34 2e 26 bd 3f 4d 4b 3f 21 c5 b6 3e 0d 87 b9 be
       -0.040571406 0.79414743 0.35697272 -0.36235848
000300 2f b6 b9 be bb ce 33 be 92 15 56 3f be 66 10 be
       -0.36271808 -0.1755933 0.83626664 -0.14101693
000310 ad 21 96 bf 14 37 6d 3d 32 ab b1 3d b1 94 63 3f
       -1.1729027 0.057913855 0.08675231 0.8889876
000320 b8 f9 1b bf bb 41 b7 3c cd 69 19 c0 aa 61 d1 be
       -0.60927916 0.02237021 -2.3970826 -0.40894824
000330 60 70 c1 be 0f dd 00 3f a1 4a 53 3d 26 d2 4e 3d
       -0.37781048 0.5033731 0.051584844 0.050493382
000340 88 42 2c bf 27 7b 72 be fa 04 3b 3d 34 38 8c bd
       -0.6728902 -0.23679791 0.045659043 -0.068466574
000350 be b4 bb 3c 53 de ca b9 8a cd e8 bf 00 bc 6d bd
       0.022913333 -0.00038694087 -1.8187726 -0.05804062
000360 89 a6 94 3e 6d c7 ed 3e 6b f4 23 3f 09 68 b2 3e
       0.29033306 0.46441212 0.6404483 0.34844998
000370 80 db bc 3e f6 10 21 bf 69 31 ae bd b9 27 a8 bf
       0.36886215 -0.62916505 -0.08505518 -1.3137122
000380 58 08 9b bd af 0e 51 3e aa 3a af be bf 1b 9e be
       -0.07569951 0.20415758 -0.34224445 -0.30880544
000390 4e e7 04 3d 11 42 8c bd 17 48 a1 3f a2 6d 74 3e
       0.03244715 -0.06848539 1.2600125 0.23869947
0003a0 91 51 1c bf 3f 4a e6 3e 98 62 1c 3e 76 5d 82 bf
       -0.6106196 0.4497852 0.15271986 -1.0184772
0003b0 fe 72 4a 3e e0 33 b2 3c d4 37 81 bf 4b 6a a8 be
       0.19770429 0.021753252 -1.0095162 -0.32893595
0003c0 d2 ea cd bd a3 3f ad 3e 46 83 98 3f eb 8b 72 be
       -0.10054554 0.33837613 1.1915061 -0.23686187
0003d0 67 b0 6f be 1c 2f d6 3e 5b 91 11 3f 6b 85 38 be
       -0.23407136 0.41832817 0.5686242 -0.18019645
0003e0 59 72 22 3f 51 f3 50 be 05 76 19 bf 38 f5 60 3e
       0.6345573 -0.20405318 -0.5994571 0.21968544
0003f0 cf 0b 69 3f aa bf 72 3e 0d 84 83 3e ed f3 78 bf
       0.91033643 0.23705927 0.25686684 -0.972472

network_body._body_endoder.seq_layers.0.bias f4 [128]
000000 9c e0 03 3d 70 fe 15 be 8a cb 33 be 21 88 36 bd
       0.032196626 -0.14647841 -0.17558113 -0.044563416
000010 f5 ba 82 bd 26 4d 94 be 01 39 41 be 47 6c 71 bd
       -0.063833155 -0.2896511 -0.18869402 -0.058941152
000020 d4 87 07 3c ce ef 82 bc 80 1e ee bd b0 1c ae 3d
       0.00827213 -0.015983488 -0.11626911 0.085015655
000030 9b e7 6e 3c 9e 68 34 bd fb 92 3d be ff d9 67 bd
       0.014581586 -0.044045083 -0.185131 -0.05660438
000040 66 81 16 be 41 40 8c bd 20 e2 48 3d 5e de d7 bd
       -0.14697799 -0.06848193 0.049043775 -0.1054046
000050 d9 21 4b 3d 91 02 09 bd 9c 64 0b be d9 ae 41 be
       0.049592827 -0.033449713 -0.13612598 -0.18914355
000060 58 52 0c 3d d5 35 43 bd 6a 1b 03 be 86 11 ab bd
       0.034258217 -0.04765876 -0.12803426 -0.08352952
000070 75 de 82 be 7b ee ea bc ca b8 2f 3e 0d 1f b2 be
       -0.25560346 -0.02867817 0.17160335 -0.34789315
000080 23 15 e9 bb ec 4c 14 be a4 88 bd bd 60 a8 11 3e
       -0.0071131154 -0.14482468 -0.09254578 0.14224386
000090 64 07 12 be c0 1d 05 3e 36 90 c2 3d 14 d6 3e 3d
       -0.14260632 0.1299963 0.09500162 0.04659088
0000a0 1d e6 c4 3b 5f 48 53 be b9 a8 88 bd f8 b9 91 3d
       0.006008877 -0.20633076 -0.06672806 0.07115549
0000b0 b7 95 57 be 55 be d4 bd 68 82 10 3e 7e b6 33 be
       -0.21053205 -0.103878655 0.14112246 -0.17550084
0000c0 70 71 66 be ae 38 c8 bd 18 56 04 be 8a 31 d8 bb
       -0.2250421 -0.09776436 -0.12923467 -0.0065977024
0000d0 6e ed 19 3d 40 e0 8d bd e9 e6 11 3d 8c 79 5c bc
       0.037579946 -0.06927538 0.035620604 -0.013456713
0000e0 26 bc 4d be 84 47 da 3d 5a 67 a1 3d 07 50 4b 3d
       -0.20091304 0.10658172 0.07881041 0.049636867
0000f0 e1 88 87 bd 9e b2 88 bd 7b a3 09 3d da 84 05 3d
       -0.066179045 -0.066746935 0.033603173 0.0325974
000100 04 f2 8b bd c1 9f 39 be 82 45 e2 bd 68 81 0f be
       -0.0683327 -0.18127348 -0.11048414 -0.14014208
000110 2a 7a 69 be 64 bf e6 bd 8e b9 26 be 48 a7 94 3b
       -0.22800508 -0.112669736 -0.16281721 0.004536543
000120 4d 44 55 bc e6 27 00 be 70 a3 0f 3c 9f 6b 60 3b
       -0.013016772 -0.1251522 0.008766994 0.0034243835
000130 b2 39 de bd 7f 34 a5 bb b3 a2 c9 bb 4d 20 5c bc
       -0.10850848 -0.0050416584 -0.0061534285 -0.0134354355
000140 c6 1e 48 bd 9a 70 47 bd b6 99 c9 3d a3 1d ef bd
       -0.048857473 -0.04869137 0.09843771 -0.11675575
000150 7a 8c 82 bd 70 ae b8 bd 42 90 59 bc 7e e9 80 3d
       -0.0637445 -0.09017646 -0.013279023 0.06294535
000160 24 9f af bd 06 04 b5 bd 2a eb 39 be 80 75 47 bd
       -0.085752755 -0.08838658 -0.18156114 -0.04869604
000170 be 17 e0 bd 56 26 0b be 39 10 cd bd 17 c0 ba bd
       -0.109420285 -0.13588843 -0.1001286 -0.091186695
000180 1a 03 71 be 2c a2 ed bb ad ba f5 3c af 63 9a bd
       -0.2353634 -0.0072519984 0.02999624 -0.075385444
000190 fb 2d fe bd 1d aa 95 be e3 21 36 be 20 83 1d be
       -0.12411114 -0.2923135 -0.17786364 -0.15382051
0001a0 94 f1 4b be 66 61 cb bd a2 a5 d4 bd 32 50 b2 bd
       -0.19916373 -0.09930687 -0.103831545 -0.08706702
0001b0 a4 20 22 37 53 18 8a 3c 2a 93 e6 bd 03 a1 ae bd
       9.663552e-06 0.016857302 -0.11258538 -0.08526804
0001c0 04 5a 78 3d 3f 60 67 be 4f dd 1a be 94 63 ff 3c
       0.06063272 -0.22595309 -0.15123485 0.031175412
0001d0 76 1e 0b 3e e0 fb fd bd d3 52 e9 bd d9 4b a0 bd
       0.13585839 -0.12401557 -0.113927506 -0.07826967
0001e0 0f fe 1c 3e 9c 06 76 3d 27 78 ea 3c 62 5d 4d be
       0.1533129 0.060064897 0.028621746 -0.20055154
0001f0 57 78 36 be 62 6c ba bd 08 b8 18 bc dc 9d 31 bd
       -0.17819344 -0.09102704 -0.00932122 -0.043363437

network_body._body_endoder.seq_layers.2.weight f4 [128, 128]
000000 24 54 8f 3c 68 fd 1a bd e1 e3 a7 be c8 4b 4f bc
       0.017496176 -0.037839323 -0.32791045 -0.012652345
000010 c4 af 7c bd c5 50 85 be 76 42 26 be 36 64 fa be
       -0.06169106 -0.26038185 -0.1623629 -0.4890458
000020 ef a0 34 3e f3 4d f9 bc cf d2 13 bc f1 cc 02 3d
       0.17639516 -0.030432677 -0.009022429 0.03193373
000030 6b db 63 3d f7 94 88 bc b9 ec 76 bd 93 83 f2 bc
       0.055629175 -0.016672594 -0.06028435 -0.029603755
000040 c4 cb b2 bd eb 6a 09 3e ed a6 47 3d aa 72 06 bd
       -0.087302715 0.13419692 0.048743177 -0.032824196
000050 33 1e a4 bd 9d bc 86 bb af 73 5e be ef c2 6d 3d
       -0.080135725 -0.00411184 -0.21723817 0.05804723
000060 fd 67 33 be 0f 8f 48 bd 92 06 c3 3d a5 d5 0e be
       -0.17520137 -0.048964556 0.095227376 -0.13948686
000070 24 b9 b1 3c 1b 08 97 be 06 3e e6 bb 3a df c4 bd
       0.021694727 -0.2949837 -0.0070264367 -0.096128896
000080 4b 7e 05 3e 09 75 2d be 32 a3 07 3e cc f4 cb 3e
       0.13036458 -0.16939177 0.13245848 0.39835203
000090 f6 a5 2f 3e 22 44 24 bd c1 07 fa bc 9a b6 b0 3d
       0.17153153 -0.04010404 -0.030521275 0.086285785
0000a0 c1 a2 f9 3d 7b 51 ea 3d 7a c6 6d bd 86 11 1a be
       0.12189246 0.114413224 -0.05805061 -0.15045747
0000b0 d9 df 05 be fe bc 11 bd 27 c3 3f 3d 4e 7f 87 be
       -0.13073672 -0.035580628 0.04681697 -0.26464313
0000c0 0a c6 55 be cd d0 1a bd ac b8 8d bc 3e 99 c0 3d
       -0.20876327 -0.037796784 -0.017299972 0.09404229
0000d0 75 3a b1 bd a1 b7 26 be 70 8d d3 bc 3e 38 f2 3d
       -0.08653728 -0.16280986 -0.025824279 0.118271336
0000e0 61 8b 6f bd 6a a1 0f 3d ea 1b 1f 3d 31 f9 3a 3e
       -0.05848253 0.035066046 0.03884498 0.18259121
0000f0 73 07 0f be b0 58 ff 3c 27 1b 43 bd e3 5a 64 bd
       -0.13967685 0.03117022 -0.047633316 -0.05575074
000100 c6 4a c6 3d 23 6b a6 bd d1 82 6a bc ae 3a 58 be
       0.09682231 -0.081259035 -0.014313416 -0.21116135
000110 cd 48 80 bd 69 39 8c bb 47 60 3c 3d 8a c0 fd bd
       -0.06263886 -0.0042793048 0.045990255 -0.123902395
000120 b9 d4 46 bd a7 e9 e0 bd a7 6a db bd 41 6d de bd
       -0.048542712 -0.10982066 -0.10713702 -0.10860682
000130 a6 28 56 3e 9f 1c fa bd fe 10 8e bd 3e 9f 99 bc
       0.20913944 -0.1221249 -0.06936835 -0.01875269
000140 e9 4f f9 3d e9 ac b5 3d aa 6a 03 be 65 52 a5 3d
       0.12173445 0.088708706 -0.12833658 0.08072356
000150 81 45 64 bd 32 f9 fe bb d0 24 0e bd d4 f8 13 3e
       -0.055730347 -0.0077811712 -0.034703076 0.14450389
000160 87 9f f0 3c c3 13 b3 3d 84 a4 7e bd 60 c2 45 3d
       0.029372944 0.087440036 -0.062168613 0.048281074
000170 93 78 06 bc 79 52 89 bd 48 3f 58 be 0b e4 23 3e
       -0.008207458 -0.067051835 -0.2111789 0.1600496
000180 d7 cf aa bd 3e 42 69 be 7b 4b e4 3d 94 1b 84 bd
       -0.083404236 -0.22779176 0.11147209 -0.064505726
000190 51 62 2d 3e 9e 85 bb bd 33 4f 87 3e 45 a0 61 3d
       0.16932036 -0.09156345 0.26427612 0.055084486
0001a0 a1 4c de 3b 4f 0b 04 3e e4 e0 c9 bd a9 a0 5c be
       0.006784037 0.12894939 -0.098573476 -0.21545662
0001b0 a5 85 a2 bd 24 8c b9 3b b7 9b 8e bc 42 7f a5 3e
       -0.07935647 0.005662458 -0.017408235 0.32323653
0001c0 89 63 4c be 3b 96 d9 bd 14 59 a5 be f8 ea 88 3d
       -0.19959845 -0.10624357 -0.32294524 0.06685442
0001d0 eb 60 9e 3d 4c 13 ef 3c cd c8 8c bd 9a 03 4b 3e
       0.077333294 0.029184006 -0.06874237 0.19825593
0001e0 5f 58 3c 3d 84 52 0b be 01 4b 63 3c ee f4 95 bd
       0.045982715 -0.13605696 0.013872863 -0.07322107
0001f0 2d 41 0b be 8e 38 81 3c 0e 1c 30 3d fe ae af bd
       -0.13599081 0.015774038 0.042995505 -0.08578299
000200 1c 33 a6 be 98 c6 a5 be 17 5d 81 3d 4b e2 16 be
       -0.32460868 -0.32378078 0.063165836 -0.14734761
000210 07 72 0a 3d ad 96 d1 bd c5 2d fb 3b b3 e7 3e 3d
       0.03380015 -0.10233817 0.0076653683 0.046607684
000220 34 86 e5 3d eb 50 35 3d 34 f8 01 bd ff ea c4 3d
       0.11207238 0.044266623 -0.031730846 0.096151344
000230 1a 17 1c bc 89 93 c6 3a 50 09 ed 3d ab bc 53 be
       -0.009526992 0.001515017 0.11574042 -0.2067744
000240 be 77 da bd 00 07 4b bc cc 12 01 bd 00 95 b0 be
       -0.1066737 -0.012391806 -0.031512067 -0.34488678
000250 4a 80 6d be dd 69 0a be c1 e5 9f 3d a1 96 33 bd
       -0.2319347 -0.13516946 0.07807494 -0.043844823
000260 a4 66 0f be c8 9a 9c 3d 84 bb 75 3d 51 54 4b be
       -0.14003998 0.0764671 0.059993282 -0.19856383
000270 e3 46 d6 3d 3c d0 c4 bc 75 80 e9 bd 07 f2 58 3d
       0.10462739 -0.024025075 -0.11401454 0.05296519
000280 0d b5 60 bc 0e b7 b3 3d 45 e2 54 bc a8 da 57 3e
       -0.013715041 0.08775149 -0.0129934 0.21079504
000290 a5 40 be 3d 0e 40 5f bc e0 de 40 3d 74 80 3f 3e
       0.09289674 -0.013626112 0.04708755 0.18701345
0002a0 18 e8 5c bd 10 0a e8 bd 9c 61 d4 3c 72 50 a3 3d
       -0.05393228 -0.11330044 0.02592545 0.07974328
0002b0 31 5a 8c 3d 0b a3 13 3e 82 86 4d be e7 3c 0e 3c
       0.0685314 0.14417665 -0.20070842 0.008681512
0002c0 c5 94 9d bd f4 c0 e1 bd c5 cb b4 be f1 f2 fb bc
       -0.07694391 -0.11023131 -0.35311714 -0.030755492
0002d0 57 fb 94 be c0 14 0a 3e 04 ff c3 be cf a3 80 3e
       -0.29098007 0.13484478 -0.382805 0.25124976
0002e0 0d af 44 bd 26 1b aa bd 80 e6 4b be 4f 2f 1c be
       -0.048018504 -0.083059594 -0.19912148 -0.15252422
0002f0 97 37 1f be e4 81 20 be 5f 14 c0 bd 2e c2 e2 bd
       -0.1554855 -0.1567455 -0.093788855 -0.11072193
000300 e4 82 2f 3d 2f ba 31 bd 2f 85 4b bd 55 a1 29 3e
       0.042849436 -0.04339045 -0.04968756 0.1656545
000310 b2 6b 4a 3e 51 23 21 be cc 5c 0d 3e 41 00 f3 be
       0.19767645 -0.15736128 0.1380493 -0.4746113
000320 0b ef 4f be e9 42 0a be 75 1a 1a 3c 86 70 4f 3e
       -0.20306031 -0.13502087 0.009405722 0.20257768
000330 e9 2d a2 be 83 04 85 be 4f 62 88 bd fd 8e 04 bd
       -0.31675652 -0.25980005 -0.06659376 -0.032362927
000340 3c 00 69 be 2d 59 ef bd 9d 21 4f 3e d8 2b a9 be
       -0.22753996 -0.11686931 0.20227666 -0.33041263
000350 b9 2b 5b bd 83 74 03 be 54 04 36 3d 0f 4a 0d 3e
       -0.053508494 -0.12837414 0.04443772 0.13797782
000360 5a b0 e8 3c 38 10 8f be 3a 97 5c be a8 b5 3a be
       0.028404403 -0.2794206 -0.21542063 -0.18233359
000370 08 f2 32 bd 89 f5 33 be 05 40 5a 3e 8c 98 8a bd
       -0.04368785 -0.17574133 0.21313484 -0.06767377
000380 75 ed 6b 3d ef 28 2e 3e 05 ca 30 3e 5b 61 ba bd
       0.057599504 0.17007802 0.17264564 -0.091006
000390 66 41 8e be e7 66 ae bd 8b b6 82 be 44 df b4 3d
       -0.2778427 -0.08515721 -0.25529894 0.08831647
0003a0 80 e7 41 be ed 0e db 3b f5 70 c6 be c9 e9 a3 bd
       -0.18935966 0.006685129 -0.38758054 -0.08003575
0003b0 84 0e 27 bd 6d 3c 09 bf 36 a3 ad 3d d8 79 1c 3e
       -0.040785328 -0.5360783 0.08478396 0.15280855
0003c0 1a b2 21 bf 95 ba df 3d 3e d3 a6 be 3f 93 e2 bd
       -0.63162386 0.109242596 -0.3258304 -0.11063241
0003d0 1e 8d 39 3d 6f 29 46 bb 56 e9 09 3e 7b b7 4f be
       0.045300595 -0.0030237099 0.13467917 -0.20284836
0003e0 00 5f bd 3c 72 35 79 3e 85 e3 e0 be 32 e8 ee bd
       0.023116589 0.24336794 -0.43923584 -0.116653815
0003f0 f2 0f ac 3d 53 eb 13 bd 9f dc f8 be c1 8c b0 bb
       0.08401479 -0.036113095 -0.4860582 -0.005387873

network_body._body_endoder.seq_layers.2.bias f4 [128]
000000 06 e1 50 3e 8c 79 32 3d 15 75 7a bd 47 49 19 be
       0.2039834 0.043572947 -0.061146814 -0.1496936
000010 19 a5 40 3d 8a 5e 84 3b 7c 42 9e 3d f2 d1 66 3d
       0.04703245 0.0040395902 0.07727525 0.056352563
000020 7e 4c 40 bd 3d 90 90 bc c7 7c cb 3c 2a d6 76 bc
       -0.04694795 -0.017646903 0.024839772 -0.015065709
000030 72 e2 42 bd a2 52 18 bd e1 7c 98 bd 50 e4 17 3c
       -0.047579236 -0.03718818 -0.07445694 0.009270743
000040 01 af 60 3d 5b 4a f1 bd ec 72 62 bd 25 43 2b 3e
       0.054854397 -0.1178176 -0.05528538 0.16724832
000050 5f 68 cb bd 01 08 e0 3d 03 c7 f3 bd 04 b5 0c bc
       -0.099320166 0.109390266 -0.11903193 -0.008588079
000060 e4 e8 a6 bd 13 a1 da 3d 73 bf d2 3d 6a c0 c4 3d
       -0.08149889 0.10675254 0.10290422 0.096070126
000070 0b 1e e3 bc f9 ca fa bd e3 68 12 3e 9c f6 04 be
       -0.027724287 -0.12245745 0.14297824 -0.12984699
000080 c8 23 97 3c 7f 13 da bd 43 0d 43 3c 5d 27 14 3e
       0.018449679 -0.1064825 0.011905017 0.14468141
000090 4a 02 0f 3d ea 03 a6 bc 51 21 c9 3d b6 62 99 bd
       0.034914292 -0.020265538 0.09820808 -0.07489531
0000a0 9e bb ed bc a6 77 99 3d 9f f8 94 3d dc 9b 0a 3e
       -0.029020127 0.07493524 0.07273983 0.13536018
0000b0 d0 74 aa 3d 11 0e 16 3e 0f 5a 18 3e 49 ac 13 3e
       0.083230615 0.14653803 0.14878105 0.1442119
0000c0 0e 16 02 be 0b 77 5e 3b 1a 36 ba bd 66 83 ca bd
       -0.12703726 0.0033945467 -0.0909235 -0.098883435
0000d0 04 1a c3 bd 93 fe 28 3d b1 48 4e 3d 7a f1 16 be
       -0.095264465 0.041258406 0.050362293 -0.14740553
0000e0 18 06 da bd 1d f7 14 be 8c 08 66 3d 87 c4 98 bc
       -0.106456935 -0.14547391 0.056160495 -0.018648399
0000f0 9e 7e 29 bd 12 c0 80 3d 02 3b aa bd 77 d3 2c 3e
       -0.041380517 0.062866345 -0.08312036 0.16877542
000100 d6 bc 93 3c 61 f7 a9 3d 38 39 59 3e 78 bf d8 bd
       0.01803438 0.08299137 0.21213233 -0.10583395
000110 fa 42 e3 bc 19 e7 4b 3d 71 c6 26 3d 6e c8 20 3e
       -0.027741898 0.04978094 0.040716592 0.15701458
000120 d6 e0 b7 3d 14 3d 20 bd d1 a4 bd bd 3e 84 24 3d
       0.08978431 -0.03912075 -0.09259952 0.04016518
000130 e5 e7 c7 bd a4 e7 a1 3d 38 b9 a5 3c ba 46 6e 3e
       -0.09761027 0.0790551 0.02022992 0.23269168
000140 53 f5 ad 3d 8a 67 44 3c 3d 38 4b 3c fc 5f b7 bd
       0.084940575 0.011987576 0.012403545 -0.089538544
000150 a8 3c 8f bd 53 0c 5b 3d af 4d 2f bd 42 e4 ba bc
       -0.06993991 0.05347855 -0.042798694 -0.02281392
000160 07 25 af bc f5 87 b0 3d c5 65 01 be 85 f3 d0 3d
       -0.02137996 0.08619682 -0.12636478 0.10202698
000170 15 45 e1 bc 33 1e 90 ba 6b 81 c8 bd cc 88 d7 3c
       -0.027498761 -0.0010995328 -0.097903095 0.026310347
000180 69 cd a3 3d 8f 8b 2d 3c 0e 93 21 3e 60 53 95 bc
       0.07998163 0.010592355 0.15778753 -0.018228233
000190 b5 e2 af bd b7 ae 97 3d ba 3a 08 3e b5 b8 7b bc
       -0.08588163 0.07406371 0.13303652 -0.015363862
0001a0 f4 b9 3d 3d c0 6a 37 3e b4 b4 4b bd 7c 5d 2b 3e
       0.046319917 0.17911816 -0.04973288 0.1673488
0001b0 36 dd 5e 3e 90 3f 5a bc be 36 05 bc be d4 16 be
       0.21764073 -0.013320819 -0.008130727 -0.14729592
0001c0 62 b0 c0 3c 6a 6a 90 bd 4a 12 a6 3d 1b c2 23 3d
       0.023521606 -0.07051547 0.08108957 0.039980035
0001d0 46 93 cd 3d 42 be 0f be d2 02 e7 3d f1 79 09 3d
       0.10037856 -0.14037421 0.11279835 0.033563558
0001e0 ae e7 10 3e 28 7f 05 bd 20 9f f6 bc d0 68 4d 3e
       0.14150879 -0.03259197 -0.030105174 0.20059514
0001f0 e5 d5 e1 bd c8 1a cf bb 53 3d 8b 3d 20 b8 d4 ba
       -0.11027125 -0.0063203312 0.06798806 -0.001622919

action_model._continuous_distribution.log_sigma f4 [1, 2]
000000 c4 1d 83 c0 4a 66 83 c0
       -4.0973835 -4.1062365

action_model._continuous_distribution.mu.weight f4 [2, 128]
000000 19 8c 1e 3e bc 48 3f be 4e 5a 9d bc 4f 41 43 3c
       0.1548313 -0.1868009 -0.0192081 0.011917426
000010 97 38 00 3e 48 61 aa bc ec ea f8 bc d5 c2 25 bc
       0.12521587 -0.02079834 -0.030385457 -0.010117252
000020 ff f3 da bd 33 7d 32 3d 24 65 c3 bd f3 15 84 bd
       -0.1069107 0.04357643 -0.095407754 -0.06449499
000030 25 87 8d 3c eb 4c 6f bd 62 4b c0 b9 48 d4 23 be
       0.017276356 -0.058422964 -0.00036677258 -0.15998948
000040 8c c2 d6 3d 2e 3d 37 bc ab c9 d3 bc b0 e8 31 3e
       0.104863256 -0.01118402 -0.025852999 0.1737392
000050 cc f3 78 be dd e1 bc bd 6c b3 25 bc 79 fc 5a 3d
       -0.24311751 -0.092227675 -0.010113578 0.053463433
000060 79 a0 18 bd 44 b6 31 3d 64 f0 c3 3d 30 08 ce 3d
       -0.037262414 0.043386713 0.09567335 0.100601554
000070 36 de 59 bb 2a 10 e7 bd a6 ce 5f 3e cb 58 25 3c
       -0.003324402 -0.1128238 0.21856174 0.010091971
000080 04 03 64 bb df 99 8f 3e 2a 3e e8 bd 43 69 87 bc
       -0.0034791837 0.28047082 -0.11339982 -0.016529685
000090 3a 0f 6f bd c9 32 a2 bd d4 78 f8 bb 89 b9 0e 3c
       -0.05836413 -0.07919843 -0.007582763 0.008711227
0000a0 3e 4b 63 3d b5 00 ca 3d 6e d5 92 3d d7 cd 5a 3e
       0.05549168 0.09863416 0.07169615 0.21367584
0000b0 2e fc 48 3e b1 18 3d 3e 24 35 c9 bd 39 c7 3c 3d
       0.19627449 0.1846645 -0.09824589 0.04608843
0000c0 7c 1c d4 3b 4a 81 89 be 71 5c 1a 3d 15 b3 6a 3d
       0.006473122 -0.26856452 0.037685815 0.057299692
0000d0 8b 2e b8 bd af e4 0b 3e 04 8e 35 be 92 c9 84 bc
       -0.08993252 0.13661455 -0.17729956 -0.016209397
0000e0 4e 26 9e bb 2e 42 41 bc 1b 78 bf 3d b4 4c bc 3b
       -0.0048263436 -0.011795564 0.0934908 0.0057464484
0000f0 05 06 04 3d c2 7e a8 3d c4 c4 3c bd b1 62 6f 3e
       0.032232303 0.08227302 -0.046086088 0.23377492
000100 49 2e f6 3d 38 0c 7b 3e b6 88 94 3c bc 49 70 bd
       0.12020547 0.2451638 0.018131595 -0.05866407
000110 91 b3 b2 bd f7 d1 90 bd 0c e3 e8 3c cc 79 f7 be
       -0.08725656 -0.070712976 0.028428577 -0.4833511
000120 87 50 0b 3e 17 0b 90 3d ca ae 4d bc b7 b5 11 be
       0.13604937 0.07033365 -0.01255388 -0.14229475
000130 e5 25 a6 bc 1d 00 b9 3d 06 bf 2d 3c 9a 37 a6 3e
       -0.020281741 0.09033225 0.010604626 0.32464296
000140 a8 81 71 3d 6d 89 a8 bd d6 b9 5f b9 84 38 bb bb
       0.05896154 -0.08229337 -0.00021336167 -0.0057135243
000150 d0 f6 fc 3c 8f 06 4d be d8 80 5b 39 63 45 2b bd
       0.030879408 -0.20022033 0.00020933466 -0.04181422
000160 49 3d a9 bb 15 2f 3b be e5 fd 1d 3d d3 62 0c 3e
       -0.0051647765 -0.18279679 0.03857221 0.13709573
000170 26 f5 82 bd 38 79 24 be 09 bb 03 bd 57 c0 1d be
       -0.063944146 -0.16061866 -0.032160792 -0.15405403
000180 3e 22 26 3d 85 30 35 3e b8 b8 03 3e c0 59 10 be
       0.04056 0.1769429 0.12863433 -0.14096737
000190 2f d6 62 be 37 f7 17 3e 62 70 61 3e 06 a6 d1 3b
       -0.22152017 0.14840399 0.22015527 0.0063979654
0001a0 25 1b 6c be 7a 67 89 3e c7 d6 ed bd 99 86 fd 3d
       -0.2305723 0.2683676 -0.11613231 0.12379188
0001b0 e1 fa 37 3e ef c9 2d bd 1f db 95 bc 64 e5 cb bd
       0.17966796 -0.042428907 -0.018292962 -0.09955862
0001c0 a5 fe 81 3d 6a d0 47 bd e0 9b 04 3e 3a dd 3d be
       0.06347398 -0.048782744 0.12950087 -0.18541422
0001d0 81 42 7d be a2 db db bb 98 03 6f 3d ee a6 21 be
       -0.247324 -0.006709532 0.058353037 -0.15786335
0001e0 6e 54 f5 3d d4 1d cc bd 63 20 74 3d cc 35 c4 3d
       0.11978994 -0.09966627 0.0596012 0.095805734
0001f0 29 51 9b 3b e5 7d 3b be c1 7d c5 be 28 08 7b bd
       0.0047398997 -0.18309744 -0.38572505 -0.061287075
000200 18 34 b5 bd 9c ad 02 3d 9b 56 23 3e 33 cb 02 3d
       -0.08847827 0.031903848 0.15951006 0.031932067
000210 32 04 88 3d 7e d9 d0 3d 97 1a 51 bd 03 2f 85 3e
       0.06641425 0.10197733 -0.05105075 0.2601243
000220 cf e8 01 3d 8b a4 ef bd 52 3c db 3c c8 65 9c bd
       0.031716164 -0.11701306 0.026762161 -0.07636601
000230 2d d0 65 3c 6c 3f ba 3d a9 36 04 3b cc a7 c5 3c
       0.014026684 0.09094128 0.0020174182 0.024127863
000240 ae c5 ed bd f0 69 78 3d 57 f8 17 3e 2d 05 e4 bd
       -0.1160997 0.060647905 0.14840828 -0.111338
000250 4e d7 b9 bd 3f 0e 52 3e 97 44 8f 3c bf 95 00 3d
       -0.09074269 0.20513247 0.01748876 0.03139281
000260 ec 0b 8c bc be c1 80 bd 5e db f4 bc 15 b5 04 3e
       -0.017095529 -0.062869534 -0.029889759 0.12959702
000270 6d 76 21 bb 52 54 1b bc 2a af fb 3c 5f 43 9f 3c
       -0.0024637238 -0.009480553 0.030723173 0.019441305
000280 9f d0 91 3d 90 24 28 3e 7b 26 46 39 07 4c 70 be
       0.071198694 0.16420197 0.00018897087 -0.23466502
000290 f7 68 1b bd 41 d0 02 3c bb 04 0b be 34 f2 9c 3b
       -0.0379419 0.007984222 -0.13576023 0.004789615
0002a0 d0 d8 bc 3d ed a5 f5 bd 3f 37 5b 3e ae c8 84 bd
       0.09221041 -0.119945385 0.21407793 -0.06483589
0002b0 5b c1 d7 bd d2 79 4a 3e 13 77 3e be db e8 29 be
       -0.105349265 0.19773033 -0.1860011 -0.16592734
0002c0 9e 71 8d 3d d4 59 97 bd 23 1a 03 3d af b0 1e 3e
       0.069064364 -0.0739018 0.032007348 0.15497087
0002d0 39 0e 81 3c e7 76 54 bd 23 b2 7d be 5b 32 1f 3d
       0.015753852 -0.051871207 -0.24774985 0.038866382
0002e0 02 0d fb 3c d0 2c 04 3d cd 53 ac 3b 2b e4 c4 bb
       0.030645851 0.0322693 0.0052590133 -0.006008645
0002f0 69 a8 80 3d cb 23 d3 3e 5f 73 16 3e 73 65 64 3d
       0.06282122 0.41238245 0.14692448 0.055760812
000300 45 8d b3 bd 00 b7 dc bd 26 a7 30 be 5d 49 ca 3c
       -0.087671794 -0.10777092 -0.17251262 0.024693185
000310 24 74 65 bc e9 11 95 3e de 6a b7 3d 6f 64 09 bd
       -0.014004741 0.29115227 0.0895593 -0.033543047
000320 a8 bb 48 3b 11 15 1c 3d ed dd 44 3d 07 f6 02 be
       0.003062943 0.038106028 0.048063207 -0.12789164
000330 2f 6b 4e bc 40 7d 38 3c b8 3d d8 3d 98 83 df 3d
       -0.012598797 0.011260331 0.10558647 0.109137714
000340 52 3d cc bd 8c 59 40 be 35 89 1c be 1c bd b5 3d
       -0.099726334 -0.1878416 -0.15286715 0.088739604
000350 fa 2a f6 bc 45 23 3a 3d e4 0b 10 bd 82 56 f1 3d
       -0.03004979 0.045443792 -0.03516759 0.11784078
000360 31 7c 15 3c 45 3e 95 3e 0a c7 93 3c ff 3d f5 bc
       0.009123848 0.2914907 0.018039245 -0.029936789
000370 45 71 1b 3e f5 0e 56 bd 51 20 9d 3d 0c aa 40 3e
       0.15179928 -0.052260358 0.076721795 0.18814868
000380 00 17 bd 3d f5 c2 d8 3d e1 72 e7 3a a5 46 99 3d
       0.092329025 0.1058406 0.0017658138 0.074841775
000390 7f 1f 44 3d b0 2e 98 3e 46 b5 08 be 81 57 85 3e
       0.0478816 0.2972312 -0.133504 0.26043323
0003a0 f3 d6 32 be d1 69 b6 3e 3c e1 d9 3d d0 64 14 be
       -0.17464809 0.35627607 0.10638663 -0.14491582
0003b0 2f 86 83 3e 0c ef f8 3d 4e 24 83 bd bc 6c 78 3d
       0.2568831 0.121549696 -0.06403409 0.060650572
0003c0 99 f3 12 be 45 a9 07 3e 79 45 66 3e 6f 9d 94 3d
       -0.14350738 0.13248165 0.22487439 0.072565906
0003d0 d8 09 f8 3d 63 ad 79 3d 08 f5 1f 3e 9e 0f ac 3c
       0.121112525 0.06095637 0.15620816 0.02100354
0003e0 06 a5 3b be c0 db 32 3d f9 0a de bd ee 65 24 be
       -0.1832467 0.0436666 -0.108419366 -0.16054508
0003f0 8f a5 ba 3c 47 d8 98 3d e7 fe 8f 3d 03 74 89 3d
       0.022784023 0.07463127 0.07031041 0.067115806

action_model._continuous_distribution.mu.bias f4 [2]
000000 15 8b 92 3c 29 a3 9d bd
       0.017888585 -0.07697136

exp_avg f4 [128, 6]
000000 36 3f 03 be 51 f9 6c bc 65 cc 65 be fd c9 ab 3d
       -0.12817082 -0.014463739 -0.22441252 0.083881356
000010 46 d5 2c b8 7c 39 5f be a0 ca 13 be 8a a2 51 bb
       -4.1206622e-05 -0.21799272 -0.14432764 -0.003198775
000020 8b 7d ce bc 93 0c 1a bd 47 ea 9d b9 9b 59 76 bd
       -0.025206348 -0.037609648 -0.00030119924 -0.06014405
000030 e1 02 bf 3e c4 98 cc 3d d1 ba 14 3f 76 83 0a be
       0.37306884 0.09990075 0.5809756 -0.13526711
000040 f2 11 f2 3a 1d 5e 19 3f 5a 46 48 bd d4 9d 21 bb
       0.0018468483 0.5990923 -0.048895217 -0.0024660723
000050 4f c5 6f 3b 4f 63 cd bb c0 be c2 b8 72 b5 bb bb
       0.003658611 -0.006267942 -9.286171e-05 -0.005728417
000060 62 1f 82 bc 15 f1 d3 3b 9c 3f 14 bc d3 1f 68 bc
       -0.015884105 0.006467948 -0.009048369 -0.014167744
000070 3c bb 11 b7 22 b1 71 bc e9 94 3f bd 65 2b 17 bc
       -8.686267e-06 -0.014751704 -0.04677287 -0.009226655
000080 27 90 59 bd bb da ab 3b 22 93 14 b9 19 9e 6d bd
       -0.05311599 0.0052445806 -0.00014169191 -0.0580121
000090 f9 aa 49 be 3e 70 12 bd 1c 50 8d be da 65 66 3d
       -0.19694127 -0.035751574 -0.2760018 0.056249477
0000a0 55 8e 3d ba 0d d4 94 be f5 7e 7b 3e e0 c3 b1 3d
       -0.0007230987 -0.29068032 0.24560149 0.08679938
0000b0 00 68 07 3f 19 9b 37 be 05 07 c3 3a 44 27 04 3f
       0.52893066 -0.17930259 0.0014879411 0.51622415
0000c0 19 a8 49 bd 91 51 52 bc 6d 99 7e be a5 37 60 3d
       -0.049232576 -0.01283683 -0.24863215 0.054740567
0000d0 04 46 af b9 7a e5 74 be 0f 3d 36 bb 74 32 1a bc
       -0.00033430767 -0.23915663 -0.002780739 -0.009411443
0000e0 08 46 32 be 48 d7 3f 3d 71 55 06 b9 20 2f 22 be
       -0.17409527 0.046836168 -0.00012811065 -0.1583829
0000f0 9c 5f 23 bd c1 ff 00 bc 33 5f d4 3c 87 89 ec bb
       -0.039886102 -0.0078734765 0.0259243 -0.007218543
000100 7c 41 2c b9 dd 25 55 3c 92 70 40 bd c2 6a 39 3b
       -0.00016427593 0.013009516 -0.046982355 0.0028292392
000110 4a 92 9f bc 1d 28 69 bc ec ce 1d b8 13 43 f9 bc
       -0.019478936 -0.014230755 -3.7624428e-05 -0.030427491
000120 3b 2f 05 bd c5 0f f8 ba af 4b 25 be bb a2 24 3d
       -0.032515746 -0.0018925598 -0.16142152 0.040194254
000130 81 ed 1f b9 b2 7d 1e be 49 e3 61 be e6 d6 8c bd
       -0.00015251899 -0.15477636 -0.22059359 -0.06876926
000140 36 2e e4 be 6e 25 1c 3e 06 19 7c ba c1 34 de be
       -0.44566506 0.15248653 -0.0009616766 -0.43399623
000150 82 79 15 be 6a 3d 36 bc db 53 e7 3d ef b3 37 bd
       -0.14597133 -0.011123041 0.11295291 -0.044849332
000160 6a 2d d5 b9 d2 4f 8f 3d 02 18 4e bb f7 9f fd 3a
       -0.00040660362 0.069976464 -0.0031447415 0.0019350041
000170 5b 0a ca 3b 44 ce 1a bc 4c f4 d9 b5 e7 34 16 3b
       0.0061657852 -0.009448592 -1.623886e-06 0.0022919716
000180 f9 e5 fd bb c8 ee 65 bb 04 d7 49 bd 77 36 1e 3c
       -0.007748362 -0.0035084952 -0.04927732 0.00965654
000190 b7 62 d0 b7 05 7a 3c bd 03 3d b4 3d 5f 4b f9 3c
       -2.48415e-05 -0.046014804 0.088006996 0.030431448
0001a0 77 d0 39 3e 75 ee 74 bd 2e 66 d1 39 6f df 33 3e
       0.1814593 -0.059797723 0.00039939716 0.17565702
0001b0 45 2e 9a bd fe 7b b9 bb d9 cf a7 3d c8 b1 f8 bc
       -0.075283565 -0.005660533 0.08193941 -0.03035821
0001c0 fd f1 91 b9 4c 5f 6c 3d ff ad 85 bd f2 18 26 3c
       -0.0002783685 0.05770807 -0.06527328 0.010137783
0001d0 04 fb fb 3d 86 f3 60 bd fc ed 97 b8 1f 3b c3 3d
       0.12303737 -0.054919742 -7.244569e-05 0.09532761
0001e0 9a 91 0f 3e f4 39 84 ba 5c 54 56 ba a3 ff 65 3d
       0.14020386 -0.0010088072 -0.00081760227 0.056151997
0001f0 7c 8f cf 39 1d 45 09 3d 4d ca fe bd 9c 38 27 bd
       0.0003958902 0.033513177 -0.124409296 -0.04082547
000200 02 d7 f0 be a8 72 0e 3e bf 69 fd b9 d3 d7 e5 be
       -0.47039038 0.13910925 -0.00048334707 -0.44891223
000210 f9 32 1a 3d 02 0d 47 3c 06 a3 92 3d 7f 09 b7 bc
       0.037646268 0.012149097 0.071600005 -0.022343395
000220 f7 a1 9e 39 f5 2f 93 3d a7 f0 3a 3a 73 0a b6 ba
       0.00030256782 0.071868815 0.0007131197 -0.0013888612
000230 5f 01 19 3d 8d a5 9b bb de 95 41 34 46 05 04 3d
       0.037354823 -0.00474996 1.8029047e-07 0.03223159
000240 2b aa 02 bd c9 1f 5f ba 51 0b 78 3d eb 20 72 bc
       -0.031900566 -0.0008511511 0.060557667 -0.014778356
000250 15 ab 55 b8 e7 03 42 3d 88 df 5b bc 26 86 53 bc
       -5.094249e-05 0.047367003 -0.013419993 -0.012910401
000260 93 cd dd bd 58 f8 0b 3d c5 5b 16 b9 08 0c ca bd
       -0.10830226 0.034172386 -0.00014339302 -0.09865576
000270 bb b1 3d 3e 42 c9 8a 3d 33 f9 bd 3e 28 4a d1 bd
       0.1852483 0.06776668 0.37104186 -0.10219222
000280 5b 2d 97 3a 3b 46 bd 3e 7e 62 97 3d 17 ae 5c 38
       0.0011533903 0.36967644 0.07391833 5.261422e-05
000290 be ec 81 bd 8c 6e 0b 3d 27 e1 24 39 b9 37 26 bd
       -0.06343983 0.034040973 0.00015724135 -0.040580485
0002a0 8d d9 45 bd 57 c8 e3 bb 34 4f 50 bd 98 5e 1b 3c
       -0.048303176 -0.0069513726 -0.050856784 0.009483002
0002b0 94 9d 18 b9 d7 77 71 bd bd d0 2d bd 52 f6 59 bc
       -0.00014554552 -0.05895218 -0.042435396 -0.013303356
0002c0 10 df c9 bd 44 ef 04 3d b6 7f c0 b8 85 0b c8 bd
       -0.09856999 0.032454744 -9.1790615e-05 -0.09767822
0002d0 b0 83 57 bb 13 99 56 3c e3 9e b9 3d e2 91 9c bc
       -0.0032884888 0.013098019 0.09063508 -0.019112531
0002e0 ff 39 3f 39 d4 98 a9 3d 8f 61 20 bd 08 c1 6a 3b
       0.00018236785 0.08281103 -0.03915554 0.0035820622
0002f0 8c ed 7a bd 6e 2b a0 3c 32 90 45 39 3d c5 7c bd
       -0.0612617 0.019551959 0.00018841101 -0.06171154
000300 4c e3 0e 3d 0a 6e 86 3b d2 eb 37 bd d9 64 5a 3c
       0.034884736 0.004102473 -0.04490263 0.013329708
000310 27 53 fc 38 e0 e1 10 bd d7 54 b8 be 09 02 a2 bd
       0.00012031785 -0.03537166 -0.36002228 -0.079105444
000320 38 27 00 bf 96 42 d4 3d b3 0b 9f ba 42 bd 06 bf
       -0.50059843 0.10364263 -0.0012134224 -0.52632535
000330 08 e0 0d be e1 f2 3e bd c7 51 d1 be 61 21 dc 3d
       -0.13854992 -0.046618346 -0.40882704 0.10748554
000340 dd 32 3d ba a1 3b cb be b9 78 3b bd ec 7d 43 bc
       -0.0007217357 -0.3969393 -0.045769427 -0.011931878
000350 35 ec 53 3c b4 b1 09 3d 63 39 63 b9 c0 9f 64 3c
       0.012934734 0.033616737 -0.00021669785 0.013954103
000360 fa 31 8b bd 1e db 06 bc 02 87 f7 bd 0c e3 30 3d
       -0.06796642 -0.008230953 -0.120862976 0.04318528
000370 37 a3 4c b8 20 27 f9 bd c3 d6 c6 bc 74 a5 5f bc
       -4.8789396e-05 -0.121656656 -0.024272328 -0.013650287
000380 b9 e4 9d bd c0 05 19 3d ca a6 3b b9 ad 31 8e bd
       -0.07709641 0.037359 -0.00017895843 -0.06943069
000390 2a 25 dc bb f6 98 93 bb fb 7c c0 bd f0 d0 cd 3c
       -0.0067182975 -0.0045043183 -0.09398838 0.025124043
0003a0 2d 5f 8b b8 1e 9a b3 bd 4b dd 2b 3d b4 a0 60 3c
       -6.6457644e-05 -0.0876963 0.04195909 0.01371019
0003b0 22 6a 3f 3d bc e7 52 bc 3f 27 f0 38 fa e8 46 3d
       0.046732076 -0.012872633 0.00011451402 0.048562028
0003c0 ac 23 86 3d f8 ce d8 3b 59 8d 8b bd bf 8b ae 3c
       0.065497726 0.0066164695 -0.06814069 0.02130687
0003d0 c7 1b 3a 39 16 64 4e bd 0a 39 69 3d d3 6d 34 3c
       0.0001774869 -0.05038842 0.056939162 0.011012512
0003e0 27 e0 1b 3e 19 0c 1a bd 4d 1b 86 39 cc ee 19 3e
       0.15222226 -0.037609193 0.00025578812 0.150325
0003f0 ec 55 de 3d 4f a0 51 3c d7 3d e9 bc 77 fb 79 3c
       0.10856232 0.012794568 -0.02847187 0.015257708

exp_avg_sq f4 [128, 6]
000000 a9 13 c7 3f 4c 1d de 3c ef 66 8c 3f af c5 34 3f
       1.5552875 0.02711358 1.0968913 0.7061414
000010 75 80 e1 37 ff 2d ee 3f 19 ef d2 40 57 61 93 3d
       2.6881908e-05 1.8607787 6.5916867 0.071963005
000020 f8 00 14 40 1a 9b 84 40 b1 e4 e0 37 d5 96 d4 40
       2.3125591 4.1439333 2.6809374e-05 6.643412
000030 c0 b3 a0 3f 6f fc 59 3d ee b0 3a 40 f5 0e c2 3f
       1.2554855 0.053219255 2.917049 1.5160815
000040 4e db 0a 38 2c 16 89 40 e2 e8 fb 3f a1 6e 38 3d
       3.3106007e-05 4.2839565 1.9680445 0.04502738
000050 2d ff 9b 3f 13 d1 9a 40 50 a7 43 37 01 7c 99 40
       1.2187248 4.8380218 1.1661861e-05 4.796387
000060 e6 48 aa 3f 03 56 e1 3c 98 bc c4 3f db 96 86 3f
       1.3303497 0.027506834 1.5370054 1.0514787
000070 c8 ca 50 37 7e 81 3c 40 a8 a7 23 3f 6b f3 52 3c
       1.244498e-05 2.9454036 0.639277 0.012875418
000080 6c d9 fc 3e 23 21 2f 3f f1 f5 32 37 d4 48 46 3f
       0.4938463 0.6840994 1.06668895e-05 0.77454877
000090 1c ac a6 3f 7f da 32 3d 6d 7a 06 40 1e 2b 0c 40
       1.3021274 0.043665405 2.1012223 2.1901317
0000a0 57 87 d1 37 14 db 33 40 85 b5 ee 3e be a1 a1 3c
       2.4977764e-05 2.8102465 0.46622863 0.019730445
0000b0 e5 19 86 3f a1 04 de 3e 6f f1 70 37 92 1d cf 3f
       1.0476652 0.43362907 1.4361328e-05 1.6180899
0000c0 87 e6 7f 40 22 9c 3b 3d 81 01 0a 40 27 b9 ad 3f
       3.9984453 0.045803197 2.1563418 1.3572129
0000d0 cc 45 24 38 91 de 7b 40 79 c9 11 3f 10 ac 61 3c
       3.916565e-05 3.9354594 0.5694805 0.013773933
0000e0 f0 83 c1 3e 1e bf da 3f 25 ce 2c 37 ec 75 2b 3f
       0.37795973 1.7089574 1.0299996e-05 0.6697681
0000f0 36 5e a1 3f b9 75 a2 3c ee 18 ca 3e 77 c5 f6 3f
       1.2606876 0.019831525 0.39472145 1.9279011
000100 57 d9 f1 36 24 74 b1 3f 99 27 06 40 8e bd c0 3c
       7.2076614e-06 1.3863568 2.0961668 0.023527887
000110 71 83 22 3f ca 1c 76 3f 39 40 64 37 97 31 ac 3f
       0.63481814 0.9613768 1.3604812e-05 1.3452634
000120 b7 53 90 40 26 45 53 3d e6 23 10 40 13 35 c2 3f
       4.510219 0.051579617 2.252191 1.5172447
000130 be 5d 1c 38 17 7c 7f 40 fb 8d 5e 3f af 83 81 3c
       3.7280603e-05 3.9919488 0.86935395 0.015809862
000140 28 7d 1d 3f 30 44 f9 3e b0 30 58 37 af df 76 3f
       0.615191 0.48684835 1.2885939e-05 0.96435064
000150 42 1f 3a 40 1c c3 df 3c 63 11 98 3f 8a 37 83 3f
       2.9081578 0.027314715 1.1880306 1.0251324
000160 d9 65 3b 37 45 2d b1 3f cc 9e 5e 3f a9 1f 8e 3c
       1.1169782e-05 1.384194 0.86961055 0.017349081
000170 94 88 6e 3f ef 07 5d 3f 1a 6c 2a 37 cc 83 65 3f
       0.9317715 0.8634023 1.0157959e-05 0.8965423
000180 48 64 e9 3e c2 a9 23 3c b6 9e b3 3e e3 b0 3e 3f
       0.4558432 0.009989204 0.35082024 0.7448866
000190 0b 0b ce 36 b8 a3 74 3f ff 45 5f 3e d8 68 d3 3b
       6.140564e-06 0.95562315 0.21804045 0.0064517073
0001a0 f7 c4 9c 3e 5d 72 a0 3e 4e 2a 86 36 52 0c d8 3e
       0.30619022 0.31337252 3.998436e-06 0.421969
0001b0 aa 5e 87 40 10 92 b5 3d cd 66 39 40 8d 83 08 41
       4.2303057 0.0886575 2.8968995 8.532117
0001c0 91 5b 9c 37 6d 5c 28 41 77 5a 5a 3f 05 22 1c 3c
       1.8639288e-05 10.522565 0.8529429 0.009529595
0001d0 f2 23 00 3f 19 a3 86 3e bb 89 b2 36 c5 c3 f0 3e
       0.5005485 0.2629631 5.3208473e-06 0.4702436
0001e0 42 e6 b4 40 a8 34 e4 3d 9c d1 58 40 9c d1 19 41
       5.6531076 0.11142856 3.3877935 9.613674
0001f0 6e 15 fc 37 29 8e 4a 41 06 20 ba 3f dc d9 79 3d
       3.005072e-05 12.659707 1.4541023 0.060998783
000200 48 ca 68 40 3c cd cb 3f b1 61 0c 38 0a bb cb 40
       3.6373463 1.5922008 3.3469583e-05 6.366582
000210 cf 54 05 3f f9 83 c3 3b 67 dd a8 3e 5e 2e 51 3e
       0.5208253 0.00596666 0.32981417 0.20427844
000220 38 bf c2 36 92 33 ee 3e fa ac 00 40 f1 04 c5 3c
       5.8039113e-06 0.4652372 2.0105577 0.024050208
000230 0d 2f 36 3f d7 b9 dc 3f d9 4c 9c 37 02 3e b5 3f
       0.71165544 1.7244214 1.8632434e-05 1.4159548
000240 e4 2a 53 3f 7d 4e ed 3c c7 c6 e4 3f d4 ad 83 3f
       0.8248732 0.02896809 1.7873162 1.0287423
000250 ed fd 1a 37 cd 15 5a 40 fb 71 c6 3f 5c 3c 0d 3d
       9.238237e-06 3.4075806 1.5503534 0.03448139
000260 0d 80 86 3f 55 3a 57 40 bf ac 01 37 70 48 87 40
       1.0507828 3.3629353 7.72922e-06 4.2275925
000270 2e 85 28 3f 8b 3f 93 3c 6f 29 39 3f 8e 4d 2e 3f
       0.65828216 0.017974636 0.7232885 0.6808709
000280 e3 a4 82 37 75 99 b5 3f d0 30 91 3f 8c b7 3f 3c
       1.5573989e-05 1.4187456 1.1343021 0.011701476
000290 a7 e9 01 3f 30 ee f6 3e 58 89 ed 36 fb 1f 46 3f
       0.5074715 0.48228598 7.0791393e-06 0.7739255
0002a0 18 c5 fe 3e 36 6d 3a 3c bc b5 99 3e f2 46 83 3f
       0.49759746 0.011378577 0.30021465 1.0256026
0002b0 ea 60 1e 37 ea 79 05 3f aa 45 fb 3e b6 de 41 3c
       9.440098e-06 0.5213915 0.49076587 0.011832884
0002c0 f8 88 da 3e 9b d8 d2 3e d2 14 4e 37 00 c6 51 3f
       0.42682624 0.41180882 1.2283404e-05 0.8194275
0002d0 7d af 7b 3f 8f 58 a7 3c 33 d3 06 3f 58 2a f1 3f
       0.9831465 0.02042797 0.52666014 1.8841047
0002e0 0b c8 33 37 97 f5 d2 3f 38 df 04 3f 4f 08 03 3c
       1.0715808e-05 1.6481198 0.51903105 0.007997586
0002f0 77 2f cc 3e 79 ea 98 3e 2b b1 08 37 fe ae 1f 3f
       0.39879963 0.29866388 8.147482e-06 0.6237639
000300 24 60 9f 3f c6 35 04 3d 6a ba 84 3f 50 cf 4c 40
       1.2451215 0.032277845 1.0369389 3.2001534
000310 44 79 9d 36 83 2f 83 40 80 56 b0 3f 95 9f 75 3d
       4.693082e-06 4.09955 1.3776398 0.059966642
000320 ea 83 14 40 80 81 26 40 07 10 a0 38 ba 48 bb 40
       2.3205514 2.601654 7.63238e-05 5.8526278
000330 b6 f0 34 3f 70 35 f4 3c 15 c1 b5 3f b7 d5 92 3f
       0.70679796 0.029810637 1.4199549 1.147147
000340 96 b5 00 38 b9 1d 4f 40 b1 23 85 3f 88 85 3e 3c
       3.0686693e-05 3.2361891 1.0401517 0.011628516
000350 e7 ea e9 3e c0 ca 22 3f ad 4b 0a 37 b3 43 2f 3f
       0.4568703 0.6359062 8.243061e-06 0.68462676
000360 40 ff 02 40 ae 4c 10 3d 31 57 01 40 2e 45 83 3f
       2.0468292 0.035229377 2.0209467 1.0255487
000370 98 14 af 37 c5 51 71 40 34 e4 a7 3f 8c e5 81 3c
       2.0871215e-05 3.7706158 1.3116517 0.015856527
000380 54 1b e1 3e 3a c8 df 3e 21 de 63 37 a8 b5 78 3f
       0.43966162 0.43707448 1.3581973e-05 0.97152185
000390 d0 93 7f 3f 60 db 02 3d d7 6c 9e 3f ce 71 0b 40
       0.9983492 0.031947494 1.2376965 2.178821
0003a0 e8 d7 d6 36 18 76 60 40 95 32 9d 3f 5d b9 fa 3c
       6.402832e-06 3.5072079 1.2281061 0.030605966
0003b0 eb 47 d2 3f 9a 47 86 3f cc a4 80 37 c1 f4 3e 40
       1.6428198 1.0490601 1.5335529e-05 2.9836886
0003c0 4f 8e ae 3f 3c 63 0e 3d 99 08 c5 3f ca 77 23 40
       1.3637179 0.034762606 1.5393249 2.5541863
0003d0 83 4e 19 37 3a 00 7a 40 2d 21 80 3f 10 7e 66 3c
       9.137791e-06 3.9062638 1.0010124 0.014068142
0003e0 fb ca 14 3f c6 3c 79 3f 0e 38 19 37 21 1b 8a 3f
       0.58122224 0.9735836 9.132562e-06 1.0789529
0003f0 b2 6d 51 3f c7 48 96 3c 9a 4b 5c 3f 68 75 84 3f
       0.81808007 0.01834525 0.8605286 1.034833

exp_avg f4 [128]
000000 c0 e1 f3 3d 7b 42 d6 3c 1e dc bc be 44 e9 ac 3c
       0.11908293 0.026154747 -0.36886686 0.021107323
000010 25 fe ab bc 78 78 00 3d 3a b0 25 3e ec c8 a0 be
       -0.020995209 0.031364888 0.16180506 -0.3140329
000020 ce 58 4b 3d 0f 29 34 3d 3b 04 c2 3c 32 17 ff bb
       0.049645238 0.04398447 0.023683658 -0.0077847475
000030 7a ed 91 3c 79 8b 87 3e c2 bc 29 3d d3 ce 4d bc
       0.017813433 0.26473597 0.04143978 -0.012561518
000040 f2 c0 80 3c 52 cb d8 bd 22 47 37 3c 51 02 d5 bc
       0.015717003 -0.10585655 0.011186393 -0.026002081
000050 fb a8 0d bc fc cb 50 3e 6b 7f 1b bd f5 67 29 3c
       -0.008646245 0.20390314 -0.037963312 0.010339727
000060 b9 91 0b 3b dc 5e 4e 3d 3e 5b 64 be eb 8b f0 ba
       0.0021296574 0.050383434 -0.22300431 -0.0018352246
000070 19 ed 12 3d 2c 98 7f 3d 69 23 db bc fe 9e 9e 3c
       0.035870645 0.06240098 -0.026750283 0.019362923
000080 31 98 1c bc bf 45 a2 3e 75 b5 42 3e 20 9c 50 3d
       -0.00955777 0.31693837 0.19014533 0.050930142
000090 b7 5e 3b 3d 50 6c 51 3d 55 bd a8 3c e2 6f 3c bd
       0.045744624 0.051128685 0.020598093 -0.046005137
0000a0 14 be ca bc 54 87 4a bd 5b 97 38 bd eb b3 99 bc
       -0.02474884 -0.049445465 -0.04506622 -0.01876255
0000b0 0a 9b 3d 3e f5 aa 85 bd 5c ac d0 bc 04 a8 16 be
       0.18516174 -0.06526748 -0.025472812 -0.1471253
0000c0 c6 8c 8b be ee 41 0d bd 4d e4 c9 3c 73 73 34 bd
       -0.2725584 -0.034486704 0.024644995 -0.044055413
0000d0 58 16 34 3d d7 c2 15 3e a6 13 b2 3c 24 ee 91 3c
       0.04396662 0.14625107 0.021737885 0.01781375
0000e0 1d 4f 91 bb 91 f9 6a 3d 39 8c 27 3e 81 63 26 3e
       -0.00443448 0.05736691 0.16362084 0.16248895
0000f0 d3 71 aa 3c 27 13 f9 bb a2 2d c6 3d 7e 2a bc bc
       0.020806229 -0.00760116 0.096766725 -0.02296948
000100 0b 4a 84 3d 76 f1 04 3d 64 cd 9d bd cf b4 cf 3b
       0.06459435 0.032456838 -0.07705191 0.0063386927
000110 10 bf ae bd c0 91 b7 3e 88 ee 86 3a 0c 0b d9 3c
       -0.08532536 0.35853386 0.0010294477 0.026494525
000120 79 c6 85 3c 21 06 38 bd 1d 1e 88 bd 88 64 f5 3d
       0.01632999 -0.04492772 -0.06646369 0.119820654
000130 37 3c ae 3b a8 80 86 3c b0 03 8a bd 88 02 9b 3c
       0.0053172368 0.01641877 -0.067389846 0.018922105
000140 bf 27 d1 bd 7c 87 cc 3b f2 97 c5 bc 83 a8 79 3d
       -0.10212659 0.006241737 -0.024120305 0.06095172
000150 2b cd e9 bd 5f 59 c2 3e 28 f2 9c 3d 6a 64 41 be
       -0.11416086 0.3795881 0.07663375 -0.18885961
000160 80 d6 eb bb f6 0d 47 be 50 fb 13 3d 8c 4b 6c be
       -0.0071972013 -0.1943892 0.036128342 -0.23075694
000170 d4 33 87 bd ac 8d 38 bc 8f 25 20 3c cd 87 1d 3e
       -0.06601682 -0.011264246 0.00977458 0.15383835
000180 97 f9 30 bd c5 9e c9 bd 5d 1e d1 3e 71 31 d2 bc
       -0.043206777 -0.09844736 0.40843478 -0.025658341
000190 8e ed 63 3d 81 b7 0a 3d 55 5c f3 bc 86 e7 82 3d
       0.05564647 0.03386641 -0.029707113 0.06391816
0001a0 58 1f 4f bd 11 ee 33 bd 80 f7 b4 bd 46 81 0a be
       -0.050567 -0.04392821 -0.088362694 -0.13525876
0001b0 0c 30 fc 3d bf d6 28 3d 34 54 ad 3e 27 72 a5 bd
       0.12313852 0.041220423 0.33853304 -0.080784135
0001c0 b6 93 6b 3e 01 00 8a bd 57 78 5c 3d 4a f3 38 3b
       0.23005566 -0.06738282 0.053825703 0.0028221183
0001d0 a7 66 29 bd 8b 48 62 3e 40 24 80 3e 57 36 3a 3c
       -0.041357663 0.22097985 0.25027657 0.011365495
0001e0 67 5f b3 be 40 0c 82 3c ac 8d 42 bd e2 36 3b be
       -0.35033724 0.015874982 -0.04749839 -0.18282655
0001f0 a2 cb 22 3d ac 6b 5c bc c4 88 1f be 57 b2 a6 3e
       0.03974498 -0.013453405 -0.15579516 0.32557938

exp_avg_sq f4 [128]
000000 b1 5b 85 3e 40 78 2b 3f bf 98 fe 3e 09 3c d5 3e
       0.26046517 0.6698036 0.4972591 0.41647366
000010 31 1a 83 3e 2d df 00 3e 34 35 d3 3e 69 57 40 3e
       0.2560592 0.12585135 0.41251528 0.18783344
000020 10 d2 d8 3e ba 1b 03 3e cc 62 3a 3e be 9d 65 3e
       0.42347765 0.12803546 0.1820175 0.22423455
000030 e6 3d f6 3e 3d 75 1f 3e 2b 38 84 3e 78 d5 2d 3e
       0.480941 0.15572067 0.25824103 0.16975963
000040 9e 41 c3 3d 7c 4b 7d 3d 7f bb 50 3f 49 01 b8 3d
       0.09534 0.061839566 0.81536096 0.0898462
000050 d1 25 83 3f 61 1b 13 3f 45 80 7c 3d 51 74 68 3e
       1.0245916 0.5746365 0.061645765 0.22700621
000060 90 d7 89 3e 66 bc a3 3e a8 73 2d 3e 69 9b e1 3d
       0.26922274 0.31979674 0.1693865 0.1101597
000070 60 84 db 3d 06 02 e9 3d aa 7b 44 3e cd b4 9d 3d
       0.10718608 0.11377339 0.19187799 0.07700501
000080 82 31 99 3e 9e a8 11 3f 72 cf 8d 3e cc a3 f1 3d
       0.29920584 0.56897914 0.2769733 0.1179882
000090 e5 78 a9 3e dc 71 17 3e 6a 63 97 3e d6 5d 91 3e
       0.33100048 0.14789528 0.29568034 0.28391904
0000a0 6b 41 a4 3e b4 93 07 3e 59 37 30 3e f2 b1 dd 3d
       0.3208116 0.13239938 0.17208613 0.10824956
0000b0 9e bd c0 3d 35 e5 69 3e 6f d1 82 3e dc 9a 69 3e
       0.094111666 0.22841342 0.2555041 0.2281298
0000c0 38 80 1a 3f 06 f1 87 3e 0b d1 74 3d f2 e5 69 3d
       0.60351896 0.26551074 0.05976967 0.05710406
0000d0 c0 db 16 3f 2c 39 2f 3e 4f 00 98 3e 8f 99 fd 3e
       0.5892906 0.17111653 0.29687735 0.49531218
0000e0 c0 b9 bc 3d e9 dc a2 3e f8 94 af 3e 7b c1 30 3e
       0.092151165 0.31809166 0.34293342 0.17261307
0000f0 c2 25 93 3e 2b ca e3 3e a8 2f ad 3d dc 3f 8c 3d
       0.28739744 0.4449018 0.08456355 0.06848118
000100 ad 50 de 3e 19 5d 22 3d 89 f9 f9 3e c4 12 ad 3e
       0.43420926 0.039639566 0.48823193 0.3380338
000110 04 a7 3d 3d ec 42 8e 3e 4d 96 3b 3e 8b 2d 87 3e
       0.046301857 0.27785432 0.18319054 0.26401934
000120 df 05 e1 3f f7 b7 ad 3e 3f 3b b2 3d e9 bf ab 3e
       1.7579917 0.33929417 0.087027065 0.33544853
000130 a3 a4 53 3e 1b 2f 50 3e 72 da ca 3d c7 59 38 3e
       0.20668273 0.2033047 0.099049464 0.18002997
000140 c3 80 50 3e f8 df 12 3d 8b e5 23 3e c3 e5 6c 3f
       0.20361619 0.035858124 0.16005532 0.9253809
000150 25 75 8a 3e a2 91 ec 3e ce 69 a1 3e e1 08 2d 3e
       0.270425 0.4620486 0.31526035 0.16897918
000160 28 21 86 3d 0e 08 de 3d e8 21 a1 3d bb 6a 55 3e
       0.06549293 0.1084138 0.07867795 0.20841496
000170 13 47 89 3e dc 63 02 3e a6 ee de 3d 89 b3 2d 3f
       0.26812038 0.12733406 0.10885362 0.67852074
000180 6d e1 ce 3e 0a 60 a5 3f 44 45 82 3f e5 75 07 40
       0.4040636 1.2919934 1.0177388 2.1165707
000190 f4 d5 56 3e f7 17 7a 3e 44 ef 53 3f a7 cd 51 3e
       0.20980054 0.24423204 0.82786965 0.20488606
0001a0 30 82 ee 3d 42 20 b1 3d cd 23 a7 3d 52 77 8c 3e
       0.11645925 0.08648731 0.08161125 0.27434784
0001b0 24 b8 03 3e 3d 9d 93 3e 82 8c 28 3e ed f5 b8 3e
       0.12863213 0.288309 0.1645985 0.36125126
0001c0 6a 19 45 3e 40 e8 9b 3e f3 ab 59 3d 4c 18 cc 3d
       0.19247976 0.3045063 0.0531425 0.09965572
0001d0 5c 31 07 3f 20 02 c0 3e 7c fa 30 3f 7a 34 9b 3d
       0.5280969 0.3750162 0.6913221 0.075783685
0001e0 8e cc 97 3e 34 47 69 3e 01 13 6c 3e 19 99 65 3e
       0.2964825 0.22781068 0.23054124 0.22421683
0001f0 cd 1a cc 3e eb 72 96 3e 5c f8 70 3e 33 e2 f8 3e
       0.39864197 0.2938455 0.23532242 0.48610076
