ML-Agents/Examples/Basic1/results/test_movetogoal2/MoveToGoal/checkpoint.pt (torch, 441378 bytes, 36 tensors)

network_body._body_endoder.seq_layers.0.weight f4 [128, 6]
000000 fa 39 20 be 53 bc f4 be 6e b1 1b 3c a5 2b ed be
       -0.15647116 -0.4779993 0.009502752 -0.4632236
000010 ad 82 d3 be f0 14 74 3f 3c 6c 84 3e 76 9b 97 3d
       -0.41310635 0.9534445 0.25863826 0.07402699
000020 b1 59 df be b8 a0 cf be d1 51 ac 3e b5 c1 ca 3e
       -0.43623117 -0.40552306 0.3365617 0.39600912
000030 c9 46 b6 bc fb a0 67 3e a0 b5 f7 be cc 84 f3 3e
       -0.02225055 0.22620003 -0.48380756 0.47562253
000040 b8 e6 81 bf 83 07 ec be c0 b2 ec 3e 27 1e 2a 3f
       -1.0148535 -0.4609948 0.46230125 0.6645226
000050 8d 9d 13 3e 45 45 d8 be e3 1f 06 3f 87 a2 c0 3e
       0.1441557 -0.42240348 0.52392405 0.37624
000060 64 47 97 3e c6 59 29 bf 02 b8 ce be 47 01 e8 3e
       0.29546654 -0.6615261 -0.40374762 0.45313475
000070 c2 e4 84 3b 53 97 4b be aa cd 3d bf d9 86 8e be
       0.0040555904 -0.19881944 -0.74141943 -0.27837256
000080 6d fc 17 3f a9 9e 4a 3e 7c fd 22 bf 5d 61 98 bd
       0.59369546 0.19787087 -0.63668036 -0.074404456
000090 6c 34 b2 be 2b b2 a8 be fe 7f 82 bf 48 79 0a 3f
       -0.3480562 -0.3294843 -1.019531 0.5409131
0000a0 2e d9 87 3d d0 b4 a6 bc 55 48 cf 3e e0 4d 36 bf
       0.066332206 -0.02034989 0.40484872 -0.7121258
0000b0 12 98 f6 bd 00 56 4b be 33 99 0e bd 0a 88 db be
       -0.12040724 -0.19857025 -0.03481407 -0.42877227
0000c0 1e 0d c0 be a9 e4 c2 3e f4 ed d5 be 45 1d c9 3e
       -0.37510008 0.3806508 -0.41783106 0.39280143
0000d0 22 4a ee be 5c f6 31 3e e5 aa ee be 8a be 61 be
       -0.46540934 0.17379135 -0.46614757 -0.22045341
0000e0 48 74 b9 be d7 c5 a3 bc 6e 59 b0 3d 71 0b 0d be
       -0.36221528 -0.019991798 0.08610807 -0.13773896
0000f0 fc f2 e1 bd 3f 9b 36 bf 52 3f a9 3d 60 84 36 be
       -0.11032674 -0.71330637 0.082640305 -0.17823935
000100 f6 32 0a 3f 86 57 50 be 21 49 6e be 94 66 09 bf
       0.5398401 -0.20345888 -0.23270084 -0.53672147
000110 fe 3a 70 3e e3 ef 5a 3e e7 05 72 be 5d 01 15 3f
       0.23460004 0.21380572 -0.23635064 0.58205205
000120 93 38 bc be f6 48 a5 3e f8 fc 1e be 8f df 64 3d
       -0.36761913 0.32282227 -0.15526187 0.055877265
000130 c3 e7 aa be d6 07 35 3f a8 7b 5f bf 4d 01 03 3e
       -0.33379945 0.7071508 -0.8729806 0.12793465
000140 aa 84 e6 3e cd 9e 17 3f f5 1b 32 3e 83 9c 51 be
       0.4502309 0.59226686 0.17393477 -0.2046986
000150 9f 28 f0 3e 0d 24 cd 3e 3e 9c 06 be 86 00 dd be
       0.4690599 0.40066567 -0.13145539 -0.43164462
000160 b3 8a 6a 3d aa 01 16 3d 6b 7b a2 bd 2d f9 ac 3e
       0.05726118 0.03662268 -0.07933696 0.33783856
000170 e1 ce 07 3c 46 bd ce bd 74 f9 bf 3e 44 9b 12 bf
       0.00828907 -0.10094695 0.37495005 -0.57268167
000180 97 e5 c9 be 8d 35 22 bf d8 68 75 3e bf a2 a7 be
       -0.39432976 -0.6336296 0.23965776 -0.32741353
000190 7c 57 a3 bd df 36 6e be 2a 76 e0 3e 3e 89 b9 3e
       -0.07975671 -0.23263119 0.43840152 0.3623752
0001a0 58 5f 68 3e d4 22 4d be 4e a6 43 3e 83 7c 2c 3f
       0.22692621 -0.20032817 0.19106409 0.6737749
0001b0 37 76 84 3e f2 ec 36 bf 4a fe 83 bf ff 96 44 3f
       0.2587144 -0.714553 -1.0311978 0.767929
0001c0 07 23 01 bf a0 c6 c1 3e 89 7b 84 3e 5d e4 32 bf
       -0.5044407 0.3784685 0.258755 -0.69879705
0001d0 4d e3 6c bd f1 df 7d bf c0 97 6b 3d 22 1a a5 3d
       -0.05783396 -0.9916983 0.057517767 0.08061625
0001e0 92 37 29 3e a1 60 7a 3e 7d 95 84 3d 64 de f2 3d
       0.16525105 0.24450924 0.06473825 0.11858824
0001f0 fb e2 11 be 18 24 c3 3e 9a 5f ec 3c 4f 70 30 be
       -0.14246742 0.38113475 0.02885418 -0.17230342
000200 f2 62 f7 3d 68 2a d5 bd a3 ed 73 3e ee ca dc bd
       0.12079419 -0.10408479 0.2382112 -0.10780893
000210 3f ab 06 3d 2f 06 da be 62 40 17 be 6d f4 bb bc
       0.032878157 -0.42582843 -0.14770654 -0.0229437
000220 cc b9 e8 3d 3e d5 d1 3e f6 b8 af 3e fd d2 0d be
       0.11363563 0.40983003 0.34320801 -0.13850017
000230 e6 35 96 3e 04 42 13 be 22 9f b9 3e 2d c7 85 3e
       0.29337996 -0.14380652 0.3625422 0.26128522
000240 7e 6c 5b bc 09 65 e0 3e 1f c4 12 3f 10 83 95 be
       -0.013392566 0.43827084 0.5733051 -0.29201555
000250 38 12 2f 3e 48 cd 5d 3d d2 fa b2 3e 23 ac f7 bd
       0.17096794 0.05415085 0.34956986 -0.12093379
000260 f1 59 98 be 56 e0 42 3f 0b c0 e4 bd 29 98 12 be
       -0.2975612 0.7612356 -0.11169442 -0.14315857
000270 ae 90 11 3f 32 e3 e5 be 3a 30 4f 3e 4f e7 7a 3e
       0.5686139 -0.448999 0.2023324 0.245023
000280 5f 6b 2b bd 02 f2 ff 3e 11 34 47 3e 93 55 8c 3e
       -0.041850444 0.49989325 0.19453456 0.27409038
000290 d9 1f 04 bf 78 a8 5c be b1 0f 22 be ec 3b a0 3e
       -0.51611096 -0.2154864 -0.15826298 0.31295717
0002a0 55 6e ac 3e f3 5b 8a be 50 b2 09 bf 3d 00 ae 3e
       0.33677927 -0.27023277 -0.5378771 0.33984557
0002b0 3e d2 47 3e 34 65 dd bd ef 26 e0 bd d0 5c 50 3d
       0.19513795 -0.108103186 -0.10944926 0.050869763
0002c0 85 ed 6e 3f e6 d9 fa bc 78 e0 18 3e e6 17 93 3e
       0.93331176 -0.03062148 0.14929378 0.2872917
0002d0 8a ca 46 3f 00 93 05 3e df fe b5 3e b2 de a5 be
       0.776528 0.13044357 0.35546014 -0.32396466
0002e0 5b 6d 83 be 29 d4 48 3e 0e 91 05 be 6f fc dd be
       -0.2566937 0.19612183 -0.13043615 -0.43356654
0002f0 ce 12 5f 3e a0 6a 0b 3f c6 af 80 3e d2 65 0f 3e
       0.21784517 0.5445957 0.25134104 0.14003685
000300 04 24 a4 be f3 fb df be e1 cb 3b 3d c7 3e 8f bf
       -0.32058728 -0.4374691 0.04584873 -1.1191033
000310 20 e5 bc 3e a3 a7 34 3e ed ec 23 bf 4e d1 b5 3d
       0.36893559 0.17642073 -0.64033395 0.08877812
000320 1f e0 98 bd c8 f7 2a bc b7 32 cd 3c 63 ea 12 bf
       -0.07464623 -0.010435052 0.025048597 -0.57388896
000330 4f 18 e9 be e1 4a 01 3c e2 2b 20 bd cc 3f 12 be
       -0.45526358 0.007891388 -0.03910435 -0.14282149
000340 65 d0 0d bf bb 1c 2e 3e 65 4c 1e 3e a3 e6 6d be
       -0.5539611 0.17003147 0.1545883 -0.23232512
000350 2f aa 4c 3f 11 72 b9 be a1 e7 cd be e6 c5 2a bf
       0.7994718 -0.36219838 -0.4021578 -0.6670822
000360 6f 0a 5c 3f 84 0f 19 3f 18 0b 02 bf e5 0b 02 bf
       0.8595342 0.597893 -0.5079818 -0.507994
000370 60 8d 37 bf aa ff 81 be 40 06 b6 be f7 ed 53 bf
       -0.71700096 -0.2539037 -0.35551643 -0.8278498
000380 36 48 18 bf e1 1c 42 3f a3 5e a2 3e ab 3d db 3e
       -0.59485185 0.75825316 0.31712827 0.42820486
000390 4f 62 13 3e f1 e8 6c 3f 69 8c 94 bd 48 66 f4 3d
       0.1439297 0.9254294 -0.072533436 0.11933571
0003a0 67 2c 29 be 89 c5 38 be 3b 53 63 bf b8 b1 25 3f
       -0.16520844 -0.18044104 -0.88798875 0.647243
0003b0 f5 1e 84 be de b4 04 3e dc 46 37 3f 8f 33 ca 3e
       -0.25804868 0.1295962 0.715925 0.3949246
0003c0 6d f9 96 3c 92 1e 79 bd e5 5d cb be ee 65 86 be
       0.018429482 -0.06082017 -0.39720073 -0.2624964
0003d0 f6 54 4e bf ff 51 11 bf 3a 13 c0 3c 8b 1f 20 bf
       -0.8059839 -0.5676574 0.023446668 -0.6254813
0003e0 5d 1a 8b be c5 1f 7a 3e 4d 70 07 bf 54 c5 e8 bd
       -0.2716855 0.24426182 -0.5290573 -0.11365762
0003f0 19 17 1b 3f d4 01 10 be 59 a3 58 3d bc 27 4b 3e
       0.6058212 -0.14063197 0.052890155 0.19839376

network_body._body_endoder.seq_layers.0.bias f4 [128]
000000 21 53 a0 3b 1c 4d c6 3b be fe 86 bb 22 58 01 bb
       0.0048927222 0.0060516726 -0.004119723 -0.001973637
000010 f8 99 fe 3b 92 fe c3 bb 87 67 4d bc 79 fe c3 ba
       0.0077698193 -0.005981275 -0.01253689 -0.0014953158
000020 2b 0f 5b 3c fe cf e7 bb 89 b7 bb bb dd 9c 0b 3c
       0.013370316 -0.007074355 -0.005728666 0.008521286
000030 3e 24 af 3b f9 5b 6f bb 5e f9 ba 3b 16 72 bb 3b
       0.0053448966 -0.0036523326 0.0057059964 0.005720387
000040 83 aa 73 bb 81 5a b4 3b 28 16 b0 3c 71 7a 37 3c
       -0.003718049 0.005503953 0.02149494 0.011198626
000050 64 20 7b bc 23 b5 a2 bb b8 4d 7d bc 54 1a 32 3c
       -0.015327547 -0.004965441 -0.015460424 0.010870535
000060 d8 c5 cc bb 13 e9 7a 3c a4 8e 8e 3c b8 39 4f 3c
       -0.0062491708 0.015314358 0.017402 0.012648039
000070 79 43 63 bc 7e 9d 8b 3b 84 cd 2f bc 4a 17 90 bb
       -0.013871067 0.004260718 -0.010730151 -0.0043973075
000080 c4 59 10 3c 1b ea c4 3b ee 15 a1 bb c1 32 60 3b
       0.008810464 0.006009353 -0.0049159443 0.003420994
000090 75 3b 35 ba 6e 4a b3 3b d5 ff 11 bc bc 99 a2 3b
       -0.0006913462 0.005471519 -0.008911093 0.004962174
0000a0 f8 a2 18 3c 41 c7 75 3b 57 da 7b 3b a5 5c 28 3a
       0.0093161985 0.0037502798 0.0038429701 0.00064224965
0000b0 9e 25 91 3b 03 82 37 3c f1 0c a3 bb cf f3 79 bb
       0.004429533 0.011200431 -0.004975908 -0.0038139706
0000c0 84 af 0e 3c 4b b8 03 3c 09 cd 36 3c 12 53 6e bc
       0.008708838 0.008039544 0.011157283 -0.014546173
0000d0 24 1c 4f bb ee 66 6b bc 8c 5b 1f 3c 68 c9 87 bb
       -0.0031602466 -0.014367802 0.009726416 -0.0041438825
0000e0 98 5c 49 39 86 83 bb bb 21 e6 93 3a 09 2d 3c 3c
       0.00019203348 -0.005722466 0.0011283794 0.011485347
0000f0 af fe 9d 3b 69 af 89 3c b9 1b 98 3b 3b 46 cd 3b
       0.0048216204 0.016807275 0.0046419767 0.0062644756
000100 73 a1 5a 3c ea 6a 23 bb d0 7b 53 bb 52 61 04 3c
       0.013344157 -0.0024935552 -0.0032269843 0.008079844
000110 44 0c 83 bb 4e d1 6e 3c 26 4b 62 bb c2 9a 0d 3c
       -0.003999265 0.014576269 -0.0034529655 0.008642854
000120 5f eb 51 bc ae 0c c7 3b 16 14 94 3c 3f b1 98 3b
       -0.0128124645 0.0060745096 0.018075984 0.0046598013
000130 67 0c 28 3c 6e 1d 10 3b 9e b2 05 3c 28 a6 17 3c
       0.010256863 0.0021990198 0.008160261 0.009255923
000140 38 32 97 bb 50 c8 f3 3b 0e 58 b0 3a ed 62 3f bb
       -0.004614141 0.0074396506 0.0013453977 -0.0029203251
000150 17 28 a5 bb c5 94 bd 3b 79 a9 c8 bb ce 02 b4 39
       -0.0050401795 0.005785557 -0.0061237183 0.00034334365
000160 b8 7d aa 3b 93 be 25 3c 6d 67 ed 3b 59 96 d0 ba
       0.005202975 0.010116237 0.0072449953 -0.0015913948
000170 2a ee 3d bc f6 61 68 bb dc be f0 3b b6 95 33 3c
       -0.011592427 -0.003545878 0.007346971 0.010960987
000180 01 79 8f 3b b7 11 19 3c 47 d7 e8 bb a9 e8 50 3c
       0.0043784385 0.009342602 -0.007105741 0.012750783
000190 f5 35 47 3c 5f 11 11 3c c6 c0 1d 3a c1 7c 18 ba
       0.01215886 0.008854239 0.00060178 -0.00058169296
0001a0 c3 ff 23 3a 3c 64 42 bb e5 41 69 bc 24 26 c1 bb
       0.0006256068 -0.0029661795 -0.014236902 -0.0058944393
0001b0 82 0e 02 3c fc ad 45 3c 68 26 16 3c f3 aa 55 3c
       0.007938029 0.012065407 0.00916443 0.013041246
0001c0 e0 5e 4a 3c 0e 4b 85 3a 6d 6d a5 3b 31 d3 47 3b
       0.0123517215 0.0010169463 0.005048445 0.003049087
0001d0 43 42 aa bb 9c a7 d7 3b 80 79 2c 3b 01 34 12 bc
       -0.0051958873 0.00658126 0.0026317537 -0.0089235315
0001e0 32 98 08 3c 9f fe 76 ba 48 04 5e bc 80 b6 7a bb
       0.008337067 -0.0009422097 -0.013550825 -0.003825575
0001f0 d7 77 b0 bb 74 b0 b1 3c ef a7 1a bc 79 61 d8 3b
       -0.00538538 0.021690585 -0.009439453 0.0066034165

network_body._body_endoder.seq_layers.2.weight f4 [128, 128]
000000 b0 05 4b 3e 1a 72 cc bd 68 3a 08 bb c6 fe 6e bc
       0.19826388 -0.09982701 -0.0020786766 -0.01458711
000010 8e 6b a9 bd 81 4b ff 3c 22 74 93 bc 1c 80 31 3a
       -0.082724676 0.031163933 -0.017999712 0.0006771104
000020 b9 95 74 3d 4e df a5 bd 8d c9 8b bd 97 be 98 bd
       0.0597131 -0.080992326 -0.06825552 -0.07458227
000030 32 0a 20 bc 79 82 c0 3b 8e c5 61 be 8a 3f 89 bd
       -0.009768056 0.0058749286 -0.22048017 -0.06701572
000040 a0 e5 b5 bd f7 2a 1d be 21 19 e7 bd a0 82 62 bd
       -0.08881688 -0.15348421 -0.1128409 -0.055300355
000050 cb 8e 71 bd 38 ed 56 bd 3d a4 45 3d 53 06 00 bc
       -0.05897407 -0.052472323 0.048252333 -0.007814008
000060 ef bd 71 ba 69 2f c5 bd 67 62 2a be 47 c9 59 bd
       -0.0009221723 -0.096281834 -0.166391 -0.05317047
000070 aa ed 16 3d 99 69 51 3d 7b 97 2d be a4 7d 2b 3b
       0.036847748 0.051126096 -0.16952316 0.0026167417
000080 52 c5 ab 3b 56 5b d0 3d 9d bc b9 3d 0d 24 dc bc
       0.0052420283 0.10173671 0.09069178 -0.02687266
000090 26 0f e4 3d aa 6e c7 bc d6 d5 0d be 3a 8a 92 bc
       0.11135702 -0.02434476 -0.13851103 -0.017888177
0000a0 34 9f 5a bd 68 5c 91 3d 65 68 36 bd 42 07 9f bd
       -0.053374484 0.07097703 -0.044533152 -0.07765056
0000b0 20 c3 40 be f6 74 73 3b 59 1d 9f bd 01 61 12 3e
       -0.18824434 0.0037148572 -0.077692695 0.14294817
0000c0 ae 1a d4 3d ea c2 12 be 86 ba 92 bc 78 81 ab bd
       0.10356651 -0.14332166 -0.017911207 -0.083743036
0000d0 f9 66 30 3e 7f b8 16 3d a7 cf b0 bc 30 09 74 3d
       0.17226781 0.036797043 -0.021583391 0.059579074
0000e0 94 19 65 3c 66 12 fd 3d 44 07 27 be f5 0e 87 bd
       0.013983149 0.12357025 -0.16311365 -0.0659465
0000f0 7f 88 f5 bb 75 e4 3f be 18 e4 99 3d 47 9f f8 3b
       -0.0074930782 -0.18739493 0.075142086 0.0075873467
000100 de 57 94 3d f1 cd 24 bc 1d 12 23 3c e4 45 0f bd
       0.07243322 -0.010058866 0.009953049 -0.034978762
000110 39 3e e9 bd a4 b6 3f 3c da ed cc bd 89 25 5f 3d
       -0.11388821 0.01170126 -0.10006304 0.054479156
000120 3c 79 c9 3d ec 06 59 bd 1c ff 8f 3a de d7 03 3e
       0.09837577 -0.052985117 0.0010986063 0.12875316
000130 9e 90 19 bc c5 3f 05 be 3d c4 25 be e8 38 1b bd
       -0.009372858 -0.13012607 -0.1618814 -0.037896067
000140 de 54 d7 bd 2c 94 41 bd d4 75 2d 3d 53 d3 02 3e
       -0.10514234 -0.04726045 0.042348698 0.12775926
000150 c7 e1 85 3d 2d 77 af 3d fe 43 e4 bc aa c6 73 3d
       0.06537204 0.08567653 -0.027864452 0.059515633
000160 f4 da 40 3d 82 71 08 3c 9a a7 14 3e ad e8 0c bb
       0.04708381 0.008327844 0.1451706 -0.002150099
000170 65 1b be 3d 64 83 23 3d 1d de c5 bd 40 56 dc bd
       0.09282569 0.039920226 -0.09661505 -0.107586384
000180 a3 b2 83 be 81 4c be 3d 94 38 04 bd 1f 75 78 bd
       -0.25722227 0.09291936 -0.03228052 -0.06065857
000190 86 e9 03 bd e2 86 03 3d 07 2f 71 3c aa 9b bf 3d
       -0.032205127 0.032111056 0.014720685 0.093558624
0001a0 55 47 27 3e c7 bd 7d 3d 6a 07 49 bc 2f b8 86 bd
       0.16335805 0.061948564 -0.012269834 -0.06578099
0001b0 67 89 ea 3c a8 bf 6e 3c 97 b2 cd bd 28 ff 0a bd
       0.028629972 0.014572062 -0.10043829 -0.033934742
0001c0 42 62 57 bd 48 0a 5a bd a4 d6 66 bd e7 41 27 3d
       -0.05258394 -0.05323246 -0.05635704 0.040834334
0001d0 3a ab 6e 3c b2 e3 0b 3d 8f f6 f6 3d 86 e8 b1 bd
       0.014567191 0.034152694 0.12058746 -0.086869285
0001e0 66 8e b3 3c 81 1e b6 bc da 66 de 3d d4 34 8b 3c
       0.021918487 -0.022231342 0.10859461 0.016992964
0001f0 66 1f 23 3c db 2d 27 be ad fa 77 3d 1b bc 1c 3d
       0.009956216 -0.16326086 0.060541797 0.03826533
000200 6e c9 36 3d 09 cc 82 3d f0 11 f0 3d d4 5f 35 bd
       0.044625692 0.06386573 0.11722171 -0.044280842
000210 70 6e 8c 3d f5 0e c5 bd 2e 6c 9c bc 78 a3 e1 3c
       0.06857002 -0.096219935 -0.019094553 0.027543768
000220 1e 62 05 3e c2 3b 4f 3d 34 dc 29 be f7 71 d0 bd
       0.1302571 0.0505941 -0.16587907 -0.10177987
000230 e2 88 67 bc 0f e0 ca 3d c4 49 f2 3c a0 03 95 bd
       -0.0141317565 0.09906017 0.02957619 -0.07276082
000240 2a 3b ce bd 04 e5 df bc 8e fd 93 3d 0c b8 f9 3d
       -0.100698784 -0.027330883 0.07226096 0.12193307
000250 54 0d 6e bc 78 45 d0 bd 02 38 80 bd f0 6e 0b 3d
       -0.014529545 -0.101695 -0.06260683 0.034041345
000260 a4 24 93 bd ac 6b fa 3d 08 21 93 3d 20 75 66 bd
       -0.07184723 0.12227568 0.071840346 -0.056264043
000270 0a 7e 74 bd b9 fd 35 3d 16 c8 c1 bc 0c b1 44 bd
       -0.059690513 0.044431422 -0.023654979 -0.048020408
000280 f1 d6 e2 bc a6 87 41 3d 39 e7 b1 bd 74 5d 7d bd
       -0.027690383 0.047248505 -0.0868668 -0.061856702
000290 50 2c ef bd 49 51 3d 3d 33 08 06 3e 71 e1 07 3d
       -0.11678374 0.046220098 0.13089065 0.033173982
0002a0 51 6a e3 3b 8e 75 9d 3c e7 59 ab bd a9 a0 51 bd
       0.006940164 0.019221094 -0.08366757 -0.051178608
0002b0 6e 43 5c 3c c4 e2 85 bd 22 e1 9a 3d b6 43 ec 3d
       0.013443811 -0.06537393 0.07562472 0.11536352
0002c0 13 bd 05 bd a8 96 38 3d 62 48 e5 bc ac 4e 0e bd
       -0.03265102 0.045065552 -0.027988616 -0.034742996
0002d0 88 a7 88 bd 1a 94 3b be 1c 49 2a 3d 21 9d 58 bd
       -0.06672579 -0.18318215 0.04157363 -0.052884225
0002e0 76 b5 4e 3d 3e 63 12 be ca 61 74 bc ec 79 bc 3d
       0.050466023 -0.1429567 -0.014915893 0.09202942
0002f0 f3 e2 63 3d 06 fd d9 bd 4f c4 25 bd 28 21 c6 3d
       0.055636358 -0.106439635 -0.040470418 0.09674293
000300 a6 c8 96 bd 5c c5 38 bd cc da 98 bd 5e a6 52 bd
       -0.073624894 -0.04511009 -0.07463607 -0.05142819
000310 2f fa 39 bc be 1f 58 3d b0 fb 53 bd ac 22 01 be
       -0.011351152 0.052764647 -0.0517537 -0.12610883
000320 97 0a aa 3d f1 4e a5 3c 5d 8e b8 bd 22 f8 f5 3c
       0.08302801 0.020179244 -0.09011529 0.030025546
000330 3b d6 ae 3d 50 c9 79 3c e7 3d 5b 3c 22 a1 e5 3d
       0.08536955 0.015245751 0.013381458 0.11212374
000340 1a 72 fc 3d 77 0f 4f be 2b fd 4b 3d 53 a9 f4 bd
       0.12326451 -0.20220743 0.049801987 -0.119463585
000350 a9 b4 15 3e 80 90 63 3d 43 6b 76 3d b9 2d ec bd
       0.14619698 0.055557728 0.060160886 -0.115321584
000360 26 a7 30 3d 67 cc bf bc 0d 0f 32 3d f7 55 4a 3d
       0.043128155 -0.023412896 0.043471385 0.04939839
000370 67 dd b8 3d be f7 33 bd 85 d6 61 bd e0 ee 32 bd
       0.09026604 -0.043937437 -0.055136222 -0.04368484
000380 16 ff 6a be 44 4a 2d 3e 5b c2 13 be 7a 7b 14 3d
       -0.2294887 0.16922861 -0.1442961 0.03625057
000390 3e f7 8a bc 75 6c e4 3c cb b1 83 3d 6e 9f 30 bd
       -0.016963597 0.027883748 0.06430396 -0.043120794
0003a0 4a eb b5 3d 12 9b 49 3c 10 87 1e 3d 20 d7 6d 3b
       0.088827685 0.012305038 0.038703024 0.0036291555
0003b0 85 52 28 be 76 ff 67 3d c5 1b 79 bd 71 ed ba 3d
       -0.16437729 0.05664011 -0.0608175 0.091273196
0003c0 49 63 b0 3d 47 6d a3 bd 82 21 c5 3d ff 41 f5 bb
       0.08612687 -0.079798274 0.09625532 -0.007484674
0003d0 73 cd 5e bc 63 6a c0 3d 89 d5 e6 3d 49 67 c7 bd
       -0.013598788 0.09395292 0.11271197 -0.09736497
0003e0 a9 b1 13 3d 2f 07 af 3d 38 37 8b bc a7 4b a3 bc
       0.0360581 0.08546292 -0.016994104 -0.019933535
0003f0 25 8c c3 bc 9c 5e ab bd bc a2 3d bd 32 d1 0a 3e
       -0.023870537 -0.08367655 -0.046297774 0.13556364

network_body._body_endoder.seq_layers.2.bias f4 [128]
000000 cd 18 ce 3b 37 89 69 3c 9a ff 2e 3c 8f eb ef 3b
       0.0062895776 0.014253906 0.010681057 0.007321782
000010 15 32 95 bb 2a f1 3c bc d3 a2 03 3b 5d 9a 3e 3b
       -0.0045530894 -0.011532107 0.0020086064 0.0029083707
000020 35 82 5e 3c 5e 4e 43 3c d2 26 4c 3c fe 18 17 3c
       0.013580848 0.01192054 0.012460427 0.009222267
000030 0e a5 74 3b a2 6a 59 bc 4d 83 01 bb d0 7c 4b 3c
       0.0037329826 -0.013270052 -0.00197621 0.012419894
000040 11 a5 80 bc 8b eb c5 bb d8 0f 5f 3c aa 67 e7 3b
       -0.01570371 -0.006040042 0.013614617 0.0070619183
000050 e1 64 6c 3c e6 bf 4d 3b ec 4e bb 3b 4d ba d2 bb
       0.014428348 0.0031394898 0.0057161953 -0.0064309
000060 27 bc 61 bc d0 1f 14 bb d0 c3 2d 3c bd 33 40 3c
       -0.013777769 -0.002260197 0.010605767 0.011731085
000070 ac 67 13 3c 26 b8 41 bc 96 6a 4f bc 19 3e 85 3c
       0.008996885 -0.01182369 -0.012659689 0.016264962
000080 66 02 30 bc e5 3e 60 bc 43 1f 92 bb ec 0a 1b bc
       -0.010742759 -0.01368687 -0.004459293 -0.009463053
000090 20 0f 18 bc 75 ac 57 bc 0e 44 74 3c 4e b7 66 bc
       -0.00928095 -0.013163676 0.014908804 -0.014081789
0000a0 4e 1c e0 bb 0f 9a 90 3c a1 27 a7 3b c5 77 30 3c
       -0.0068393117 0.017651586 0.0051011597 0.010770743
0000b0 e2 47 89 3c 83 96 ee 3b 76 90 79 bc df a4 4c 3c
       0.01675791 0.007281126 -0.015232196 0.01249048
0000c0 c5 fe 33 3c 88 9e 87 3c 60 9c 88 ba be c6 02 bb
       0.010986035 0.016555086 -0.001042258 -0.0019954885
0000d0 0a e1 20 bc 96 69 a1 3b bf d2 57 bb a2 20 4a bb
       -0.0098192785 0.004925917 -0.003293201 -0.0030842205
0000e0 de 81 ef b8 54 0c 79 3a 1e e7 12 3c 20 9f b3 3b
       -0.00011420598 0.0009500433 0.008966235 0.0054816157
0000f0 dd 00 5d bc fd 63 0d bc 22 a1 90 bc f4 89 6d bc
       -0.013488975 -0.008629796 -0.01765496 -0.014498223
000100 10 d6 45 3c de 32 b5 bb db b4 4c bc e2 55 07 3c
       0.012074962 -0.0055297455 -0.012494291 0.008260222
000110 e4 2b 38 bc de 45 6a bc 6d e0 15 3c 40 66 10 3c
       -0.011240933 -0.014298884 0.009147746 0.008813441
000120 b7 5e 6e 3c 6b ca 43 3b 27 ca 4a bc 71 79 1d bc
       0.014548949 0.002987529 -0.012377298 -0.009611473
000130 d2 bd a6 bb 87 21 24 3c 71 de c2 bb a6 af c4 3a
       -0.0050885463 0.010017759 -0.0059469272 0.0015005961
000140 e2 1a 0f bc 3a 6e f8 3b 6f 55 43 3c b0 c2 2e 3c
       -0.008734437 0.0075814994 0.011922224 0.010666534
000150 3c 72 6f b9 fb f3 39 bc c4 90 f2 3b fa 8a 3c 3c
       -0.00022835372 -0.011349673 0.0074025113 0.011507744
000160 52 0d 6a 3c 67 af d0 38 ab 9f 8a bb b5 f3 64 bc
       0.014285402 9.950884e-05 -0.0042304597 -0.01397412
000170 5b 76 c4 3b c7 c9 27 3c b3 ca 68 3c 91 04 49 bb
       0.0059955544 0.010240979 0.0142084835 -0.0030672888
000180 25 4b f4 3b db 2b f2 bb 5b ab 45 3c b6 58 6a 3c
       0.007455247 -0.007390482 0.01206478 0.014303377
000190 36 ca d0 3b b7 32 f2 3b a0 55 5b 3b 68 ff a5 b8
       0.0063717617 0.0073912996 0.0033467785 -7.915386e-05
0001a0 a6 cd 14 bc 26 61 02 3b ed fc 4a bc d3 76 0c bc
       -0.0090822335 0.001989433 -0.012389404 -0.008573252
0001b0 d1 00 3e bc 77 7d 7b 3c b7 96 da 39 51 6a 48 3b
       -0.011596874 0.015349737 0.00041692492 0.0030580948
0001c0 5e 07 15 bb d1 ce 09 3b 6b b8 4b 3c ea 14 61 bc
       -0.0022739987 0.0021027813 0.012434105 -0.013737896
0001d0 36 2e 2c bc 1e 83 0c bc ed 6f ca 3b fe 7a df 3a
       -0.010509064 -0.008576183 0.0061778934 0.0017050204
0001e0 e6 17 9a 3b 74 52 af bb 77 8f 09 bc fe 29 c0 bb
       0.004702556 -0.0053504054 -0.008396021 -0.005864381
0001f0 f0 3d 65 bc e5 2a 84 bc c8 d0 09 bb 6e a4 04 bc
       -0.013991818 -0.016133735 -0.0021028984 -0.008095844

action_model._continuous_distribution.log_sigma f4 [1, 2]
000000 ec 84 c2 3b 27 10 a2 3b
       0.0059362557 0.004945773

action_model._continuous_distribution.mu.weight f4 [2, 128]
000000 63 8d b1 3c b6 2f 4e ba 69 56 e0 bc 29 39 d4 3a
       0.021673864 -0.0007865386 -0.027384954 0.0016191351
000010 0a cd 65 3b fc 84 01 3d e8 74 b1 3b 63 5e 39 bb
       0.003506484 0.031620964 0.0054155476 -0.0028285019
000020 5d 24 02 bd 13 4a 12 3d 5c e3 cc 3c 50 b4 8c bc
       -0.03177296 0.035715174 0.025010757 -0.017175823
000030 c3 04 02 bc 95 e5 0d 3d 0f d3 c7 3c 7c 12 dc 3c
       -0.007935706 0.034642775 0.024392633 0.026864283
000040 88 61 80 3d 4b a0 c5 3a 67 df f7 bc 11 0a c4 3c
       0.062686026 0.0015077678 -0.030257894 0.023930581
000050 f2 94 44 bb ed 0f 78 bc 37 52 55 3c 7c d7 4f 3c
       -0.0029996005 -0.015140516 0.01302009 0.012685653
000060 ff eb f9 b8 d9 13 d3 3b 49 bc 0c bb 52 6f ba 3c
       -0.00011917203 0.006441575 -0.0021474531 0.02275816
000070 aa 5e 9b bc 3e 33 d6 3b d0 9c 2f 3c e0 4d ab 3c
       -0.018966038 0.0065368703 0.010718539 0.020911157
000080 32 1d 71 3c 7c 07 9b 3c ba 44 4a 3b 8a 58 70 3c
       0.014716433 0.018924467 0.0030863718 0.014669547
000090 0f 0e 71 3c 91 7e c1 3b a7 d9 ab bb a3 d6 f0 bb
       0.0147128245 0.0059049805 -0.005244452 -0.0073498054
0000a0 ca 75 12 3d ad d5 40 3b 67 d5 b6 bb 46 67 0a bc
       0.035756864 0.0029424236 -0.0055796388 -0.008447474
0000b0 ac d9 2f bd ab c0 40 3c e3 3b a2 3c 5f f3 e7 bb
       -0.042932197 0.011764686 0.019803947 -0.0070785726
0000c0 ed ba ce bc aa 93 03 bd 9e 65 93 bc 40 30 ca bb
       -0.025235618 -0.032123245 -0.01799279 -0.0061703026
0000d0 a2 c3 30 3b 35 06 db bb d5 23 c6 3c 57 55 e6 bb
       0.0026972075 -0.0066840895 0.024187008 -0.0070292163
0000e0 cd 3c 92 bc ad f2 e5 3c c8 45 bf bc 60 3b c7 bb
       -0.017851258 0.028069818 -0.023348704 -0.006080076
0000f0 81 41 4b 3c bd 5e 4c 3b da 86 95 3b 62 56 0f 3a
       0.012405754 0.0031184398 0.0045631947 0.0005467889
000100 b5 37 7b bc ed c0 ff 3a 50 76 e2 3b 6d 17 81 bc
       -0.015333106 0.0019512452 0.0069110766 -0.01575824
000110 de cd 05 3d f4 d8 cf 3c 46 70 a2 ba 7e e7 dd bc
       0.032667033 0.025372006 -0.0012393079 -0.027087923
000120 1e df 8e bb 3a 07 ad 3b 8f ef 8f 3b 2f e6 09 3a
       -0.0043600937 0.0052804025 0.0043925713 0.0005260435
000130 02 89 0c 3c 51 47 70 bc 78 98 83 3c ad 87 e4 3c
       0.008577587 -0.014665441 0.016063914 0.027896727
000140 79 7a c7 3c 98 ca 92 bc bb ca 94 bc a7 41 a5 ba
       0.024350392 -0.01791887 -0.018163076 -0.0012608067
000150 82 87 11 bd bb 6c 80 3c 8d 8d 0d bd ef fb 19 bc
       -0.03552962 0.015676847 -0.03455882 -0.009398445
000160 fe f9 b9 bb f8 6c f5 bc 69 b5 a8 3c a1 a1 e3 3b
       -0.0056755533 -0.029959187 0.020594316 0.006946758
000170 25 cf bf 3c cb 8e be bc e5 5a f0 bc 6e e4 8f bc
       0.023414204 -0.023261448 -0.029340217 -0.017564978
000180 73 33 de bc f6 0b e7 bb 3f 8f a3 bb 84 d7 4d bc
       -0.027124142 -0.0070509864 -0.0049914415 -0.01256359
000190 03 14 5c bc d1 7a d8 bc 99 e6 95 bc 3c 6d a3 bc
       -0.013432506 -0.02642575 -0.018298434 -0.019949548
0001a0 bb e7 1f 3d d1 24 22 bc 85 55 e1 3c 07 1c 97 3b
       0.039039355 -0.009896473 0.0275066 0.0046114954
0001b0 ca 49 a6 ba 12 bc 16 bc 7c a3 2a 3c 7c 6a a3 3b
       -0.0012686786 -0.009200113 0.010414954 0.004987059
0001c0 3b f3 15 3d e1 d9 02 bc 74 15 60 b8 a7 5a c1 3b
       0.036608916 -0.007986517 -5.342574e-05 0.005900699
0001d0 38 a1 12 3c 01 72 84 3c c4 fa 8e bc d8 de 17 3d
       0.00894957 0.016167643 -0.017453559 0.037077755
0001e0 94 5e 79 bc 8f 8a d3 3b 7b 58 23 3c 79 8f 00 3d
       -0.015220303 0.0064557265 0.009969826 0.031386826
0001f0 8c 46 70 3c 7f 45 de 3c e9 d4 03 bc 66 bf fe 3c
       0.014665257 0.027132748 -0.008046367 0.031097125
000200 7d 51 0e 3c 4c 03 14 3d 96 04 aa bc be 02 d8 3c
       0.0086864205 0.036135957 -0.02075414 0.026368495
000210 2e 85 a6 bc 26 b1 d9 bc 07 ca a3 3c 3d ca 89 bc
       -0.020327177 -0.026573729 0.019993795 -0.016820068
000220 cc 8c 87 3c 57 93 29 3d b3 38 be 3c 03 27 de 3b
       0.01654663 0.04140028 0.023220396 0.006779553
000230 5a f4 d8 3c fc ca b3 bc b2 a0 19 3c f0 7f e1 3c
       0.026483703 -0.021947376 0.009376692 0.027526826
000240 a5 47 1a bc c1 4b f3 bc 89 50 e4 3c e8 3d 57 3c
       -0.009416495 -0.029699208 0.027870433 0.013137318
000250 1e 63 52 3c aa 6b 61 bb 89 cc 4c 3c b2 e9 03 bc
       0.012841014 -0.0034396448 0.012499937 -0.008051323
000260 c0 67 e0 bb f5 0e 44 3b c0 0c ad 3c 0d 6b 93 3b
       -0.0068483055 0.0029916142 0.021124244 0.0044988454
000270 8d 13 ac 3c c4 0e 35 bc 13 1c db bc 01 c4 ef 3c
       0.021005416 -0.011050884 -0.026746785 0.029268267
000280 da 67 92 bb 71 58 27 bc 0f 32 bd bc 0e e1 17 bc
       -0.0044679465 -0.010213957 -0.023095159 -0.009269966
000290 a0 32 80 bc 04 f7 06 bb 5d 2a 08 3c 91 b7 01 bd
       -0.01564914 -0.002059401 0.008310881 -0.031669203
0002a0 a1 c4 c1 ba 43 c1 42 3d 72 7b 62 3b af 2e 6f 3b
       -0.0014783331 0.04754759 0.0034558442 0.0036496331
0002b0 c8 cf dc 3b eb 00 06 3c 57 ff 9f bc 11 d2 f0 3b
       0.0067386366 0.00817893 -0.019530935 0.0073492606
0002c0 80 00 cb 3b da 87 7d 3c 4f 38 7d bc ad 80 93 bc
       0.006195128 0.015474284 -0.01545532 -0.018005693
0002d0 5c 74 c2 ba 56 e8 07 3d 82 51 12 3c 3e 77 28 bc
       -0.0014835703 0.033180557 0.008930566 -0.010282336
0002e0 f8 f8 98 ba cd 3a 19 3c 06 2c 1e 3b 76 6f 85 3a
       -0.0011670878 0.009352398 0.0024135127 0.0010180313
0002f0 07 2a 7b bc a7 38 ab b9 d2 3d 5c bc 77 50 c5 bb
       -0.015329844 -0.0003265787 -0.0134424735 -0.006021555
000300 46 d5 6d ba 35 73 2a bd 51 97 12 bd 51 94 38 3c
       -0.0009072613 -0.041613776 -0.035788838 0.01126583
000310 f0 85 12 bb a1 16 df bb bb 0e 3e 3c 09 01 cf bc
       -0.0022357665 -0.0068081175 0.011600192 -0.025269048
000320 ff 92 bd 3c b2 8a 9b 3c 3a 30 cd bc e7 56 c2 bb
       0.023141382 0.018987034 -0.02504741 -0.0059307697
000330 59 93 bc 3c 65 5b 16 3c 1a a5 e5 37 f6 a2 86 3c
       0.02301948 0.009177064 2.7375809e-05 0.016435128
000340 05 ca 03 bc 81 b2 55 bc a8 52 67 3c fe da 57 3c
       -0.008043771 -0.013043047 0.014118828 0.01317477
000350 f6 92 b2 b9 ad cf 65 bb 18 ff c1 3c be 7a a9 3c
       -0.000340603 -0.0035066411 0.023681208 0.02068841
000360 61 65 fa 3c 0a b0 65 bc 49 89 42 bb 19 c8 e8 bb
       0.03056592 -0.014019022 -0.002968388 -0.0071039316
000370 18 d0 b1 3b 3c 7d 11 3d a0 d8 70 3c e0 b5 d8 bc
       0.005426418 0.035519823 0.014700085 -0.026453912
000380 82 5d 74 bc bd 3c b8 bc 7d 8c fe 3c 74 d6 a1 3c
       -0.014914872 -0.0224899 0.03107285 0.01975558
000390 2f 98 9f 3c 06 a8 5f 39 49 29 8d bc 44 d9 f8 bb
       0.019481746 0.00021329531 -0.0172316 -0.0075942595
0003a0 66 fa 01 bc 1b 3d 8a bb f3 ec 97 bc b2 ae 4f bc
       -0.007933235 -0.00421871 -0.018545603 -0.012675928
0003b0 36 1c 7e bc 58 dc a7 3c 8b 8f d6 3b 06 f9 a0 3c
       -0.015509656 0.02049081 0.0065478734 0.019649994
0003c0 27 5f 7f bc e4 9d f0 3b b9 e6 35 3d cf 78 e6 bc
       -0.015586651 0.007343041 0.044409487 -0.028133778
0003d0 41 a1 81 3b cf a6 9e 3a 09 2f 74 3a 63 45 dd 3c
       0.0039559905 0.0012104156 0.000931487 0.027010625
0003e0 36 fd 87 bc e3 19 1a bd 01 83 91 bc 69 14 0c bd
       -0.016600233 -0.037622344 -0.017762663 -0.034199152
0003f0 ad f1 fa bc bd 1a 1c bd 50 ff 50 bc 8c c0 82 3b
       -0.030632818 -0.038111437 -0.012756184 0.0039902385

action_model._continuous_distribution.mu.bias f4 [2]
000000 ea d1 22 bc 51 96 3d 3c
       -0.009937743 0.011571483

exp_avg f4 [128, 6]
000000 22 34 02 38 da 9c 0b b7 27 aa bb 37 3a e5 51 b8
       3.1042968e-05 -8.3215655e-06 2.237137e-05 -5.0042967e-05
000010 fd 77 3e b2 d4 77 ff 36 40 57 9c b8 5a 02 57 37
       -1.1086738e-08 7.613542e-06 -7.454911e-05 1.2815546e-05
000020 2a 98 97 b6 b7 32 b9 b7 71 c3 59 35 36 a6 82 36
       -4.517865e-06 -2.2077335e-05 8.1123204e-07 3.8936514e-06
000030 62 b4 72 b8 45 fa cf 36 8a 4d 33 38 4a 99 84 38
       -5.786529e-05 6.198216e-06 4.274914e-05 6.322803e-05
000040 88 59 75 b3 6c 80 86 38 d6 da cb 38 7e 19 8d b7
       -5.7124936e-08 6.413538e-05 9.720556e-05 -1.682038e-05
000050 bb e4 26 38 57 eb 87 b8 3c c7 88 34 0d ea 06 b8
       3.9790506e-05 -6.481137e-05 2.5476936e-07 -3.2166066e-05
000060 9a ef eb b8 b9 f5 de 37 c3 fa 0b 38 38 ba 2a 38
       -0.000112503025 2.6578886e-05 3.3373723e-05 4.0704588e-05
000070 56 7c 3e 35 66 4a a1 37 ef 8e 9c 38 2a 69 fe b7
       7.096145e-07 1.922734e-05 7.465283e-05 -3.032813e-05
000080 e1 ee 08 38 68 d8 89 39 89 f5 06 b6 ef 6a 40 39
       3.26474e-05 0.00026291911 -2.0110476e-06 0.00018350383
000090 73 ba 0b b8 94 33 92 b6 a9 fb 84 37 18 95 13 39
       -3.3313827e-05 -4.3571436e-06 1.5852815e-05 0.00014074554
0000a0 c9 7d 2a 34 79 11 bd 38 d3 63 16 b9 25 c6 f6 37
       1.5878244e-07 9.015477e-05 -0.00014342302 2.9417753e-05
0000b0 f1 09 a6 b8 75 23 34 39 ce 40 9a b5 3f ec 2f 39
       -7.9173486e-05 0.00017179346 -1.1492755e-06 0.00016777309
0000c0 b7 1a 8c b8 00 68 2d b7 20 9d 0b 39 65 2d 6b 39
       -6.680696e-05 -1.0335818e-05 0.00013314607 0.00022428257
0000d0 0c ca b8 b3 36 4b 4c 39 14 e2 89 38 a4 a3 c1 36
       -8.60492e-08 0.00019482974 6.5747794e-05 5.7708985e-06
0000e0 8c 0f df b8 b4 44 1e b9 30 51 bf 33 67 61 bd b8
       -0.000106363645 -0.00015093648 8.9088985e-08 -9.030365e-05
0000f0 fe ec da 38 93 1c 93 36 3d 9b 88 b8 23 d0 70 b7
       0.00010439193 4.384268e-06 -6.513901e-05 -1.4353575e-05
000100 42 29 e8 33 d4 43 91 b8 81 dd 97 38 f5 93 e1 37
       1.08108466e-07 -6.926773e-05 7.2414994e-05 2.6890988e-05
000110 0b 37 34 b9 3e 5a 4c b9 2f 20 e5 33 31 36 2e b9
       -0.00017186643 -0.00019488574 1.06694976e-07 -0.00016614121
000120 37 36 b5 b8 e2 3e 42 b7 47 23 96 38 9d f7 68 39
       -8.640851e-05 -1.1577942e-05 7.159128e-05 0.00022217487
000130 8c b6 bf 34 61 a9 e4 38 d9 98 55 b8 2f 9d 0b b7
       3.5709343e-07 0.000109034365 -5.0925508e-05 -8.321643e-06
000140 8f f5 8c 38 2f e9 10 38 e6 c7 57 b4 9b 7a 84 38
       6.721459e-05 3.4549445e-05 -2.0096158e-07 6.3170875e-05
000150 a6 c1 56 b9 52 ac bc 37 ba 2a ae 33 61 22 8e 38
       -0.0002048077 2.249159e-05 8.110278e-08 6.777491e-05
000160 59 ec de 34 58 9f 6c 38 a3 d4 e2 b7 38 b8 7e 36
       4.1522688e-07 5.6415185e-05 -2.7040316e-05 3.7956179e-06
000170 9b 10 17 38 35 42 7b b7 47 4e 02 34 03 2c 34 38
       3.601667e-05 -1.4976181e-05 1.213567e-07 4.2956333e-05
000180 5d bf 1e 38 de d1 45 37 bc a0 c6 b8 f7 26 33 b8
       3.7848356e-05 1.17909785e-05 -9.471315e-05 -4.2713214e-05
000190 28 ec d2 34 16 a0 06 b8 9f 97 4b 39 a2 99 70 37
       3.9287374e-07 -3.209718e-05 0.00019416072 1.4340885e-05
0001a0 2c 77 fa b8 2b 7b 3d b9 fd 5b 5f 35 c5 57 71 b9
       -0.000119431264 -0.00018070328 8.3207834e-07 -0.00023016248
0001b0 02 5d f9 37 f6 7f 90 37 e2 06 85 b8 21 15 e6 b8
       2.9726423e-05 1.7225724e-05 -6.343216e-05 -0.0001097119
0001c0 49 ed ab 34 d0 f3 f0 b7 11 df 9c b8 49 81 58 b6
       3.202388e-07 -2.8723764e-05 -7.480209e-05 -3.2261762e-06
0001d0 9c 70 20 38 21 d7 1f b9 bd 3b d9 35 1e 69 a1 b8
       3.825185e-05 -0.00015243563 1.6185146e-06 -7.696658e-05
0001e0 18 79 bd 36 9d d0 a2 b7 e4 cd 35 38 0a 08 fe 37
       5.646736e-06 -1.9409048e-05 4.3345513e-05 3.0282903e-05
0001f0 52 e1 1c b5 38 33 0f 39 c8 b1 2b 38 15 fc b3 36
       -5.8442413e-07 0.00013656623 4.093515e-05 5.363962e-06
000200 23 e1 02 b9 e9 f9 4a 39 da 1c ac b5 c5 5f 5b 39
       -0.00012481636 0.0001935732 -1.2823396e-06 0.00020921144
000210 3e 7d 47 39 63 11 6a b7 c4 3a d9 b7 46 0e 08 b7
       0.00019024775 -1.3951535e-05 -2.589578e-05 -8.109555e-06
000220 1d 09 78 b5 2c 4a 1d b8 5b 77 c8 38 3a a4 87 b4
       -9.240046e-07 -3.7500795e-05 9.558975e-05 -2.52652e-07
000230 8d fd c0 b8 ac ec c6 b8 14 a4 4b b4 28 6f 23 b8
       -9.202501e-05 -9.485459e-05 -1.896554e-07 -3.896575e-05
000240 54 de 29 b9 a4 fb e7 b6 ec bf 38 b8 28 1e 6d 39
       -0.0001619992 -6.9136313e-06 -4.404776e-05 0.00022613315
000250 a8 b7 a6 b5 1b 8c ba 39 6a e9 2d 39 43 6b bd 37
       -1.2421415e-06 0.0003558107 0.00016585519 2.2580503e-05
000260 3f 20 7a b9 c9 f6 66 b9 0d eb 1a 35 99 90 0e b9
       -0.0002385387 -0.00022026444 5.7711515e-07 -0.00013596042
000270 3b b2 e8 39 ca e9 9f 37 ba e6 9b b9 12 11 ee b9
       0.0004438328 1.9063144e-05 -0.00029735808 -0.00045407616
000280 b8 76 d1 34 3d 03 96 b9 18 79 10 b9 12 f7 bf 37
       3.9015663e-07 -0.00028612642 -0.00013778021 2.2884025e-05
000290 04 cc d3 b8 18 2f 0d 38 79 f1 c2 35 85 ab 21 37
       -0.00010099265 3.366088e-05 1.4524404e-06 9.636283e-06
0002a0 62 9c 8e 37 9c 0a 13 b7 e5 1d 16 38 24 1a 0f b7
       1.700054e-05 -8.764353e-06 3.579063e-05 -8.5295505e-06
0002b0 f1 36 93 b3 11 24 9a 35 2b 68 9c 39 a7 80 24 38
       -6.855215e-08 1.1484391e-06 0.0002983225 3.9220464e-05
0002c0 e7 d3 c2 b9 5e c4 1c b9 ce 76 0f b5 27 3f 74 b9
       -0.00037160443 -0.00014950472 -5.3444535e-07 -0.0002329318
0002d0 74 84 0e b8 e8 69 03 37 57 bf 45 38 fc 81 9f 38
       -3.3978795e-05 7.832867e-06 4.714666e-05 7.605922e-05
0002e0 a1 80 da 32 7f 9b 63 b7 76 f1 33 38 21 e5 f8 b6
       2.5437034e-08 -1.3566459e-05 4.2901804e-05 -7.41765e-06
0002f0 a3 ef cc b7 ab 90 27 b8 7c 97 68 b3 6e 8a 0b 38
       -2.4430285e-05 -3.9950635e-05 -5.4154484e-08 3.3269105e-05
000300 5a 0d 0e b8 ff f1 cb b6 54 d5 20 38 73 41 1a b9
       -3.3867873e-05 -6.0780435e-06 3.834565e-05 -0.00014710966
000310 ac 87 ac 35 08 d0 d9 b8 22 92 99 b7 c1 04 7e 37
       1.2854484e-06 -0.00010386115 -1.830707e-05 1.5140687e-05
000320 69 7a 83 38 f1 2b 03 39 82 60 13 b4 5f 83 54 39
       6.2693674e-05 0.00012509503 -1.3725551e-07 0.00020266835
000330 0a 56 e2 38 fa 16 e6 b6 80 55 9d b8 95 ad b1 38
       0.00010792546 -6.857209e-06 -7.502269e-05 8.47235e-05
000340 be c6 28 b5 47 53 2a b8 45 27 a0 38 b7 ef 40 b7
       -6.2874085e-07 -4.0608717e-05 7.636709e-05 -1.1499905e-05
000350 d0 9f 1c b8 62 df 21 b8 9d a1 a7 34 81 66 b0 b8
       -3.7342135e-05 -3.8593433e-05 3.1223763e-07 -8.411427e-05
000360 20 91 89 b8 6a 63 66 37 46 32 d0 38 f1 fd 06 b8
       -6.559701e-05 1.3732215e-05 9.927577e-05 -3.218459e-05
000370 43 09 dc 34 72 38 ed b8 89 1e 8a b8 12 72 2a 35
       4.0984932e-07 -0.000113115544 -6.5860404e-05 6.349593e-07
000380 f1 97 55 39 77 f5 88 39 86 9b 19 34 99 55 83 39
       0.00020369866 0.00026122827 1.4305814e-07 0.00025050042
000390 54 1f af b8 f0 24 3b b6 f5 7d f1 b7 5f 0a 92 38
       -8.3504856e-05 -2.7886672e-06 -2.8788092e-05 6.963754e-05
0003a0 7b 15 7e b4 e1 48 de 38 70 da ae b8 f2 71 3a b7
       -2.3663408e-07 0.0001059936 -8.337654e-05 -1.1112994e-05
0003b0 7b b0 80 38 5e c8 2d 39 ec 67 a4 b3 3d 45 19 39
       6.136388e-05 0.00016573208 -7.6557484e-08 0.0001461701
0003c0 9f 19 9b 37 f0 03 a9 37 55 19 13 37 5f bc 83 36
       1.848937e-05 2.0148203e-05 8.767781e-06 3.9260335e-06
0003d0 f3 41 b6 34 8b 8b 46 38 77 48 54 b8 9a 18 84 35
       3.3948126e-07 4.7336838e-05 -5.0612227e-05 9.841926e-07
0003e0 3f 68 8a 38 86 f8 a4 38 19 fb 51 35 5b 93 2d 38
       6.59977e-05 7.8664205e-05 7.822396e-07 4.138365e-05
0003f0 cf 2b 81 b7 47 a7 ad 37 2d 9f 8b 36 10 0b 2a 36
       -1.5398398e-05 2.0701102e-05 4.1610533e-06 2.5338413e-06

exp_avg_sq f4 [128, 6]
000000 e3 02 0d 33 7d 4c 63 2f 0f 6f 66 32 f6 42 41 32
       3.2831746e-08 2.0672704e-10 1.3413014e-08 1.1249304e-08
000010 9e 3a 1d 2a c9 37 a7 32 01 00 c9 32 be e8 62 2f
       1.3964738e-13 1.9466727e-08 2.3399481e-08 2.0637267e-10
000020 9b ce 5f 32 d5 99 26 32 44 83 18 2a e6 92 28 32
       1.3027285e-08 9.697449e-09 1.3545854e-13 9.812288e-09
000030 d8 72 9c 32 71 9b 74 2f 63 cf 40 32 ae eb ba 32
       1.8213015e-08 2.2246895e-10 1.1223025e-08 2.1760425e-08
000040 5a 02 14 2a 3d e4 85 32 5d c9 e7 32 b3 24 84 2f
       1.3145856e-13 1.5587029e-08 2.6983509e-08 2.4036736e-10
000050 ad 4e ec 31 e1 34 9c 32 77 34 3c 2a 12 a9 7e 32
       6.8774484e-09 1.8184837e-08 1.6715957e-13 1.4823188e-08
000060 ab c1 64 33 ad 22 53 30 e2 33 55 33 18 ea 64 33
       5.3261527e-08 7.681063e-10 4.9640114e-08 5.3298294e-08
000070 53 00 8e 2a 5d 16 45 33 7e 26 9d 34 6e 97 35 31
       2.5224492e-13 4.5887976e-08 2.9271536e-07 2.6425044e-09
000080 8c e6 34 34 50 b5 3b 34 42 a5 21 2c c2 e7 80 34
       1.6847679e-07 1.7481693e-07 2.2971213e-12 2.4010484e-07
000090 ff 90 de 32 8d 6f b4 2f 02 36 44 32 8b 53 fe 32
       2.5910138e-08 3.282107e-10 1.14209815e-08 2.9607483e-08
0000a0 e6 fc 32 2a 28 b5 86 32 93 a0 7f 33 eb 78 2d 30
       1.5897318e-13 1.5682033e-08 5.9517856e-08 6.310887e-10
0000b0 d0 78 24 33 a2 f7 3e 33 cf 9e ee 2a 63 cf 26 33
       3.8294104e-08 4.4463043e-08 4.2387488e-13 3.8838504e-08
0000c0 9a 7b a7 33 87 f0 29 30 ea e7 07 33 ec 8a cc 32
       7.7990265e-08 6.182365e-10 3.164306e-08 2.38119e-08
0000d0 47 ce de 2a b7 0b 75 33 ae c7 2d 33 e6 d8 e3 2f
       3.9578255e-13 5.7054162e-08 4.046131e-08 4.1445175e-10
0000e0 81 22 a3 32 14 8e 09 33 37 bf 7f 2a 1b be c9 32
       1.8991388e-08 3.2027017e-08 2.2714891e-13 2.348593e-08
0000f0 a1 ce 5f 33 12 5c 0e 30 8c 58 ff 32 d7 84 c7 32
       5.210916e-08 5.179014e-10 2.9726174e-08 2.3227058e-08
000100 bf dc e6 2a 5c 5a fd 32 2d 05 7d 34 c0 9a f5 30
       4.100938e-13 2.9494167e-08 2.3564344e-07 1.7870079e-09
000110 06 17 de 33 5e b7 98 33 57 6c d6 2b 03 db 2f 34
       1.03418685e-07 7.111406e-08 1.5235685e-12 1.6377821e-07
000120 ae 29 00 33 ce eb 91 2f 72 44 59 32 67 dc 55 32
       2.984023e-08 2.6542896e-10 1.2646625e-08 1.24483455e-08
000130 b9 d2 41 2a 42 e7 aa 32 aa 2b 3e 32 d2 95 c8 2e
       1.7214953e-13 1.9895769e-08 1.1069384e-08 9.1215605e-11
000140 dc 11 b1 31 0d 24 8b 31 14 1c 8d 29 04 f0 da 31
       5.1534084e-09 4.049531e-09 6.2665286e-14 6.3719217e-09
000150 bc fc 02 33 95 0e a3 2f 7a ad 2e 32 63 02 a8 32
       3.0497844e-08 2.9659888e-10 1.0167577e-08 1.955886e-08
000160 53 48 82 2a 58 96 8c 32 34 b0 19 32 20 96 47 2f
       2.3142824e-13 1.6366513e-08 8.945836e-09 1.815228e-10
000170 54 dc 8c 32 75 66 87 32 29 ea b3 29 a2 1a 91 32
       1.6398339e-08 1.576266e-08 7.989817e-14 1.6892333e-08
000180 9e 3c 50 33 9c 6b d0 2f 10 50 b1 32 a3 44 ef 32
       4.8483905e-08 3.791144e-10 2.064192e-08 2.7854474e-08
000190 73 69 74 2a cc 46 1c 33 a9 6a c1 33 0c f0 2a 30
       2.1708138e-13 3.638597e-08 9.006664e-08 6.2186767e-10
0001a0 4d c4 26 33 bc 9a 18 33 1a 08 cd 2a fb 42 8a 33
       3.882842e-08 3.5530988e-08 3.6420937e-13 6.4383094e-08
0001b0 c9 1a aa 31 d6 b6 30 2f 74 b4 84 31 ad 75 0e 32
       4.9506963e-09 1.6072063e-10 3.8622208e-09 8.292244e-09
0001c0 c7 0b 65 29 6c 33 98 31 c3 df 5d 33 6d db 43 30
       5.085843e-14 4.429628e-09 5.1659082e-08 7.125241e-10
0001d0 29 9d de 32 5a 76 6e 33 39 f7 10 2b 31 c6 2f 33
       2.591567e-08 5.5521333e-08 5.150217e-13 4.0925617e-08
0001e0 05 92 33 32 73 db 07 2f 96 ce f5 31 21 a9 c4 31
       1.0452372e-08 1.2356142e-10 7.1539246e-09 5.7235785e-09
0001f0 dd 5f c1 29 93 0e 1c 32 a4 61 54 33 7f ed d3 2f
       8.5875514e-14 9.083709e-09 4.94489e-08 3.8549428e-10
000200 57 ab c1 32 da 60 e2 32 26 57 c9 2a 7f d9 1e 33
       2.2546073e-08 2.6353906e-08 3.5765244e-13 3.6985053e-08
000210 3a e7 d5 33 c1 a1 6e 30 0c 78 4e 33 8a cd 09 33
       9.960645e-08 8.681376e-10 4.8072295e-08 3.2084735e-08
000220 eb 03 24 2b bc d5 93 33 71 47 32 33 8d 8c fc 2f
       5.826994e-13 6.884099e-08 4.150883e-08 4.59384e-10
000230 17 89 16 33 ff 87 a3 32 0e 74 95 2a 34 30 0b 33
       3.504928e-08 1.9037541e-08 2.6548246e-13 3.24073e-08
000240 8b 1c 08 34 e0 39 63 30 21 8b 81 33 73 f2 88 33
       1.2676371e-07 8.2664364e-10 6.032338e-08 6.377095e-08
000250 25 20 3d 2b 15 95 cc 33 51 93 73 33 48 ef 9b 30
       6.71909e-13 9.526608e-08 5.671183e-08 1.1345742e-09
000260 6b be 49 33 62 e8 ba 33 8b 64 06 2b 9b 26 46 33
       4.6972144e-08 8.70357e-08 4.7745895e-13 4.613558e-08
000270 92 0e 43 34 b1 f8 c6 30 83 38 8c 33 76 b0 b6 33
       1.8166091e-07 1.4477078e-09 6.5295374e-08 8.5071335e-08
000280 8c ed 42 2b 41 a4 ec 33 5c fc 34 33 e9 c6 2a 30
       6.925231e-13 1.1019484e-07 4.2139035e-08 6.212831e-10
000290 e4 79 03 33 a7 43 f9 32 51 aa dd 2a eb c5 be 32
       3.0611673e-08 2.901818e-08 3.9375667e-13 2.2208914e-08
0002a0 76 25 30 32 33 b2 4b 2f 4a 95 48 32 f4 5a 36 32
       1.0253066e-08 1.8526052e-10 1.1675477e-08 1.0614475e-08
0002b0 76 1d 9f 29 58 61 30 32 5d a6 38 34 38 b1 c3 30
       7.066129e-14 1.0266682e-08 1.7196858e-07 1.4238486e-09
0002c0 30 19 9a 33 26 cd 97 33 73 da 81 2b 2e fc 05 34
       7.1757654e-08 7.068802e-08 9.226633e-13 1.2478333e-07
0002d0 d1 5f 2e 33 ca 52 22 30 af bc 7d 33 e4 3e 05 33
       4.0599677e-08 5.9052907e-10 5.907776e-08 3.1023674e-08
0002e0 82 5c 61 2a 48 6c d7 32 d2 65 30 33 c6 e3 d1 2f
       2.001611e-13 2.5078535e-08 4.10708e-08 3.817872e-10
0002f0 c2 71 03 33 1e 2c d6 32 df 3e 97 2a 42 7a 0d 33
       3.0604276e-08 2.4932941e-08 2.6866614e-13 3.2940314e-08
000300 48 ec d2 32 82 3a 5a 2f 3c 28 36 32 d2 b5 a1 32
       2.4554666e-08 1.984777e-10 1.06029425e-08 1.882555e-08
000310 c6 88 5f 2a 3c b2 3e 32 9c 71 8b 33 a3 da 88 30
       1.9853832e-13 1.1099981e-08 6.493357e-08 9.957443e-10
000320 3c 6c 06 33 60 f7 a2 33 8d 59 20 2b 2e 91 50 33
       3.1297745e-08 7.58871e-08 5.6967696e-13 4.8560814e-08
000330 5f 33 84 33 89 c7 20 30 13 6a 02 33 05 21 43 33
       6.156073e-08 5.849122e-10 3.0364458e-08 4.5432007e-08
000340 f6 b6 f6 2a 09 4e 11 33 54 c3 2a 33 57 39 d0 2f
       4.3825333e-13 3.3831416e-08 3.975886e-08 3.7875722e-10
000350 3d 16 c9 32 7e 49 07 33 ee 01 9b 2a 85 67 d0 32
       2.3409592e-08 3.1498978e-08 2.753487e-13 2.4261462e-08
000360 fa 62 a7 32 2f 52 41 2f 07 b1 c7 31 31 22 17 32
       1.9486368e-08 1.7582445e-10 5.811788e-09 8.797131e-09
000370 52 79 3d 2a 97 ea 50 32 49 8b ec 33 6c 20 77 30
       1.6828664e-13 1.2160533e-08 1.1014942e-07 8.990415e-10
000380 cc c5 34 33 03 89 3c 33 97 34 28 2b 9b 4d a7 33
       4.208941e-08 4.3896772e-08 5.9758573e-13 7.79066e-08
000390 a6 1f 30 32 9c ce 00 2f 1f 80 00 32 c4 f9 34 32
       1.0251744e-08 1.1714935e-10 7.479712e-09 1.0534169e-08
0003a0 43 57 b9 29 2f 51 2a 32 1c 12 f2 32 a2 45 98 2f
       8.230788e-14 9.913761e-09 2.8180743e-08 2.7698116e-10
0003b0 01 e1 83 32 e7 ad be 32 3c 57 56 2a 4e 7e c0 32
       1.5352727e-08 2.2197993e-08 1.9037284e-13 2.2409179e-08
0003c0 7a 1b ed 32 0b cc f5 2f c7 5f ab 32 8d ca ce 32
       2.7602926e-08 4.4710222e-10 1.9950575e-08 2.4073666e-08
0003d0 ba b4 86 2a 83 73 f7 32 fc 1b a8 32 a5 33 8d 2f
       2.3928586e-13 2.8807113e-08 1.95705e-08 2.5684446e-10
0003e0 42 2f 52 32 3a 04 b0 32 c6 b0 2d 2a 23 c8 96 32
       1.2234354e-08 2.0491019e-08 1.5426817e-13 1.755331e-08
0003f0 fe 26 a7 32 83 25 71 2f 21 2a 27 32 0c e0 73 32
       1.945909e-08 2.1932149e-10 9.730258e-09 1.4195404e-08

exp_avg f4 [128]
000000 9e 89 b1 37 0b 16 03 b8 a6 d8 99 b7 c4 1b 65 38
       2.1164127e-05 -3.1253363e-05 -1.8339906e-05 5.4623713e-05
000010 56 69 88 b8 b6 9f b5 38 28 e9 63 37 69 0c d1 b8
       -6.504606e-05 8.660501e-05 1.358454e-05 -9.968208e-05
000020 e6 e5 f4 37 d6 92 3f b7 48 bb 43 b7 8f 24 af b8
       2.9194121e-05 -1.1418675e-05 -1.16665105e-05 -8.35146e-05
000030 af 5d 1a 38 d7 99 cf 37 67 e6 8f b8 67 80 f2 b6
       3.680371e-05 2.474796e-05 -6.861687e-05 -7.22711e-06
000040 94 41 f8 b7 53 71 2a b8 bd 56 3e b8 4f ab 8a 37
       -2.9594441e-05 -4.06367e-05 -4.538031e-05 1.6530654e-05
000050 6e 4c 67 38 f9 21 d5 b7 51 b1 26 38 9b 61 ab b6
       5.5145872e-05 -2.5407398e-05 3.9742623e-05 -5.10756e-06
000060 58 2f 5f 37 3c ab 4e b8 da c1 64 b8 65 ed 71 b8
       1.3302859e-05 -4.92737e-05 -5.4539974e-05 -5.767997e-05
000070 1c e5 de 37 99 49 f3 b8 02 c7 b3 b7 cc 9e 9e 37
       2.657115e-05 -0.000116008516 -2.1431133e-05 1.8909013e-05
000080 97 4e d6 37 7c e0 56 b8 9d 39 a5 37 37 dd 2d 38
       2.5547384e-05 -5.1230643e-05 1.9696361e-05 4.1452437e-05
000090 68 da 23 b8 2b 0a d0 b6 5d af ab 36 63 ea 22 38
       -3.9065635e-05 -6.2000668e-06 5.116612e-06 3.88421e-05
0000a0 cf b6 5b b8 8c 47 46 b4 b1 71 7f b8 dc c6 5b b7
       -5.2383923e-05 -1.8466216e-07 -6.090262e-05 -1.3099718e-05
0000b0 d4 ec 21 38 b3 64 69 37 7e 44 ee 37 6e 14 c9 38
       3.8605955e-05 1.3911328e-05 2.8403705e-05 9.588232e-05
0000c0 f4 8b 8c 37 1f d4 3b b8 51 63 4a b7 d0 3f c7 b7
       1.6754471e-05 -4.4781827e-05 -1.2063262e-05 -2.3752364e-05
0000d0 ac 79 8c 38 72 32 07 38 3f 67 1e 36 9e 3b 84 b8
       6.6983834e-05 3.223349e-05 2.3603932e-06 -6.305355e-05
0000e0 b9 c8 27 b8 27 bb 8d b7 68 3a 8f b7 e3 69 71 b8
       -4.000284e-05 -1.689566e-05 -1.7074126e-05 -5.7557492e-05
0000f0 11 72 5e b7 31 ce df b8 79 8a 64 b7 c2 39 01 b7
       -1.3258789e-05 -0.00010671875 -1.36221e-05 -7.702447e-06
000100 d6 92 d9 35 cd 6c fe b7 1a e2 6a b8 c4 0d 70 b6
       1.6210495e-06 -3.0329824e-05 -5.600052e-05 -3.57708e-06
000110 14 db 91 38 42 8f 00 38 da df 2d b8 20 ad aa b8
       6.954945e-05 3.0650997e-05 -4.1454892e-05 -8.138479e-05
000120 e5 94 89 37 a4 75 1a b7 7f 76 ea b8 8b f0 9c b8
       1.6401007e-05 -9.206506e-06 -0.00011180061 -7.483464e-05
000130 a2 ac 5a b8 04 53 82 b7 4d 6e af b7 0c 15 68 b7
       -5.2136027e-05 -1.5535865e-05 -2.0912988e-05 -1.3833178e-05
000140 59 57 ca 37 1a 66 1c b7 a7 0e c2 38 07 fd 37 38
       2.4120951e-05 -9.322097e-06 9.25337e-05 4.386625e-05
000150 76 2d fb 37 4d 3c 29 38 75 be 7c 38 11 d3 c7 b8
       2.9942701e-05 4.03489e-05 6.025886e-05 -9.5283736e-05
000160 de 5f ba 37 75 9a ca b7 37 e5 16 b8 e9 eb 53 b7
       2.221757e-05 -2.4152201e-05 -3.597626e-05 -1.2631507e-05
000170 e7 65 4b 38 3e 97 5e 38 8a 2c a5 b7 30 00 c5 b5
       4.8493876e-05 5.306978e-05 -1.9690273e-05 -1.4677698e-06
000180 ac c8 07 b7 ac e1 2d b8 a0 ec 7e b7 33 bb 8c b5
       -8.09335e-06 -4.1456587e-05 -1.5194673e-05 -1.0485295e-06
000190 31 73 d8 37 b3 d3 12 37 a6 26 2a 38 c9 7d 48 b8
       2.5802847e-05 8.751568e-06 4.0567153e-05 -4.7800862e-05
0001a0 14 23 fa 37 b7 1f 3b 38 98 3f 8b 37 4c d0 21 38
       2.9818657e-05 4.461381e-05 1.6599704e-05 3.8579383e-05
0001b0 19 5c 83 b8 a6 1c 93 b7 d7 be 9d b6 c2 73 7d b7
       -6.263721e-05 -1.7537106e-05 -4.7011813e-06 -1.5106927e-05
0001c0 6f ed f1 b7 d7 1c a8 b7 e8 4b 45 37 d7 61 ab 37
       -2.8840002e-05 -2.004059e-05 1.1759788e-05 2.0430349e-05
0001d0 b6 2d 28 37 e8 b4 0e b8 57 5d b2 b7 0e 75 84 b7
       1.0024223e-05 -3.402392e-05 -2.1262718e-05 -1.5790134e-05
0001e0 ad f8 6e b7 12 ad 37 37 64 9a 71 38 a1 3f 9c b7
       -1.4243805e-05 1.0947946e-05 5.7602665e-05 -1.8626279e-05
0001f0 30 55 f6 37 bf a7 3f 37 8e 8c 82 38 57 71 56 b8
       2.9365154e-05 1.1423544e-05 6.2250634e-05 -5.1127132e-05
