ML-Agents/Examples/SphereHunt/results/cloud_training/SphereHunt.onnx (onnx, 80822 bytes, 9 tensors)

network_body._body_endoder.seq_layers.0.weight f4 [128, 10]
0	0x3df9c819	0.12196369
1	0xbe8fabf3	-0.28060874
2	0x3c721a51	0.014776782
3	0xbf32afc1	-0.6979943
4	0x3eb5b8ab	0.35492453
5	0x3f1c1006	0.6096195
6	0x3f1943a6	0.5986885
7	0xbe820cc2	-0.25400358
8	0xbec4cb31	-0.38436273
9	0xbeba26ca	-0.3635772
10	0xbe40ddd2	-0.18834618
11	0x3f4d281a	0.80139315
12	0x3ec5d5a0	0.38639545
13	0xbdf97340	-0.12180185
14	0x3ec25664	0.37956536
15	0xbe956594	-0.2917906
16	0x3ec181d1	0.37794355
17	0x3d7d00f0	0.061768472
18	0xbf285f1f	-0.65770143
19	0x3ea5d2c9	0.3238738
20	0xbeaee04f	-0.3415551
21	0x3e0fd859	0.14047374
22	0xbe5147d0	-0.2043755
23	0xbee1884e	-0.44049305
24	0x3eb3e3a4	0.35134614
25	0xbe58eee4	-0.2118488
26	0x3dcc2db9	0.099696584
27	0x3e8b5979	0.272167
28	0xbf27b13a	-0.655048
29	0xbed758f2	-0.42060047
30	0x3f56621a	0.8374344
31	0x3ebd3ee5	0.36962047
32	0x3e844dd4	0.25840628
33	0xbe9d7ff6	-0.3076169
34	0xbec39714	-0.382012
35	0xbde89f6f	-0.113585345
36	0xbe983d84	-0.29734433
37	0xbe8b8e87	-0.27257177
38	0xbd9a7aa8	-0.07542926
39	0xbebb4327	-0.3657467
40	0xbedf52d2	-0.43617874
41	0x3d27e8be	0.040993445
42	0x3f35a1e9	0.7095018
43	0x3dc3aeb1	0.09554804
44	0x3ccd4569	0.025057511
45	0xbed8d05f	-0.42346475
46	0x3ddff141	0.109346874
47	0x3e0c21c9	0.13684763
48	0x3e8818bc	0.2658137
49	0xbec00d84	-0.37510312
50	0x3e95c91f	0.29255006
51	0xbeeddc67	-0.46457216
52	0xbc98b9dc	-0.018643312
53	0xbe773a63	-0.24143367
54	0xbdc71b86	-0.097220466
55	0x3d25c1ae	0.04046791
56	0x3d4807cd	0.048835564
57	0xbf0bc5d9	-0.54598767
58	0xbe67a892	-0.22622898
59	0xbf25dbe5	-0.6478866
60	0xbee9e485	-0.4568216
61	0x3dc64040	0.096802235
62	0xbf1268cb	-0.5719115
63	0xbdaad2bd	-0.083409764
64	0x3e10211d	0.14075132
65	0xbe89af92	-0.26891762
66	0x3ec9cf3b	0.39415917
67	0xbd853bcf	-0.06505548
68	0xbed6d3c5	-0.41958442
69	0x3e7a3150	0.24432874
70	0xbf4b3ba8	-0.79387903
71	0xbdbc9fd4	-0.09210172
72	0xbe8ded37	-0.27720043
73	0x3f2f0246	0.68362844
74	0x3c0e75d0	0.008695081
75	0xbd74607a	-0.05966232
76	0x3e12c278	0.14331996
77	0xbef73452	-0.48282105
78	0xbd5f20da	-0.05447469
79	0x3da17ade	0.07884763
80	0xbd3d06a0	-0.046148896
81	0xbe22d9e2	-0.15903428
82	0x3e88c3c4	0.26711857
83	0xbe11ee41	-0.14251043
84	0xbf313a7f	-0.6922988
85	0xbf381cef	-0.7191915
86	0x3e831bb7	0.25607082
87	0x3cd2e17e	0.025742289
88	0xbe2ae83f	-0.16690157
89	0xbcc47587	-0.023981823
90	0xbe8d10f7	-0.27552006
91	0x3ed64ac0	0.41853905
92	0x3ebd9f68	0.3703568
93	0x3ec53bd7	0.38522217
94	0xbed009ab	-0.40632376
95	0x3e740800	0.23831177
96	0xbe299c2d	-0.16563483
97	0x3eb0671f	0.34453675
98	0xbf16a82f	-0.5885038
99	0xbeecc6c7	-0.46245405
100	0xbdc8a593	-0.09797206
101	0xbe95f2d4	-0.29286826
102	0xbe2f195d	-0.17099519
103	0xbe8224ca	-0.25418693
104	0x3f064b9a	0.5245911
105	0x3d86acd8	0.06575936
106	0x3e9d42c8	0.30715013
107	0x3ebf37ea	0.37347347
108	0xbe494aa7	-0.19657384
109	0xbe50eb18	-0.20402181
110	0x3e5f873f	0.21828936
111	0x3f57c043	0.84277743
112	0x3d5e51c0	0.05427718
113	0xbdb14d9a	-0.086573794
114	0x3e562f0f	0.20916389
115	0xbdcce7f3	-0.10005178
116	0x3f44e1d0	0.7690706
117	0x3ca625bc	0.020281665
118	0xbf0a5e98	-0.5405059
119	0xbd623382	-0.055224903
120	0xbe12574e	-0.14291117
121	0xbe647e6b	-0.2231385
122	0xbe949de3	-0.29026708
123	0xbecf734f	-0.4051766
124	0x3df11540	0.11771631
125	0x3eed4f22	0.46349436
126	0x3e9eb66d	0.30998555
127	0x3e8426c3	0.25810823
128	0x3e47fd78	0.19530284
129	0xbf29b145	-0.66286117
130	0x3e5c812c	0.2153365
131	0x3e8ca404	0.27468884
132	0x3e2d4e1d	0.16924329
133	0x3e56ee37	0.20989309
134	0xbdcfac2c	-0.10140261
135	0xbf01fc10	-0.5077524
136	0xbe4061ef	-0.18787359
137	0xbf4ba553	-0.7954914
138	0x3ee812d3	0.45326862
139	0x3da29da1	0.079402216
140	0x3e9e5c2c	0.30929697
141	0x3da17806	0.07884221
142	0x3f25c719	0.64756924
143	0xbec105ac	-0.3769964
144	0x3e985c58	0.29757953
145	0xbeb16966	-0.34650725
146	0xbf270cea	-0.6525408
147	0x3eab1059	0.3341091
148	0xbead7d0a	-0.3388446
149	0x3eba736b	0.36416182
150	0x3eb8d097	0.3609664
151	0x3eac9bae	0.33712524
152	0x3e87648f	0.26443908
153	0xbe716d9a	-0.23576966
154	0x3d6e5bcc	0.058193013
155	0xbe6cb1f1	-0.23114754
156	0x3e2337d8	0.15939271
157	0x3f1c5fe8	0.6108384
158	0x3db10e4f	0.08645307
159	0x3ec210c3	0.37903413
160	0x3ed121fc	0.4084624
161	0xbe3aee9f	-0.18255089
162	0x3d461dfd	0.048368443
163	0x3f0e8520	0.5567188
164	0xbf0bb0aa	-0.5456644
165	0x3dd26de1	0.10274864
166	0x3cdd669a	0.027026463
167	0x3cb885c0	0.022524714
168	0x3dbcd727	0.092207246
169	0x3f0ce9cb	0.5504424
170	0xbf246d04	-0.64228845
171	0x3e1d0750	0.15334821
172	0xbe2504ed	-0.1611516
173	0xbf384dd1	-0.7199374
174	0x3e72f097	0.2372459
175	0x3e33883f	0.17532443
176	0xbd9d5380	-0.07681942
177	0xbe9b1b75	-0.30294386
178	0xbe112c5b	-0.14177077
179	0xbe281cce	-0.16417238
180	0x3dac6a48	0.08418709
181	0x3e6da73e	0.23208329
182	0x3d2eafe9	0.04264823
183	0xbea4e3a9	-0.3220494
184	0x3e644ac1	0.22294141
185	0xbe82b322	-0.25527292
186	0xbe7fb5c6	-0.24971685
187	0xbea15982	-0.31513602
188	0xbe999523	-0.29996595
189	0x3ec4dd3a	0.38450032
190	0xbe88cb80	-0.26717758
191	0x3dd96229	0.10614426
192	0x3d5de4b5	0.05417319
193	0x3e892cc3	0.26791963
194	0x3e07ba72	0.13254717
195	0xbe36ed3e	-0.17863938
196	0xbf4c76ef	-0.7986898
197	0xbe8ef5c5	-0.27921882
198	0x3e4fd25d	0.20295091
199	0x3eafb9e8	0.34321523
200	0x3e4dc3c8	0.20094216
201	0xbd611eb8	-0.054960936
202	0xbe30eab1	-0.17277028
203	0x3e179187	0.14801608
204	0xbdb807ec	-0.08985886
205	0xbd96ea35	-0.0736889
206	0xbf09d0f2	-0.5383445
207	0xbd89349e	-0.06699489
208	0xbe20f7d0	-0.15719533
209	0xbeac2456	-0.33621472
210	0x3dd3defd	0.10345266
211	0x3d79f9ad	0.061029125
212	0x3ef005d4	0.46879447
213	0x3baee05e	0.0053368052
214	0x3eb0a409	0.3450015
215	0xbdc03ae2	-0.09386231
216	0x3dd9f3c0	0.10642195
217	0x3e34f49e	0.17671439
218	0x3dcc89dd	0.09987233
219	0x3e31af0a	0.17351928
220	0xbde98513	-0.11402335
221	0x3f17c9b5	0.59292156
222	0xbf07d028	-0.53051996
223	0x3e49e6a8	0.19716895
224	0xbdfad0db	-0.12246867
225	0x3f6e3beb	0.9306018
226	0x3e11d855	0.1424268
227	0xbebaeef4	-0.36510432
228	0xbef39c01	-0.4757996
229	0x3df53e9b	0.11974832
230	0xbeb5c3f2	-0.35501057
231	0x3d9f1df7	0.07769387
232	0x3ece4edb	0.40294537
233	0x3eb1fc9e	0.34763044
234	0x3eeb1870	0.45917082
235	0xbee0874b	-0.4385322
236	0x3e25c240	0.16187382
237	0x3ed26d80	0.41099167
238	0x3e924f2e	0.28576034
239	0xbf25efd2	-0.6481906
240	0x3d990470	0.074715495
241	0x3e9daa5a	0.3079403
242	0x3e515f65	0.20446546
243	0x3db85c8c	0.09002027
244	0x3cddbec8	0.02706851
245	0x3ec3fe3b	0.382799
246	0x3f723345	0.9460948
247	0xbead2fae	-0.3382544
248	0x3e59fd34	0.21287996
249	0x3eacaa2a	0.33723575
250	0xbe78644e	-0.24257013
251	0xbbc0c867	-0.005883265
252	0xbdf81a86	-0.12114434
253	0xbe9ea24a	-0.30983192
254	0x3d2d8b1a	0.042368986
255	0x3e27a29a	0.16370621

network_body._body_endoder.seq_layers.0.bias f4 [128]
0	0x3dd8bb3f	0.10582589
1	0x3ea926f8	0.33037543
2	0x3e0dcbcf	0.13847278
3	0xbd46a0e4	-0.04849328
4	0xbda915d3	-0.08256116
5	0xbe02d49c	-0.12776417
6	0x3e3c4ed2	0.18389443
7	0x3e0674b8	0.13130462
8	0x3e0b44f2	0.1360052
9	0x3db09dea	0.0862387
10	0x3a0e25df	0.00054225133
11	0x3ed599d8	0.41718936
12	0xbd0da2da	-0.034579135
13	0xbd2b4077	-0.041809525
14	0x3dc7cf65	0.09756354
15	0xbd82f28d	-0.06393919
16	0xbdc38953	-0.09547677
17	0x3d6569f5	0.05600925
18	0x3de5cfdc	0.11221287
19	0x3e133c09	0.1437837
20	0xbd33c5f9	-0.043889973
21	0xbce456c4	-0.027873404
22	0x3e18dd4b	0.14928167
23	0xbdb799f9	-0.08964915
24	0xbbefbc50	-0.00731615
25	0x3e3836df	0.17989682
26	0x3e0f455a	0.139913
27	0x3d5bb779	0.05364177
28	0xbe20c6f7	-0.15700899
29	0xbd3f0a87	-0.0466409
30	0x3d958415	0.07300583
31	0x3dccc872	0.099991694
32	0x3d7af163	0.06126536
33	0xbb2177ac	-0.002463798
34	0x3e574441	0.2102213
35	0xbd222df2	-0.039594598
36	0x3e165dcd	0.1468422
37	0xbe1a31f3	-0.15058117
38	0x3d95ac3d	0.073082425
39	0xbdcd9421	-0.10038019
40	0xbc79f5e4	-0.015256379
41	0x3c53cc5e	0.012927143
42	0x3d625e88	0.055265933
43	0xbdb088c8	-0.08619839
44	0xbc842881	-0.016132595
45	0xbc8761f5	-0.016526202
46	0xbd8f8771	-0.07008255
47	0x3dd194af	0.10233437
48	0x3decb0dc	0.11557171
49	0xbda5ca4b	-0.08095225
50	0x3cfdb3d3	0.030969536
51	0x3d995ebf	0.074887745
52	0x3e83c6fc	0.2573775
53	0x3dcf7cc0	0.10131216
54	0x3d91f433	0.071266554
55	0x3dfba663	0.12287595
56	0x3e6229d4	0.22086269
57	0x3e65b39a	0.22431794
58	0xbe0dd2fb	-0.13850014
59	0x3db7928f	0.08963501
60	0x3d11f05e	0.035629623
61	0x3e96d3ec	0.2945856
62	0x3d20ace2	0.039227374
63	0xbd296708	-0.041358024
64	0x3dc37980	0.09544659
65	0xbd2f96cb	-0.042868417
66	0xbd3d6668	-0.04624024
67	0x3e780e59	0.24224223
68	0xbda958d1	-0.082688935
69	0xbe32d2d2	-0.17463234
70	0x3e54478a	0.20730415
71	0xbd48bc49	-0.049007688
72	0x3e14eba4	0.14543015
73	0x3e36c61c	0.1784901
74	0x3b326785	0.0027222347
75	0x3e611500	0.21980667
76	0x3dc62cc1	0.09676505
77	0x3d99c39b	0.07508012
78	0x3e113b0e	0.14182684
79	0xbc987297	-0.018609328
80	0xbd4001bf	-0.046876665
81	0xbd170973	-0.036874246
82	0xbd5e76e0	-0.054312587
83	0xbe209824	-0.15683037
84	0x3daca8d3	0.08430638
85	0x3dccc5e0	0.09998679
86	0xbde55a2c	-0.111988395
87	0x3e08d6ed	0.13363238
88	0x3e6b92db	0.2300524
89	0x3bbd88b3	0.005784118
90	0x3e75f5e2	0.24019578
91	0x3dfbeda5	0.123011865
92	0x3d811cd6	0.06304328
93	0x3cd6e661	0.0262329
94	0xbcaa40f3	-0.020782923
95	0x3d22a997	0.039712515
96	0x3d9202ff	0.07129478
97	0x3dc0d224	0.09415081
98	0x3dbcd0fc	0.09219548
99	0x3dd7d058	0.10537785
100	0x3edce439	0.4314287
101	0xbdb24cae	-0.08706032
102	0x3ac36bb5	0.0014909419
103	0xbd92f078	-0.07174772
104	0xbd07ae41	-0.033125166
105	0xbddc70aa	-0.107636765
106	0xbd28f72b	-0.041251343
107	0xbddcdc65	-0.107842244
108	0x3e839c98	0.2570541
109	0x3ddd3ce5	0.1080263
110	0x3db0578c	0.08610448
111	0xbdfff5b4	-0.12498036
112	0xbdc00f55	-0.09377924
113	0xbd21d43c	-0.039509043
114	0x3dbba684	0.0916262
115	0xbd0b3acb	-0.033991616
116	0xbb60dc58	-0.0034311023
117	0x3dbd05af	0.092296
118	0x3e0c0bf3	0.13676433
119	0x3daa85f2	0.08326329
120	0xbdc86b47	-0.097860865
121	0x3e19096b	0.14944999
122	0x3ddb8023	0.107177995
123	0xbd79a936	-0.060952388
124	0x3e2225a0	0.15834665
125	0x3d2b6219	0.0418416
126	0xbd989a86	-0.07451348
127	0x3e31f18c	0.17377299

network_body._body_endoder.seq_layers.2.weight f4 [128, 128]
0	0xbd350c0d	-0.044200946
1	0x3dba5801	0.09098817
2	0x3e5e796d	0.21726008
3	0xbdbffaf9	-0.09374041
4	0xbdf1fc6c	-0.11815724
5	0xbd172c9d	-0.03690778
6	0xbe1cf8ad	-0.15329237
7	0x3d2d7230	0.042345226
8	0x3d4c756d	0.049916673
9	0xbda6820b	-0.081302725
10	0xbdeefa24	-0.11668804
11	0x3e7352ee	0.23762104
12	0xbe12aa75	-0.14322837
13	0xbdaf3fde	-0.085571036
14	0x3cea2824	0.028583594
15	0x3d3682fe	0.044558518
16	0xbd6a2d14	-0.057171896
17	0x3d3ef037	0.046615805
18	0x3d8ab590	0.067729115
19	0xbe298143	-0.16553216
20	0x3c9828e8	0.018574193
21	0xbbeacfe6	-0.0071658967
22	0x3e17e484	0.14833266
23	0xbdf33ad7	-0.11876457
24	0x3e12ff2d	0.14355154
25	0x3b5075ca	0.003180849
26	0x3e6ba274	0.2301119
27	0xbacaec07	-0.0015481719
28	0xbe4a717d	-0.19769855
29	0xbdb0817a	-0.08618446
30	0xbdc4f913	-0.0961782
31	0x3da936cd	0.082624055
32	0x3d59b092	0.053146906
33	0xbd31e5a7	-0.043431904
34	0x3e02c1cd	0.12769242
35	0x3c2727aa	0.010202328
36	0x3e3f2dd4	0.18669826
37	0x3de9f898	0.114243686
38	0x3dc69f70	0.09698379
39	0x3d9bf593	0.07615199
40	0xbde1847f	-0.110116
41	0x3c071189	0.008243927
42	0x3da73638	0.08164638
43	0xbddb2a76	-0.10701458
44	0x3e0e6535	0.13905795
45	0xbd25f7bd	-0.040519465
46	0xbe7020b2	-0.23449972
47	0xbcee607e	-0.029098745
48	0x3e03f1d2	0.12885216
49	0x3e06f5c5	0.13179691
50	0xbda9663d	-0.082714535
51	0x3de84a27	0.113422684
52	0x3e1c2123	0.15247016
53	0x3e2850db	0.16437094
54	0x3dbe0eba	0.092801526
55	0x3d251242	0.040300615
56	0xbda47d52	-0.080317155
57	0x3d849a5c	0.06474754
58	0xbd9068d6	-0.07051246
59	0x3e569fcd	0.20959397
60	0x3d3afe67	0.045652773
61	0x3db72ec7	0.08944469
62	0x3bf8456f	0.0075766365
63	0x3c970a3a	0.018437494
64	0x3cf4f953	0.029904043
65	0x3d0b77af	0.034049686
66	0xbcfda821	-0.03096396
67	0x3cd74084	0.02627588
68	0xbd279d9e	-0.0409218
69	0xbe116088	-0.1419698
70	0x3e545e36	0.20739064
71	0xbe26c74b	-0.16286962
72	0x3e336989	0.17520727
73	0x3d44622d	0.04794519
74	0x3d770520	0.060307622
75	0x3def0527	0.116709046
76	0xbe2a00a6	-0.1660181
77	0x3d8f5195	0.069979824
78	0xbd52d9b1	-0.051477138
79	0x3e15b830	0.14621043
80	0x3deef6e6	0.11668186
81	0xbdbcfe19	-0.09228153
82	0xbd9008ff	-0.07032966
83	0xbdd6a29a	-0.104802325
84	0xbbb23044	-0.0054378826
85	0x3db75398	0.08951491
86	0xbd17018e	-0.036866717
87	0xbde27804	-0.110580474
88	0x3dd4baae	0.10387169
89	0x3d91cf4f	0.07119619
90	0x3e2deac2	0.16984084
91	0x3c531fbe	0.012885986
92	0x3e1fc9ef	0.15604375
93	0xbd153ce9	-0.03643504
94	0xbdcb24e0	-0.09919143
95	0x3de3e22f	0.111271255
96	0xbdbf829f	-0.09351086
97	0xbd0dd67d	-0.03462838
98	0x3d971b44	0.073782474
99	0x3ddba717	0.10725229
100	0x3e760e3b	0.24028866
101	0xbe0a0570	-0.13478637
102	0x3ddee9d3	0.10884442
103	0xbe94a41c	-0.29031456
104	0xbde677dc	-0.1125333
105	0x3d67a9f4	0.056558564
106	0xbe7d2122	-0.2471967
107	0xbd969acb	-0.07353743
108	0x3d2c586c	0.042076513
109	0x3d8d695f	0.069048636
110	0x3d4ecfd5	0.050491173
111	0xbced3071	-0.028953763
112	0xbdb94891	-0.09047044
113	0xbe8f1688	-0.27946877
114	0x3e04cedd	0.12969537
115	0xbd731e27	-0.059354927
116	0xbc6e9211	-0.014561192
117	0xbb60a94b	-0.0034280594
118	0x3d13fcac	0.03612964
119	0xb88650bd	-6.4046566e-05
120	0xbdeb998a	-0.115038946
121	0x3e03a1d8	0.12854707
122	0x3e035188	0.1282407
123	0x3e133b7f	0.14378165
124	0x3dd9cb54	0.10634485
125	0x3d845832	0.064621344
126	0xbc9d85a2	-0.01922876
127	0x3c43bd9e	0.011947064
128	0x3dbb788a	0.091538504
129	0x3ddcd485	0.107827224
130	0x39a32107	0.0003111439
131	0x3d494258	0.049135536
132	0xbde995a1	-0.114054926
133	0x39b271f1	0.000340357
134	0x3d715b8e	0.058925204
135	0xbdbbf998	-0.091784656
136	0x3a6efe06	0.0009116832
137	0xbe609056	-0.2193006
138	0xbcaf13f0	-0.021371812
139	0x3dc015f4	0.09379187
140	0xbd97bd86	-0.074091956
141	0xbdff1d99	-0.12456817
142	0xbd852a11	-0.06502164
143	0xbe048a0e	-0.12943289
144	0xbc00d2f9	-0.0078628
145	0xbd3dadc4	-0.046308294
146	0x3dabf84a	0.08396967
147	0xbd9848d4	-0.07435766
148	0x3da717fa	0.0815887
149	0xbddb2297	-0.10699957
150	0x3d8be4e1	0.068307646
151	0x3d94c5ff	0.07264327
152	0xbe1f52d4	-0.1555894
153	0x3e06b660	0.13155508
154	0xbcffdd1c	-0.031233363
155	0xbdb06820	-0.0861361
156	0xbe7a227a	-0.24427214
157	0x3cd65155	0.026161829
158	0xbea3f4c2	-0.32022673
159	0x3d686a89	0.056742225
160	0xbd650116	-0.05590924
161	0x3e5bcc1f	0.21464585
162	0x3d90119a	0.07034607
163	0xbe3c8ffb	-0.18414299
164	0x3e224e45	0.1585017
165	0xbc68dba0	-0.014212519
166	0xbdcb3d54	-0.09923807
167	0x3e2eeb27	0.17081891
168	0xbe070542	-0.131856
169	0x3bf9acc6	0.007619473
170	0xbd9910c0	-0.07473898
171	0x3e07c2cd	0.13257904
172	0xbdf06bf7	-0.11739343
173	0xbd4f78ad	-0.050652195
174	0x3dcdbf38	0.10046238
175	0xbcecb3d5	-0.028894344
176	0xbcdc4e06	-0.026892673
177	0xbe89c129	-0.26905182
178	0x3c58f791	0.013242618
179	0x3bd2f0cf	0.006437398
180	0x3ccf187e	0.025280233
181	0xbc884b0b	-0.016637346
182	0xbd930046	-0.071777865
183	0xbd620189	-0.055177245
184	0xbd20d010	-0.039260924
185	0xbd24fe6f	-0.04028171
186	0x3c773de5	0.01509044
187	0xbc827b6c	-0.015927993
188	0xb9d8cb89	-0.00041350376
189	0x3ddd1cc6	0.10796504
190	0x3e7018ef	0.23447011
191	0xbe28e73c	-0.16494459
192	0x3d8c6104	0.06854442
193	0x3e935e20	0.2878275
194	0xbe033db5	-0.12816508
195	0x3cfea90d	0.03108647
196	0x3da394d6	0.079873726
197	0xbe2b3108	-0.16717923
198	0x3df106bd	0.11768863
199	0x3d11edc4	0.03562714
200	0xbdf5940b	-0.119911276
201	0x3d9e64bd	0.07734058
202	0xbd8575ee	-0.06516634
203	0xbd33cfcd	-0.043899346
204	0x3dc222e5	0.09479312
205	0x3cc9351d	0.02456146
206	0xbddfe5cd	-0.10932503
207	0xbbadb514	-0.005301127
208	0x3cec3d5f	0.028837858
209	0xbbf2bb63	-0.007407592
210	0xbdd06a68	-0.101765454
211	0x3d452110	0.048127234
212	0x3db69630	0.08915365
213	0xbe27ba42	-0.16379645
214	0xbe8a5aa7	-0.27022287
215	0xbddf3f13	-0.10900702
216	0x3d793194	0.060838297
217	0xbd8eb8ea	-0.06968863
218	0x3d6d4a48	0.05793217
219	0xbd6a1a73	-0.05715413
220	0xbe03f97c	-0.1288814
221	0xbe49621b	-0.1966633
222	0xbe3989fe	-0.18119046
223	0x3d8f6d66	0.07003288
224	0xbe65a6a2	-0.22426847
225	0x3b8df03c	0.0043316167
226	0xbe6ceac7	-0.23136435
227	0x3e5e3684	0.21700484
228	0x3d9a2a5d	0.075276114
229	0x3da6b66f	0.08140265
230	0xbdd355a3	-0.10319068
231	0xbe848fb7	-0.25890896
232	0xbd964b4a	-0.07338579
233	0xbcc6b882	-0.024257902
234	0xbe02ab6f	-0.12760709
235	0xbd849aee	-0.06474863
236	0x3d98692e	0.074419364
237	0x3c78530b	0.015156518
238	0xbd272bb9	-0.04081318
239	0xbcba1447	-0.022714747
240	0x3b499fa2	0.0030765315
241	0xbe6a7e5f	-0.22899769
242	0x3dbaba8e	0.09117614
243	0xbdcff2b6	-0.10153715
244	0xbe17619e	-0.14783332
245	0x3d3554f7	0.044270482
246	0xbdb43cde	-0.08800672
247	0x3c355e78	0.011069886
248	0x3e68608f	0.22693084
249	0x3d4d3a1d	0.05010425
250	0x3d3f33c3	0.046680223
251	0xbe5140e7	-0.20434915
252	0xbe5e37e3	-0.21701007
253	0x3e052f3c	0.130063
254	0x3d896ce7	0.067102246
255	0x3cf10a56	0.029423874

network_body._body_endoder.seq_layers.2.bias f4 [128]
0	0x3e193d7d	0.14964862
1	0x3c9816c8	0.01856555
2	0x3d6cab00	0.057780266
3	0x3d77d55f	0.06050622
4	0x3d4a84f9	0.04944322
5	0x3d1f2617	0.038854685
6	0x3d1ebc8e	0.03875404
7	0x3e23aed4	0.1598466
8	0x3dcc0495	0.099618115
9	0x3d51b47c	0.051197514
10	0x3d320980	0.04346609
11	0x3dca89b0	0.09889543
12	0x3d48a292	0.048983164
13	0x3d14a9d8	0.036294788
14	0x3dad5307	0.08463102
15	0x3e012e61	0.12615348
16	0x3e1b80cd	0.15185852
17	0x3d949c71	0.07256401
18	0x3da39fc1	0.07989455
19	0x3e07c23f	0.13257693
20	0xbb569891	-0.0032744745
21	0xbca7d17b	-0.02048563
22	0x3e235259	0.15949382
23	0x3e07d86f	0.13266157
24	0x3e1c3f8f	0.1525862
25	0x3dbf8cac	0.09353003
26	0xbd0cd8c9	-0.03438643
27	0xbe054601	-0.13014986
28	0x3da0b9e1	0.078479536
29	0x3df3e3f8	0.11908716
30	0x3e21963d	0.15779968
31	0x3b603271	0.0034209753
32	0xbcfb604d	-0.030685568
33	0x3d5088d1	0.05091173
34	0x3dbb10eb	0.09134086
35	0x3d531317	0.051531877
36	0x3e360728	0.17776167
37	0xbc858280	-0.016297579
38	0x3c3137c1	0.010816515
39	0x3de3ffaf	0.11132752
40	0x3d51207b	0.051056366
41	0x3dc5bad5	0.09654776
42	0x3dc2e2d6	0.09515922
43	0x3d8e18a8	0.069382966
44	0x3d8cf501	0.06882668
45	0x3cd9a63e	0.026568528
46	0x3e21c159	0.15796413
47	0x3ceb2097	0.028702063
48	0x3e1eb67a	0.15499297
49	0x3d40b426	0.047046803
50	0x3d9f65b1	0.07783068
51	0x3d5812d8	0.052752346
52	0x3d7402f4	0.05957313
53	0x3dd19159	0.10232801
54	0x3bee040f	0.0072636674
55	0x3d862a45	0.06551031
56	0x3d65ce57	0.056104984
57	0x3d8cff9e	0.068846926
58	0x3dd20330	0.10254514
59	0x3d981c65	0.07427291
60	0x3cbd2418	0.0230885
61	0x3dae0f12	0.08498968
62	0x3e2e2bb7	0.17008863
63	0x3d7b3d1c	0.061337575
64	0x3d42974a	0.04750756
65	0xbdd0c05e	-0.10192941
66	0x3e08571b	0.13314478
67	0x3e6aa7e0	0.22915602
68	0x3da6fb34	0.08153382
69	0x3e16a8da	0.1471285
70	0x3d658a53	0.05604012
71	0x3dbbf383	0.091773055
72	0x3daa989b	0.083298884
73	0xbbb5101d	-0.0055256025
74	0x3e0f07f1	0.13967873
75	0x3d47dfff	0.048797604
76	0x3ccdeadf	0.02513641
77	0x3dad4865	0.08461074
78	0x3d1ac5df	0.03778636
79	0xbd881436	-0.0664448
80	0x3e52532b	0.20539539
81	0x3d92a137	0.071596555
82	0x3d496611	0.049169604
83	0x3c7d9c05	0.0154790925
84	0x3de09a28	0.10966903
85	0x3d9e3427	0.07724791
86	0x3d2376f5	0.03990837
87	0x3d0b631b	0.03403006
88	0x3da59227	0.08084517
89	0xbd4c0b46	-0.04981544
90	0x3d8004b6	0.062508985
91	0x3e294044	0.16528422
92	0x3d902d69	0.07039911
93	0x3e169957	0.14706932
94	0xbc8ef951	-0.017452868
95	0x3c909a4a	0.017651696
96	0xbcf13db7	-0.029448373
97	0x3e3fe7dc	0.18740791
98	0x3dd64b78	0.10463613
99	0x3dcc51a4	0.09976509
100	0x3d84d8d0	0.06486666
101	0x3da8b934	0.0823845
102	0x3d8ac0b4	0.067750365
103	0x3e20fc33	0.15721206
104	0x3d8579eb	0.06517395
105	0x3d71138d	0.058856536
106	0x3d21e395	0.03952368
107	0xbc33cd01	-0.01097417
108	0x3dcd1071	0.100129016
109	0x3d5a665b	0.05332027
110	0x3d82edb5	0.06392995
111	0x3bfa214a	0.007633363
112	0x3ca3e4fc	0.02000665
113	0x3b8e767e	0.0043476215
114	0xbcb69da3	-0.022291964
115	0x3dc0f1a5	0.0942109
116	0x3d397490	0.04527718
117	0x3c71151a	0.014714504
118	0x3db4b7fa	0.08824153
119	0x3d78accd	0.06071167
120	0x3e1b5939	0.15170754
121	0x3e5d8c23	0.21635489
122	0x3dc20402	0.09473421
123	0x3d52c7c0	0.051460028
124	0x3e7e83d9	0.24854983
125	0xbd4456ea	-0.04793445
126	0xbc2f2324	-0.0106895305
127	0x3e39f712	0.18160656

action_model._continuous_distribution.log_sigma f4 [1, 2]
0	0xbf846af0	-1.0345135
1	0xbf8209c1	-1.0159227

action_model._continuous_distribution.mu.weight f4 [2, 128]
0	0xbcd55e1e	-0.026045855
1	0xbd5a968b	-0.053366225
2	0x3d086982	0.033303745
3	0xbd0e7b82	-0.034785755
4	0x3d0a9aa6	0.03383889
5	0xbd610283	-0.054934036
6	0x3d37ab9f	0.044841405
7	0x3b971b8b	0.0046114377
8	0xbd81565d	-0.063153006
9	0x3e45564f	0.19271205
10	0xbd19b6a2	-0.037527688
11	0xbdc3363a	-0.09531827
12	0xbc134f06	-0.008991009
13	0x3c9078c0	0.017635703
14	0x3b62b140	0.0034590513
15	0xbd798376	-0.060916387
16	0xbb9e47ad	-0.0048303218
17	0xbd0ab969	-0.033868227
18	0x3e922644	0.2854482
19	0xbdcf017c	-0.10107705
20	0x3c9e5974	0.019329764
21	0xbc170d5d	-0.009219495
22	0xbd469cab	-0.048489254
23	0xbcdb7c7b	-0.026792755
24	0x3bc67cbf	0.0060573514
25	0x3d1575af	0.036489185
26	0x3d5da310	0.054110587
27	0xbc5aba2a	-0.013350049
28	0xbd103a1a	-0.03521166
29	0xbd4fec71	-0.050762597
30	0xba5478f9	-0.00081051845
31	0xbe06c787	-0.13162051
32	0x3cf3ec3b	0.02977573
33	0x3e30d834	0.17269975
34	0x3c9e97b7	0.019359453
35	0x3c02a688	0.007974274
36	0x3c63d79c	0.013906386
37	0x3d3b9ad5	0.045801956
38	0xbd6c4909	-0.05768684
39	0xbe1f4c93	-0.15556554
40	0xbc30ab6d	-0.010783059
41	0xbe53ac08	-0.20671093
42	0xbc33db5b	-0.010977591
43	0x3d659442	0.056049593
44	0xbd30833b	-0.0430939
45	0xbc3e43c8	-0.01161284
46	0x3d0e750f	0.034779605
47	0x3da24a13	0.07924285
48	0xbc2f9ed8	-0.010719024
49	0x3c75cb66	0.015002107
50	0xbdea65b3	-0.11445179
51	0xbc2a8a25	-0.010408913
52	0x3c01693c	0.007898625
53	0xbd6121c0	-0.054963827
54	0x3d796bd1	0.060893837
55	0x3d69a200	0.05703926
56	0xbd0776d7	-0.03307232
57	0x3c8f541e	0.017496165
58	0xbd8dd263	-0.06924894
59	0xbc596358	-0.013268314
60	0x3e307ad6	0.17234358
61	0xbcad3252	-0.021142159
62	0xb822c206	-3.880451e-05
63	0xbcdfd746	-0.02732433
64	0x3d313bec	0.043270037
65	0xbd7ca8f2	-0.061684556
66	0xbdeb04a4	-0.114754945
67	0x3ca62002	0.020278934
68	0xbb74df5f	-0.0037364585
69	0x3c8d0881	0.017215969
70	0xbc794903	-0.015215161
71	0xbd5dad09	-0.054120097
72	0xbd4f92a4	-0.050676957
73	0xbc6e13a1	-0.014531047
74	0x3c159ae7	0.00913117
75	0xbd2051b2	-0.03914041
76	0x3d9499bd	0.07255886
77	0xbe1808d6	-0.1484712
78	0x3e21bb5e	0.15794131
79	0xbd4a5649	-0.049398694
80	0xbcc99c71	-0.02461073
81	0x3c415d99	0.011802101
82	0x3e1c9514	0.15291244
83	0x3da08a7c	0.07838914
84	0xbcb8992a	-0.022533972
85	0xbc4410cc	-0.011966895
86	0x3c801dad	0.01563915
87	0xbd9d9810	-0.07695019
88	0x3cfb0c1d	0.030645425
89	0x3db50447	0.088387065
90	0x3b2543b1	0.002521735
91	0xbcdb5612	-0.02677444
92	0x3ba53bc2	0.005042524
93	0x3b4ea375	0.0031530533
94	0x3d5b6179	0.053559754
95	0xbd085d52	-0.033292122
96	0x3dff7472	0.12473382
97	0xbe25daf9	-0.16196813
98	0xbd113ee0	-0.035460353
99	0xbd879e20	-0.06621957
100	0x3d31e955	0.043435413
101	0x3ce3351a	0.027735282
102	0xbe041b72	-0.12901095
103	0x3d69e1d2	0.057100125
104	0xbdebfc15	-0.1152269
105	0x3d015f74	0.03158517
106	0xbc635d02	-0.013877155
107	0x3e15d057	0.14630257
108	0xbccc27f1	-0.02492139
109	0x3d533cfc	0.05157183
110	0xbca2c832	-0.019870851
111	0x3d82065a	0.06348868
112	0x3e0f0b6f	0.13969205
113	0xbba05acc	-0.0048936363
114	0x3e000dd0	0.12505269
115	0x3dc32f73	0.095305346
116	0x3da18806	0.078872725
117	0x3d087fcb	0.033324998
118	0x3c7a4490	0.015275136
119	0xbc271992	-0.0101989675
120	0x3cb09afb	0.021558275
121	0xbcdde7d7	-0.027088089
122	0x3c46f4f7	0.012143365
123	0xbcccaa2c	-0.024983488
124	0xba115a9b	-0.00055448123
125	0xbd8473f9	-0.064674325
126	0x3d420e11	0.047376696
127	0x3eae6c61	0.34067062
128	0xbc7a1acd	-0.015265179
129	0x3dfc15df	0.12308859
130	0xbe224768	-0.15847552
131	0xbd1a3216	-0.037645422
132	0xbc4638fa	-0.012098545
133	0x3d75eff6	0.060043298
134	0xbd5ba518	-0.053624243
135	0xbe6b24d4	-0.22963268
136	0x3d764f7d	0.0601344
137	0xbd7f1202	-0.062273033
138	0x3cdaf221	0.026726784
139	0x3e12e5c3	0.1434546
140	0x3d1d6a83	0.038431656
141	0xbc1d10c5	-0.009586518
142	0xbc9df722	-0.019282881
143	0xbc0df994	-0.008665461
144	0x3c8207f6	0.015872937
145	0xbd0ab357	-0.033862438
146	0x3deb14f8	0.11478609
147	0xbe452880	-0.19253731
148	0xbd5b2ec1	-0.053511385
149	0xbcce24d2	-0.025164042
150	0x3cdfa443	0.027300006
151	0x3c6b8a9e	0.014376311
152	0x3c0c4b52	0.00856288
153	0x3e2e6e94	0.1703437
154	0xbc5a69ad	-0.013330859
155	0x3d95e568	0.073191464
156	0x3cd96103	0.026535517
157	0xbcce31c5	-0.025170216
158	0x3b528111	0.0032120387
159	0xbca29ea6	-0.01985104
160	0xbcd09017	-0.025459332
161	0x3e8d0abd	0.27547255
162	0xbc8dcc25	-0.017309258
163	0x3ce32ebd	0.027732247
164	0xbbb22880	-0.005436957
165	0x3d252de4	0.040326968
166	0x3d37add6	0.044843517
167	0x3d1fbb51	0.038997
168	0x3d3ca4da	0.046055652
169	0x3ddfc489	0.10926158
170	0xbc7b370f	-0.015332951
171	0x3dfb80c9	0.12280423
172	0x3d8753d7	0.06607788
173	0xbd1ffb23	-0.039057862
174	0x3c123f15	0.008926173
175	0xbcf93a22	-0.030423228
176	0x3d88cd9e	0.06679843
177	0xbbfc72a9	-0.0077040982
178	0xbe514698	-0.20437086
179	0xbd1c396a	-0.03814069
180	0x3db553d1	0.08853877
181	0x3e3f3adb	0.18674795
182	0xbd2a140a	-0.041523017
183	0x3cb160d6	0.02165262
184	0xbdc292f1	-0.09500683
185	0x3dbcdc5b	0.09221717
186	0xbdf35136	-0.11880724
187	0xbd848130	-0.06469953
188	0x3d5c7f8b	0.053832572
189	0xbd8053dc	-0.06265995
190	0xbd0118a3	-0.031517636
191	0x3d2f2040	0.042755365
192	0xbe0830d2	-0.13299873
193	0xbd0fdccc	-0.035122678
194	0x3c2faa81	0.010721804
195	0xbc0d413f	-0.008621513
196	0x3d3f965a	0.046774246
197	0x3c8fb1d7	0.017540855
198	0x3c8a128e	0.01685455
199	0x3db32d16	0.08748834
200	0xbd2c43f8	-0.042057008
201	0x3cee5ef6	0.029098015
202	0xba5c4eb0	-0.00084040593
203	0xbcb42838	-0.021991834
204	0xbdc18604	-0.094493896
205	0x3ce95a81	0.028485538
206	0xbe37ff81	-0.17968561
207	0xbc6ff464	-0.01464567
208	0xbd2d5d44	-0.042325273
209	0xbcc4c558	-0.024019882
210	0x3b0e37f8	0.002170084
211	0x3d644e64	0.05573882
212	0x3dd35fb0	0.10320985
213	0xbb833bb4	-0.00400492
214	0xbac1419e	-0.0014744287
215	0x3d4bac79	0.04972503
216	0x3ba3b7ef	0.004996292
217	0xbb06c78e	-0.0020565721
218	0x3ccf2b6f	0.025289265
219	0x3b2cec73	0.0026386052
220	0xbcaf7fc8	-0.021423236
221	0x3d000cfc	0.031262383
222	0xbb4a7623	-0.003089317
223	0x3d4cef7c	0.050033078
224	0xbe0a4d77	-0.13506113
225	0xbcc65372	-0.024209712
226	0x3d185494	0.037190035
227	0x3d01f6ff	0.031729694
228	0xbc2275d0	-0.009915784
229	0xbca9ec66	-0.020742606
230	0x3b866a98	0.0041020624
231	0x3e0545b7	0.13014875
232	0xbd7068fb	-0.058693867
233	0xbcf5ad66	-0.02998991
234	0x3dc42969	0.09578211
235	0x3bc932d7	0.006140094
236	0x399a1fe2	0.00029396923
237	0x3c95bbde	0.018278059
238	0xbcc1b981	-0.023648025
239	0x3d19a948	0.037514955
240	0x3e0cbd8a	0.13744178
241	0x3d1b6575	0.037938554
242	0xbd20d788	-0.039268047
243	0xbe2979f1	-0.16550423
244	0xbd87cbee	-0.066306934
245	0xbca21430	-0.019785017
246	0xbdd014e7	-0.10160237
247	0x3c51bac0	0.012800872
248	0x3bb2e2ad	0.0054591508
249	0x3d24f8b6	0.04027625
250	0x3c7f53b3	0.01558392
251	0xbe06fed8	-0.13183153
252	0xbb963d8d	-0.004584974
253	0x3cf549ad	0.029942358
254	0x3d4f867c	0.050665364
255	0x3dd4d2b1	0.10391749

action_model._continuous_distribution.mu.bias f4 [2]
0	0xbd123597	-0.03569564
1	0xbc2a0542	-0.01037723

action_model._discrete_distribution.branches.0.weight f4 [2, 128]
0	0x3dcbb446	0.09946494
1	0xbcf2eb40	-0.029653192
2	0xbe0ca38d	-0.13734265
3	0x3db1e1a0	0.08685613
4	0x3d81ca3e	0.06337403
5	0xbdd8f513	-0.10593619
6	0xbd8f0a99	-0.06984443
7	0xbd816209	-0.06317527
8	0x3d08d7b6	0.033408843
9	0xbd642766	-0.055701636
10	0xbd1d0087	-0.03833058
11	0xbd30ee13	-0.043195795
12	0x3d975f49	0.07391221
13	0x3b18a723	0.002329298
14	0x3d3d4b21	0.046214227
15	0x3dd3eb30	0.10347593
16	0x3e2ed30a	0.17072693
17	0x3d1fdbe6	0.03902807
18	0xbe38f690	-0.18062806
19	0xbe1d22d9	-0.15345325
20	0xbd72d395	-0.05928381
21	0xbd5d691e	-0.054055326
22	0x3e3180bc	0.17334265
23	0x3df8591f	0.121263735
24	0x3e29c8b1	0.16580464
25	0xbdb6e2f1	-0.089300044
26	0xbd696ca5	-0.056988377
27	0xbe5f3e52	-0.21801117
28	0x3d957bef	0.07299029
29	0x3df04ba6	0.11733179
30	0x3e08acb9	0.13347138
31	0xbdf7c914	-0.120988995
32	0xbd9a1a29	-0.07524521
33	0xbe2af6ee	-0.16695759
34	0x3df42bcb	0.11922415
35	0x3c0fe5a0	0.008782774
36	0x3e708f11	0.23492076
37	0x3da84d97	0.08217924
38	0xbc050084	-0.008117799
39	0xba28a255	-0.0006432881
40	0x3d1c8fab	0.03822295
41	0xbd3bc527	-0.045842316
42	0x3d34b70c	0.04411988
43	0xbcf7dd8d	-0.03025701
44	0x3ceffd26	0.029295515
45	0x3cc28bb0	0.023748249
46	0x3e688f76	0.22710976
47	0xbc1f137b	-0.009709234
48	0x3eaaac7e	0.33334726
49	0x3d4e2147	0.050324704
50	0xbe3b46bf	-0.18288706
51	0x3d9c4498	0.07630271
52	0x3dfba486	0.1228724
53	0xbd42cd1d	-0.047558893
54	0xbb9ce19d	-0.0047876374
55	0x3d9ebb31	0.07750548
56	0x3ccf9a6d	0.02534219
57	0x3def49e7	0.11684018
58	0xbe5f78f6	-0.21823487
59	0x3dcf2765	0.10114936
60	0xbdbce9cf	-0.09224283
61	0x3df73b70	0.12071884
62	0x3e0ad381	0.13557245
63	0x3d5e247e	0.05423402
64	0xbe4b5520	-0.19856691
65	0xbe47136f	-0.19441007
66	0x3d568aca	0.052378453
67	0x3e881cd6	0.265845
68	0x3d570ee9	0.052504454
69	0x3e76979e	0.24081275
70	0x3c2b8b5b	0.010470237
71	0x3dbd7719	0.09251232
72	0x3de1d474	0.1102685
73	0xbd4b1192	-0.049577303
74	0x3e4334aa	0.19063058
75	0x3ba86257	0.005138676
76	0xbd4fe774	-0.05075784
77	0xbcbd4c44	-0.023107655
78	0x3daea41c	0.08527395
79	0xbe3b95e5	-0.18318899
80	0x3e817c6f	0.25290248
81	0x3d09f855	0.033684094
82	0xbd6354b4	-0.0555007
83	0xbc61b342	-0.013775649
84	0x3c09756f	0.008389815
85	0x3d23f71b	0.04003058
86	0x3d45e6c4	0.04831578
87	0x3d9506f8	0.0727672
88	0x3e015c36	0.12632832
89	0xbdf77f60	-0.12084842
90	0x3cbb6998	0.0228775
91	0x3e2a3cd3	0.16624765
92	0x3d3a920b	0.045549434
93	0x3e79e450	0.244035
94	0xbbfdbe83	-0.007743658
95	0xbd937808	-0.072006285
96	0xbe294b0c	-0.16532534
97	0xbce7aaf0	-0.028279752
98	0x3d9fd5ee	0.07804476
99	0x3e0e8298	0.13917005
100	0x3dd5a533	0.104319
101	0x3db71c46	0.089409396
102	0xbd9366ed	-0.07197366
103	0xbd52df16	-0.051482283
104	0xbdee3dc7	-0.11632877
105	0x3e1e7f10	0.15478158
106	0x3c4c6104	0.012474302
107	0xbd448591	-0.04797894
108	0x3d66fcbc	0.05639337
109	0x3d7a9e99	0.061186407
110	0x3c78835c	0.015168037
111	0xbabddfbd	-0.0014486235
112	0x3d869ea0	0.06573224
113	0xbcd71937	-0.02625714
114	0xbd406459	-0.0469707
115	0x3d61b6db	0.055106025
116	0x3c30cec6	0.010791486
117	0x3d4b6c8c	0.049664065
118	0x3e04632f	0.1292846
119	0x3d2c8c47	0.042125966
120	0x3e756970	0.23966002
121	0x3e94a3b4	0.29031146
122	0x3dee41d5	0.1163365
123	0xbd95819a	-0.0730011
124	0x3e8c46f4	0.27397883
125	0xbd2f806d	-0.042847086
126	0xbd3d3741	-0.046195272
127	0xbe3a2abf	-0.18180369
128	0xbdcfd635	-0.101482786
129	0x3c6f55e7	0.014607883
130	0x3e05ddae	0.13072845
131	0xbd979776	-0.07401936
132	0xbd6e4bd0	-0.05817777
133	0x3dbecff9	0.093170114
134	0x3d7a7756	0.061148964
135	0x3d93bc6f	0.07213675
136	0xbd160c5f	-0.03663289
137	0x3d47b2f0	0.048754632
138	0x3d1af590	0.037831843
139	0x3d3ff803	0.04686738
140	0xbda615ac	-0.08109602
141	0xbc1ab461	-0.00944242
142	0xbd7fb9a6	-0.062432908
143	0xbdbd8850	-0.09254515
144	0xbe22e551	-0.1590779
145	0xbd3a911a	-0.045548536
146	0x3e3a1a23	0.18174033
147	0x3e0dc9d5	0.13846524
148	0x3d8439cf	0.064563386
149	0x3d905084	0.07046607
150	0xbe3619ff	-0.17783354
151	0xbdf1e21c	-0.11810705
152	0xbe39fcbe	-0.1816282
153	0x3d982ca1	0.07430387
154	0x3d456d3c	0.048199877
155	0x3e6f58a2	0.23373654
156	0xbd8ebfc8	-0.06970173
157	0xbde19457	-0.11014622
158	0xbded8124	-0.11596897
159	0x3e093d07	0.13402186
160	0x3da4cc7d	0.080468155
161	0x3e16f410	0.1474154
162	0xbdf1b285	-0.11801628
163	0x3c25c586	0.010117894
164	0xbe8a858f	-0.27055022
165	0xbd852287	-0.06500726
166	0x3c8d8405	0.017274866
167	0x3c5db62b	0.013532202
168	0xbd378d95	-0.044812758
169	0x3cb25842	0.0217706
170	0xbd59ee36	-0.05320569
171	0x3d278a1d	0.0409032
172	0xbcfed1f3	-0.031105971
173	0xbc91e439	-0.01780902
174	0xbe74fd35	-0.23924716
175	0x3cdaa805	0.026691446
176	0xbeaba171	-0.33521608
177	0xbd4fcd96	-0.05073317
178	0x3e42ae9a	0.19011918
179	0xbd99c0a8	-0.075074494
180	0xbdc3882c	-0.09547457
181	0x3d7015fb	0.058614712
182	0xbaec8c77	-0.0018047233
183	0xbdb8fbe2	-0.09032418
184	0xbce5cc72	-0.028051589
185	0xbddaf7d6	-0.10691802
186	0x3e640167	0.2226616
187	0xbdc44049	-0.09582574
188	0x3e00d7b6	0.12582287
189	0xbde608e2	-0.11232163
190	0xbdfcb17a	-0.123385385
191	0xbd704ea4	-0.058668748
192	0x3e57de7d	0.21080966
193	0x3e4bc63d	0.1989984
194	0xbd22f306	-0.039782546
195	0xbe7fc313	-0.24976759
196	0xbd772b57	-0.060344066
197	0xbe7b1af1	-0.24521996
198	0xbce2e78d	-0.027698303
199	0xbd8d5004	-0.069000274
200	0xbdf15b32	-0.11784972
201	0x3d1c1b7a	0.03811214
202	0xbe370658	-0.17873514
203	0xbc7c57c2	-0.0154017825
204	0x3d89b07a	0.06723113
205	0x3d0347a0	0.03205073
206	0xbdb30f10	-0.08743107
207	0x3e24e2fa	0.1610221
208	0xbe819c15	-0.25314394
209	0xbd16c1d0	-0.036805928
210	0x3d6e2f61	0.058150653
211	0x3c8de301	0.017320158
212	0xbb482171	-0.003053751
213	0xbd3df5d1	-0.046377007
214	0xbd4a55db	-0.049398284
215	0xbd9768d4	-0.07393041
216	0xbe01da6e	-0.1268098
217	0x3ddecc71	0.10878838
218	0xbc97babe	-0.018521663
219	0xbe2deb8d	-0.16984387
220	0xbd2c6ea6	-0.04209771
221	0xbe7cd50f	-0.2469065
222	0x3ab1fc34	0.0013579191
223	0x3d8bef45	0.068327464
224	0x3e2f314d	0.1710865
225	0x3d4ebe65	0.050474543
226	0xbdc302cf	-0.0952202
227	0xbe09a979	-0.13443555
228	0xbde0839a	-0.10962601
229	0xbdb8cf2d	-0.09023891
230	0x3d9abbfb	0.07555386
231	0x3d54059f	0.051763173
232	0x3e12e1a5	0.14343889
233	0xbe2455e2	-0.16048387
234	0xbc33d701	-0.010976554
235	0x3d805ff3	0.06268301
236	0xbd75786d	-0.0599293
237	0xbd399176	-0.045304738
238	0xbc29fbc3	-0.010374966
239	0xbb69fe05	-0.0035704386
240	0xbdb7a491	-0.089669354
241	0x3c9aea3a	0.018910516
242	0x3d6a0550	0.057133973
243	0xbd4e2012	-0.050323553
244	0xbb5a210d	-0.003328386
245	0xbd079cb2	-0.03310842
246	0xbdf31980	-0.11870098
247	0xbd018962	-0.03162516
248	0xbe79c3e5	-0.24391134
249	0xbe88de43	-0.26732072
250	0xbdf465bb	-0.11933466
251	0x3db512b0	0.08841455
252	0xbe9166fb	-0.2839888
253	0x3c390844	0.011293475
254	0x3d462684	0.048376575
255	0x3e3f6e9a	0.18694535

action_model._discrete_distribution.branches.0.bias f4 [2]
0	0x3d587d39	0.052853797
1	0xbd587d3a	-0.0528538
