ML-Agents/Examples/Basic1/results/test_movetogoal/MoveToGoal.onnx (onnx, 75098 bytes, 7 tensors)

network_body._body_endoder.seq_layers.0.weight f4 [128, 6]
00000000: 02a7 e63d bef1 15bf fff7 1a3d 44c7 093e
00000010: 8ff5 6d3e f9a0 973e 999f 8f3f 4160 06bd
00000020: 44f2 8fbc 8e24 493f aeaf d3be 9dab b53e
00000030: b7d7 cf3d 0c4d 44bf 5825 ac3e dfa0 1b3e
00000040: d9ca a33e b1e8 c73e ecc0 e4be ce86 883f
00000050: 6d9e babe e98c 4abe d4ff 223f e953 de3e
00000060: a43f 0bbf 9b11 91bf 00af f4b8 233e 41be
00000070: 8efd 403e 2c4f de3e 20eb 08be b006 183d
00000080: c0bf 353f b4b3 943e 9c5a 25be f49d ac3c
00000090: e4df dfbe 4272 af3e dbd1 de3e df53 283f
000000a0: aeb3 37bf 989d b43e 3688 b2be 00a5 3b3e
000000b0: 3841 acbe 2870 c73e c941 b33e 5e36 ef3e
000000c0: c0fb ca3d 3962 f2be ce1f f9be c2ac 89be
000000d0: e536 083e 601f bf3e 415e 13be 8bc7 3abf
000000e0: c6d4 933e 5420 3c3f e6d2 463f 9975 3d3f
000000f0: e3df c33e 1de4 cd3e ab03 adbe f2f7 a43e
00000100: 26eb 72be 80ed d13e 83fb 56b9 c6fe 303d
00000110: 18c9 013f 090e e3bd b20e ad3b 0456 243f
00000120: 629e d83e 2dd8 abbe a900 b03e 3b7c e33e
00000130: 00b9 c2be eb44 283f 0c45 aabe 26be 6dbc
00000140: ea5a 11be 0be4 423e e83b d9be a6ab 103e
00000150: 45dd 9bbd 62a9 67be a4d6 1bbe 74f8 6abe
00000160: 5a6c 9d3d c564 ac3e 78a7 283f 7ec5 b7be
00000170: f69c a0be f6dd 613f 9ba7 f3be 0ad7 b53d
00000180: bf8f b9be 298b 8bbe 12e7 02bf c008 63be
00000190: caf2 67bf 15da 02bf b2db 123d 333d a7be
000001a0: 0f05 11be bf7a ea3b 5c49 69be d6ce 483e
000001b0: 23a3 a9be b3f9 aa3e 3676 bfbe 951c 6a3e
000001c0: 1585 09be ecd9 bebe 0bc5 c33e 6ae9 2f3e
000001d0: 15c4 6b3e 26a8 2d3f 65d2 01bf b8d9 f5be
000001e0: da8e 3fbf b9f0 23bf 5fac 883e e660 e43d
000001f0: 4efb d4be e331 c13e feed 933e 8d8e e9bd
00000200: d823 133f bfda d1be e6e3 b7be 4b0d 9ebd
00000210: b5b3 5ebe fca6 77bc 6c81 123e c1eb a5bf
00000220: 7a2a 4abf 37dd 5c3e d6ae cf3e 045c 75be
00000230: 2ce5 023f 5815 1b3d 4d35 7d3d bb7a 483e
00000240: 8400 82bc 1ef0 5e3e 7354 25be 10ed aa3e
00000250: caf7 d13d 1168 19bf dab4 b5bd 801d 58be
00000260: 6d1f 0d3c deee 383e 3573 10bd 31be d73e
00000270: 99c6 d63e 9a1a e03e 79da 9fbe 9e9d 85be
00000280: 72a8 35bf dac4 6b3e fa64 15be b05c acbc
00000290: baa1 803e 9cca e8be 5f20 4f3d 09e7 693f
000002a0: 09b9 803e 7319 543e 3afe 033f 9d28 353f
000002b0: 715b a93d feeb c03d 342c 413f 1a68 173d
000002c0: 578b 8cbd 134c d9bd b9e5 603e 8e1d d93e
000002d0: 4614 3abe 2d89 49bf ced2 be3d 935e 8f3d
000002e0: 8d72 c13e 0936 8dbe 4cd8 653e 03eb 123f
000002f0: 397e 53be 920a 1cbf b49a e1be 1e01 f5be
00000300: 49e9 583e 24fa 84be 0874 423e 5cab 953e
00000310: 2652 bb3e a79e cebe 6fb9 983e 9444 a0bc
00000320: af0e 82be 580e 183f b465 3fbf 6efe 6abe
00000330: ecf6 94be 1ba6 263d 6a68 38bf 0120 213f
00000340: 2ff7 a1be fef5 493d dc7e 183f 8e23 123e
00000350: a572 ec3e 3ba5 2c3e 50b7 9f3e 93ef f43d
00000360: 8c97 343d fed8 5dbe 8484 863d 72e3 903e
00000370: ebd4 353f 44c5 edbe a1ea 1dbe fa7b ce3e
00000380: 95e1 6d3e b224 58bb fa27 92be 9cee d13c
00000390: aed9 bbbe 1400 3ebf 64f7 a7be d0d7 48bf
000003a0: bc29 1f3f 9126 023f f1f3 efbd c484 92be
000003b0: fc09 173e 2ba0 24bf cb5f fc3e 5123 0a3e
000003c0: 1b92 46bd 8b01 74bf 203c adbc 4373 013e
000003d0: 6134 5dbe 1dd6 633f f789 7c3d 34e6 60be
000003e0: 41d1 313e 77af f83d 9ea3 0f3f c6c9 403e
000003f0: 6566 633f bd9f eebe 3c10 07bd 8769 eabe
0.11262323 -0.58571994 0.037834164 0.1345492 0.23238204 0.29615 1.122058 -0.03280664
-0.017571576 0.78571403 -0.4134497 0.35482493 0.10148566 -0.76680064 0.3362224 0.15198086
0.31990698 0.39044717 -0.44678438 1.0666139 -0.36448994 -0.19780315 0.6367161 0.43423393
-0.5439398 -1.1333498 -0.00011667423 -0.1887136 0.18846723 0.43419778 -0.13370943 0.037115753
0.7099571 0.29043353 -0.16147846 0.021071412 -0.43725502 0.3426686 0.43519482 0.6575298
-0.71758544 0.35276484 -0.34869546 0.18324661 -0.33643508 0.38952756 0.35011128 0.46721166
0.09911299 -0.47340563 -0.48657078 -0.26889616 0.1330219 0.37328625 -0.14391424 -0.7296073
0.2887327 0.7348683 0.77665555 0.74007565 0.3825675 0.402131 -0.3379186 0.32220417
-0.23722515 0.4100151 -0.00020502326 0.04321172 0.5069747 -0.11086661 0.005281293 0.6419375
0.42308336 -0.33563367 0.34375504 0.44430718 -0.3803177 0.6573016 -0.33255804 -0.014510667
-0.14194837 0.19032304 -0.42428517 0.14127979 -0.07610563 -0.22623208 -0.15218598 -0.2294634
0.07686682 0.3367063 0.6588054 -0.35892862 -0.31369752 0.8822931 -0.4758881 0.08878906
-0.36242482 -0.27254608 -0.51133835 -0.22171307 -0.9060484 -0.51114017 0.03585405 -0.3266388
-0.14162086 0.0071557458 -0.2278189 0.19610152 -0.33132276 0.3339363 -0.37394875 0.22862466
-0.13429673 -0.37275636 0.3823627 0.17178884 0.23024018 0.678347 -0.5071166 -0.4801767
-0.7482735 -0.6403919 0.2669401 0.111512944 -0.4159798 0.37733373 0.2889251 -0.114041425
0.5747657 -0.40987203 -0.3591606 -0.07717379 -0.2174824 -0.015115496 0.14307183 -1.2962571
-0.78971064 0.21568762 0.40563077 -0.23960882 0.5113094 0.03786215 0.06181841 0.19578068
-0.015869386 0.21771285 -0.16145496 0.3338399 0.1025234 -0.5992442 -0.08872385 -0.21105003
0.0086134495 0.1805987 -0.03526612 0.42137292 0.41948393 0.43770295 -0.3122137 -0.26096815
-0.7096015 0.23024312 -0.14589301 -0.02104029 0.25123388 -0.4546708 0.05056798 0.91368157
0.2514117 0.20712833 0.51559794 0.70765096 0.08269394 0.09420012 0.75458074 0.036964513
-0.068625145 -0.10610213 0.21962632 0.4240536 -0.18171796 -0.7872494 0.093175516 0.070004605
0.37782708 -0.27580288 0.22445792 0.5738985 -0.20653619 -0.6095363 -0.44063342 -0.47852415
0.21182741 -0.25972092 0.18989575 0.292323 0.36586112 -0.40355417 0.29828975 -0.01956395
-0.25401828 0.59396887 -0.7476456 -0.2294862 -0.29094636 0.040685754 -0.72034323 0.6293946
-0.316339 0.049306862 0.5956857 0.14271376 0.46181217 0.16859905 0.31194544 0.11959758
0.04408984 -0.21664807 0.06568244 0.28298527 0.7102801 -0.46439564 -0.15421535 0.40328962
0.23230584 -0.0032980856 -0.28546125 0.025626473 -0.36689514 -0.7421887 -0.32805932 -0.78454304
0.62173057 0.508401 -0.1171645 -0.28616917 0.14749902 -0.64306897 0.49291834 0.13490035
-0.04847918 -0.95314854 -0.021146834 0.12641625 -0.21602012 0.88998586 0.06165501 -0.21962816
0.1736498 0.12142842 0.56109035 0.1882697 0.88828117 -0.46606246 -0.032974467 -0.45783636

network_body._body_endoder.seq_layers.0.bias f4 [128]
00000000: 6519 8139 bd04 04bb fb76 caba 74a3 0d3b
00000010: ff86 0938 3d58 85bb ac12 be39 f6f6 44bb
00000020: d60e 303b a1ff 1239 84d9 253b 4513 fc39
00000030: 480a 783a 8389 02bb 1288 133a da83 0eba
00000040: 64fe ad3a fb7d afba e863 e6ba ae22 1c3b
00000050: 4ce4 38ba cd2f 1bbb 32de ca3a a9bb 24bb
00000060: 0ed8 6e3a e40e 14bb f425 7a3b 43c6 3bb9
00000070: 54cb 7dba 1445 61bb 3219 96bb 5b46 5fbb
00000080: 16a5 153b 7f7a ee3a 136a 80bb adf5 d8ba
00000090: 0872 f03a dbb7 18bb 1a79 bd3a c67f 193b
000000a0: 467a c53a 0c8f 6ab9 b8ec 2a3b 5513 e53a
000000b0: b0c5 5aba b59e 473b 371f 863b bb6e 64bb
000000c0: ece6 8039 63a5 283b 9feb 8d3a 8091 30bb
000000d0: aaad 2fb9 81ca b13a 44d2 39bb 34e0 493a
000000e0: 0872 81b8 4b24 2cbb f292 47ba 3136 c2b9
000000f0: b80e 013b 4392 1e3b 2fac 1bbb b0f0 1aba
00000100: e87a 233a 91f0 f6ba cafd b338 7f09 68bb
00000110: 9dfe 3cbb 949e 713b 137d f53a 2ef3 f6ba
00000120: 8b1a 563a 7596 b0b9 488e 473b f40f 453b
00000130: 1ef1 5aba bd57 86ba a695 763b 0a16 2eb9
00000140: 0e94 70ba 9940 883b 4f8b 083b 7984 ee3a
00000150: 38f1 3b3b 2afb 7f3a 1904 af3a 16a8 b83a
00000160: 333f c4ba 306f 49bb 470d 9438 3054 54ba
00000170: fa26 8038 b403 89b9 76e1 823b 16ad 0fbb
00000180: 4d0c f6b9 eeb6 4cba eebe 8b3b 57f5 223b
00000190: 83ce 3db9 8100 0a3b 05e0 7a3b 6f34 363a
000001a0: 97eb 0e3b e6be 14ba d652 b13a 3265 b238
000001b0: c950 d23a 0bc3 69bb 3da1 cc3a cc92 0f3b
000001c0: 755d 923a 6c20 1bba 1aed 1abb c69d 27b9
000001d0: a7ad 68bb 4034 75bb 4463 183b fe1b aa3a
000001e0: 697e 283a a939 aa3b a6a8 2bbb db5d 12bb
000001f0: 09f1 81bb 279f b23a a8ec 3ab8 640f 903a
0.00024623718 -0.0020144426 -0.0015446836 0.0021612318 3.278907e-05 -0.0040693567 0.00036253536 -0.0030054427
0.0026864312 0.00014018874 0.0025306651 0.00048079542 0.0009461981 -0.001991839 0.0005627881 -0.00054365175
0.0013274667 -0.0013388986 -0.0017577382 0.0023824382 -0.0007053062 -0.0023679615 0.0015477596 -0.0025136268
0.0009111174 -0.0022591883 0.0038169594 -0.00017907568 -0.00096814823 -0.003437345 -0.0045806402 -0.0034069035
0.0022833995 0.0018194466 -0.003918895 -0.0016552709 0.0018344531 -0.0023302946 0.0014455647 0.0023422106
0.0015066348 -0.00022369268 0.0026081037 0.0017477075 -0.0008345498 0.0030459587 0.0040930766 -0.003485604
0.00024586113 0.0025733344 0.0010827667 -0.0026942194 -0.00016753995 0.0013564379 -0.0028354088 0.00077009504
-6.172439e-05 -0.002626675 -0.0007613144 -0.0003704294 0.001969261 0.0024196065 -0.0023753752 -0.0005910499
0.0006236271 -0.0018840005 8.582657e-05 -0.003540605 -0.0028838285 0.0036868202 0.0018729292 -0.0018840784
0.00081674074 -0.00033681435 0.0030449796 0.0030069323 -0.00083519693 -0.0010249537 0.0037625819 -0.00016602143
-0.00091773353 0.0041580913 0.0020834988 0.0018197439 0.0028677713 0.00097649044 0.0013352662 0.001408818
-0.0014972448 -0.003073644 7.059663e-05 -0.0008099703 6.1107756e-05 -0.00026133435 0.003994162 -0.0021923236
-0.0004692994 -0.0007809241 0.004264704 0.0024865472 -0.00018101376 0.002105743 0.0038280499 0.0006950562
0.0021807903 -0.0005674198 0.0013528715 8.5065505e-05 0.0016045804 -0.0035669233 0.0015612018 0.0021907566
0.0011166768 -0.0005917612 -0.0023639859 -0.00015985136 -0.0035503895 -0.0037415177 0.0023252526 0.0012978313
0.0006427528 0.005194862 -0.0026193052 -0.0022333774 -0.003965501 0.0013627753 -4.456626e-05 0.0010990915

network_body._body_endoder.seq_layers.2.weight f4 [128, 128]
00000000: b180 04bd a603 033e 6687 bfbc 00ad 103d
00000010: 383c 48be 227a 51bd 8995 29bc fa44 5fbc
00000020: c04e ca3d 2cd3 443d 5178 3a3e ddfe 39be
00000030: 67d4 f73c 1c23 9cbc e563 ce3d a41a 8ebd
00000040: f0ac 383d 927d f33c 0e22 61bd 520d 24bd
00000050: e071 b73b e35f 5dbb d440 1e3e 783e 14be
00000060: c790 ddbd 5c01 7c3c 6637 883d a885 8b3d
00000070: f52d 5a3c 8459 4cbd f46b cabd 3a59 d3bd
00000080: ca57 c63d 7643 afbd 2b01 263d 325d 82bd
00000090: aea7 d1bd 4c6d 54bd 1dfc c03d 3d67 aa3d
000000a0: 42c7 92bd 0299 df3d f031 413d b936 343e
000000b0: bdfd c2bd 569b 1a3d 23b8 1c3e 227f 043d
000000c0: 9181 35bd ebf9 74bd 6549 1d3d c178 1d3d
000000d0: c595 ac3d 52a3 09bd 716d 48be bf25 91bd
000000e0: 2b01 7abc c79a 4bbd b41b 023e 5fad 2abc
000000f0: dcc6 a3bd e048 bc3d 884f 3abd 97d2 683c
00000100: 3777 9abd 1f8d 6abc 8070 b73d 2cca 52bd
00000110: b981 df3c f025 89bd 48b1 8e3e 3c7d d33c
00000120: 3623 8bbc 9226 6bbd 1201 56bd 5a73 c9bd
00000130: e7e1 a8bd 8c80 353d 053f 8b3c 8d75 953d
00000140: ce06 8abc 8f17 f13c 164b c3bb 96db b23b
00000150: 3389 96bd 0781 11bd 1202 05bc 1621 413c
00000160: 27d3 9b3a 8ef1 cabd e92c 0e3e dc52 fdba
00000170: baaa c6bc 3e4f a9bd f188 e8bb 99de c0bd
00000180: f796 bdbd 3f75 06be aa56 4dbc 1ca8 6bbd
00000190: 0241 103b ef3a 50bd 72c1 1b3e a604 9fbc
000001a0: 59b6 063e ee41 c23d 21e5 ea3c 2b11 193d
000001b0: f326 1dbe 94ca 423c b3ca b3bd 9389 1bbe
000001c0: a8ce a0bc 6839 fdbc 23e4 2a3d b27f c53d
000001d0: ca87 e23d 493a e43c 600c f53d 3c6c 683d
000001e0: 7f3e 4bbd 7398 17bd e822 74bd c86b 4b3c
000001f0: 8904 51be b274 f33b c89c c9bd 3037 983d
00000200: ad6a 963c a023 1b3c 75df 47bd 9a89 bcbd
00000210: 5f79 a13d 0371 053d f902 21be 9b64 acbd
00000220: 9372 713d 2b55 463d 11a2 e43d 9f8f a5bb
00000230: dd9f 6c3c 9992 e5bd e966 b3bd 345a 8d3c
00000240: 766e 8fbd b099 e2bd 81e3 1ebe b946 2dbd
00000250: dc7f 0bbd ab28 44be ca21 eabd 5fc9 1ebe
00000260: a7a7 01bd 3787 f7bd 2377 73bd c6b6 48bd
00000270: 8bd6 683d 2699 85bc b542 663c fa76 b33c
00000280: bf29 46bd f70e 9d3d e731 f73d 521f 0e3d
00000290: 0e2f 723c adf7 293c c2ec a8bd d300 b53d
000002a0: b9a1 983d 59c3 4cbe 12c4 b8bb 617f 16bd
000002b0: 959a ecbd 77e1 353b e7fb 43be 9d8f fabc
000002c0: 59c9 b43d cce6 b1bc 1dab 713d bb3a 1bbe
000002d0: effa 3c3b 8a91 f4ba a778 dc3d de76 123e
000002e0: da2c b1bd 9a77 3abe 310a 32be 00dd 1b3e
000002f0: d96a 7d3b e0bb 6f3d 11ea f8bd 8cc6 903c
00000300: 197d 83bd a04e bc3d 008f 75bd f785 3abe
00000310: 5e21 c33d 33c4 113e 8841 1d3e 52b9 973c
00000320: 2cbd 0e3e 0b02 b73d 7dbb 373d 31fa 41bd
00000330: 333b 863d eaa3 ad3c 1926 143e 012f 813c
00000340: 322b ff3d 6635 5bbe 2984 f6bd a436 09be
00000350: 7864 86bc fd4a d0bd ce3b be3c f679 f43d
00000360: 4a45 573c 7814 c1bc e51e 2b3e 79f8 683d
00000370: a735 1bbe 7e5d b73d 992b a93d a331 c7bd
00000380: e045 993d ac34 0dbe 1f16 47bd ff7b 93bd
00000390: fc12 bbbd 19ae 163c 98bb efbd 52c2 1cbe
000003a0: 27b7 1bbd f828 47be aa99 4dbd 7dd6 8d3b
000003b0: c796 343c 76eb 57be 3816 0bbe b545 703d
000003c0: e1f1 3c3c e63c cdbd a994 c8bc 1b5b 51be
000003d0: c681 713d d745 c53b c74b 88bd 3741 c5bd
000003e0: 37dc 2e3e 05ad 623d fed3 16bd 9ad0 42bd
000003f0: e36d 743c 06ed 9c3d 6269 b53c cfab db3d
-0.032349292 0.1279436 -0.023379993 0.035321236 -0.19554222 -0.051141866 -0.010350593 -0.013627285
0.098783016 0.04805295 0.1820996 -0.18163629 0.030252649 -0.01905971 0.10077647 -0.06938675
0.0450868 0.029722963 -0.054964118 -0.040051766 0.0055982918 -0.0033779077 0.15454417 -0.14476955
-0.1081863 0.0153811835 0.066511914 0.06812602 0.013316621 -0.049890056 -0.09883872 -0.10319753
0.09684713 -0.08557789 0.040528458 -0.06365432 -0.102370605 -0.051862046 0.09423087 0.083204724
-0.07166912 0.10917856 0.047166765 0.17599 -0.09521053 0.037745796 0.15304618 0.032347806
-0.044313017 -0.059808653 0.038400073 0.038445238 0.08427004 -0.03360302 -0.19572999 -0.070872776
-0.0152590675 -0.049708154 0.1270588 -0.010417311 -0.07996914 0.09193587 -0.045486003 0.014210365
-0.0754227 -0.014315872 0.089570045 -0.051462337 0.027283536 -0.06696689 0.2786963 0.025816552
-0.016984563 -0.05740983 -0.052247114 -0.09836455 -0.082462125 0.044312045 0.016997823 0.07297812
-0.016848948 0.029430179 -0.0059598787 0.0054583056 -0.073503874 -0.03552344 -0.008118169 0.011787673
0.001188849 -0.09909354 0.1388432 -0.0019327062 -0.02425133 -0.082670674 -0.007096403 -0.09417457
-0.0925731 -0.13130663 -0.012532869 -0.05753337 0.0022011404 -0.050837453 0.15210512 -0.019411396
0.13155498 0.09485231 0.02867371 0.03736989 -0.15346889 0.011889119 -0.08778896 -0.15189199
-0.019629791 -0.030911162 0.041721474 0.096434966 0.11061056 0.027859824 0.11965251 0.056743845
-0.049620148 -0.03701062 -0.0596036 0.012415834 -0.20411886 0.0074296826 -0.09844357 0.07432401
0.018361414 0.009468943 -0.04879709 -0.09205933 0.07884478 0.03257848 -0.1572379 -0.084176265
0.058947157 0.048421066 0.11163724 -0.0050525214 0.014442411 -0.11209602 -0.08759863 0.017254926
-0.070034906 -0.1106447 -0.15516473 -0.042303775 -0.034057483 -0.19156139 -0.11432226 -0.15506504
-0.031654026 -0.12086337 -0.05943979 -0.04900243 0.05684523 -0.016308378 0.01405399 0.021907318
-0.048379656 0.0766887 0.12070065 0.034697838 0.0147817265 0.010373992 -0.08248283 0.08838048
0.07452721 -0.19996394 -0.005638608 -0.03674257 -0.11552922 0.0027752796 -0.19139062 -0.030586058
0.088274665 -0.021716498 0.059001077 -0.15159123 0.0028836092 -0.0018659097 0.107652 0.14303157
-0.08651133 -0.18209687 -0.173867 0.15221024 0.0038668422 0.05852878 -0.121540196 0.0176728
-0.06420345 0.09194684 -0.05995083 -0.18215166 0.09527849 0.14235 0.1535703 0.018520985
0.13939351 0.089359365 0.044856537 -0.04735774 0.0655426 0.021196324 0.14467658 0.015769484
0.12459411 -0.21407089 -0.12036926 -0.1339975 -0.01640533 -0.10170553 0.023221876 0.11937325
0.013139078 -0.02356933 0.16711004 0.056877587 -0.15157185 0.08953379 0.08260269 -0.09726264
0.07484031 -0.13789624 -0.04860508 -0.07201385 -0.0913448 0.009196782 -0.117057025 -0.15308502
-0.038016465 -0.19449222 -0.050195374 0.0043285475 0.011022276 -0.21085915 -0.13582695 0.058660228
0.011532278 -0.10021381 -0.02448495 -0.2044491 0.058961652 0.0060202884 -0.066550784 -0.09631579
0.17076193 0.055340786 -0.036823265 -0.04756222 0.014918777 0.07662396 0.022144977 0.10726129

network_body._body_endoder.seq_layers.2.bias f4 [128]
00000000: 9147 9f3b 6f33 283b 604e f2ba 451b 043b
00000010: 145d 0ebb e09b 30bb 7386 7cbb 1c35 253b
00000020: 72c2 f5b9 e910 caba 9528 d03a 3010 52bb
00000030: ba50 1837 c1b5 87bb 7224 293b 1193 063b
00000040: 2a3b af3a 3353 a4ba 95b3 4dbb cf9b 1c3b
00000050: 3d22 96ba a871 11bb 025b 2bbb ff82 d43a
00000060: 5b6b c1b9 4fca a93b b928 01bb 76d2 4db9
00000070: 971a 3bbb 71f3 523a d049 db3b 89b5 9dbb
00000080: 7e17 0b3b 6a91 7d3a 7f6a 943b 7aef 3bbb
00000090: 7256 853b 4a46 363b 6d0b 6b3b 0b96 78bb
000000a0: 2492 37bb 2d66 21bb 574a 98bb f353 8cba
000000b0: c144 9dbb c2d2 c03a b57e 0dbb 6f2f 223b
000000c0: ca46 fc3a cb35 113b ab1b f43a e898 4dbb
000000d0: 1d1d 593b 22ef 943b f4aa 1ebb a0c4 07bb
000000e0: 4e72 40bb c67b d8ba 1840 ffba 9ba2 013b
000000f0: 4001 11bb ebb0 95bb c339 8b3b add8 ad3a
00000100: 2b28 11bb 5edb 0bb8 d037 183a 6a5b 0b3a
00000110: 5494 753b b9d8 7639 3b0f 8ebb 0227 2cbb
00000120: a5c9 75bb bf73 363b 25ca 17bb d90c 8ebb
00000130: e56d c23a bc22 5eb9 f697 43bb a588 23bb
00000140: b153 5e3b 24f9 deba 6ee0 ff3a a081 a4bb
00000150: 02ef 6ebb c0a3 de3a 8e00 0d3b 1eca feba
00000160: 0469 6f3a 4817 413b 4ec9 493b 1142 4abb
00000170: 2db4 8c3b 5df6 32bb 4439 bcba 2b57 0d3b
00000180: 7b22 50bb 8bba 90bb 00cd 72b4 9f8a 96ba
00000190: 5d2a 48bb ae90 a63b 33b3 203b 9ec5 44bb
000001a0: 7091 c2ba 3e1f 693b 2b81 7b3b 2459 a73b
000001b0: c74c 053b 8a24 b6ba dc4d 973a c393 e63a
000001c0: 9eec cbba 0991 a33b 665d 33bb 04d7 14bb
000001d0: 2e23 1fbb b265 3bba fbb7 073b c277 acbb
000001e0: 777e 3bbb 206f a7ba 1f7e 2cbb 8246 5e3b
000001f0: 8e1a 883b 39f2 2b39 3341 82bb 2e6f 263b
0.0048608263 0.0025665422 -0.0018486492 0.0020157855 -0.002172296 -0.0026948377 -0.0038532286 0.0025208658
-0.00046874915 -0.0015416417 0.0015881235 -0.0032053106 9.078702e-06 -0.00414154 0.0025809077 0.0020534436
0.0013369073 -0.0012537002 -0.0031387557 0.002389658 -0.0011454296 -0.0022192989 -0.0026146774 0.0016213356
-0.00036891815 0.0051815878 -0.001970811 -0.00019628726 -0.0028549784 0.000804714 0.0066921487 -0.0048129004
0.002122372 0.00096728525 0.004529297 -0.0028676675 0.004069143 0.0027812892 0.0035864965 -0.003793123
-0.002801069 -0.0024627552 -0.004647534 -0.0010706171 -0.004799456 0.0014711248 -0.0021590416 0.002474751
0.0019247171 0.0022157307 0.0018623968 -0.0031371657 0.0033128925 0.0045451084 -0.0024210783 -0.0020716563
-0.0029365006 -0.001651638 -0.0019474057 0.0019780758 -0.002212599 -0.0045682094 0.004248829 0.0013263427
-0.0022149186 -3.3344484e-05 0.00058066566 0.0005316051 0.0037472444 0.00023541124 -0.0043353117 -0.0026268368
-0.0037504223 0.0027839986 -0.002316126 -0.0043350277 0.0014833777 -0.0002118451 -0.0029845214 -0.0024953273
0.0033924396 -0.0017011506 0.0019521841 -0.0050203353 -0.0036458378 0.0016986057 0.0021515223 -0.0019438898
0.0009132775 0.002946334 0.0030790153 -0.0030862133 0.0042939396 -0.0027307488 -0.0014360328 0.0021566849
-0.0031758833 -0.004416769 -2.2612585e-07 -0.0011485404 -0.0030542829 0.005083165 0.0024520874 -0.0030025016
-0.0014844369 0.00355716 0.003837655 0.005107062 0.0020339952 -0.0013896388 0.001154359 0.0017591644
-0.0015558188 0.004991655 -0.0027368902 -0.0022711167 -0.0024282443 -0.00071486377 0.0020709026 -0.0052632997
-0.0028609314 -0.0012774207 -0.0026320291 0.0033916538 0.004153556 0.00016398066 -0.0039750575 0.0025395858

action_model._continuous_distribution.log_sigma f4 [1, 2]
00000000: 2824 8f3a d413 57bb
0.001092081 -0.0032818215

action_model._continuous_distribution.mu.weight f4 [2, 128]
00000000: cefb 0e3a 2794 9dbc eed6 133c d3a3 86bc
00000010: 8d49 f13c e8d7 2a3c 04fd 9b3c e114 aabc
00000020: c9fe 183d ab1f c13c 9e93 4abc fe2f 0c3d
00000030: bb0f d93b 9562 993b 3a7c 46bc fa89 1c3c
00000040: 9be4 383c 5bdd 2b3c b844 0e3b ee0d 853b
00000050: 441e b23c 847d 30b8 2498 613c e7be 2bbc
00000060: a9d3 ddbc 7a07 523c 08ae 203c f732 923c
00000070: 3c01 33bc e56f 8ebc e947 89bb 08eb 0a3c
00000080: dd9e 303b 8c5a a4bc d930 b1bb 66ad 9c3b
00000090: 070d 8a3c 85a9 a43c ae9b 09bc fa4d 1c3d
000000a0: 952d f7bb e842 f53b 3076 0eba 3118 d23b
000000b0: a087 26bb cd05 453c da53 453c 87bd 9bbb
000000c0: 2f21 1c3c c091 1dbc 218b 6ebc fce2 d6ba
000000d0: 3a51 df3c 47e9 893c 092a 413c 30b4 7c3c
000000e0: 3e06 5bbc 9b7d 8f3c bb77 b7bb 5a2b 76bb
000000f0: 651e 10bc 0f63 cd3c 5ef0 a53b 064d ef3b
00000100: c310 163a 319a 1dbd 2a11 49bb 55e9 96bc
00000110: 501e 25bc 01a8 83bc e637 833c 0bee b6bb
00000120: c3d5 e53c 64ee 1cbd 7d45 423c 04bd 01bd
00000130: f0ff 08bc bf82 b13c 8ebb 97bc c148 dd3c
00000140: e3af f33b f2fb 613d 2346 e7bb 328d b7b9
00000150: 04f1 513c 0a7f 0abd 0537 8fbc a25e a53b
00000160: ab2d 5abc 7275 2aba ba60 18bd c9d8 da3c
00000170: 20bc b6bc 04b0 ac3c 19d1 0c3c 86cb 3fbb
00000180: 3d39 2bbc a2a5 e23b 7e1d b33c 8687 293c
00000190: 5645 f83a 4f7d 96bb e274 debb 9d9e 843c
000001a0: a1d5 133d 80fe 6eba 84d5 f03c 688a 773c
000001b0: b4ee 15bc f9bf 6bbc cfc4 88bc 1551 43bd
000001c0: 63e1 233c 995d 03bc f49f ad3c 6632 9fbc
000001d0: 2511 9a3c b78e ec3c a96f 84bb 7ab7 36bc
000001e0: 3e11 5b3c b5c3 aebc b55a 07ba 0eee 0fbd
000001f0: 0d49 83bc a662 23bc ed31 f13c c9e5 e0ba
00000200: 6648 d03c a519 653b 80dc 333b 083f 39ba
00000210: 6c07 aa3b fd03 19bc 9ff9 9fbc 53b9 17ba
00000220: bf40 e33b ef3c c9bc 96a9 d13b be1a c1bb
00000230: 8824 3c3b 8cfc 9cbc a84a 9a3c 78d6 183c
00000240: 3116 6c3c 34e9 92bc 761a 97bb 2049 073c
00000250: 58a3 b43b 3bdc 7ebc 2c48 1dbc 5a35 45bc
00000260: 921d 01bc 703c 1d3d 80d7 433c 9a2f 533b
00000270: 2701 4bbc 5f92 a8bb 8dff 3c3c 68ef 39bc
00000280: 2ab8 7f3c cffe e83c d738 ad3c 2801 d4bb
00000290: b1b3 663c 16aa e43c 5072 cf3c b20b cdbc
000002a0: 84da 14bc e194 be3b 5d4f 02bd 5375 1cbc
000002b0: 38b2 79bc 33ae b93c 388c bcbb c14c 3e3c
000002c0: 6842 973b 01de dc3c 7237 21bb 6a50 8bbb
000002d0: 945e d13c 37af a23c ff06 c3bc 4fa9 8fbc
000002e0: 41a1 c5bc 4642 92bb 86ec 8fbc 5a05 07ba
000002f0: 92e6 20bd a10f fdbc 7518 263c 0302 183c
00000300: 47aa 8fbb a257 86bc 395f 433b e394 b2bb
00000310: d10b bb3c bf68 18bb 8d41 e3bb 04f7 b03a
00000320: c112 27bc d4d3 1aba 805d 553a 6a87 46bd
00000330: 2ac2 543c 4532 ab3a be00 66bc a3eb 2ebb
00000340: f196 eb3c 96d4 483c 4ac3 203c a341 c4bc
00000350: 8eb7 8cbc 6816 d23c 2ec5 0d3c 5110 7b3a
00000360: e941 d63a dd51 083d 0087 8abc f26c f5bb
00000370: fa96 613b cf55 21bc 34d6 bdb9 d7a6 263d
00000380: ab54 a9bb 59b7 2cbc 1513 b83c 04e3 f53a
00000390: 1704 88bc 9bd9 cc3b 24fd 3bbb 6742 ce3b
000003a0: f685 0bbd 9933 733d a194 a13c 2f63 f03c
000003b0: 755d 7f3c f83b b6bc 74de e93b 1b3a a2bc
000003c0: 74e6 b33a cc4c ec3c d838 8ebb 8e18 33bc
000003d0: bf89 7bbc d10e 143c 52e6 803c 1260 68bc
000003e0: 3b28 dfbc b20b e8bc 299d d3ba a92b 9a3c
000003f0: e164 c53c 3327 65bb 17d4 14bc 910d 303c
0.0005454392 -0.019235684 0.009023411 -0.01643554 0.029454017 0.010427453 0.019041546 -0.020761909
0.037352357 0.02357467 -0.012364296 0.034225456 0.0066241897 0.0046809413 -0.012114579 0.009554381
0.011284973 0.010489787 0.002170844 0.0040604984 0.021742947 -4.2078565e-05 0.013769183 -0.010482526
-0.027078466 0.012819165 0.009807117 0.017846568 -0.010925587 -0.01738734 -0.0041894806 0.008478887
0.0026950159 -0.020062707 -0.0054074344 0.004781413 0.016851915 0.020100364 -0.008398933 0.0381603
-0.0075432756 0.0074847825 -0.00054344814 0.0064115752 -0.0025410429 0.012025309 0.012043918 -0.004752818
0.009529396 -0.009617269 -0.014559538 -0.0016394551 0.027260412 0.016834868 0.011789807 0.015423819
-0.0133681875 0.017515948 -0.00559899 -0.003756246 -0.008796309 0.025071649 0.0050640544 0.007302883
0.00057245436 -0.038477127 -0.0030680397 -0.018421808 -0.010078028 -0.016071321 0.016017865 -0.005582576
0.028056031 -0.038313285 0.011857388 -0.0316744 -0.0083618015 0.02166879 -0.01852205 0.02701223
0.007436739 0.055171914 -0.0070579215 -0.0003500968 0.01281381 -0.03381256 -0.01748229 0.0050466815
-0.013316552 -0.0006502486 -0.03720162 0.0267147 -0.022306502 0.021080025 0.008594775 -0.0029265597
-0.010450658 0.0069167176 0.021864649 0.010347253 0.0018941562 -0.0045925747 -0.006788836 0.016188914
0.036092404 -0.0009116903 0.029398687 0.015108682 -0.00915115 -0.014389032 -0.016695408 -0.047684748
0.010002467 -0.008017921 0.021194436 -0.019433212 0.018807003 0.028876645 -0.0040416312 -0.011152143
0.01337081 -0.021333555 -0.0005163358 -0.035139136 -0.016026044 -0.00997225 0.029442752 -0.0017158325
0.025425147 0.0034957912 0.002744466 -0.00070665823 0.005188873 -0.00933933 -0.019528208 -0.00057878083
0.0069352086 -0.024565188 0.00639839 -0.0058930805 0.0028708298 -0.019163392 0.018834427 0.009328477
0.014409588 -0.017933466 -0.0046113087 0.00825718 0.005512636 -0.015555437 -0.009599727 -0.012036646
-0.007880585 0.038387716 0.011953235 0.0032224418 -0.012390411 -0.005144402 0.011535537 -0.011348583
0.015607873 0.028441815 0.021145267 -0.0064698644 0.014080928 0.027913135 0.025323063 -0.02502999
-0.009085301 0.0058160876 -0.031813968 -0.009549457 -0.015240245 0.022666072 -0.00575402 0.011614979
0.0046160705 0.026961328 -0.0024599698 -0.0042515295 0.025557794 0.01985894 -0.023807047 -0.017536787
-0.024124743 -0.004463467 -0.017568838 -0.0005150639 -0.03928239 -0.030891242 0.010137667 0.009277823
-0.0043843123 -0.016399208 0.0029811396 -0.0054498776 0.022832783 -0.0023255793 -0.0069353045 0.0013501351
-0.010197342 -0.00059061986 0.0008139238 -0.048468985 0.012985745 0.0013061246 -0.014038263 -0.0026690743
0.028758498 0.012257716 0.009812186 -0.02395708 -0.01717737 0.02564545 0.008652968 0.00095773215
0.0016346547 0.033281196 -0.016910076 -0.007489794 0.0034422264 -0.0098471185 -0.00036208483 0.040686455
-0.005167564 -0.01054176 0.022470037 0.0018759673 -0.016603513 0.0062515265 -0.002868482 0.006294537
-0.034063302 0.05937538 0.019724192 0.02934417 0.015586247 -0.022245392 0.007137114 -0.019803097
0.0013725297 0.028845213 -0.0043402724 -0.010931147 -0.015352665 0.009036736 0.015734825 -0.014183061
-0.027240863 -0.02832589 -0.001614486 0.018819647 0.024095954 -0.0034965992 -0.009083769 0.010745422

action_model._continuous_distribution.mu.bias f4 [2]
00000000: 3d13 14bb 3828 5d3b
-0.0022594475 0.0033745896
