ML-Agents/Examples/Basic1/results/test_movetogoal3/MoveToGoal/checkpoint.pt (torch, 441378 bytes, 36 tensors)

network_body._body_endoder.seq_layers.0.weight f4 [128, 6]
00000000: e513 22be 6030 fdbe a2cd b6bc b9c2 e5be
00000010: 7310 cdbe 046c 753f 3e99 7f3e b703 793d
00000020: c056 f0be 97dd ccbe 005f a53e e6c0 d63e
00000030: 5020 3bbd 9b88 863e 94c9 f2be 339c f43e
00000040: acd3 8dbf 3ee2 d6be d089 ef3e 6124 293f
00000050: 883b 1c3e 21b4 cdbe 9bcb fd3e 8e64 b73e
00000060: 3043 7f3e d1cb 17bf f11a d3be 4ce6 d63e
00000070: 0da7 81bd 2dea 06be e2f0 3ebf b6e2 a5be
00000080: 6c26 1d3f 08a2 603e 237f 20bf 52d5 b1bd
00000090: 1361 b9be 0dc0 afbe 2517 81bf f209 0b3f
000000a0: af42 003d 4b59 c4ba 0ad9 c13e db9c 2dbf
000000b0: 4423 b8bd 8496 47be 19e8 4dbd f62f d6be
000000c0: 3fbf b4be d6b7 c13e 4ca1 d7be 6995 cd3e
000000d0: 873e 03bf ce59 3b3e 97a0 dabe b9a7 10be
000000e0: f51f b0be f2d3 4cbd 2563 ae3d 567a c7bd
000000f0: 18c9 c8bd 6259 33bf c694 963d 7418 30be
00000100: 3965 0e3f c13d 49be 82a8 68be 4583 edbe
00000110: 0230 563e 2546 2b3e 1bf0 5abe 902c 0a3f
00000120: 25e4 bfbe fa75 a83e 7e9e 24be 09d1 e43c
00000130: 38ad a4be bc59 373f 1632 5fbf c0d2 a93d
00000140: a65a ee3e 0b3a 153f cb34 563e cf90 40be
00000150: 0d53 f13e 0120 df3e 6501 13be c886 d6be
00000160: fcf5 653d 6706 a53d 4c8e 8fbd c0b3 d83e
00000170: d053 843c 6c84 f9bd 1191 bc3e eea3 04bf
00000180: 1606 a9be 358a 15bf 49d5 3d3e dc0a 9abe
00000190: bd74 babd cd83 7fbe e02e d83e aca0 c03e
000001a0: 21e0 643e 439a 4ebe 3431 313e 116c 2f3f
000001b0: fd73 7c3e 0e99 2bbf 9646 86bf 726c 383f
000001c0: 023d 0cbf 70d7 d93e ed3d 883e 65cf 3abf
000001d0: 4a2e 88bd 4e6d 7ebf 1a23 b73d c05b ae3d
000001e0: 502d 233e 1430 9d3e df12 203d 06d8 913d
000001f0: dd1e 1ebe a70e b13e 8470 2c3d 29b2 33be
00000200: 058b 013e 9828 c8bd 506e 5e3e 3401 19be
00000210: a40a 1c3d f9ce cfbe 7947 1abe e5f8 2cbc
00000220: c21a 1a3e d2b4 bf3e 9663 b03e d2b0 f1bd
00000230: 8db5 993e ed43 12be ef4b ab3e 52bf 763e
00000240: 9894 cab6 5010 e83e 631c 0a3f 1c75 91be
00000250: 8315 ea3d 04dd 5e3b 9a80 a83e 52ca 9dbd
00000260: b725 94be 6356 353f a9a7 bfbd 5bc5 fcbd
00000270: f4e8 0e3f 5e73 debe 7e0a 503e 1d2a 563e
00000280: 8857 d9bc 61da f73e 2138 313e 39ee 8b3e
00000290: 3721 0ebf 3ff0 62be 5d6a 4fbe 26d8 ac3e
000002a0: 1c92 a43e da3d 80be 0474 00bf 75c6 ae3e
000002b0: c6cd 453e 65aa bebd 7071 bdbd d07c b93d
000002c0: 8b20 6a3f dad5 17bd abcd 0f3e f390 7a3e
000002d0: 370d 473f f2bc 103e 135c ab3e e3f5 a5be
000002e0: 6b25 73be a86e 2d3e aea2 24be 0a65 dbbe
000002f0: 2122 683e d076 073f 3916 a93e f8f1 dc3d
00000300: 61f5 9dbe 21d2 d8be c3ba fe3c 1012 8dbf
00000310: b9e2 a73e 8e6c 283e 361b 27bf cb5b 023e
00000320: 111e a2bd e6eb e13b 5c41 71bd 7247 0cbf
00000330: 3fe4 d4be 9107 803d d043 99bd 4689 0ebe
00000340: 7be4 04bf 0cb9 2b3e b93c 413e 206f 93be
00000350: f95f 4a3f 6d06 c0be 2dca abbe 9af7 2ebf
00000360: 99af 593f 8b8e 203f 932e 01bf 860e 03bf
00000370: f107 3ebf 34b4 62be a8b8 bebe 085e 59bf
00000380: 7f30 16bf fad1 413f 5fdf 8a3e b287 e13e
00000390: fb50 e33d bdf1 6f3f dd3d 77bd 0c62 dc3d
000003a0: 48e0 e5bd 698c 2bbe b058 61bf 73c7 253f
000003b0: 27a6 82be ae97 003e f65e 3d3f cc2f c53e
000003c0: 563c d93c 7829 c83b 07b8 c3be 30cf 89be
000003d0: 8a1b 5dbf f369 09bf 1e1a 033d 320d 1dbf
000003e0: 22fc 8abe 1c8a 513e 098c d3be c387 d7bd
000003f0: f11e 143f df38 03be 75b4 873d c894 573e
-0.15827902 -0.4945097 -0.02231485 -0.44875124 -0.40051612 0.95867944 0.24960801 0.06079456
-0.46941185 -0.4001281 0.32299042 0.41944045 -0.045685112 0.26276097 -0.47419417 0.4777542
-1.1080222 -0.41969484 0.4678483 0.66071135 0.15257084 -0.4017649 0.495694 0.35818905
0.24927974 -0.59295374 -0.41231492 0.41972578 -0.063306905 -0.13175268 -0.7458631 -0.3239953
0.6138675 0.2193681 -0.62693995 -0.08683266 -0.36206874 -0.3432621 -1.0085188 0.5431205
0.031313594 -0.0014980225 0.378609 -0.6781747 -0.089911014 -0.19491011 -0.050270174 -0.41833466
-0.3530216 0.37835568 -0.42115247 0.40153053 -0.51267284 0.18295977 -0.42700645 -0.14126481
-0.3439938 -0.050006814 0.08515004 -0.097401306 -0.098039806 -0.7005826 0.07352595 -0.17196828
0.55623204 -0.19652463 -0.2272053 -0.46389213 0.20916751 0.16725977 -0.21380655 0.53974247
-0.37478748 0.3290251 -0.16076085 0.027931707 -0.32163405 0.716213 -0.871858 0.082921505
0.46553534 0.5829169 0.20918576 -0.1880524 0.47133675 0.43579105 -0.14356 -0.41899705
0.056142792 0.08057862 -0.07009563 0.42324638 0.016153246 -0.121834606 0.36829427 -0.51812637
-0.33012456 -0.5841401 0.18538393 -0.3008641 -0.09104297 -0.24952622 0.42223263 0.37622583
0.22351123 -0.20176034 0.17303926 0.6852427 0.24653621 -0.6703042 -1.0490291 0.72040474
-0.5478059 0.42547178 0.26609746 -0.7297271 -0.06649454 -0.99385536 0.08942242 0.08513594
0.15935254 0.30700743 0.039080497 0.07121281 -0.15441461 0.3458149 0.04209949 -0.17548431
0.12650688 -0.09773368 0.21721768 -0.14941865 0.038096085 -0.40587595 -0.15066327 -0.010557388
0.1504927 0.37442642 0.34450978 -0.11801304 0.30021325 -0.14283724 0.3345637 0.2409642
-6.0373677e-06 0.45324945 0.53949565 -0.2840966 0.11429884 0.0034006247 0.32910615 -0.07704605
-0.28935024 0.7083494 -0.093581505 -0.1234233 0.5582421 -0.43447393 0.20316502 0.20914502
-0.026530996 0.48408797 0.17306568 0.27330187 -0.5551943 -0.22161959 -0.20255418 0.33758658
0.32142723 -0.2504719 -0.50177026 0.34135786 0.19316778 -0.09309844 -0.09250152 0.09057009
0.91455907 -0.03706918 0.140433 0.24469356 0.7775454 0.14134577 0.33468685 -0.3241416
-0.23744743 0.16936743 -0.16077682 -0.42850524 0.22669269 0.5291567 0.33024767 0.107883394
-0.30851272 -0.42347816 0.031094914 -1.1021137 0.32790163 0.1644766 -0.65275896 0.12730329
-0.07915891 0.0068945764 -0.058900222 -0.54796517 -0.41580388 0.06251443 -0.07483637 -0.13919553
-0.51911134 0.16769809 0.1887082 -0.2879572 0.7905269 -0.37504902 -0.33552685 -0.6834656
0.85033566 0.62717503 -0.5046169 -0.51194036 -0.7423087 -0.22139055 -0.37250257 -0.84909105
-0.5866775 0.75711024 0.27123544 0.4404884 0.1109943 0.9372824 -0.06036173 0.107608885
-0.11224419 -0.16752781 -0.8802595 0.6475746 -0.2551739 0.12557861 0.73973024 0.3851303
0.026518028 0.006108459 -0.3822634 -0.26915884 -0.86370146 -0.5367729 0.03200733 -0.6134826
-0.27145487 0.20462841 -0.41317776 -0.10523941 0.5785971 -0.12814663 0.06626216 0.2105285

network_body._body_endoder.seq_layers.0.bias f4 [128]
00000000: cd2b 893b 5baa 9e3c 0815 ebbc ef3c a0bc
00000010: 6887 64bd 2e46 1a3d fd51 3d3a a62e cbbc
00000020: 1914 593c 9cb0 a3bd aa41 53bc 1e11 7dbd
00000030: b38f 2939 0b0d ff3c 21c1 94bc 0fa6 86bd
00000040: 0747 6ebd d8e2 30bc 1b18 80bc e18a 2a3d
00000050: e787 8fbd 6555 aa3b 13de 29bd af6e 9ebc
00000060: f645 5ebc abe1 19bd 1a89 e9bb 00c0 833c
00000070: 5deb 41bd cda4 0cbd d4a6 ebbc aa1a d4bb
00000080: 95b9 2f3b 1cf5 07bd aa02 80bd 136c 6f3d
00000090: 6a8f b4bc e740 d73c fcd9 d1bc 930f 9cbb
000000a0: c6ce 29bd a998 babc 2ee3 2abc ebfa 55bb
000000b0: 1892 c93c 9917 8c3b 5f59 9abc 2c7b 103b
000000c0: 84c5 1a3c 6edf dfbc dd13 9bbc d8ff 24bc
000000d0: 039f df39 083b a8bd 06c1 c13c 22ef 363c
000000e0: e438 28bd 259c e23b a8ce ae3c af86 3abc
000000f0: 3284 d8bb 098d 09bc 5125 2abd f219 02bd
00000100: d2ac 62bd f273 f03a 7132 1dbd 1768 9bbb
00000110: 2d42 af3a 8219 d9bc 825d e6bc c9ac f7bc
00000120: c9d6 9dbc ee8f a33c ac35 77bc 9784 6dbc
00000130: 335d debb c198 d63c e828 2cbd feff a83c
00000140: 05a4 3ebd ed19 3fbb 3849 dfbc 76c8 d8bc
00000150: f676 053c c84a 0a3c c75c 4d3c 0425 86bd
00000160: f67d 08bb 0330 96bb 9118 aabb 6cbb 273d
00000170: 72e6 8bbd f617 443c 261b 8abc 2375 09bd
00000180: 5738 63bc cf5d ec3b b6c3 f4bc 936e 36bd
00000190: fb8a 10bd f095 b2bc 1046 ce3c b535 31bd
000001a0: 46fd 34bc 2153 c2bc 1b75 893a 0b7a 1dbb
000001b0: 1fa6 0dbc 40b2 283b b5a2 15bc cfe3 00bd
000001c0: 0ff7 f8bc 7985 4d3b 4727 19bd adbf 2ebd
000001d0: af9d a8bd 58da 8bbb f924 0ebd 5d46 8f3c
000001e0: 39d4 d63b f5d4 aebc 7f69 4cbc f444 2c3b
000001f0: 92a7 fabc d377 49bd 20e9 4ebd bf41 033d
0.0041861297 0.019368341 -0.028696552 -0.019560305 -0.055793196 0.037664585 0.0007221995 -0.024802517
0.013249421 -0.0799267 -0.0128940735 -0.061783902 0.00016170628 0.031134149 -0.018158497 -0.06574642
-0.058173206 -0.010796271 -0.015636494 0.04163635 -0.07008343 0.005198168 -0.041471552 -0.019339887
-0.013566485 -0.03756873 -0.0071269395 0.016082764 -0.0473436 -0.034336854 -0.028766073 -0.006472905
0.0026813496 -0.03319274 -0.06250508 0.058452677 -0.022041041 0.026276065 -0.025616638 -0.004762599
-0.04145696 -0.022777872 -0.01043014 -0.003265078 0.024605796 0.004275274 -0.018841444 0.0022046072
0.009446505 -0.02732822 -0.01893037 -0.0100707635 0.00042652347 -0.08214384 0.023651611 0.011165412
-0.04106988 0.0069155865 0.021338776 -0.01138465 -0.006607556 -0.008395442 -0.041539494 -0.031763025
-0.055340596 0.0018345101 -0.038378183 -0.004742633 0.0013371162 -0.02650142 -0.02812076 -0.030233758
-0.019267457 0.019966092 -0.01508848 -0.014496944 -0.0067860126 0.026195886 -0.0420312 0.02062988
-0.04654314 -0.002915974 -0.027256593 -0.026462775 0.008146038 0.008440681 0.012534327 -0.06550029
-0.0020827032 -0.00458336 -0.005190917 0.040950224 -0.06831063 0.011968603 -0.016858649 -0.033558976
-0.013868413 0.0072133313 -0.029878478 -0.044539046 -0.035288792 -0.021800011 0.025179893 -0.04326411
-0.011046713 -0.02372128 0.0010487171 -0.0024029042 -0.008645563 0.002574101 -0.009133031 -0.031467255
-0.030391244 0.0031360073 -0.037390973 -0.042663265 -0.08233201 -0.004267972 -0.03470323 0.017489607
0.0065560606 -0.02134178 -0.012476324 0.0026286216 -0.030597482 -0.04918654 -0.050515294 0.032045122

network_body._body_endoder.seq_layers.2.weight f4 [128, 128]
00000000: 2890 513e 33d3 dfbd f331 14bd d34d 3fbd
00000010: 1bb8 04be d10b fb3c 7cdd dabc a175 90bd
00000020: 81a4 403d 7cbd 82bd 67a8 8ebd 26b1 8fbd
00000030: 5244 afba 4187 2c3b 912c 99be f394 ccbd
00000040: dea4 afbd 0fc9 1bbe 68a5 fdbd 320e b4bd
00000050: 6ea0 62bd ff15 a7bd e08f 8b3d 3d90 a7bc
00000060: 4348 8cbc 5e7d 18be 2735 24be d7d2 56bd
00000070: 8ced 44bc fb48 2a3d 9f38 6abe 396c 56bc
00000080: 8c3e 81b9 5321 dd3d 0f7d cc3d d2a8 89bd
00000090: f543 363d a858 fcbc 0160 2dbe 03c4 4bbc
000000a0: 7452 c9bd 6cc2 513d 432f acbd 8a04 bfbd
000000b0: f91e 8dbe 1db2 b3bc 7959 d0bd 3d56 133e
000000c0: 7211 d63d 9347 0cbe 7f64 a4bd c659 1dbe
000000d0: 3275 323e 5ff7 393c 292f fabc 2d67 4e3d
000000e0: 05ac 96bc dad2 ec3d 8ecd 4cbe 261c d7bd
000000f0: 6be6 9ebc 046e 5bbe 9e51 473d fbc7 03b9
00000100: 610f b03d 6657 52bd f423 b4bc f1d5 58bd
00000110: 9f57 f0bd da2c b33c 8aae 04be 31a5 353d
00000120: 3f44 a83d e018 99bd de2a cebb dc88 903d
00000130: 9e6f aebc 0f52 58be f687 3bbe 868d 30bd
00000140: a465 e8bd a298 92bd 5c27 4d3d 6b45 fe3d
00000150: c4c6 983d f6db c63d 95e4 b2bc 65ea 5dbb
00000160: 90f9 583d 8c85 793c 00a6 0c3e f500 82bc
00000170: d0c6 bb3d 55ce 0e3d 676a e7bd daaf 07be
00000180: 97d1 89be 72af d03d 563c 31bd acef 5bbd
00000190: 5b8d cdbc debc 183d 88a3 c63c 5351 c23d
000001a0: 8fb9 393e d044 5a3d 7507 2bbd 1941 58bd
000001b0: 9130 a73c c28e f1bb 3c96 c1bd b4af 95bd
000001c0: 1b7b 73bd 6758 87bd d4a8 67bd c131 343d
000001d0: 8f72 5abc 8069 163c f663 b53d ba90 c4bd
000001e0: b01e 5abc b4ba 19bc 6a77 973d 9c27 ea3c
000001f0: c951 ef3c 0391 4dbe 44ee 7b3d 2ab0 b23c
00000200: b8f6 953d 1d00 e13d 6a32 cc3d 12c7 96bc
00000210: fa8f 4d3d fbe1 e5bd 5eac b9bc eeec d1bb
00000220: 9f4e fc3d 6adb 843d 460c 42be b2ef cabd
00000230: f3b9 5b3b 9bba 923d 9afe 263d f10c efbd
00000240: ce38 d3bd bc9b 38bc 73f6 973d 9c2a 083e
00000250: 13af 27bc d6bb 14be b3d2 f8bc 92e4 313d
00000260: d43b a7bd 2dee d03d 8725 9a3d f1b0 a7ba
00000270: 99b1 78bd 6ba0 303d 1801 bebc 7973 95bd
00000280: 0cf6 8bbb f637 fd3c e84c 7bbd fded 1abe
00000290: f5e4 ddbd ba29 143d 4bd8 ee3d 528b 233d
000002a0: 1e3b abbb e56e 183a f5a2 f9bd 4e38 07bc
000002b0: 6bd9 81ba 7f3e c8bd 5af4 cb3d 89c5 ef3d
000002c0: 90b3 223a 7cdc 2e3d b059 32bc 0c3d 82bd
000002d0: 91d3 6fbd 70d4 53be 8115 d3bb d335 a5bd
000002e0: c325 033d 4baa 05be c81b 14bd b536 843d
000002f0: 38b2 2a3d 48fd cebd 6ca9 1cbd 41e1 f73d
00000300: df73 4cbd 5520 8abd adc9 5ebd a11a 81bc
00000310: 5495 c0bc 4431 923d ac63 a6bd 1493 11be
00000320: 6ce6 883d 6cad 61bb 6af7 bcbd ca97 763b
00000330: 1d0d 923d af80 843c 3017 b63b a48f e23d
00000340: 8da7 003e 25b7 6cbe 1068 673d e333 d4bd
00000350: 2c12 443e bcd4 8a3d 9bf0 383d 847e e4bd
00000360: 7c8f 603d fc71 e4bc e5b3 0f3d 3e86 9c3c
00000370: a140 b33d 86a8 83bd 6c43 a5bd 96fc 01bd
00000380: 4b5c 52be 31c6 593e 0367 10be 6fcf 553d
00000390: d440 deba b39d de3c 5158 8d3d 212b 1dbd
000003a0: 7f6c 033e 9164 ad3c 62d6 9a3c ab8a 643d
000003b0: 40d8 2ebe 064f 363d 209b 2bbd 7b8a b93d
000003c0: a9f6 a83d 7e9f bebd 133d e53d 231a 163c
000003d0: ac8a c13c c642 b13d 3ad4 863d 62cc 08be
000003e0: bc79 653d 7c53 ee3d 3fc9 6fbd 80a8 883c
000003f0: 6d54 023d 35f1 9ebd aeb0 0abd e006 b83d
0.20465147 -0.10928955 -0.036180448 -0.04670508 -0.12960856 0.030645283 -0.02671694 -0.07053686
0.047031883 -0.063837975 -0.06965714 -0.0701621 -0.0013371801 0.0026325735 -0.29916814 -0.09989347
-0.08576368 -0.15213417 -0.12385064 -0.0879177 -0.05532878 -0.08158492 0.06814551 -0.02045452
-0.0171243 -0.14891574 -0.16035901 -0.052447166 -0.012019526 0.041573506 -0.22873162 -0.013087326
-0.00024651398 0.10797372 0.099847905 -0.06721653 0.044498403 -0.030803993 -0.16931154 -0.01243687
-0.0983018 0.051210806 -0.08407452 -0.09327038 -0.27562693 -0.021935517 -0.101733156 0.14388366
0.10452546 -0.13699178 -0.080269806 -0.15366277 0.17427519 0.011350482 -0.030540066 0.050391365
-0.018392572 0.11563654 -0.20000288 -0.10503416 -0.019396981 -0.21428686 0.04866182 -0.00012567632
0.08596683 -0.05135288 -0.0219898 -0.052938405 -0.117354624 0.021871973 -0.12957206 0.044346992
0.08216142 -0.07475448 -0.0062917313 0.07057354 -0.021293458 -0.21125053 -0.18313584 -0.043103717
-0.113475114 -0.07158019 0.050086364 0.12415584 0.074597865 0.09709923 -0.021837512 -0.0033861634
0.052972376 0.015229594 0.13735199 -0.015869597 0.0916878 0.034864742 -0.112995915 -0.13250676
-0.26917717 0.101897135 -0.04327043 -0.053695366 -0.025091818 0.037289493 0.0242479 0.094881676
0.18137191 0.05328828 -0.04175516 -0.052796457 0.0204089 -0.0073717544 -0.09452483 -0.07308903
-0.059443574 -0.06608658 -0.05655749 0.04399276 -0.013332977 0.009180427 0.08856957 -0.09597917
-0.0133129805 -0.009382892 0.07395823 0.02858334 0.029213803 -0.20074849 0.061506525 0.021812517
0.073224485 0.1098635 0.09970553 -0.018405471 0.050186135 -0.11224743 -0.022665199 -0.006406418
0.12319683 0.064871624 -0.18949994 -0.099089995 0.0033527582 0.071644984 0.04077015 -0.1167239
-0.10313569 -0.011267599 0.07420053 0.13297504 -0.010234612 -0.14524779 -0.030373907 0.043430872
-0.08165708 0.102016784 0.07526689 -0.0012793822 -0.060716245 0.043121736 -0.02319388 -0.07297415
-0.0042712744 0.030910473 -0.06135264 -0.15129848 -0.10834686 0.036172606 0.11662348 0.039927788
-0.005225553 0.00058148644 -0.12189285 -0.00825317 -0.0009906715 -0.09777545 0.09958716 0.11707599
0.00062065665 0.04269074 -0.010885641 -0.063593 -0.058551375 -0.20686507 -0.0064417724 -0.08066907
0.032018434 -0.13053243 -0.036159307 0.06455747 0.04167387 -0.10106903 -0.03824751 0.12103511
-0.04991519 -0.06744448 -0.05439155 -0.015759768 -0.023508705 0.07138303 -0.0812448 -0.14216262
0.066845745 -0.0034435643 -0.09226878 0.0037627094 0.071314074 0.016174642 0.0055569634 0.110625535
0.12563916 -0.23116739 0.056495726 -0.10361459 0.19147557 0.06778857 0.045151334 -0.111569434
0.054824337 -0.027886383 0.03508367 0.01910698 0.08752561 -0.06428628 -0.080695 -0.031735025
-0.2054302 0.2126701 -0.14101796 0.052199777 -0.0016956576 0.027174806 0.06901611 -0.03837121
0.12834357 0.021166118 0.018901054 0.055796307 -0.1707468 0.044508956 -0.041895986 0.09059616
0.08250172 -0.093077645 0.111932896 0.009161505 0.023625694 0.08655314 0.06583448 -0.13359216
0.056024298 0.11637017 -0.058541533 0.01668191 0.031818796 -0.0776085 -0.0338599 0.08985686

network_body._body_endoder.seq_layers.2.bias f4 [128]
00000000: 1dd3 463c a5f0 b9ba 388b 6b3c 695c 1ebd
00000010: f47d 163d 0795 953c 9b07 f9bc 00f8 5639
00000020: 1f60 cebb 18bf 83bc b577 f83b 3396 433d
00000030: 15aa c2bc 805c 3d3b 1d0a 00bd fdf4 5b3c
00000040: 78d3 0c3d 3e36 923c f3cd babc 353b cebc
00000050: 2e3b 15bd 7b94 00bd 238c e6bc 8a18 ebbc
00000060: 6ee2 903c 274f 06bd 1a01 c0bc 880f 803c
00000070: b73e a8bc 1dd9 9fbc 0f5f b5bc c487 a6bc
00000080: 1e20 15bd 0e9f 8d3c 805d 24bb 630a 713c
00000090: d1d2 bbbc 3759 a73c 51bf 79bc f241 413d
000000a0: 5809 10bc 2b0b 61bb 1a9e f3bc 5193 b0bc
000000b0: a8a2 383d 3227 51bc d58f f03c 1246 773c
000000c0: d409 203a 6339 79bc 34f7 4e3d 2f82 47bd
000000d0: e0bf 573c e4c7 3fbd 4e98 cd3c 9a2d 80bc
000000e0: 4dce a8bc 5016 9a3b c87e 243d 611d 6ebc
000000f0: 58b9 c0bb ada5 0dbd 106a c33c 46a9 1abd
00000100: 66fb 323c 2897 163c 1068 af3b f959 d3bc
00000110: c851 21bb aabb 093b e3eb d3bc 1709 bc3a
00000120: 41de e3bc 7736 a7bc 1b06 153c 701b 9dbd
00000130: a213 34bb 1dd7 77bc 7ec9 1cbc 2098 89bc
00000140: 1551 bf3b 31a4 dd3a 02b6 35b9 8321 bbbb
00000150: 94a4 2bba 5bf5 16bc 6480 c6bc 9794 e439
00000160: 0f23 40bd 5e25 d33c 3f38 b93c 95e8 e6bc
00000170: 5f45 11bd 1479 033c f92b c3bc 7245 603c
00000180: d7bf c23c 366e 2a3c bb47 2abd ef39 d3bc
00000190: d31d c0bc dda4 2c3c 24f4 65bc b7b3 2fbb
000001a0: ff6f c13c 2ae5 8e3c 5e69 88ba e9cf a4bc
000001b0: 83f6 673c 2b29 8fbc e4f9 1dbd 8ed5 f7bc
000001c0: 0065 b33c d21e 2f3d 98ff 193c 120d 4a3d
000001d0: ef7a bdbc a36d c4bc 45c2 303c 9ca7 e3bc
000001e0: 50ab 223c 1186 8d3c 5342 f4ba eaa3 f63c
000001f0: 6d0b 983a 7b39 433d c9af a33c dcbb 1cbd
0.012135294 -0.0014186098 0.014376454 -0.038662348 0.036741212 0.018259538 -0.030399134 0.00020501018
-0.0062980796 -0.016082332 0.0075826296 0.047750663 -0.023762742 0.0028894246 -0.031259645 0.013425109
0.03438136 0.01784813 -0.022803282 -0.025174716 -0.03643339 -0.031391602 -0.028142994 -0.028698225
0.017686095 -0.03279033 -0.023438025 0.015632406 -0.020537717 -0.019512707 -0.022140054 -0.02032841
-0.036407582 0.017287757 -0.0025080144 0.014711949 -0.022927674 0.020428283 -0.015243367 0.04718203
-0.00879129 -0.0034338932 -0.029738475 -0.021554621 0.045076996 -0.012765693 0.02936546 0.01509239
0.000610498 -0.015211436 0.05052872 -0.048708137 0.013168305 -0.04682149 0.025097039 -0.015646745
-0.020606184 0.004702367 0.04015997 -0.014533372 -0.0058814697 -0.03458183 0.023854285 -0.037759088
0.010924196 0.009191312 0.0053529814 -0.025799738 -0.0024615396 0.0021016398 -0.025869315 0.0014345971
-0.02781594 -0.020411713 0.009095694 -0.07671249 -0.0027477522 -0.015126971 -0.009569524 -0.016796172
0.005838523 0.0016909895 -0.00017329308 -0.005710782 -0.00065476564 -0.009213771 -0.024231143 0.00043598257
-0.046908434 0.025774654 0.022609828 -0.028187076 -0.035466548 0.008024473 -0.023824679 0.013688432
0.023773117 0.010402253 -0.041572314 -0.02578446 -0.023451721 0.010537353 -0.014035258 -0.002681
0.023612974 0.017443258 -0.0010407378 -0.02011867 0.014157894 -0.017475685 -0.038568392 -0.030253198
0.021898746 0.042754002 0.009399317 0.04932887 -0.023129908 -0.02397806 0.010788505 -0.027789883
0.009928539 0.017275842 -0.0018635489 0.030107457 0.0011600085 0.04766224 0.019981282 -0.038265094

action_model._continuous_distribution.log_sigma f4 [1, 2]
00000000: 4ce4 a4bc a4cf 983d
-0.020128392 0.07461479

action_model._continuous_distribution.mu.weight f4 [2, 128]
00000000: 58ae 373d 0aec c53c aca7 a6bb a576 273c
00000010: 0ca1 a3bc d435 0d3d 53b6 2b3c fb43 9db9
00000020: da11 f2bc bad6 c93c c0a8 e73c ab3c 5dbd
00000030: dce9 0fbd 547c 9b3c f408 de3a bb71 d83c
00000040: 56fd 963d 4146 2ebc 16f7 15bc 5e9f 223b
00000050: 9e23 8abc 5164 723c 344a 10bc 6136 bfbc
00000060: 38df 4bbd 3694 5b3c 8dfc 683c 4222 adbb
00000070: 3171 5bbc b404 913c f94b 3ab8 9372 193c
00000080: 479e 903c 0c0e e13c 20b2 d43b 39be 3abb
00000090: 0a89 d73c 510e cd3c cf95 60bc 4561 95bc
000000a0: 4fe2 963c 27d3 3b3c 934b 473b f979 313c
000000b0: 3a39 87bd c8f7 52ba 94d4 953c fce9 68bc
000000c0: f6b6 7bbc 9b46 a3bc 6d7f 7fbd 9838 8b3a
000000d0: 8b08 ca3c 5bf5 23bc 5e18 253d fba5 393c
000000e0: 34a2 8e3a f145 c83c 726a 74bd 16bb 0bbc
000000f0: 0519 833c f1e7 663c b6d2 963c aba2 0bba
00000100: 9a9b dc3b 10b1 89bc 564e febb 521b 17ba
00000110: b4f6 293d 9d98 c93c 55a5 46bc 4d36 91bc
00000120: 6bad af3c 7b17 e23b f885 13bc 8300 023c
00000130: 8c9e 1fbd 6815 2a3c 25c1 873c 3095 a53c
00000140: bb96 5e3c 2ec7 20bc 50ff a6bc a4fe 2ebc
00000150: c7b2 2fbd 6d8b 49bd 13e7 25bd 3e50 c7bc
00000160: 2846 1abb de8a 3abd 7961 253d 68d1 65bc
00000170: 6e53 8cbb 16e3 65bd 7bdb c13b 7e1a d73a
00000180: fed5 1f3b 6917 febc 2002 01bc 6c87 0e3c
00000190: 8806 c1bb f0de 17bd eb3e 8c3c c99e a7bc
000001a0: 25c4 8dbc 725a 29bd 3825 0e3d 9074 093c
000001b0: 4ddf 663c 18bc b7bb e287 4fba 7d06 573c
000001c0: 9090 b43c 8ce3 ccbc 78fc 97bc fcee 21bd
000001d0: e321 c63c fca6 a4bc 17b7 01bd 601e 8c3c
000001e0: ae8f 93bc 527e c6bc b85c 1fbc c472 57bc
000001f0: f13f 663c f227 fa3c 84a1 adbc 5d04 7e3c
00000200: 6ec2 0e3d a6c1 1d3d a6c9 8ebc 3999 613c
00000210: 8d88 f3bc 949c 12bd 4898 883c b4c7 d5bb
00000220: 2d1b ef3c 5a13 ca3c 9925 d33c a935 ea3b
00000230: 43bb 233b f101 bc3b 0da0 963c ed5c 413d
00000240: db3a 62bb 1075 febb 50f7 9d3c 71a0 2cbb
00000250: d9f4 c23c ebba 493c c5d2 173c 8815 c93c
00000260: e892 b5bc 5bf4 ea3c 44c2 c33c 085f 85bc
00000270: fc94 813c f5da 5a3c 936d 42bb 9190 4e3d
00000280: 4679 f83b 80db a3bc 069d b4bc 1722 b7bc
00000290: bbca 713b b3fd 4ebc 766e e23c b7dc 2cbd
000002a0: 30f0 c1bb 51fc 9a3d 27e3 ef3c 823e ad3c
000002b0: 2a93 813c 946c 263b a8fb 9e3c db70 5ebc
000002c0: 5faa 67bc dbc6 5a3c 3043 d8bc 09a6 0b3c
000002d0: c805 0abc e1c3 ce3a 3118 143d 00e9 123c
000002e0: 2a0c 24b9 662c 1abc a87f 42bc a777 163c
000002f0: 4d1a 47bb b3e9 873c 7fde eb3c dab4 153d
00000300: 194e 0ebc 0696 b1bc 5d87 08bd 3147 1d3c
00000310: 5b56 543d 3ab6 22bc 377a 613c be47 6bbc
00000320: 7a4c 193d 7598 ef3c ec34 97bc 06a3 963c
00000330: a8ef 323a 7dff c53c d709 39bc 7bba 873c
00000340: 102f fabc b3dc 90bb 6f75 cf3c 2f06 7cbb
00000350: 14a4 413d f8b0 893c 1366 123d 6ec4 173d
00000360: 833c 843b 2f08 b3bc 1474 e1bb a4d3 4d3c
00000370: 5cd0 613c 81ef 183d 67e1 143d 0878 88bc
00000380: 516d e2bc 1fde 51bc c675 cb3c 2b77 c43b
00000390: 8fba af3c 5800 143d a375 8ebb a976 693c
000003a0: b743 4fbd 5088 d4bb fe52 fcbb 2cf8 c13b
000003b0: 8836 ecbc 8b7d e73c f604 073c a834 15bc
000003c0: 3c1a 1abd 943f d1bc 8805 8e3d bcd9 04bd
000003d0: b584 413d 7c36 993c 79a5 603c 147d ba3c
000003e0: 25a9 9fbb 60ff 16bd d63a fbbb 9034 9bbc
000003f0: 0dfa 08bc 8bc1 05bd 035b 3dbc de90 9c3c
0.044844 0.024160404 -0.005085906 0.010221158 -0.019974254 0.034475163 0.010480481 -0.00029996023
-0.029549528 0.024638522 0.028278708 -0.054012936 -0.035135135 0.018980183 0.0016939924 0.026421418
0.07372539 -0.010636867 -0.009153148 0.0024814229 -0.016862687 0.014794425 -0.008806754 -0.02334136
-0.049773425 0.013402035 0.014220369 -0.005283625 -0.013393686 0.017702438 -4.441661e-05 0.0093656955
0.017653598 0.027472518 0.0064909607 -0.002849473 0.026310463 0.02503124 -0.013707592 -0.018234858
0.01841846 0.011463917 0.0030410036 0.010832303 -0.06602712 -0.00080477865 0.018289842 -0.0142159425
-0.0153634455 -0.019931128 -0.062377382 0.0010621725 0.024662277 -0.010007228 0.04030644 0.011331077
0.001088208 0.024447413 -0.059671827 -0.0085284915 0.016003141 0.014093385 0.018411022 -0.00053266686
0.0067324163 -0.016808063 -0.007760803 -0.0005764264 0.04149504 0.024608904 -0.012124379 -0.017726088
0.021444997 0.0068997717 -0.009004109 0.007934692 -0.03896956 0.01038108 0.01657159 0.02021274
0.013585742 -0.009813113 -0.020385414 -0.010680828 -0.042895105 -0.049205232 -0.040503573 -0.024330255
-0.0023540352 -0.04554259 0.04037616 -0.014026977 -0.0042824065 -0.05612477 0.0059160567 0.0016411094
0.0024389024 -0.031017022 -0.007874042 0.008699279 -0.005890671 -0.037077844 0.017119845 -0.020461457
-0.017305443 -0.04134602 0.034703463 0.008389607 0.014091325 -0.0056071393 -0.00079166715 0.0131241055
0.022041589 -0.025010847 -0.018553004 -0.039534554 0.02418608 -0.020099156 -0.03166875 0.017104328
-0.018012848 -0.024230156 -0.009726696 -0.013149921 0.014053331 0.030536626 -0.02119518 0.01550397
0.03485339 0.038514756 -0.017430138 0.013769441 -0.029728198 -0.035793856 0.016674176 -0.0065240506
0.029187763 0.02466743 0.025774764 0.00714751 0.0024983443 0.005737536 0.018386865 0.04720776
-0.0034519944 -0.00776542 0.019282967 -0.0026340748 0.023798393 0.012312631 0.00926656 0.0245464
-0.022164777 0.02868097 0.023896344 -0.016280666 0.015818112 0.0133578675 -0.0029667362 0.050430838
0.0075828163 -0.020002127 -0.02204753 -0.022355122 0.0036894518 -0.012633729 0.027640563 -0.042202678
-0.005918525 0.07567657 0.02928312 0.02114797 0.015817244 0.0025394307 0.019407108 -0.0135767115
-0.014139741 0.013353075 -0.026399225 0.008523473 -0.00842423 0.0015774929 0.036155883 0.008966684
-0.0001564479 -0.0094099995 -0.011871256 0.009183801 -0.0030380667 0.016590929 0.028792618 0.036549427
-0.008685612 -0.021677982 -0.033332217 0.009599493 0.051840167 -0.0099311415 0.013762048 -0.014360366
0.03742645 0.029247502 -0.018457852 0.018388283 0.00068258727 0.024169678 -0.01129385 0.016568413
-0.03054002 -0.0044208406 0.025324551 -0.0038455834 0.047275618 0.016808018 0.035741877 0.037052564
0.004035534 -0.021854488 -0.0068802927 0.012562666 0.013782587 0.037337784 0.036347773 -0.016658798
-0.027640017 -0.012809305 0.024836432 0.0059956512 0.021451263 0.03613314 -0.0043475195 0.014249482
-0.050601687 -0.0064859763 -0.007700323 0.005919477 -0.028834596 0.028258106 0.008240929 -0.0091067925
-0.037622675 -0.025543012 0.06934649 -0.03243421 0.0472457 0.018702738 0.013711327 0.02276472
-0.0048724585 -0.03686464 -0.007666926 -0.018945962 -0.008360398 -0.03265528 -0.011557343 0.019112047

action_model._continuous_distribution.mu.bias f4 [2]
00000000: cf9d d7bb ac99 94bc
-0.0065800915 -0.018139683

exp_avg f4 [128, 6]
00000000: e08e ceb9 ef36 1239 9840 d0b9 92c5 88ba
00000010: 69f6 e6b3 a306 90ba 338c 7737 9c33 0a39
00000020: 2757 9bb9 d6a7 3cba e7f4 e636 64db 58ba
00000030: ed55 403b 876f c8b9 d150 d3ba 5177 5f3b
00000040: f349 76b7 bee9 51bb ac82 0c3a f4a0 b1b8
00000050: adb2 ed38 49d9 493a f3f0 4836 0da4 ca39
00000060: 2b6c 693a 4be0 dbb8 2b93 10ba bd92 823a
00000070: e4cc 86b6 78c7 8fba 5065 a9b9 e401 b1b8
00000080: 9174 c539 4acb 4939 bf72 ceb6 3bd1 863a
00000090: d1de dd3b 7493 7fba 3211 34bb 0b0c 0d3c
000000a0: 998f 07b8 8b45 cfbb 5854 6ab9 0647 eb37
000000b0: 0dd7 323a f30d e3b8 543a eb36 50ac 9139
000000c0: cf23 373b fcc0 a8b9 253b 0ebb a578 453b
000000d0: 3114 8cb7 0097 83bb 467f 79b9 5f14 1f38
000000e0: b2be ec38 78b0 9eb9 6f02 8b35 636b 6139
000000f0: 43be b03a b0cd 37b9 315e 44b8 4f7a f63a
00000100: 0c3d d5b5 3875 9cba 5919 1539 5899 f037
00000110: 829c b9b8 329b 9bb8 414f 2c36 21e3 c4b9
00000120: cb08 c7b9 91f0 e538 279d beb8 1b7d 59ba
00000130: d87a fe35 1242 13ba c765 1239 dc7c 86b9
00000140: 5213 a139 7ba3 a83a 0fc9 70b7 9f90 eb3a
00000150: b18e a7ba c980 3439 8e34 e639 9739 ddba
00000160: eaf4 b936 f494 ce3a 8f86 baba f791 3939
00000170: 89a9 273a 443f d8ba fa07 af36 bf59 be3a
00000180: 605d 8038 0f71 15b5 8fed 9a37 c919 d238
00000190: 4393 90b4 a9ec d4b7 b061 8c39 808a 6838
000001a0: 57aa a5b9 1f9a 23b9 a85a a536 ad03 5eba
000001b0: a486 e1b8 2eb9 e138 df38 8aba 7b6a 6cba
000001c0: 9ced 67b6 a924 76ba 953e ca39 ebd2 e7b7
000001d0: 57a5 4736 6a28 283a 6256 12b6 6185 07b9
000001e0: 5a10 8eba 085d a239 cd80 21ba c1d1 1fbb
000001f0: d4e2 8936 0680 98ba cf29 b3b9 e967 09b7
00000200: 7bb7 5d3a e7db 3f38 7a03 9c36 9267 9c3a
00000210: ed0c f8b8 056d 8538 b261 b038 d5c1 eab9
00000220: 4bc9 b236 4544 6839 4826 8cba bb40 6c39
00000230: b0ed ea38 e6cd f7ba de84 0f37 5ab6 363a
00000240: 036f 9e39 2d94 61b8 3984 d834 1338 023a
00000250: a9b1 27b5 5524 7137 5184 cbb9 29de ca38
00000260: 47af 093a 1b7b 14ba 8d70 1137 0f92 8539
00000270: cf7a 88ba 8ff6 0539 367f 0839 26b4 abba
00000280: 5fee 3336 28dc c63a 137f 1bba 62f4 8539
00000290: 5bcc d2b9 4f65 e0ba d058 f036 dd03 90ba
000002a0: 2000 0dbb 60a8 5039 00e3 943a 45a3 12bb
000002b0: c4f7 0237 60e0 6b3b dcb6 8939 40df 08b9
000002c0: 5bd6 de39 4bc4 753a f82a 11b6 bdfa 833a
000002d0: 95d7 d4ba 867e 2b39 348a 883a 2dd0 e0ba
000002e0: e664 4d37 6670 613b c663 993a 3e03 a3b9
000002f0: f88c 01ba f95e 0b3b d03c 8fb7 798f 3139
00000300: 6882 8438 1560 af36 7b25 5538 a502 3939
00000310: bcd8 90b5 afdc 7e38 40b5 cd3a 0585 56b9
00000320: 9ba7 7bba 1d11 df3a 6679 eeb6 c6ef ddba
00000330: d546 0639 6cfe c237 0516 0fb9 35a6 9bb8
00000340: 8d01 cc35 9b0f eab9 c642 0dbb 02c7 8d39
00000350: 20ea a43a c677 16bb 73c6 2d37 ac8e 133b
00000360: 1c5a 8cbb 6b21 fe39 d44e c73a 8bb0 9fbb
00000370: 2b2c 0f37 1e68 9f3b 1b32 953b 7319 14ba
00000380: 78cc 49bb cf6d ab3b 62b1 fcb7 a050 bebb
00000390: 4a8d 4c38 57c2 0ab8 5901 06b9 8187 1539
000003a0: eb40 56b6 a792 ceb7 89e9 bab9 c92f d038
000003b0: 2dd7 88b8 d8e0 45ba 8949 5836 3601 1fba
000003c0: 2822 133a abe9 4eb8 e995 08ba 9cb0 f439
000003d0: e350 88b6 4390 48ba 8850 1d3b cbd8 a5b9
000003e0: ba2f 91ba 6ee0 3d3b 91f0 24b7 e9d3 2ebb
000003f0: 8f3f 133a 349a 77b8 fb63 be39 5242 593a
-0.00039397832 0.0001394411 -0.00039720978 -0.0010434857 -1.0755031e-07 -0.0010988306 1.475499e-05 0.00013179932
-0.00029628837 -0.00071966404 6.8830445e-06 -0.0008272438 0.002934809 -0.00038230067 -0.0016122108 0.0034098218
-1.467996e-05 -0.003203019 0.0005360048 -8.4699976e-05 0.000113343216 0.00076999195 2.9942573e-06 0.0003865067
0.0008904363 -0.000104845116 -0.0005515094 0.0009961944 -4.0173636e-06 -0.001096948 -0.00032309676 -8.44037e-05
0.00037661617 0.00019244585 -6.1526366e-06 0.0010285744 0.0067709466 -0.000974945 -0.002747607 0.008608828
-3.2320244e-05 -0.006325429 -0.000223474 2.8047256e-05 0.0006822206 -0.00010826802 7.010336e-06 0.00027784938
0.0027944928 -0.00032187242 -0.0021702733 0.0030131724 -1.6698703e-05 -0.0040158033 -0.00023793904 3.7927526e-05
0.00011288877 -0.00030267588 1.0357015e-06 0.00021497677 0.0013484437 -0.00017528865 -4.6817764e-05 0.0018804761
-1.5887504e-06 -0.0011936789 0.0001421919 2.8681636e-05 -8.850639e-05 -7.419883e-05 2.567613e-06 -0.00037553257
-0.0003796279 0.0001096438 -9.089178e-05 -0.0008296535 1.8960227e-06 -0.000561745 0.0001396156 -0.000256515
0.00030722708 0.0012866104 -1.4351927e-05 0.0017972178 -0.0012783614 0.00017214114 0.00043908175 -0.0016878125
5.5419414e-06 0.0015760944 -0.0014230775 0.00017697351 0.0006395807 -0.0016498347 5.216335e-06 0.0014522596
6.120908e-05 -5.567135e-07 1.8468852e-05 0.00010018383 -2.6929237e-07 -2.5382573e-05 0.00026775664 5.54421e-05
-0.00031598166 -0.00015602306 4.927937e-06 -0.00084691757 -0.00010753915 0.000107633285 -0.0010545513 -0.00090185524
-3.455999e-06 -0.0009389618 0.0003857507 -2.7635562e-05 2.9749551e-06 0.00064147136 -2.1805977e-06 -0.00012924291
-0.0010838613 0.00030968362 -0.00061608554 -0.0024386498 4.1093244e-06 -0.0011634834 -0.0003417269 -8.19003e-06
0.00084578217 4.574275e-05 4.649567e-06 0.0011932722 -0.00011827969 6.362241e-05 8.410531e-05 -0.00044776374
5.328247e-06 0.00022150677 -0.0010692561 0.00022530828 0.00011202262 -0.0018905967 8.5544e-06 0.00069699215
0.0003021882 -5.378218e-05 4.032934e-07 0.0004967462 -6.247088e-07 1.4373179e-05 -0.0003881776 9.673491e-05
0.00052522536 -0.0005664096 8.668879e-06 0.0002547656 -0.0010412576 0.00012775719 0.0001301736 -0.0013099953
2.6811829e-06 0.0015171813 -0.00059317163 0.00025549816 -0.00040206578 -0.0017120036 7.1628965e-06 -0.001098748
-0.0021514967 0.0001989915 0.0011359155 -0.0022375148 7.806291e-06 0.0035991892 0.00026266917 -0.00013053138
0.00042502847 0.0009375258 -2.1631695e-06 0.0010069233 -0.0016238565 0.00016354964 0.0010417164 -0.0017151885
1.2242444e-05 0.003439927 0.0011702708 -0.00031092198 -0.00049419655 0.0021266325 -1.7075246e-05 0.00016933483
6.3185405e-05 5.226592e-06 5.0818064e-05 0.0001764396 -1.0791914e-06 6.0763847e-05 0.0015694275 -0.00020458184
-0.00095998653 0.001701865 -7.1070854e-06 -0.001693242 0.00012805623 2.3245077e-05 -0.00013645746 -7.4219344e-05
1.5199636e-06 -0.00044643585 -0.0021554693 0.00027041888 0.0012581982 -0.0022959574 1.0357809e-05 0.002251546
-0.004283203 0.00048471554 0.0015205988 -0.0048733405 8.533748e-06 0.0048647067 0.004553092 -0.0005649544
-0.003079204 0.005231596 -3.0123341e-05 -0.005807951 4.8768976e-05 -3.3082757e-05 -0.00012779738 0.00014260226
-3.1926272e-06 -2.4625404e-05 -0.00035650682 9.9271136e-05 -6.525065e-05 -0.0007548458 3.2229311e-06 -0.0006065549
0.00056126947 -4.9331848e-05 -0.00052103266 0.0004667089 -4.0625323e-06 -0.0007650891 0.00240043 -0.00031632776
-0.0011076846 0.0028972882 -9.831173e-06 -0.0026676601 0.0005617076 -5.9033002e-05 0.00036314115 0.00082877756

exp_avg_sq f4 [128, 6]
00000000: 7ec0 f237 412e ec34 c890 7037 f188 e437
00000010: 3edb d22f de73 c737 fe89 7638 4986 9335
00000020: a9ab 5138 ee84 6138 eb94 5030 5424 5d38
00000030: 2921 7f38 6573 9535 0f39 7338 1562 6e38
00000040: ed39 5c30 5284 b938 3330 4637 b0db 5f34
00000050: 92b6 3737 b375 1d37 f984 282f 0b08 3337
00000060: c04a 6237 94d0 8634 1b72 6537 cf83 9337
00000070: a0a7 362f 2032 7937 9994 c638 919a e235
00000080: 665b 9638 09e8 ca38 9bea 9530 c330 9c38
00000090: bcba 0f39 0e5a 5536 c429 0b39 1dbf 2e39
000000a0: 3586 0731 1285 7a39 0f3e 2a38 f63d 2c35
000000b0: b472 f937 6ed5 f537 a2a7 f52f 005a 1038
000000c0: df79 9b38 6450 9735 f7ed 8238 00cd 6738
000000d0: b1a5 8930 ef51 b738 2b42 7236 64e1 9d33
000000e0: 99d4 9536 3b9c 8c36 759a 5a2e 4f85 9236
000000f0: b674 e237 ba97 0335 8e72 8f37 164b 0238
00000100: 50b0 dd2f 61f5 ca37 5129 0537 41b5 1834
00000110: 4b72 0037 f403 1337 f20c e12e 3615 9436
00000120: 7ae2 be37 6187 e334 5af1 8c37 1a8f ec37
00000130: 5bb2 b12f 9190 9237 baf5 fa38 8020 0f36
00000140: 7785 b038 fbb8 f738 f2d1 b630 f7d8 d638
00000150: 3153 f837 e1ef fb34 f370 f337 5aa0 bc37
00000160: d2dc c22f bba7 0c38 d2e7 f536 d6c5 0434
00000170: 3d99 aa36 1b75 d536 5089 c22e 3c52 0f37
00000180: 2c4e 2637 1fc7 5d34 730d 1637 7972 5737
00000190: 2f80 382f f506 1d37 c0c5 1838 06f8 0a35
000001a0: 9794 fd37 7592 1638 93ca dd2f 73bd c237
000001b0: 8a2b 0638 4f34 1f35 4c07 f437 592a 0638
000001c0: e79e fa2f 9662 2f38 8e17 1d39 2697 3536
000001d0: de1a ef38 8e1a 2839 7eb1 ff30 e325 2b39
000001e0: 046b e837 922f 2235 e9cc ba37 59ae 3238
000001f0: de35 ed2f c2ec 1038 85a4 1338 1c4d 2b35
00000200: 042f f237 5283 0c38 17aa 0130 d18d 0c38
00000210: 8740 e236 fde7 2934 3aac e336 3d10 2a37
00000220: b0ff ce2e 494b ce36 a639 9337 11b5 d634
00000230: a1f1 9737 a427 af37 225c 972f 912c 9637
00000240: 8bb8 5737 5e24 9634 e8c6 5737 a22e 7b37
00000250: 61a2 6c2f 3edd 5237 7c60 5837 8d3c 7934
00000260: eeb0 4437 8152 9d37 7885 352f 1d0b 5737
00000270: 803a 2938 6714 0835 b9eb c237 21f6 c737
00000280: 3aff cd2f c41d d937 a06e 1b39 b6aa 3a36
00000290: 57e9 1739 507f 0d39 aa05 fa30 9bac 2239
000002a0: da3b 6e37 46e6 a934 3c75 7937 2b0f a137
000002b0: 743a 5f2f 71d9 a437 4743 a737 708e aa34
000002c0: 935b 6b37 e5e6 9f37 575c 8e2f bee4 8837
000002d0: cdf4 dc37 4c70 1135 89d1 d037 3cc4 e537
000002e0: 54a3 f12f e7cb 0338 1ba7 d637 991f 0635
000002f0: d9f8 ce37 eed3 e637 a09f ca2f 6017 b337
00000300: 1554 2038 7b54 5035 e0b9 0038 3370 3d38
00000310: 894b 2230 2130 1338 c11a 7538 8801 d635
00000320: 6525 7238 2358 8a38 b0e0 9130 1af7 0839
00000330: 174a 1637 6a2e 0534 c7b2 9036 1ca9 eb36
00000340: ec06 e22e e650 b036 afb3 d038 f442 e135
00000350: 3e8e 8e38 06af c138 43ac a030 722b c238
00000360: f1e0 5638 0a5e 8f35 ed05 8238 ca20 4038
00000370: 2ef8 2630 4ce2 c938 781e 3d39 8b16 1736
00000380: 811d 0639 fe4c da38 b79d 1131 85c1 2539
00000390: 8474 2637 8379 1934 3a6f 2237 2a79 2537
000003a0: c390 d42e 985f 2c37 82ea 2738 b780 2935
000003b0: 31d6 b937 68be 5338 c52b ff2f d070 fb37
000003c0: 89d8 f836 2cbb 0634 3b78 c636 efbb b136
000003d0: 3a66 d42e db8b 3337 51ee dd37 97a9 2035
000003e0: c326 1238 02c2 1e38 064f be2f e10b 3a38
000003f0: 2add a837 624d 0435 6926 a637 c890 ba37
2.8938284e-05 4.399208e-07 1.4338824e-05 2.7243486e-05 3.8354558e-10 2.3776603e-05 5.8779486e-05 1.0991436e-06
4.9989354e-05 5.376798e-05 7.5881584e-10 5.272434e-05 6.082762e-05 1.1134949e-06 5.7988855e-05 5.6834968e-05
8.011785e-10 8.846134e-05 1.1812942e-05 2.0848415e-07 1.0950158e-05 9.385333e-06 1.5326752e-10 1.0671104e-05
1.3488054e-05 2.5111206e-07 1.3676031e-05 1.7585144e-05 1.6612356e-10 1.4853227e-05 9.469054e-05 1.6883297e-06
7.169582e-05 9.6753305e-05 1.0907856e-09 7.447742e-05 0.00013707107 3.1791892e-06 0.00013271632 0.00016665128
1.9721373e-09 0.0002389143 4.0588955e-05 6.416516e-07 2.9736526e-05 2.9305662e-05 4.468435e-10 3.4416094e-05
7.413676e-05 1.1273773e-06 6.2432075e-05 5.5265613e-05 1.0015154e-09 8.741381e-05 3.6099325e-06 7.3518805e-08
4.4652957e-06 4.1905128e-06 4.9704647e-11 4.3666582e-06 2.6995647e-05 4.9022094e-07 1.7100272e-05 3.1064345e-05
4.0324943e-10 2.419454e-05 7.9370375e-06 1.4222043e-07 7.656005e-06 8.762803e-06 1.0234115e-10 4.413213e-06
2.2755226e-05 4.2380546e-07 1.6801689e-05 2.820003e-05 3.2322842e-10 1.7471875e-05 0.00011966699 2.1327578e-06
8.417194e-05 0.00011812333 1.3301913e-09 0.00010244728 2.9602643e-05 4.6926928e-07 2.9020453e-05 2.2486016e-05
3.5445297e-10 3.3534812e-05 7.3285564e-06 1.236543e-07 5.084234e-06 6.3615275e-06 8.84649e-11 8.542611e-06
9.912572e-06 2.0654669e-07 8.943828e-06 1.2841651e-05 1.6780242e-10 9.359549e-06 3.6423793e-05 5.176993e-07
3.0229143e-05 3.5899186e-05 4.0343603e-10 2.3214821e-05 3.198864e-05 5.9308235e-07 2.9090465e-05 3.198753e-05
4.5587642e-10 4.1815067e-05 0.00014981462 2.7059082e-06 0.000114014125 0.00016031621 1.8604138e-09 0.00016321945
2.7706388e-05 6.0418927e-07 2.2268347e-05 4.260088e-05 4.3148324e-10 3.4552773e-05 3.5200752e-05 6.3814673e-07
2.8870541e-05 3.3500903e-05 4.717164e-10 3.3510678e-05 6.742837e-06 1.5823748e-07 6.785177e-06 1.013657e-05
9.4132147e-11 6.1480428e-06 1.755061e-05 3.999235e-07 1.811312e-05 2.0880085e-05 2.7532204e-10 1.7902146e-05
1.2857966e-05 2.7966138e-07 1.286131e-05 1.4971623e-05 2.1521764e-10 1.2568487e-05 1.2897068e-05 2.321196e-07
1.1723705e-05 1.8754277e-05 1.6509272e-10 1.2817586e-05 4.0347222e-05 5.069364e-07 2.3236369e-05 2.3837261e-05
3.7470632e-10 2.5882277e-05 0.00014823163 2.7815527e-06 0.00014487408 0.00013494235 1.8191504e-09 0.00015513824
1.4199841e-05 3.164625e-07 1.4868852e-05 1.9199759e-05 2.0302499e-10 1.9651578e-05 1.993928e-05 3.1768604e-07
1.4028413e-05 1.9061796e-05 2.589526e-10 1.631898e-05 2.6340038e-05 5.418012e-07 2.4893105e-05 2.7390306e-05
4.3953696e-10 3.1422733e-05 2.5588603e-05 4.996487e-07 2.4672992e-05 2.7516824e-05 3.6857006e-10 2.1349348e-05
3.822528e-05 7.7608973e-07 3.0690688e-05 4.5165605e-05 5.90426e-10 3.5092355e-05 5.843747e-05 1.5944688e-06
5.7732123e-05 6.5967695e-05 1.0613999e-09 0.00013062023 8.957947e-06 1.2403476e-07 4.312347e-06 7.0232327e-06
1.027852e-10 5.2546266e-06 9.9516816e-05 1.6783292e-06 6.797582e-05 9.235558e-05 1.1690492e-09 9.258733e-05
5.123107e-05 1.0681699e-06 6.199987e-05 4.5806904e-05 6.074313e-10 9.626578e-05 0.00018035795 2.2513875e-06
0.00012790227 0.00010409391 2.1189928e-09 0.00015807718 9.921499e-06 1.4293441e-07 9.681849e-06 9.862977e-06
9.666359e-11 1.0274256e-05 4.0034305e-05 6.314471e-07 2.215346e-05 5.048365e-05 4.641533e-10 2.9974064e-05
7.416184e-06 1.2547815e-07 5.9148565e-06 5.2968894e-06 9.658803e-11 1.0701794e-05 2.6456228e-05 5.985143e-07
3.4845212e-05 3.785082e-05 3.4616948e-10 4.435692e-05 2.0130148e-05 4.928644e-07 1.9806628e-05 2.2240347e-05

exp_avg f4 [128]
00000000: 1e13 00ba 3823 c6b9 cc66 8f3a 55b4 ab39
00000010: fe4b 9839 e22b 5439 ad71 3b3b f99f 2fb7
00000020: 335b 643a c030 e1b8 3116 143a 5b72 84b8
00000030: 97a7 c1b9 02db 363a a7d2 04ba 80ec 08ba
00000040: e515 95b5 0753 04b9 e05f d7b9 ec27 8538
00000050: ef0b 86ba 401e cd38 e61c 19b9 fe55 26ba
00000060: 82b5 4539 8f9d 4db9 99e0 d3b9 183a 4bba
00000070: aa31 12ba e057 e439 de1e cdb9 1f65 583a
00000080: 25e9 f6b7 223b 1a3a 9278 77b8 e4d9 4cba
00000090: 1de2 c3ba b8d9 c93a 0bb4 8038 05b5 9cb9
000000a0: 3811 ea38 b58f 6e3a 0e91 7a39 73ca f038
000000b0: df35 62ba ca54 8a3a 6eae f0b9 0838 b9b8
000000c0: 5f50 a2b9 5456 56b8 2ff9 e3b9 bad9 22ba
000000d0: 84b7 48b8 90bc 23b9 3045 e139 5f21 783a
000000e0: 7593 133a 852c d8b8 9903 c339 f094 ba39
000000f0: 05ae 8039 d52d 6bb9 d3ee ce39 d814 d3b9
00000100: 4c49 4bb9 7587 60b9 a34f 11ba 41c0 36ba
00000110: e00a 56b8 d165 6fb9 4abc 163a 8df4 0139
00000120: 35fe 8839 eaad 37b7 376a ddb9 91e6 d639
00000130: 255d c2b7 46ef 80ba 1300 9037 0afd 853a
00000140: 40c5 0eb8 e0fa 893a b0c2 ff38 ef6b 4739
00000150: cf04 adb8 5eef 95ba e2e4 463a 0ae1 7bb9
00000160: 7a31 8f37 d6e8 173a c2aa e138 de56 993a
00000170: 88d9 b4b8 7b74 61b9 d2c0 5d3a 6aee beb9
00000180: d30c 1639 cea2 25b9 3f4e 6838 17fa 12b9
00000190: 3cec 0cb9 73c7 84b9 fe3d 1439 98ff 4e39
000001a0: fb62 ddb9 1407 6838 4d03 0e3b 8fc9 c2b8
000001b0: 1c63 553a 232a f339 35f7 d4b7 11c9 36ba
000001c0: ae22 f939 54c3 9439 927f 4bb9 0d21 7739
000001d0: c395 0cba e171 bc39 c80f dfb9 22c2 9638
000001e0: 8bc7 efba 5f9e c637 84e7 2239 a436 ab38
000001f0: 6729 87b9 03ea dfb8 6b85 bd38 9724 2a3a
-0.0004885661 -0.00037791743 0.001094067 0.0003275002 0.00029048318 0.00020234243 0.0028601692 -1.0468059e-05
0.00087110995 -0.000107379165 0.0005649059 -6.315551e-05 -0.00036936693 0.0006975384 -0.000506679 -0.00052232295
-1.1107737e-06 -0.00012619431 -0.00041079428 6.34937e-05 -0.0010226945 9.780796e-05 -0.00014601983 -0.00063452113
0.00018855001 -0.00019609019 -0.00040412394 -0.0007752492 -0.00055768585 0.0004355302 -0.00039123645 0.00082548143
-2.9434052e-05 0.0005883445 -5.900168e-05 -0.00078144507 -0.0014944706 0.0015399968 6.137051e-05 -0.0002988951
0.00011161197 0.00091003935 0.00023895895 0.00011481801 -0.0008629243 0.0010553834 -0.00045906327 -8.831924e-05
-0.0003095893 -5.1101975e-05 -0.0004348247 -0.00062122534 -4.7854628e-05 -0.00015615136 0.00042966893 0.0009465422
0.0005629578 -0.00010307975 0.0003719598 0.00035587652 0.00024543717 -0.0002242842 0.0003946932 -0.00040260586
-0.00019386894 -0.00021412766 -0.0005543178 -0.0006971397 -5.1031704e-05 -0.00022830746 0.0005750103 0.00012393501
0.0002612934 -1.09481425e-05 -0.0004223154 0.00040989046 -2.3169976e-05 -0.0009836934 1.7166172e-05 0.0010222506
-3.403914e-05 0.0010527037 0.00012195611 0.00019018327 -8.2501785e-05 -0.0011439135 0.0007587207 -0.00024021059
1.7069968e-05 0.0005794888 0.00010760642 0.0011698862 -8.623587e-05 -0.00021501064 0.00084592134 -0.00036417256
0.00014309892 -0.00015796276 5.5385983e-05 -0.00014016811 -0.00013439445 -0.00025325603 0.00014137474 0.00019740907
-0.0004222615 5.5319702e-05 0.0021669448 -9.288184e-05 0.00081400736 0.00046379966 -2.5387484e-05 -0.000697271
0.0004751882 0.0002837429 -0.00019407112 0.00023568068 -0.00053628924 0.00035943 -0.00042545632 7.1887174e-05
-0.0018293721 2.3677187e-05 0.0001553577 8.164093e-05 -0.00025780054 -0.00010677057 9.037073e-05 0.00064904377

exp_avg_sq f4 [128]
00000000: 32b3 8f36 ffd0 3837 2919 3237 16da 0a36
00000010: ba0c 2536 aa2e 8937 d06a fc37 ff35 d236
00000020: e977 3437 75fe 4035 9995 9f36 d223 b835
00000030: 2e9b 8d36 1ecc ae37 058c 9736 9308 a135
00000040: 9a16 0936 c785 a636 8865 be36 f556 e137
00000050: 14cc c336 f6cd cb36 bb07 d035 77f4 8036
00000060: 4591 3336 4cf4 1336 188b a636 ff96 e737
00000070: 6953 4d36 3cf7 4d36 aaee aa36 c1a7 9e36
00000080: b31d 0137 4838 8037 d1f0 a435 3544 8537
00000090: 1ca7 2937 74d7 b237 d2b2 bb35 abc9 d436
000000a0: 257a a335 fbc8 bf36 d1e3 9c36 6d53 a937
000000b0: 6872 6837 0162 0437 762d fe36 f76d 8636
000000c0: 77e9 a636 3c57 7036 1eac 8737 ab3b 3936
000000d0: 1aca f436 8c6c cf35 35cb 4437 865e 2337
000000e0: 9392 9036 a458 3337 e980 2836 3995 1c37
000000f0: 9aa6 3436 808d cb36 3ee3 1036 9d03 a036
00000100: 0c79 6d36 a2f9 2037 16cb a236 f4a5 7537
00000110: 7e40 c936 eb4b 5c36 6303 f735 087e 2a36
00000120: b411 6136 2c2b a736 748a cd36 95a8 7d36
00000130: b673 6336 a70a a736 5d01 2436 8d42 1c37
00000140: f8ba 8f35 f71e 5037 99af 2236 c17f 0536
00000150: 1f57 ac35 e340 8837 e5c9 5c37 6147 2236
00000160: 7ef7 7c36 b065 5a37 ad48 4636 387e fd37
00000170: bf9f 1d36 93be 6f36 4686 8336 509a 3b37
00000180: c89b 5a36 5fe7 0937 f0c0 5f35 1051 9f35
00000190: 2394 1336 bc76 0436 26c9 a336 9d6d 4b36
000001a0: c078 6b37 44a4 b536 9b4d 7137 411d 1a37
000001b0: 4f1a 0e37 c95a dc36 93fa 0b36 a5a9 dd36
000001c0: a5f6 0336 fa04 d136 ec48 9335 82d5 d035
000001d0: b1f8 9137 887e 4b37 0f69 dd36 c641 c736
000001e0: 988c 8c37 233a 8b35 a10e 8137 18e1 0837
000001f0: 8986 c836 16a1 ed35 ad3a 0d36 70b2 b537
4.282593e-06 1.1015915e-05 1.0615485e-05 2.0690545e-06 2.4594324e-06 1.6353402e-05 3.009048e-05 6.2647737e-06
1.0756755e-05 7.189586e-07 4.7559847e-06 1.3719493e-06 4.2201927e-06 2.0837466e-05 4.516451e-06 1.199793e-06
2.0427747e-06 4.9627592e-06 5.674261e-06 2.6862583e-05 5.8352107e-06 6.0738485e-06 1.5499458e-06 3.8431567e-06
2.6757637e-06 2.2046906e-06 4.963378e-06 2.7607659e-05 3.0595932e-06 3.069129e-06 5.094179e-06 4.728296e-06
7.695914e-06 1.5284997e-05 1.2289039e-06 1.5886597e-05 1.0112093e-05 2.1319582e-05 1.3984629e-06 6.3415696e-06
1.2179995e-06 5.715641e-06 4.6756836e-06 2.0185218e-05 1.3854915e-05 7.890631e-06 7.5750822e-06 4.006313e-06
4.9743644e-06 3.5813564e-06 1.6173402e-05 2.760188e-06 7.2952944e-06 1.5454293e-06 1.1729823e-05 9.737565e-06
4.308598e-06 1.068987e-05 2.5108986e-06 9.333068e-06 2.6919065e-06 6.066344e-06 2.1589944e-06 4.768792e-06
3.538621e-06 9.594865e-06 4.8516185e-06 1.4641777e-05 5.9977747e-06 3.2826745e-06 1.840392e-06 2.5405334e-06
3.3537917e-06 4.9820137e-06 6.125594e-06 3.7798065e-06 3.3892989e-06 4.978228e-06 2.4438698e-06 9.31382e-06
1.0708745e-06 1.2404976e-05 2.4242092e-06 1.9892907e-06 1.2840354e-06 1.6242679e-05 1.3160029e-05 2.418143e-06
3.7694986e-06 1.30174885e-05 2.9546602e-06 3.0218725e-05 2.3487808e-06 3.5724704e-06 3.9197357e-06 1.1181997e-05
3.2575208e-06 8.219707e-06 8.3354735e-07 1.1870015e-06 2.1990934e-06 1.9738645e-06 4.8811953e-06 3.031316e-06
1.4035206e-05 5.4133434e-06 1.4382788e-05 9.1859265e-06 8.469985e-06 6.5670797e-06 2.0858467e-06 6.6060625e-06
1.9664087e-06 6.2292647e-06 1.0973577e-06 1.5559347e-06 1.7401153e-05 1.2129203e-05 6.5985437e-06 5.938319e-06
1.675477e-05 1.0373227e-06 1.538481e-05 8.15864e-06 5.9761264e-06 1.7704758e-06 2.104479e-06 2.1659973e-05
