ML-Agents/Examples/Basic1/results/test_movetogoal3/MoveToGoal/MoveToGoal-12393.onnx (onnx, 75098 bytes, 7 tensors)

network_body._body_endoder.seq_layers.0.weight f4 [128, 6]
0	0xbe28cf56	-0.16485342
1	0xbef39883	-0.47577295
2	0xbc19af16	-0.009380123
3	0xbee55c60	-0.4479704
4	0xbed308e1	-0.41217712
5	0x3f742d36	0.95381486
6	0x3e79f1d4	0.24408656
7	0x3d809aaf	0.062795036
8	0xbee153e2	-0.4400931
9	0xbed99e69	-0.4250367
10	0x3eb791d3	0.35853443
11	0x3eca16e5	0.39470592
12	0xbd3a4427	-0.04547515
13	0x3e65a019	0.22424354
14	0xbef5acad	-0.47983304
15	0x3ef237df	0.4730825
16	0xbf87a6ea	-1.0597813
17	0xbeea2b2d	-0.45736066
18	0x3ee4b323	0.4466792
19	0x3f275ada	0.65373003
20	0x3e074525	0.1320997
21	0xbee3dc2a	-0.4450391
22	0x3f1458e6	0.5794815
23	0x3eba8b78	0.3643453
24	0x3e91b254	0.28456366
25	0xbf2687d0	-0.65050983
26	0xbecd6620	-0.40116978
27	0x3ee3f385	0.44521728
28	0xb9feb923	-0.00048584593
29	0xbe36ce3a	-0.17852107
30	0xbf3ed78d	-0.74547654
31	0xbe9182d7	-0.28420135
32	0x3f19fdcc	0.6015289
33	0x3e4c6640	0.1996088
34	0xbf281d37	-0.6566958
35	0xbdb2b8cc	-0.087266535
36	0xbeb83f41	-0.3598576
37	0xbeabb4bf	-0.33536336
38	0xbf7edacf	-0.99552625
39	0x3f098468	0.5371766
40	0x3d13594e	0.03597384
41	0xbd256973	-0.040383767
42	0x3ed2994a	0.41132575
43	0xbf352c8d	-0.70771104
44	0xbdec8791	-0.11549295
45	0xbe370200	-0.17871857
46	0xbdda5673	-0.1066102
47	0xbed29aae	-0.41133636
48	0xbec697d5	-0.38787714
49	0x3ebe2546	0.37137812
50	0xbece0d45	-0.402445
51	0x3ec2f431	0.38076928
52	0xbefa79f4	-0.48921168
53	0x3e336354	0.1751836
54	0xbedde2de	-0.43337148
55	0xbe3e0e03	-0.18560033
56	0xbeae137e	-0.33999246
57	0xbaa7e33c	-0.001280881
58	0x3e258bff	0.16166686
59	0xbe116ba8	-0.14201224
60	0xbdc1df90	-0.09466469
61	0xbf328051	-0.69727045
62	0x3d9893dd	0.07450078
63	0xbe1cec5c	-0.15324539
64	0x3f0c0e7a	0.5470959
65	0xbe56a1d1	-0.20960166
66	0xbe6323a4	-0.22181565
67	0xbf054708	-0.5206151
68	0x3e5c7c2e	0.21531746
69	0x3e4d0f0d	0.20025273
70	0xbe6d9c8e	-0.23204252
71	0x3f10bb3e	0.5653571
72	0xbebbcb08	-0.36678338
73	0x3e9f0a11	0.31062368
74	0xbe2162e6	-0.15760383
75	0x3d2907d2	0.041267224
76	0xbeaccf57	-0.33751938
77	0x3f34a04e	0.70557106
78	0xbf60f9a5	-0.8788093
79	0x3e175061	0.14776756
80	0x3ee2f57f	0.44327924
81	0x3f144a7f	0.5792617
82	0x3e46dd44	0.19420344
83	0xbe371887	-0.1788045
84	0x3eed909a	0.46399385
85	0x3ecda414	0.40164244
86	0xbdfba3f2	-0.122871295
87	0xbeddd93c	-0.433298
88	0x3dac01f2	0.083988085
89	0x3d45cc9c	0.048290834
90	0xbd8ced86	-0.068812415
91	0x3eb800d1	0.35938123
92	0xbbfa8da5	-0.00764628
93	0xbd706de0	-0.058698535
94	0x3ed02baa	0.40658313
95	0xbf0d2095	-0.5512784
96	0xbeb97c1a	-0.36227494
97	0xbf1de13e	-0.6167182
98	0x3e68491b	0.22684138
99	0xbe90fe35	-0.28318945
100	0xbdcb600c	-0.09930429
101	0xbe8006ee	-0.25005287
102	0x3ed49f79	0.41527918
103	0x3eba37fe	0.36370844
104	0x3e510e7e	0.20415685
105	0xbe6acefd	-0.22930522
106	0x3e7085cf	0.23488544
107	0x3f2fc6a7	0.68662494
108	0x3e8725f9	0.26396158
109	0xbf35be03	-0.7099306
110	0xbf82e561	-1.0226251
111	0x3f3ef796	0.74596536
112	0xbee95f34	-0.45580447
113	0x3ed8401a	0.42236406
114	0x3e82164d	0.2540764
115	0xbf33f07a	-0.70288813
116	0xbd74476c	-0.059638426
117	0xbf8024cd	-1.0011231
118	0x3dd328f1	0.10310543
119	0x3db91ae4	0.09038332
120	0x3e33847b	0.17531006
121	0x3e85591e	0.26044554
122	0x3d826fbb	0.06368967
123	0x3dd75be3	0.10515573
124	0xbe07801d	-0.13232465
125	0x3ebc1604	0.36735547
126	0x3d00887b	0.031380158
127	0xbe3392d8	-0.17536485
128	0x3df73c64	0.120720655
129	0xbdb1792f	-0.08665692
130	0x3e30ff8f	0.17284988
131	0xbdfefc1e	-0.12450431
132	0x3d1d7bb1	0.03844804
133	0xbed062b4	-0.40700305
134	0xbe1cd3fd	-0.15315242
135	0xbc032cb5	-0.008006264
136	0x3e37c5d2	0.17946556
137	0x3ec9db4d	0.39425126
138	0x3ebc8c43	0.3682576
139	0xbe1b804a	-0.15185657
140	0x3e92b0c4	0.28650486
141	0xbe299d75	-0.16563971
142	0x3ebee734	0.3728577
143	0x3e729fbd	0.23693748
144	0xbbca2c1b	-0.0061698086
145	0x3edf2923	0.43586072
146	0x3f16ce35	0.58908397
147	0xbe90c58d	-0.2827572
148	0x3e01cdea	0.12676206
149	0x3d236a19	0.039896104
150	0x3eaf7e7b	0.34276184
151	0xbdbdd848	-0.09269768
152	0xbe998527	-0.299844
153	0x3f3fd5eb	0.7493579
154	0xbd6d6e1d	-0.05796634
155	0xbe05ce58	-0.13066995
156	0x3f068b50	0.52556324
157	0xbed52c26	-0.41635245
158	0x3e43fe10	0.19139886
159	0x3e7110e3	0.23541598
160	0x3c0ecbdc	0.008715596
161	0x3efad9b2	0.48994213
162	0x3e3b9466	0.18318328
163	0x3e82175b	0.25408444
164	0xbf048668	-0.5176759
165	0xbe704992	-0.23465565
166	0xbe0a8e0f	-0.13530754
167	0x3ea1e5e6	0.3162071
168	0x3eb21242	0.34779555
169	0xbe66e25a	-0.22547284
170	0xbf09af5d	-0.5378321
171	0x3eb5f0b8	0.35535216
172	0x3e8c758e	0.27433437
173	0xbdbbd61f	-0.091717
174	0xbdce53fd	-0.10074613
175	0x3d7ef2d0	0.062243283
176	0x3f6dec3a	0.9293858
177	0xbd1b31df	-0.037889358
178	0x3e1822fe	0.14857098
179	0x3e86e520	0.26346684
180	0x3f43ecfb	0.7653348
181	0x3e0ff177	0.14056955
182	0x3ebd8536	0.37015694
183	0xbe9846fe	-0.29741663
184	0xbe7ef5e4	-0.24898487
185	0x3e72ab09	0.23698057
186	0xbe090612	-0.13381222
187	0xbed99ac9	-0.42500904
188	0x3e62c1f4	0.221443
189	0x3f072507	0.52790874
190	0x3e7991ad	0.24371977
191	0x3e0622d0	0.13099217
192	0xbe992c4c	-0.29916608
193	0xbee1e90a	-0.44123107
194	0x3d0aa8d2	0.033852406
195	0xbf911764	-1.1335263
196	0x3ed08589	0.4072688
197	0x3e318835	0.17337115
198	0xbf25d4a7	-0.64777607
199	0x3db1df02	0.086851135
200	0xbdab3b04	-0.08360866
201	0x3b4f0f14	0.003159468
202	0xbc8de1e0	-0.01731962
203	0xbf1221ea	-0.57083
204	0xbedf8267	-0.43654177
205	0x3d0ddb4a	0.03463296
206	0xbd1591c4	-0.036515966
207	0xbe198435	-0.14991839
208	0xbf0d5f3d	-0.5522345
209	0x3e0d41e7	0.13794671
210	0x3e227802	0.15866092
211	0xbe6e6e35	-0.23284228
212	0x3f4d989d	0.80310994
213	0xbeb935d4	-0.3617388
214	0xbebcdd77	-0.36887714
215	0xbf2adc3f	-0.6674232
216	0x3f5bfc4b	0.85931844
217	0x3f1d40fd	0.6142729
218	0xbf00a363	-0.5024931
219	0xbf01d277	-0.5071177
220	0xbf250166	-0.6445526
221	0xbe7840c6	-0.24243459
222	0xbebaf399	-0.36513975
223	0xbf58401d	-0.8447283
224	0xbf1454a5	-0.5794166
225	0x3f3fb582	0.74886334
226	0x3ea20dfa	0.31651288
227	0x3ee6e9c7	0.45100233
228	0x3e18aeb8	0.149104
229	0x3f6c72a8	0.9236245
230	0xbd7508a7	-0.059822705
231	0x3e05268b	0.13002984
232	0xbe363e55	-0.17797215
233	0xbe37bcd8	-0.17943132
234	0xbf61ea26	-0.8824791
235	0x3f269017	0.65063614
236	0xbe82e9ae	-0.25568908
237	0x3e01b8eb	0.12668197
238	0x3f2e8aa5	0.68180305
239	0x3ec3423f	0.3813648
240	0x3c865918	0.016399905
241	0xbd13f499	-0.03612194
242	0xbec60736	-0.38677377
243	0xbe69aac2	-0.22819045
244	0xbf4ec0aa	-0.8076273
245	0xbf0c9af4	-0.5492394
246	0x3c884e1a	0.016638804
247	0xbf17e230	-0.5932951
248	0xbe8808ee	-0.26569313
249	0x3e6008e5	0.21878393
250	0xbf048ad9	-0.51774365
251	0xbdbcab6a	-0.09212382
252	0x3f139196	0.5764402
253	0xbde64b10	-0.11244786
254	0x3d2e360f	0.042532023
255	0x3e45ba46	0.19309339

network_body._body_endoder.seq_layers.0.bias f4 [128]
0	0x3c042993	0.008066553
1	0x3b9ed3bd	0.0048470185
2	0xbaf9afcb	-0.0019049583
3	0x3bbce728	0.0057648607
4	0xbc1f9218	-0.009739421
5	0x3b2dfd2c	0.0026548607
6	0xbbe2c7cf	-0.0069207917
7	0xbba46763	-0.0050172075
8	0x3cb6234a	0.022233624
9	0xbd1b272e	-0.03787916
10	0xbcc9b44c	-0.024622105
11	0xbc4ed1c8	-0.012623258
12	0x3c7b3bbd	0.015334067
13	0xbc5259b4	-0.01283877
14	0xbb9012f7	-0.004396792
15	0xbc93fa8a	-0.018063802
16	0xbcbf7071	-0.023369046
17	0xbb88b713	-0.004172215
18	0x3c2ecbde	0.010668723
19	0x3be6ef01	0.0070475345
20	0xbd03cbb6	-0.032176696
21	0x3b28af96	0.0025739423
22	0xbcf78bc3	-0.03021801
23	0x3ccb89fb	0.024846068
24	0xb7a6d978	-1.9890009e-05
25	0xbc8cfb22	-0.017209593
26	0xbc9cf79d	-0.01916104
27	0x3c9fe04a	0.019516129
28	0xbd4cd311	-0.050005976
29	0xbc1f8efc	-0.00973868
30	0xbcc31ffd	-0.023818964
31	0xbc95b73c	-0.01827585
32	0xbaa15365	-0.0012308179
33	0x3c1f7f19	0.009734892
34	0xbd1027b9	-0.035194132
35	0xbbe1bb8e	-0.0068888133
36	0xbcc42fda	-0.023948599
37	0x3cb9497b	0.022618046
38	0xbb98e5c9	-0.0046660644
39	0x3aa677e1	0.0012700522
40	0xbca932e6	-0.020654153
41	0xbd04509a	-0.03230343
42	0xbd067fd6	-0.032836758
43	0xbcd87033	-0.026420688
44	0x3ad068dd	0.0015900392
45	0x3c7747c8	0.015092798
46	0xbc71aabc	-0.014750179
47	0x3bc49fc5	0.0060004913
48	0x3ba82b24	0.005132096
49	0xbbdd1eaf	-0.0067480425
50	0xbc72fd5a	-0.0148309115
51	0xbb8b385f	-0.0042486633
52	0xbbacfd7d	-0.0052792416
53	0xbd775ccf	-0.060391244
54	0x3c20d806	0.009817129
55	0xbca41748	-0.020030633
56	0xbc20fcf0	-0.00982593
57	0xbccec242	-0.025239114
58	0x3c028e16	0.007968446
59	0xbc0af3c1	-0.008480967
60	0xbcc4d3ab	-0.024026712
61	0x3bb38481	0.005478442
62	0xbc9f4291	-0.019440921
63	0x3aa0adb6	0.0012258801
64	0x3c109749	0.008825132
65	0xbc0a0f48	-0.008426495
66	0xbd289db9	-0.04116604
67	0x3ac06c4d	0.0014680714
68	0xbc2f5a9a	-0.010702753
69	0x3c56b239	0.013104015
70	0xbce59db4	-0.0280293
71	0xbb9178fc	-0.0044394713
72	0xbd0ccca9	-0.034374867
73	0xbaa4afbd	-0.0012564581
74	0x3bb04c7e	0.0053802123
75	0x3bd47016	0.0064830882
76	0x3c49d89a	0.012319708
77	0xbc9984b4	-0.018740036
78	0xbcbc611b	-0.022995522
79	0x3cb9af86	0.022666704
80	0xbc6802c4	-0.014160816
81	0xbc6a78a2	-0.014310988
82	0x3b71d117	0.003689831
83	0x3c5c847e	0.013459323
84	0xbb80e27b	-0.0039332486
85	0x3c4b48de	0.01240751
86	0x3aafdac1	0.0013416634
87	0xbce5694d	-0.028004313
88	0xbca1a6c6	-0.019732844
89	0x3ba05e5f	0.0048940624
90	0x3b11acc0	0.0022228211
91	0x3c6717b9	0.014104777
92	0xbcdeb681	-0.027186634
93	0x3b9e0226	0.0048220335
94	0xbc98c397	-0.018647952
95	0x3c6966ba	0.014245683
96	0x3bcb2281	0.0061991815
97	0x3c6dc42c	0.014512103
98	0xbc5de375	-0.0135429995
99	0xbb881212	-0.004152545
100	0x3c142016	0.009040853
101	0xbc031fc6	-0.008003181
102	0x3c10eb38	0.008845143
103	0xbc189579	-0.009312981
104	0xba655526	-0.0008748345
105	0xbc5bf31f	-0.013424664
106	0xbd4b0c67	-0.049572375
107	0x3ad4a8ce	0.0016224624
108	0xbc78dfba	-0.015190059
109	0xbae5ca30	-0.001753157
110	0xbbd14cdc	-0.006387336
111	0xbc73144d	-0.014836383
112	0xbc623d28	-0.013808526
113	0x3ace4241	0.0015736298
114	0x3b891d41	0.0041843955
115	0xbbe3e31c	-0.006954564
116	0xbd3acef8	-0.045607537
117	0x3b1c1b55	0.0023820002
118	0xbd2b534d	-0.04182749
119	0xbc5e0ea6	-0.013553297
120	0x3bf12180	0.00735873
121	0x3c651628	0.013982333
122	0xbd15a170	-0.036530912
123	0xbb405853	-0.002934952
124	0xbc854070	-0.016266078
125	0xbc2ad86b	-0.010427575
126	0xbc6910c3	-0.014225188
127	0x3c5a5ab5	0.01332729

network_body._body_endoder.seq_layers.2.weight f4 [128, 128]
0	0x3e4b55ce	0.1985695
1	0xbe00743c	-0.1254434
2	0x3a940d40	0.0011295453
3	0xbd4c400f	-0.04986578
4	0xbd9c83d8	-0.07642335
5	0x3d0c0be7	0.03419104
6	0xbc9383fd	-0.018007273
7	0xbc1efc26	-0.009703672
8	0x3d7e7bf0	0.062129915
9	0xbd9bcb5c	-0.07607147
10	0xbd9f793b	-0.07786795
11	0xbd940101	-0.07226754
12	0xbbbaccb6	-0.005700673
13	0x3c5084b1	0.012726949
14	0xbe89327d	-0.26796332
15	0xbda39985	-0.07988266
16	0xbdbdd756	-0.09269588
17	0xbe1dea4a	-0.15421405
18	0xbdf4824a	-0.11938913
19	0xbdb89fe0	-0.09014869
20	0xbd6363fc	-0.055515274
21	0xbd928740	-0.07154703
22	0x3d41316a	0.047166266
23	0xbc48e0f4	-0.012260664
24	0xbc68ee88	-0.0142170265
25	0xbdd17ec8	-0.1022926
26	0xbe257605	-0.16158302
27	0xbd98a7ab	-0.07453855
28	0x3d21e205	0.03952219
29	0x3d369f10	0.044585288
30	0xbe3ec278	-0.18628871
31	0x3b91a6e4	0.0044449437
32	0xbc1268c0	-0.008936107
33	0x3dd3255c	0.1030986
34	0x3dbebd19	0.09313411
35	0xbd78a5ab	-0.06070487
36	0x3d8e0fba	0.06936593
37	0xbce7a551	-0.028277071
38	0xbe13366a	-0.14376226
39	0xbc47ba4d	-0.012190414
40	0xbd70125e	-0.058611266
41	0x3da01c76	0.078179285
42	0xbd4e91e6	-0.05043211
43	0xbdc48bd2	-0.09596981
44	0xbe6d9030	-0.23199534
45	0xbc1f6878	-0.009729497
46	0xbdb8d2c3	-0.090245746
47	0x3e17eff2	0.14837626
48	0x3dc26293	0.09491458
49	0xbe11b163	-0.14227824
50	0xbd2c2f74	-0.042037442
51	0xbdbd291f	-0.09236359
52	0x3e2f7d7c	0.17137712
53	0x3d276067	0.04086342
54	0xbcc7e1a9	-0.024399595
55	0x3d792ad2	0.060831852
56	0x3cab5fd6	0.020919722
57	0x3ddd08e4	0.107927114
58	0xbe31dc65	-0.1736923
59	0xbd9e7a46	-0.077381656
60	0xbc11b7e0	-0.008893937
61	0xbe3eb823	-0.1862493
62	0x3dacd405	0.08438877
63	0x39cb9e46	0.000388371
64	0x3d9b065c	0.07569572
65	0xbd102b24	-0.035197392
66	0xbcc9d422	-0.024637286
67	0xbd7951a6	-0.06086888
68	0xbde147ad	-0.10999999
69	0x3c821d07	0.015882982
70	0xbdd5d390	-0.10440743
71	0x3d7a5deb	0.061124723
72	0x3dc7159f	0.09720921
73	0xbd91ef6b	-0.071257435
74	0xbbc890a9	-0.0061207605
75	0x3df1733e	0.11789559
76	0xbc4364c5	-0.011925881
77	0xbe226306	-0.15858087
78	0xbe2afd40	-0.1669817
79	0xbd27019f	-0.04077303
80	0xbdea27da	-0.11433382
81	0xbd44cee5	-0.048048873
82	0x3d311ab7	0.043238368
83	0x3dfa254f	0.12214147
84	0x3d69d555	0.057088215
85	0x3db4bd94	0.08825222
86	0xbcd037a9	-0.025417166
87	0x3d4f20a3	0.050568234
88	0x3d47240a	0.048618354
89	0x3c9e42f1	0.01931903
90	0x3e0e6f86	0.1390973
91	0xbb623a0f	-0.003451947
92	0x3dc3377c	0.09532067
93	0x3d35523c	0.044267878
94	0xbdbe275f	-0.09284853
95	0xbdd91906	-0.10600476
96	0xbe8d5986	-0.27607363
97	0x3da7d165	0.08194236
98	0xbccc87fd	-0.024967188
99	0xbd7a9be4	-0.061183825
100	0xbce8942b	-0.028390964
101	0x3d2430d0	0.040085614
102	0x3c77550d	0.015095961
103	0x3dbb2d24	0.09139469
104	0x3e279bb2	0.16367987
105	0x3d53ffd9	0.051757667
106	0xbcae9a15	-0.021313706
107	0xbd964a5c	-0.07338402
108	0x3d02fa88	0.031977206
109	0x3b6d8759	0.0036244004
110	0xbdd6f2fa	-0.10495563
111	0xbd20d2be	-0.03926348
112	0xbd63d1f7	-0.05562016
113	0xbd891a06	-0.06694417
114	0xbd69a57d	-0.057042588
115	0x3d2d5f91	0.042327467
116	0x395d72b4	0.00021118933
117	0x3cf4e9e6	0.029896688
118	0x3de1880c	0.11012277
119	0xbdc24c9c	-0.09487268
120	0xb9c98695	-0.0003843798
121	0xbcdfe4f9	-0.027330862
122	0x3dc67e80	0.09692097
123	0x3c4dc6d4	0.012559611
124	0x3ba7d4ac	0.005121788
125	0xbe2b1d06	-0.1671029
126	0x3d70eadb	0.058817726
127	0x3d0201d9	0.031740043
128	0x3d6ca6cc	0.057776257
129	0x3d80df6f	0.062926166
130	0x3dd7efe6	0.10543804
131	0xbd2a0351	-0.04150707
132	0x3d6d9e1e	0.05801212
133	0xbdcecf8b	-0.100981794
134	0xbcc5328b	-0.024071952
135	0xb9f60d3f	-0.00046930645
136	0x3dfc0a6e	0.12306677
137	0x3d6bd36e	0.057574682
138	0xbe29d997	-0.1658691
139	0xbdd07936	-0.10179369
140	0xbc283892	-0.010267394
141	0x3dbadf2b	0.09124597
142	0x3bdee53b	0.0068022287
143	0xbdb239ac	-0.08702406
144	0xbdce5f24	-0.100767404
145	0xbc6d7bda	-0.014494861
146	0x3d8368f0	0.064164996
147	0x3de21454	0.110390335
148	0xbc2ed3ef	-0.010670646
149	0xbddff18d	-0.10934744
150	0xbd5c47c6	-0.053779386
151	0x3d36892a	0.044564404
152	0xbda308d5	-0.07960669
153	0x3de3f594	0.11130825
154	0x3da08a03	0.07838824
155	0xbd7272e2	-0.059191592
156	0xbd904cb7	-0.07045882
157	0x3d279b77	0.040919747
158	0xbc8b8721	-0.017032208
159	0xbd6b173f	-0.057395216
160	0xbcd987c5	-0.026553998
161	0x3d448740	0.047980547
162	0xbda14da0	-0.07876134
163	0xbdd3463b	-0.1031613
164	0xbe21de67	-0.15807496
165	0x3d1d8f3e	0.038466685
166	0x3de90851	0.11378539
167	0x3d011c4a	0.03152112
168	0xbbfc641d	-0.007702364
169	0x3c15859d	0.009126094
170	0xbdcf7fda	-0.101318076
171	0xbd472f85	-0.048629303
172	0xbc252ee4	-0.01008198
173	0xbda408dd	-0.08009503
174	0x3d992003	0.07476809
175	0x3de80408	0.11328894
176	0xbcb5ff28	-0.022216395
177	0x3d48d3df	0.04903018
178	0xbd57c45f	-0.05267751
179	0xbd874858	-0.06605595
180	0xbd8cfc7c	-0.06884095
181	0xbe43b432	-0.19111708
182	0x3d03a704	0.0321417
183	0xbd75c087	-0.05999806
184	0x3d2a6db7	0.04160854
185	0xbe15a9aa	-0.14615503
186	0xbcc1e63f	-0.02366936
187	0x3d98b67d	0.07456682
188	0x3d4da261	0.050203685
189	0xbdc522ed	-0.09625802
190	0xbd39bdc9	-0.04534701
191	0x3dac95b9	0.08426995
192	0xbd8906bc	-0.066907376
193	0xbd9256f1	-0.07145489
194	0xbd8d8e24	-0.06911877
195	0xbd7fcbfa	-0.062450387
196	0xbc7d2a3f	-0.015451967
197	0x3d63f128	0.055649906
198	0xbd8a40f3	-0.06750669
199	0xbe074c46	-0.1321269
200	0x3da534f9	0.08066744
201	0x3c6b1cc0	0.014350116
202	0xbdc04819	-0.093887515
203	0x3bbc1c96	0.0057407124
204	0x3da3baee	0.079946384
205	0xbca26b1c	-0.019826464
206	0x3bfc5186	0.007700148
207	0x3dd7774c	0.10520801
208	0x3dfe4963	0.12416341
209	0xbe58449b	-0.21119921
210	0x3d694c2c	0.05695741
211	0xbde1197d	-0.1099119
212	0x3e1eccc0	0.15507793
213	0x3d77a393	0.06045873
214	0x3d770da6	0.06031575
215	0xbe08e5ad	-0.13368864
216	0x3d2f0da7	0.04273763
217	0xbcc73634	-0.024317838
218	0x3d1671c6	0.036729597
219	0x3d291446	0.0412791
220	0x3db6b7fb	0.0892181
221	0xbd4c20d5	-0.049836
222	0xbd848a2d	-0.064716674
223	0xbd42d448	-0.04756573
224	0xbe6884a9	-0.22706856
225	0x3e356564	0.17714459
226	0xbe18e4e3	-0.14931063
227	0x3d275f99	0.040862653
228	0xbc6f9e90	-0.014625207
229	0x3ce74919	0.028233098
230	0x3d8cb49c	0.06870386
231	0xbd4474c0	-0.047962904
232	0x3dc6b459	0.09702367
233	0x3c83890e	0.016056564
234	0x3cc4a998	0.02400665
235	0x3c4220ef	0.011848672
236	0xbe2b5a85	-0.16733749
237	0x3d3752b5	0.04475661
238	0xbd5a0512	-0.05322749
239	0x3da05735	0.078291334
240	0x3da9f71b	0.08299085
241	0xbdb3fe86	-0.08788781
242	0x3dd738a3	0.105088495
243	0xbb05c35f	-0.002041064
244	0xbc945a82	-0.018109564
245	0x3daa208c	0.08306989
246	0x3dd5be70	0.10436714
247	0xbde9c588	-0.11414629
248	0x3d0682cc	0.03283958
249	0x3dc2d18a	0.09512623
250	0xbd1537dd	-0.03643023
251	0xbc5e4a53	-0.013567525
252	0xbc74691a	-0.014917636
253	0xbd9b20eb	-0.07574638
254	0xbd1c04d0	-0.038090527
255	0x3dfd523a	0.12369199

network_body._body_endoder.seq_layers.2.bias f4 [128]
0	0x3c557795	0.013028999
1	0x3ca56a7c	0.020192377
2	0xba622ae5	-0.00086276076
3	0x3b83b3e1	0.004019246
4	0x3b477e97	0.0030440444
5	0xbb82cb6f	-0.0039915363
6	0x3bff18b0	0.0077849254
7	0xbb9c5434	-0.00477078
8	0x3b03b824	0.002009877
9	0x3c3fabaf	0.011698647
10	0x3cc41b8d	0.023938918
11	0x3c2c64f3	0.010522115
12	0xbc8fb747	-0.017543448
13	0xbc22c448	-0.009934492
14	0xbc6c95a9	-0.014439979
15	0x3ceb1f43	0.02870143
16	0x3bd52aae	0.006505332
17	0xbc463402	-0.012097361
18	0xbc23a81d	-0.009988812
19	0x3ad95f6d	0.0016584225
20	0xbc2f5029	-0.010700264
21	0xbce28a9a	-0.027653981
22	0xbb94fb0a	-0.0045465278
23	0x3cfea184	0.031082876
24	0xbccee16d	-0.025253976
25	0x3b5ba484	0.0033514807
26	0xbb1b82e8	-0.002372915
27	0x3c9b25b6	0.01893888
28	0xbba57704	-0.005049588
29	0x3ba193bc	0.0049309414
30	0xbc7bd37e	-0.015370248
31	0x3bc035b3	0.0058657764
32	0xbc8acf89	-0.016944664
33	0xbc4a9129	-0.01236371
34	0xbb8518ab	-0.0040617785
35	0xbbaabbb0	-0.0052103624
36	0x3b4a9417	0.0030911022
37	0xbc926db9	-0.017874585
38	0xbbbc770e	-0.005751497
39	0xbd0d03c3	-0.034427416
40	0xbc591425	-0.013249432
41	0x3c76183a	0.0150204245
42	0xbc2bcb73	-0.010485518
43	0xbbb70e4b	-0.0055864207
44	0x3c560e63	0.0130649535
45	0x3b02672f	0.0019897928
46	0x3c35c807	0.0110950535
47	0xbcc1bb8b	-0.023648998
48	0xbc6d8218	-0.014496349
49	0xbc152c94	-0.009104867
50	0xbc1c8c38	-0.009554915
51	0xbc919f93	-0.017776286
52	0xbbc841e3	-0.00611137
53	0xbc9768f7	-0.018482668
54	0x3c0b088e	0.008485926
55	0xbc8710cf	-0.016487507
56	0xbccc2212	-0.02491859
57	0x3bbfe6ca	0.0058563696
58	0xbbbdfd20	-0.005797997
59	0xbb0843f7	-0.0020792463
60	0xbc42ecf5	-0.011897315
61	0xbccd0d40	-0.025030732
62	0xbc583f8a	-0.013198743
63	0x3c179ac5	0.0092532085
64	0xbc6edeba	-0.014579469
65	0xbc5b2fce	-0.013378097
66	0xbc802e5e	-0.01564711
67	0xbc57db2e	-0.013174815
68	0xbb1e8213	-0.0024186417
69	0xbc38208e	-0.01123823
70	0xbbe57c57	-0.007003348
71	0xbb37a1af	-0.0028019955
72	0xbbb294cb	-0.0054498664
73	0x3c65b792	0.014020817
74	0xbc959c8c	-0.018263124
75	0xbd14611e	-0.03622543
76	0xbc3c2fed	-0.011486036
77	0xbbc05393	-0.005869338
78	0xbc203033	-0.009777117
79	0x3b1fd07f	0.0024385748
80	0xbc9ea912	-0.019367728
81	0xbc022b67	-0.007944918
82	0xbb3fa6dc	-0.0029243743
83	0xbb3a0190	-0.002838228
84	0xbccf622e	-0.02531537
85	0x3be4e0e3	0.0069848164
86	0xbbb0f3da	-0.005400163
87	0x3c2270ef	0.009914621
88	0xbbf1bcbf	-0.0073772366
89	0xbc6dbe09	-0.01451064
90	0x3c0cfa2d	0.008604568
91	0xbcf0bcb5	-0.029386858
92	0x3c43eba2	0.011958035
93	0x39b716bb	0.00034921415
94	0xbbd81695	-0.006594489
95	0xbc85c65f	-0.016329942
96	0xbc6340fe	-0.013870476
97	0xbcba3076	-0.022728186
98	0xbbb33058	-0.0054684095
99	0xbb90fcf6	-0.0044246865
100	0xbc017195	-0.007900615
101	0xbb626a2c	-0.0034548147
102	0xbcbeb945	-0.023281703
103	0xbcc98b86	-0.024602663
104	0xbc3488e0	-0.011018962
105	0xbcf0dbf7	-0.029401762
106	0xbc7e92b2	-0.015537905
107	0xbcd093b8	-0.025461063
108	0xbca067ad	-0.019580686
109	0x3c0ffb53	0.008787948
110	0xbbc2ceba	-0.005945054
111	0xbb0cd63d	-0.002149
112	0x3c9c9f09	0.019118803
113	0xbc83ed36	-0.016104322
114	0x3c465d0f	0.012107148
115	0xbbd2f194	-0.0064374898
116	0xbd1a3f01	-0.03765774
117	0xbccb5c5a	-0.02482431
118	0xbc83a781	-0.016071083
119	0x3bbf6cfa	0.0058418484
120	0xbb8d5135	-0.004312659
121	0xbb213578	-0.002459852
122	0xbc88446f	-0.016634194
123	0x3c7c3805	0.0153942155
124	0xbc66f812	-0.0140972305
125	0xba9678e7	-0.0011480124
126	0xbc9e186b	-0.019298753
127	0x3c3d4271	0.011551485

action_model._continuous_distribution.log_sigma f4 [1, 2]
0	0x3d2d4d45	0.042310018
1	0x3ce48308	0.027894512

action_model._continuous_distribution.mu.weight f4 [2, 128]
0	0x3cd72d00	0.026266575
1	0x3c1036a8	0.008802094
2	0xbcd1ad6b	-0.025595387
3	0x3c5514e9	0.013005474
4	0x3ba9e219	0.0051844236
5	0x3d06831e	0.032839887
6	0x3c1258c1	0.008932293
7	0x3c18f73a	0.009336287
8	0xbcaefac8	-0.021359816
9	0x3d45ed80	0.0483222
10	0x3d15176e	0.036399297
11	0xbcba4896	-0.02273969
12	0xbc6da430	-0.014504477
13	0x3956a1c6	0.00020468896
14	0x39d0aa84	0.00039799896
15	0x3d1c7551	0.03819782
16	0x3d33719f	0.04380953
17	0x3afb9ec2	0.0019197094
18	0xbc012d3a	-0.007884318
19	0x3bc20304	0.0059207696
20	0xbc0eb6ae	-0.008710546
21	0x3b770f4b	0.0037698324
22	0x3ad2c860	0.0016081445
23	0xbb7eb624	-0.0038865888
24	0xbc99cfd4	-0.018775858
25	0xbc8425b1	-0.016131254
26	0xba1a515b	-0.00058867567
27	0x3d17f045	0.037094373
28	0x3b917a76	0.0044396473
29	0x3ba58902	0.005051733
30	0x3c52214a	0.01282532
31	0x3be5582f	0.0069990377
32	0xb928f74d	-0.00016113855
33	0x3c420283	0.011841419
34	0x3c834440	0.016023755
35	0x3c8304c1	0.015993478
36	0x3be7424a	0.007057463
37	0xbbeb020a	-0.007171874
38	0xbbcd72e3	-0.006269799
39	0xbc31c80d	-0.0108509185
40	0x3c15ffb9	0.009155207
41	0x3bb9d6f6	0.0056713773
42	0x3c31db64	0.010855529
43	0x3bee78a2	0.007277564
44	0xbd5b6f31	-0.053572837
45	0x3bd4b078	0.0064907633
46	0x3b6a273e	0.0035728957
47	0xbae57f21	-0.0017509201
48	0xbcd9609b	-0.026535323
49	0xbc9abef4	-0.018889882
50	0xbcc9a7dd	-0.024616176
51	0x3c31c489	0.01085008
52	0x3b059fc6	0.0020389422
53	0xba61f386	-0.00086193567
54	0x3c8b047c	0.016969912
55	0xbbb45b42	-0.005504043
56	0xbba8d036	-0.005151774
57	0x3d25fb89	0.040523086
58	0xbcb7c28e	-0.022431638
59	0x3bc5fc09	0.006042008
60	0x3cb5dc87	0.022199882
61	0x3b612092	0.0034351689
62	0xbb9471f9	-0.004530188
63	0xbcae841b	-0.021303227
64	0x3bf3e67b	0.007443247
65	0x3823302a	3.8907085e-05
66	0xbb05cc95	-0.002041613
67	0x3be7f0e0	0.007078275
68	0x3c73e4ea	0.01488612
69	0x3cde0a2f	0.027104465
70	0xbadc1414	-0.0016790652
71	0xbb6cfd01	-0.0036161544
72	0xbc522f29	-0.012828627
73	0x3c78a1d6	0.015175303
74	0xb8df7205	-0.000106547064
75	0x3bbdd057	0.0057926583
76	0x3cf4d21e	0.029885348
77	0xbb8fc7d8	-0.004387837
78	0x3b40198d	0.0029312104
79	0x3c93f2ef	0.018060176
80	0xba0acfa6	-0.0005295224
81	0xbc5cf7e5	-0.013486837
82	0xbc25550a	-0.010091076
83	0xbb960bd8	-0.0045790486
84	0xbc915fdb	-0.017745903
85	0x3b82b202	0.0039885053
86	0xbcd53718	-0.026027247
87	0xbcd9e4e3	-0.0265984
88	0xbc51f473	-0.012814629
89	0xbcd14cb4	-0.02554927
90	0x3c57cd45	0.013171499
91	0x3b2e29d5	0.0026575227
92	0x3b990333	0.004669571
93	0xbc8c3d6b	-0.01711913
94	0xbb8b8045	-0.0042572343
95	0x3bda7611	0.0066669066
96	0x3b5439c1	0.0032383057
97	0xbc82ffcb	-0.015991112
98	0xbb8c276d	-0.004277161
99	0xbc2bc954	-0.010485012
100	0x3c054114	0.008133192
101	0xbca5bb4f	-0.020230917
102	0xbbb503b9	-0.0055241254
103	0xbcec2763	-0.028827375
104	0x3c382e75	0.011241545
105	0xbbdc6404	-0.00672579
106	0x3c734c39	0.014849716
107	0xbbcf1aa6	-0.0063203154
108	0xb9d99f9b	-0.0004150838
109	0xbbd3548b	-0.0064492873
110	0xb9d3c81a	-0.00040394143
111	0x3c350c9b	0.011050369
112	0x3cf876ad	0.030330027
113	0xbc36565a	-0.011128986
114	0x3bb24414	0.0054402445
115	0xbc1d3bcb	-0.009596775
116	0xbbaf0e97	-0.0053423154
117	0xbb740ce4	-0.0037239129
118	0xbc205ad0	-0.009787276
119	0x3d0fcd0f	0.03510767
120	0xbca71196	-0.020394128
121	0xbc63a5e1	-0.013894529
122	0x3bc130b9	0.005895701
123	0x3cf02845	0.029316077
124	0x3b0e1a84	0.0021683285
125	0x3ccbd877	0.024883492
126	0xbc9aae19	-0.018881844
127	0x3d1b57ec	0.037925646
128	0x3c752e26	0.014964616
129	0x3d00b1d4	0.03141959
130	0xbcebb3ad	-0.0287722
131	0x3c82867b	0.015933266
132	0xbcf2a403	-0.029619223
133	0xbcd30e22	-0.025763575
134	0x3c021320	0.00793913
135	0xbc3898f3	-0.011266935
136	0x3bc21149	0.0059224707
137	0x3c67693f	0.014124214
138	0x3c308229	0.01077322
139	0xbb1db01e	-0.0024061273
140	0x3c117818	0.00887873
141	0xbcdf63b4	-0.027269222
142	0x3c0f56e1	0.008748741
143	0x3d0ca720	0.03433907
144	0xbc178e6f	-0.009250267
145	0xbcac6272	-0.021043036
146	0x3cbd1a8c	0.023083948
147	0x3b80a557	0.00392596
148	0x3bd17ec6	0.0063932864
149	0x3c451f3a	0.012031371
150	0xba8f0733	-0.001091218
151	0xbcffb8c8	-0.03121604
152	0xbc7e59df	-0.015524357
153	0xbc184a43	-0.009295049
154	0xbb8ee343	-0.004360588
155	0xbcaa19b5	-0.020764211
156	0x3cbc558d	0.022990013
157	0xbcbce2b8	-0.023057327
158	0xbc74101e	-0.014896421
159	0x3c9871c8	0.018608943
160	0xb98fc53b	-0.00027422034
161	0xbc2fb479	-0.01072418
162	0xbca9d5e6	-0.020731878
163	0xbca8c47e	-0.020601507
164	0xbce846d0	-0.028354079
165	0x3b5d2928	0.0033746455
166	0xba7e0ba5	-0.0009691066
167	0xbc070a80	-0.0082422495
168	0xbb51b005	-0.0031995785
169	0x3d24fd5f	0.040280696
170	0x3c45e9a4	0.01207963
171	0x3bb9415f	0.005653545
172	0x3cb58728	0.022159174
173	0xbbf5452d	-0.007485053
174	0xbced5efd	-0.028975958
175	0xbb81ae1b	-0.0039575226
176	0xbc1e9066	-0.009677982
177	0x3bf270d0	0.007398702
178	0xbc99e870	-0.018787593
179	0xbbcf5d6e	-0.0063282764
180	0xbc86743a	-0.016412843
181	0x3c45c051	0.012069778
182	0x3cd239e3	0.025662368
183	0xbc053478	-0.008130185
184	0xbb407c94	-0.002937113
185	0xbc6baa46	-0.014383858
186	0x3b4c6b0f	0.0031191742
187	0x3c374b9d	0.011187461
188	0xbbe6dbd3	-0.007045248
189	0xbbf631be	-0.007513254
190	0xbc911ae5	-0.01771302
191	0xbd08e88b	-0.033424895
192	0xbc15bf1a	-0.0091398
193	0xbcaf4a3a	-0.021397699
194	0xbcc374b0	-0.023859352
195	0x3c69ff9e	0.014282135
196	0x3bc27f2d	0.0059355707
197	0xbbacd55d	-0.0052744583
198	0xbb64c3dd	-0.0034906783
199	0xbcb0bfb5	-0.021575788
200	0x3c655041	0.013996185
201	0x3ca0355a	0.01955669
202	0xbc83d68d	-0.016093517
203	0x3a4aa6fb	0.00077305705
204	0x3c992a52	0.018696938
205	0x3c9a7799	0.018855857
206	0xbc018cfd	-0.007907149
207	0x3c6a33ab	0.014294545
208	0xbbfe720a	-0.0077650594
209	0xbc4856ea	-0.012227753
210	0x3c83c301	0.016084196
211	0x3c4eaa76	0.012613883
212	0x3c69e8de	0.014276711
213	0xbc407baf	-0.0117482385
214	0x3cbbd30a	0.02292778
215	0x3ce81a13	0.028332746
216	0x3c84e0e4	0.016220517
217	0xbc203344	-0.009777848
218	0xbc12dee5	-0.008964275
219	0x3c11887c	0.008882638
220	0xbc4368b6	-0.0119268205
221	0x3d16c300	0.03680706
222	0x3c44f196	0.012020489
223	0xbcb2cf4f	-0.021827368
224	0xbc0aced4	-0.008472163
225	0xbc2f7988	-0.010710128
226	0x3c574f89	0.013141521
227	0xbbc25f44	-0.0059317667
228	0x3c215f32	0.0098493565
229	0x3c2f2c41	0.010691703
230	0xbc0de093	-0.0086595
231	0xbad7b9eb	-0.0016458606
232	0xbbfcc705	-0.0077141547
233	0x3aa29040	0.0012402609
234	0xbbd8fdad	-0.0066220374
235	0xbbc0a7b4	-0.005879367
236	0xbcb9a9ca	-0.02266397
237	0x3cb4ef07	0.022086633
238	0xba19b4e3	-0.0005863441
239	0xba844ba9	-0.0010093349
240	0xbd328aaa	-0.04358927
241	0xbc29ebbb	-0.010371144
242	0x3d1e7836	0.03868886
243	0xbd21fc7d	-0.039547432
244	0x3bbd5f25	0.0057791644
245	0x3be64cb2	0.0070281858
246	0x3b327f16	0.0027236394
247	0x3ca33e6c	0.019927226
248	0xbcb1285e	-0.021625694
249	0xbd310f34	-0.04322739
250	0xbc4e0075	-0.012573351
251	0xbd501327	-0.050799515
252	0xbcb87438	-0.022516355
253	0xbd21d65d	-0.039511073
254	0xbc2b8319	-0.010468268
255	0xbc00084c	-0.007814478

action_model._continuous_distribution.mu.bias f4 [2]
0	0x3bdcefcc	0.006742453
1	0x3c5195e0	0.012792081
