results/test_movetogoal/MoveToGoal/checkpoint.pt (torch, 152418 bytes, 20 tensors)

network_body.observation_encoder.processors.0.normalizer.running_mean f4 [6]
0.18663105 -0.32631603 0.04912447 -0.17025812 -1.5242986e-06 -0.16656734
00000000: 361c 3f3e e512 a7be be36 493d 2558 2ebe
00000010: 8096 ccb5 a190 2abe

network_body.observation_encoder.processors.0.normalizer.running_variance f4 [6]
275551.16 45.30251 216095.47 330545.38 4.6547003 253105.58
00000000: e58b 8648 c535 3542 de07 5348 2c66 a148
00000010: 4ef3 9440 652c 7748

network_body.processors.0.normalizer.running_mean f4 [6]
0.18663105 -0.32631603 0.04912447 -0.17025812 -1.5242986e-06 -0.16656734
00000000: 361c 3f3e e512 a7be be36 493d 2558 2ebe
00000010: 8096 ccb5 a190 2abe

network_body.processors.0.normalizer.running_variance f4 [6]
275551.16 45.30251 216095.47 330545.38 4.6547003 253105.58
00000000: e58b 8648 c535 3542 de07 5348 2c66 a148
00000010: 4ef3 9440 652c 7748

network_body._body_endoder.seq_layers.0.weight f4 [128, 6]
0.17792055 -0.24160133 -0.15146193 -0.5973233 0.17189813 0.023378693 0.31175247 0.34478292
-0.5114343 -0.595489 -0.36637214 -0.50086576 0.585841 1.0226876 -0.47483978 -0.04235291
-0.6516598 0.07263462 -0.071531594 -0.5816213 -0.10421361 0.37168145 0.61090994 -0.02401931
-0.10085084 0.13686414 -0.2623929 0.2623037 -0.08179571 0.51166695 -0.6812115 0.40916547
0.48735538 0.5237996 -0.4215073 -0.22274105 0.3988222 0.36788568 0.41762215 0.29727483
-0.57654643 -0.12868458 -0.1944343 -0.37978283 -0.18722731 -0.6721817 -0.00048203973 -0.31495827
0.059180647 -0.061301593 -0.05293879 -0.031819064 0.13397267 0.39964297 0.7209418 -0.21977517
-0.19024204 0.15129285 0.8795778 -0.11125117 0.27999878 0.093657166 -0.103635445 -0.06493492
0.58145684 -0.046951108 0.3981607 -0.33102444 0.410676 0.053427354 -0.0044112713 -0.016937934
0.0014019397 -0.20763487 -0.56319165 0.24149641 0.51715785 -0.22359599 -0.2884978 0.4200369
0.41463712 0.393915 0.493439 -0.21338585 0.027806967 0.30370024 0.15188901 0.283962
-0.27166462 -0.22530843 0.53379506 -0.16354376 -0.29933667 0.30285954 -0.12713443 -0.770365
-0.07312486 -0.46013817 0.1723827 -0.01687856 0.3210986 0.53902566 0.6976932 -0.34193653
-0.28616896 -0.13266699 0.88959455 0.46678603 -0.25773734 0.5366598 -0.09192992 -0.34408286
0.17494752 0.6071568 -0.062950365 0.35677138 0.18807372 0.39414817 0.3374832 0.0914728
0.3681962 0.79894096 1.281688 0.17467676 0.47181582 0.5418925 0.22644052 -0.455692
-0.11782187 -0.11541842 -0.15435359 0.09818022 0.09510649 -0.3206483 0.32278487 -0.048814047
-0.336786 -0.16994257 -0.10659467 0.56123877 -0.092672326 0.40427023 -0.35631528 0.41850892
0.02406806 0.52103096 -0.34317052 -0.07992046 -0.355405 -0.21968792 -1.3804038 0.05632707
0.18550903 -0.16569395 -0.4604687 0.43710807 0.22183655 -0.45294607 0.1505367 -0.19024341
0.38509408 -0.3476001 -0.3292581 -0.7143467 -0.09097269 0.24395624 0.2450741 0.58130866
-0.48031658 0.2635396 -0.2747922 0.05954124 0.00016275083 0.09640062 -0.39128473 0.23456967
0.3540741 -0.22252904 -0.82264197 0.009649647 0.79210216 -0.47958297 -0.31335533 0.73973465
0.8748086 0.3935042 0.15338184 0.6214077 -0.13514818 0.812222 0.25359637 0.16636704
0.58741826 0.19010273 -0.3530512 0.219011 -0.29603136 -0.5973288 -0.29833782 0.1602052
-0.40106425 -0.1298047 -0.88874084 -0.1446276 -0.5128951 0.400053 0.24477075 0.392362
0.3138362 0.16346124 -0.30424705 -0.17345701 0.3405355 -0.030661955 -0.654714 -0.41746613
0.44826323 -0.49691153 -0.45709413 0.19836114 -0.08410515 0.3802594 0.0012014149 -0.003714259
0.080034785 0.4284973 0.45893455 -0.015403169 0.07837868 -0.26638836 0.6977023 0.13365446
0.30684945 0.86528933 -0.3853724 0.5177871 0.48793823 -0.035943292 -0.2722871 0.065418676
-0.23811579 -0.4202641 -0.39219388 -0.45448062 0.35616 -0.53142285 0.19276993 0.27140746
0.32698372 0.50606656 -0.6633842 -1.1862043 -0.17165948 0.38554615 0.045399006 0.060232483
00000000: ce30 363e 5766 77be d618 1bbe 2eea 18bf
00000010: 1006 303e ac84 bf3c 059e 9f3e 6387 b03e
00000020: 5ced 02bf f871 18bf 2195 bbbe bd38 00bf
00000030: adf9 153f 6de7 823f 331e f3be 3f7a 2dbd
00000040: 2dd3 26bf 76c1 943d 287f 92bd 22e5 14bf
00000050: f26d d5bd 084d be3e 9864 1c3f 25c4 c4bc
00000060: e38a cebd 1d26 0c3e 5d58 86be ac4c 863e
00000070: 8284 a7bd 9bfc 023f e063 2ebf 237e d13e
00000080: a586 f93e bb17 063f cecf d7be 3b16 64be
00000090: 6c32 cc3e 835b bc3e 92d2 d53e 6834 983e
000000a0: 8c98 13bf e4c5 03be c919 47be e572 c2be
000000b0: 84b8 3fbe 1a14 2cbf 47ba fcb9 3642 a1be
000000c0: 6867 723d 6117 7bbd 58d6 58bd b554 02bd
000000d0: 2230 093e 019e cc3e a48f 383f be0c 61be
000000e0: cfce 42be 83ec 1a3e 032c 613f a7d7 e3bd
000000f0: 005c 8f3e 54cf bf3d d23e d4bd 99fc 84bd
00000100: 5bda 143f ce4f 40bd b8db cb3e 097c a9be
00000110: 2044 d23e a4d6 5a3d 6d8c 90bb 6cc1 8abc
00000120: 4ac1 b73a 3c9e 54be 542d 10bf d64a 773e
00000130: 7564 043f 59f6 64be fcb5 93be 140f d73e
00000140: 514b d43e 3aaf c93e 09a4 fc3e d281 5abe
00000150: 70cb e33c 997e 9b3e cb88 1b3e 7863 913e
00000160: a017 8bbe 41b7 66be cba6 083f 0478 27be
00000170: a842 99be 6810 9b3e 872f 02be a436 45bf
00000180: 7dc2 95bd 3b97 ebbe 1785 303e e844 8abc
00000190: 0967 a43e 96fd 093f 069c 323f 4e12 afbe
000001a0: bd84 92be dbd9 07be 78bc 633f 94fe ee3e
000001b0: 26f6 83be 8962 093f c145 bcbd a12b b0be
000001c0: 7125 333e a16e 1b3f 1fec 80bd bdaa b63e
000001d0: 6696 403e cacd c93e 99ca ac3e 1756 bb3d
000001e0: 3684 bc3e 6587 4c3f 5a0e a43f 77de 323e
000001f0: d891 f13e 78b9 0a3f 06e0 673e 7650 e9be
00000200: 984c f1bd 7e60 ecbd de0e 1ebe b612 c93d
00000210: 31c7 c23d 042c a4be 0f44 a53e 3df1 47bd
00000220: 376f acbe 6d05 2ebe 4e4e dabd 58ad 0f3f
00000230: fdca bdbd 82fc ce3e f56e b6be cd46 d63e
00000240: 612a c53c 4962 053f 0cb4 afbe 57ad a3bd
00000250: a5f7 b5be dff5 60be 12b1 b0bf 37b7 663d
00000260: 14f6 3d3e adab 29be 8ec2 ebbe a1cc df3e
00000270: 1f29 633e 8ce8 e7be 4b26 1a3e 2bcf 42be
00000280: 0d2b c53e a4f8 b1be 8594 a8be 6ddf 36bf
00000290: e44f babd aacf 793e b4f4 7a3e a5d0 143f
000002a0: 0eec f5be aaee 863e 90b1 8cbe 84e1 733d
000002b0: 18a8 2a39 b06d c53d 7956 c8be 0833 703e
000002c0: 3349 b53e a7de 63be aa98 52bf 8e19 1e3c
000002d0: 35c7 4a3f e68b f5be 1c70 a0be 405f 3d3f
000002e0: 75f3 5f3f 6279 c93e 2110 1d3e 9314 1f3f
000002f0: 4964 0abe c8ed 4f3f 62d7 813e 1f5c 2a3e
00000300: 0b61 163f 4aaa 423e 20c3 b4be 6b44 603e
00000310: 6c91 97be 8aea 18bf bcbf 98be d50c 243e
00000320: 4b58 cdbe 86eb 04be 8584 63bf 4219 14be
00000330: 184d 03bf bfd3 cc3e 2fa5 7a3e ace3 c83e
00000340: 23af a03e 6262 273e 45c6 9bbe b79e 31be
00000350: ab5a ae3e c82e fbbc 569b 27bf 1fbe d5be
00000360: c282 e53e 306b febe 3e08 eabe 2f1f 4b3e
00000370: 523f acbd 5cb1 c23e cb78 9d3a ed6a 73bb
00000380: 47e9 a33d 0064 db3e 78f9 ea3e 935d 7cbc
00000390: 0085 a03d 0e64 88be 9e9c 323f b7dc 083e
000003a0: 5f1b 9d3e 9a83 5d3f 884f c5be b28d 043f
000003b0: 0ad3 f93e 4639 13bd 3769 8bbe 3afa 853d
000003c0: a0d4 73be db2c d7be a3cd c8be afb1 e8be
000003d0: 9b5a b63e 540b 08bf 7b65 453e ebf5 8a3e
000003e0: 696a a73e 948d 013f 8cd3 29bf 8bd5 97bf
000003f0: 81c7 2fbe 4e66 c53e 4ff4 393d 56b6 763d

network_body._body_endoder.seq_layers.0.bias f4 [128]
0.0 0.0 0.0 0.0 0.0 0.0 0.0 0.0
0.0 0.0 0.0 0.0 0.0 0.0 0.0 0.0
0.0 0.0 0.0 0.0 0.0 0.0 0.0 0.0
0.0 0.0 0.0 0.0 0.0 0.0 0.0 0.0
0.0 0.0 0.0 0.0 0.0 0.0 0.0 0.0
0.0 0.0 0.0 0.0 0.0 0.0 0.0 0.0
0.0 0.0 0.0 0.0 0.0 0.0 0.0 0.0
0.0 0.0 0.0 0.0 0.0 0.0 0.0 0.0
0.0 0.0 0.0 0.0 0.0 0.0 0.0 0.0
0.0 0.0 0.0 0.0 0.0 0.0 0.0 0.0
0.0 0.0 0.0 0.0 0.0 0.0 0.0 0.0
0.0 0.0 0.0 0.0 0.0 0.0 0.0 0.0
0.0 0.0 0.0 0.0 0.0 0.0 0.0 0.0
0.0 0.0 0.0 0.0 0.0 0.0 0.0 0.0
0.0 0.0 0.0 0.0 0.0 0.0 0.0 0.0
0.0 0.0 0.0 0.0 0.0 0.0 0.0 0.0
00000000: 0000 0000 0000 0000 0000 0000 0000 0000
00000010: 0000 0000 0000 0000 0000 0000 0000 0000
00000020: 0000 0000 0000 0000 0000 0000 0000 0000
00000030: 0000 0000 0000 0000 0000 0000 0000 0000
00000040: 0000 0000 0000 0000 0000 0000 0000 0000
00000050: 0000 0000 0000 0000 0000 0000 0000 0000
00000060: 0000 0000 0000 0000 0000 0000 0000 0000
00000070: 0000 0000 0000 0000 0000 0000 0000 0000
00000080: 0000 0000 0000 0000 0000 0000 0000 0000
00000090: 0000 0000 0000 0000 0000 0000 0000 0000
000000a0: 0000 0000 0000 0000 0000 0000 0000 0000
000000b0: 0000 0000 0000 0000 0000 0000 0000 0000
000000c0: 0000 0000 0000 0000 0000 0000 0000 0000
000000d0: 0000 0000 0000 0000 0000 0000 0000 0000
000000e0: 0000 0000 0000 0000 0000 0000 0000 0000
000000f0: 0000 0000 0000 0000 0000 0000 0000 0000
00000100: 0000 0000 0000 0000 0000 0000 0000 0000
00000110: 0000 0000 0000 0000 0000 0000 0000 0000
00000120: 0000 0000 0000 0000 0000 0000 0000 0000
00000130: 0000 0000 0000 0000 0000 0000 0000 0000
00000140: 0000 0000 0000 0000 0000 0000 0000 0000
00000150: 0000 0000 0000 0000 0000 0000 0000 0000
00000160: 0000 0000 0000 0000 0000 0000 0000 0000
00000170: 0000 0000 0000 0000 0000 0000 0000 0000
00000180: 0000 0000 0000 0000 0000 0000 0000 0000
00000190: 0000 0000 0000 0000 0000 0000 0000 0000
000001a0: 0000 0000 0000 0000 0000 0000 0000 0000
000001b0: 0000 0000 0000 0000 0000 0000 0000 0000
000001c0: 0000 0000 0000 0000 0000 0000 0000 0000
000001d0: 0000 0000 0000 0000 0000 0000 0000 0000
000001e0: 0000 0000 0000 0000 0000 0000 0000 0000
000001f0: 0000 0000 0000 0000 0000 0000 0000 0000

network_body._body_endoder.seq_layers.2.weight f4 [128, 128]
0.15741526 0.01841159 -0.070254825 0.07540101 0.0063928925 -0.038363717 -0.03993917 0.029327694
0.104952276 0.05932532 -0.07621396 0.063163355 -0.126657 0.13386607 0.2199943 0.12587972
0.2977877 -0.01218464 0.002171932 -0.02987761 0.06461316 -0.022801885 0.10598301 -0.048496746
-0.031422276 -0.025292829 0.0076783695 -0.026131373 -0.034350406 -0.18204011 -0.13733622 0.013979499
-0.03187951 0.111860074 -0.06578673 -0.08288444 0.0014369012 -0.01889009 0.034457754 -0.09901912
0.017949194 0.12949659 0.075499274 0.013473492 -0.21720974 0.007163053 -0.0014190475 -0.039894164
0.01830205 0.028182868 0.046913914 0.1314645 0.014380993 0.12963046 0.21175209 -0.06366283
0.14205286 -0.0071775843 -0.03054518 -0.013521902 0.120646834 -0.16084038 -0.05404699 0.002516532
0.093708925 -0.049054347 0.061209187 0.15728989 -0.10156934 0.16865328 0.1091337 0.009803353
0.04476977 0.14864658 0.060269527 -0.089483224 0.07375267 0.008935959 -0.05018745 0.024848025
0.054162797 -0.04432319 -0.094656765 -0.08389573 0.061888743 -0.0016087332 0.002926631 -0.019357853
0.06514543 0.13030593 -0.07600695 0.039822906 -0.20679197 0.015247194 -0.018987786 -0.004670176
-0.02061782 -0.053278454 -0.07180349 -0.11163187 -0.010506942 -0.12791991 -0.008166985 -0.04062711
0.095046856 0.09599287 0.08443975 -0.002558995 -0.037514027 -0.07397939 0.0428618 0.010650132
0.06648699 0.0474049 -0.050458748 0.10168274 0.018263401 -0.12691389 0.10386281 -0.14100723
-0.13453753 0.02739219 0.15891482 0.075079545 -0.097990476 -0.06672534 -0.06965589 0.05465412
0.17650355 -0.12257262 -0.026129592 -0.00032288217 0.010020132 0.19793114 0.17308234 -0.1302825
0.21343113 0.008703652 -0.037856042 0.102551416 -0.00399819 0.1356818 0.04048016 -0.0048001995
0.041810572 -0.013445004 0.061014913 -0.16216893 0.022505192 -0.05538347 0.07262515 0.078194775
-0.042308975 0.0713813 0.021998968 0.07217676 -0.06917807 0.037878655 -0.16067825 -0.12188385
0.047488645 -0.018951138 0.24926355 -0.047796313 -0.022688398 -0.032952264 0.0044771577 0.065717414
0.014116554 -0.069784865 0.083932 -0.13320036 -0.074149266 0.054805726 -0.17691806 -0.09407354
0.13815397 -0.21566582 0.13591784 -0.023092583 -0.08556071 0.031975843 -0.01714271 0.007063786
0.109104894 0.20020641 -0.13389356 0.02615402 -0.101663224 0.070153914 -0.05774442 0.013654218
-0.0901948 -0.03990576 0.121949986 -0.021564985 -0.042763606 0.115795776 -0.16077842 0.13536724
0.06503387 0.031875037 -0.19411755 -0.026230963 -0.05867543 0.21598606 -0.09256349 -0.17855963
0.015591515 0.039272893 0.093851686 0.09386069 -0.019891398 0.010113903 0.092270754 0.05110129
-0.080414094 0.040647972 0.039107215 -0.030899331 -0.16981433 -0.07760105 0.022606257 -0.13734469
-0.0042342837 -0.09548833 -0.07867241 -0.081631735 -0.029767834 0.044873443 0.17679515 0.08024245
-0.028950864 -0.063739866 0.12562118 0.075207666 0.020380752 -0.067460105 -0.05861134 -0.067536876
-0.036077198 0.0647051 -0.045712538 -0.052573927 0.085023314 0.12158937 -0.023430802 0.05751624
-0.015150245 -0.08304421 0.075870804 0.10304015 -0.12805796 0.08414188 -0.006766357 0.10931786
00000000: 7731 213e e7d3 963c c3e1 8fbd d86b 9a3d
00000010: 787b d13b 4623 1dbd 4197 23bd a240 f03c
00000020: 38f1 d63d 1bff 723d 1116 9cbd ca5b 813d
00000030: 5fb2 01be 3014 093e 3046 613e 9de6 003e
00000040: a177 983e 16a2 47bc f956 0e3b e4c1 f4bc
00000050: e853 843d 05cb babc 9f0d d93d 86a4 46bd
00000060: a5b4 00bd e832 cfbc d59a fb3b 7611 d6bc
00000070: 03b3 0cbd b968 3abe dea1 0cbe 450a 653c
00000080: 1794 02bd e516 e53d 31bb 86bd 51bf a9bd
00000090: 6756 bc3a 64bf 9abc 9323 0d3d 89ca cabd
000000a0: 300a 933c c19a 043e 5d9f 9a3d ecbf 5c3c
000000b0: 3b6c 5ebe 0bb8 ea3b 55ff b9ba 1068 23bd
000000c0: 2eee 953c c2df e63c ce28 403d a19e 063e
000000d0: 429e 6b3c d9bd 043e 8ad5 583e a861 82bd
000000e0: 4e76 113e f131 ebbb e339 fabc f88a 5dbc
000000f0: b015 f73d 57b3 24be 6060 5dbd 67ec 243b
00000100: 77ea bf3d 36ed 48bd 7cb6 7a3d 9a10 213e
00000110: 9603 d0bd 72b3 2c3e 7d81 df3d 3e9e 203c
00000120: 8260 373d cf36 183e 2edd 763d fb42 b7bd
00000130: a40b 973d 2168 123c 5b91 4dbd 168e cb3c
00000140: cfd9 5d3d 3c8c 35bd 68db c1bd 86d1 abbd
00000150: 0d7f 7d3d 21dc d2ba b8cc 3f3b 5c94 9ebc
00000160: f86a 853d eb6e 053e 88a9 9bbd 581d 233d
00000170: 46c1 53be 5ecf 793c 468c 9bbc 4708 99bb
00000180: b4e6 a8bc 823a 5abd b50d 93bd 409f e4bd
00000190: 4f25 2cbc 70fd 02be d1ce 05bc 9d68 26bd
000001a0: eda7 c23d e997 c43d bfee ac3d d0b4 27bb
000001b0: 4fa8 19bd 8282 97bd db8f 2f3d e47d 2e3c
000001c0: 552a 883d a42b 423d d5ad 4ebd 0a3f d03d
000001d0: 219d 953c b7f5 01be 06b6 d43d 3364 10be
000001e0: 35c4 09be 9665 e03c 91ba 223e 4ec3 993d
000001f0: 3baf c8bd 4ca7 88bd bfa7 8ebd 00dd 5f3d
00000200: 59bd 343e 5b07 fbbd ba0d d6bc 8348 a9b9
00000210: 7b2b 243c 76ae 4a3e 7f3c 313e c768 05be
00000220: b18d 5a3e c399 0e3c f00e 1bbd 7a06 d23d
00000230: 4003 83bb 2bf0 0a3e 86ce 253d fe4a 9dbb
00000240: 9041 2b3d 6f48 5cbc c6ea 793d 9d0f 26be
00000250: cf5c b83c c7d9 62bd 7fbc 943d 9524 a03d
00000260: 2d4c 2dbd 5c30 923d 2e37 b43c 69d1 933d
00000270: 3bad 8dbd a626 1b3d d788 24be 3d9e f9bd
00000280: 7483 423d 6b3f 9bbc f23e 7f3e 11c6 43bd
00000290: 05dd b9bc f4f8 06bd 1fb5 923b da96 863d
000002a0: 1e49 673c 5eeb 8ebd 8ae4 ab3d ad65 08be
000002b0: 92db 97bd f87b 603d 022a 35be a1a9 c0bd
000002c0: 3c78 0d3e 80d7 5cbe 0c2e 0b3e a82c bdbc
000002d0: 743a afbd 1af9 023d de6e 8cbc 5577 e73b
000002e0: 6372 df3d e902 4d3e 651b 09be f540 d63c
000002f0: cf34 d0bd dbac 8f3d 6a85 6cbd f1b5 5f3c
00000300: 0db8 b8bd 3974 23bd eac0 f93d 0da9 b0bc
00000310: e428 2fbd 5626 ed3d 19a3 24be b69d 0a3e
00000320: 7a30 853d 668f 023d c0c6 46be 51e2 d6bc
00000330: a655 70bd 732b 5d3e ed91 bdbd 56d8 36be
00000340: 8e73 7f3c 9ddc 203d 5035 c03d 093a c03d
00000350: 49f3 a2bc c9b4 253c 73f8 bc3d 964f 513d
00000360: 25b0 a4bd 7d7e 263d e32e 203d 9820 fdbc
00000370: cfe3 2dbe 4ded 9ebd c230 b93c 16a4 0cbe
00000380: bfbf 8abb 638f c3bd 001f a1bd 8a2e a7bd
00000390: acdb f3bc 37cd 373d ca09 353e 2756 a43d
000003a0: 5d2a edbc 0c8a 82bd d7a2 003e 7a06 9a3d
000003b0: 89f5 a63c 8628 8abd 7212 70bd c650 8abd
000003c0: afc5 13bd 1c84 843d 123d 3bbd c257 57bd
000003d0: b420 ae3d d903 f93d f4f1 bfbc 2696 6b3d
000003e0: bc38 78bc 1513 aabd 2762 9b3d b706 d33d
000003f0: a021 03be 9452 ac3d 51b8 ddbb 0be2 df3d

network_body._body_endoder.seq_layers.2.bias f4 [128]
0.0 0.0 0.0 0.0 0.0 0.0 0.0 0.0
0.0 0.0 0.0 0.0 0.0 0.0 0.0 0.0
0.0 0.0 0.0 0.0 0.0 0.0 0.0 0.0
0.0 0.0 0.0 0.0 0.0 0.0 0.0 0.0
0.0 0.0 0.0 0.0 0.0 0.0 0.0 0.0
0.0 0.0 0.0 0.0 0.0 0.0 0.0 0.0
0.0 0.0 0.0 0.0 0.0 0.0 0.0 0.0
0.0 0.0 0.0 0.0 0.0 0.0 0.0 0.0
0.0 0.0 0.0 0.0 0.0 0.0 0.0 0.0
0.0 0.0 0.0 0.0 0.0 0.0 0.0 0.0
0.0 0.0 0.0 0.0 0.0 0.0 0.0 0.0
0.0 0.0 0.0 0.0 0.0 0.0 0.0 0.0
0.0 0.0 0.0 0.0 0.0 0.0 0.0 0.0
0.0 0.0 0.0 0.0 0.0 0.0 0.0 0.0
0.0 0.0 0.0 0.0 0.0 0.0 0.0 0.0
0.0 0.0 0.0 0.0 0.0 0.0 0.0 0.0
00000000: 0000 0000 0000 0000 0000 0000 0000 0000
00000010: 0000 0000 0000 0000 0000 0000 0000 0000
00000020: 0000 0000 0000 0000 0000 0000 0000 0000
00000030: 0000 0000 0000 0000 0000 0000 0000 0000
00000040: 0000 0000 0000 0000 0000 0000 0000 0000
00000050: 0000 0000 0000 0000 0000 0000 0000 0000
00000060: 0000 0000 0000 0000 0000 0000 0000 0000
00000070: 0000 0000 0000 0000 0000 0000 0000 0000
00000080: 0000 0000 0000 0000 0000 0000 0000 0000
00000090: 0000 0000 0000 0000 0000 0000 0000 0000
000000a0: 0000 0000 0000 0000 0000 0000 0000 0000
000000b0: 0000 0000 0000 0000 0000 0000 0000 0000
000000c0: 0000 0000 0000 0000 0000 0000 0000 0000
000000d0: 0000 0000 0000 0000 0000 0000 0000 0000
000000e0: 0000 0000 0000 0000 0000 0000 0000 0000
000000f0: 0000 0000 0000 0000 0000 0000 0000 0000
00000100: 0000 0000 0000 0000 0000 0000 0000 0000
00000110: 0000 0000 0000 0000 0000 0000 0000 0000
00000120: 0000 0000 0000 0000 0000 0000 0000 0000
00000130: 0000 0000 0000 0000 0000 0000 0000 0000
00000140: 0000 0000 0000 0000 0000 0000 0000 0000
00000150: 0000 0000 0000 0000 0000 0000 0000 0000
00000160: 0000 0000 0000 0000 0000 0000 0000 0000
00000170: 0000 0000 0000 0000 0000 0000 0000 0000
00000180: 0000 0000 0000 0000 0000 0000 0000 0000
00000190: 0000 0000 0000 0000 0000 0000 0000 0000
000001a0: 0000 0000 0000 0000 0000 0000 0000 0000
000001b0: 0000 0000 0000 0000 0000 0000 0000 0000
000001c0: 0000 0000 0000 0000 0000 0000 0000 0000
000001d0: 0000 0000 0000 0000 0000 0000 0000 0000
000001e0: 0000 0000 0000 0000 0000 0000 0000 0000
000001f0: 0000 0000 0000 0000 0000 0000 0000 0000

action_model._continuous_distribution.log_sigma f4 [1, 2]
0.0 0.0
00000000: 0000 0000 0000 0000

action_model._continuous_distribution.mu.weight f4 [2, 128]
-0.016467182 0.020973772 -0.014258407 0.0062423334 0.030030508 0.017549912 0.00759445 -0.00830306
-0.0032226623 0.019601738 -0.027529953 0.0138747115 0.023308812 -0.011726162 -0.013572169 0.0012384298
0.033476025 0.006977969 -0.0028531128 -0.005052115 -0.019192277 0.017344823 -0.010756914 -0.021085957
0.015749712 0.024824914 0.019687945 -0.016429592 0.009481746 -0.012436949 0.026083907 -0.0100582065
-0.0175279 0.012749197 0.0122514395 -0.00027055843 -0.023522723 -0.0190855 -0.007039204 -0.0018132696
0.032081466 -0.008533857 0.007292513 0.002142498 -0.030797586 -0.022633737 -0.023532046 0.0086061
0.005275266 -0.017153118 0.009504579 0.003670032 0.022981552 0.014189133 0.029793844 -0.002311728
0.009514252 -0.006496578 0.0042284955 -0.005275822 0.0014837346 0.032361876 0.010280314 0.005262535
0.0065729097 -0.019683158 0.008747156 0.040171858 -0.0043502287 0.008671867 0.00020909119 0.014614649
-0.0049142833 0.012074708 0.0040576193 0.004015895 -0.0045538037 -0.0005770407 -0.021038339 0.021384547
0.002540466 -0.0034593658 0.005053212 0.047647204 0.008331939 -0.032297283 0.021029474 0.014807604
-0.0035333764 0.010852265 0.012043445 0.0025647052 0.0019052161 0.0025933336 -0.015074211 0.0091551645
-0.0155346515 -0.03468974 0.0029830132 0.00051252445 -0.007509745 0.0036246316 0.029990712 0.009301266
0.030632708 0.015475397 -0.011547813 -0.022232007 0.005994653 -0.024610471 0.023183452 -0.014704009
0.016590592 0.002206693 0.0042027864 -0.009339785 0.0050030397 0.0025410966 0.01727113 -0.024134973
-0.029888088 0.01815868 -0.0025236828 -0.00070057216 0.010610043 -0.01605673 -0.014428017 -0.0018437896
-0.009829172 0.01176388 -0.0038390912 -0.027268266 -0.001386142 -0.015329887 0.005417754 0.006455969
-0.0056008655 -0.018675609 0.007845714 0.013534871 -0.01012024 -0.010312877 0.024574732 0.027436627
-0.009690235 0.006193621 0.027555412 -0.005478554 0.026851831 0.006740754 0.021487763 -0.0058396594
-0.00095425453 0.014302461 0.0037291057 0.020272002 0.031248644 -0.007443989 0.007575553 -0.004498406
0.011217332 0.0058045504 0.011475405 0.03086164 -0.017637564 -0.019217102 -0.013657096 -0.0130161075
-0.0065002465 0.001648052 0.010874687 0.0006796682 0.011300006 0.032206345 0.011336902 0.008683467
-0.013313417 0.0031670134 0.0036691732 0.0036105195 0.01941084 0.007989242 -0.0029272467 -0.012773019
-0.002634897 0.015444114 -0.00030597032 -0.013925718 0.003060685 -0.024753952 -0.018385205 0.00093466707
-0.00068456505 0.04324059 -0.02676869 -0.008936275 0.0047554835 0.010650434 0.0025507098 0.02915208
0.017552929 0.0051100813 -0.018055407 0.037577093 -0.017012475 0.0008183393 0.0028251729 -0.019308211
-0.0031415403 -0.008326573 -0.007890434 -0.002241993 0.0098006595 0.0068878355 -0.023698973 -0.020535026
0.0026282738 -0.008821586 0.027645765 -0.015549329 -0.0019547918 0.0046392037 -0.0051370403 0.008527871
0.0059692264 0.029732997 0.0019302145 0.026222978 -0.0013626817 -0.035161447 -0.009381527 -0.025032902
0.029422527 0.021260351 -0.017556258 0.027751928 -0.0050508915 0.03452684 0.00069611275 -0.010714932
0.03312987 -0.020799624 -0.008858939 0.008688016 -0.047512885 -0.015688846 -0.013619721 -0.002692278
0.00089892355 0.004932114 -0.019028017 0.009985727 0.011692804 0.021129552 0.001489407 0.003716575
00000000: 2fe6 86bc 30d1 ab3c 189c 69bc 7d8c cc3b
00000010: 8a02 f63c d5c4 8f3c ddda f83b 8f09 08bc
00000020: 4d33 53bb d393 a03c 7f86 e1bc c252 633c
00000030: 1ff2 be3c 171f 40bc cd5d 5ebc cf52 a23a
00000040: 281e 093d 72a7 e43b 4afb 3abb 368c a5bb
00000050: 1f39 9dbc bb16 8e3c c43d 30bc 75bc acbc
00000060: 8a05 813c 9e5d cb3c 9d48 a13c 5a97 86bc
00000070: 5359 1b3c 58c4 4bbc ebad d53c 2dcb 24bc
00000080: ac96 8fbc 02e2 503c 43ba 483c bdd9 8db9
00000090: bab2 c0bc 3259 9cbc 1fa9 e6bb 3bab edba
000000a0: db67 033d 97d1 0bbc 08f6 ee3b 2769 0c3b
000000b0: 384b fcbc 636a b9bc 47c6 c0bc 9a00 0d3c
000000c0: 23dc ac3b b284 8cbc 18b9 1b3c eb84 703b
000000d0: cf43 bc3c 8a79 683c 3812 f43c 5c80 17bb
000000e0: aae1 1b3c 3fe1 d4bb 318f 8a3b cde0 acbb
000000f0: df79 c23a e38d 043d c36e 283c 5871 ac3b
00000100: 9061 d73b 933e a1bc 3b50 0f3c 3f8b 243d
00000110: 5d8c 8ebb 7214 0e3c 7d3f 5b39 4872 6f3c
00000120: ff07 a1bb ffd4 453c c7f5 843b c597 833b
00000130: 1338 95bb 8c44 17ba 9858 acbc a52e af3c
00000140: f27d 263b 87b6 62bb 6a95 a53b b729 433d
00000150: af82 083c 284a 04bd 0146 ac3c 989b 723c
00000160: 3890 67bb b3cd 313c df51 453c 9d14 283b
00000170: 72b8 f93a ebf4 293b d3f9 76bc 8bff 153c
00000180: 0d85 7ebc d416 0ebd a87e 433b ef5a 063a
00000190: 4f14 f6bb 3a8b 6d3b 15af f53c 5664 183c
000001a0: 72f1 fa3c 858c 7d3c 0a33 3dbc e61f b6bc
000001b0: cb6e c43b e69b c9bc 39eb bd3c 15e9 70bc
000001c0: fee8 873c 2a9e 103b 87b7 893b e605 19bc
000001d0: 8af0 a33b 8788 263b 2f7c 8d3c b5b6 c5bc
000001e0: ddd7 f4bc 83c1 943c 5f64 25bb 9aa6 37ba
000001f0: bfd5 2d3c 6789 83bc 7d63 6cbc 50ab f1ba
00000200: 890a 21bc 4abd 403c 4399 7bbb b361 dfbc
00000210: 35af b5ba 352a 7bbc 6a87 b13b 988c d33b
00000220: 7787 b7bb 97fd 98bc 4f8b 003c 5dc1 5d3c
00000230: 5dcf 25bc 57f7 28bc f350 c93c c7c2 e03c
00000240: cbc3 1ebc dcf3 ca3b e3bb e13c 7185 b3bb
00000250: 5ff8 db3c 8be1 dc3b 1b07 b03c 9d5a bfbb
00000260: f026 7aba df54 6a3c 0364 743b 7811 a63c
00000270: 28fd ff3c b5ec f3bb 583c f83b 5d67 93bb
00000280: e7c8 373c 1934 be3b 5603 3c3c 8dd1 fc3c
00000290: a77c 90bc 2f6d 9dbc 03c2 5fbc 8341 55bc
000002a0: 0500 d5bb 7303 d83a be2b 323c c32b 323a
000002b0: a923 393c cdea 033d 6abe 393c 1a45 0e3c
000002c0: 8520 5abc ab8d 4f3b 8376 703b 779e 6c3b
000002d0: 7b03 9f3c 4fe5 023c 0dd7 3fbb ed45 51bc
000002e0: 3cae 2cbb 4f09 7d3c a46a a0b9 b228 64bc
000002f0: c695 483b cdc8 cabc 929c 96bc 7204 753a
00000300: 6274 33ba 0b1d 313d 034a dbbc 7469 12bc
00000310: e3d3 9b3b 287f 2e3c cf29 273b 58d0 ee3c
00000320: 29cb 8f3c 7872 a73b efe8 93bc 70ea 193d
00000330: bf5d 8bbc d285 563a 8926 393b 412c 9ebc
00000340: 4de2 4dbb 2e6c 08bc e146 01bc 67ee 12bb
00000350: f292 203c 5ab3 e13b 5924 c2bc 1239 a8bc
00000360: 1e3f 2c3b 6a88 10bc 5f79 e23c 9dc2 7ebc
00000370: f71b 00bb 7604 983b 9e54 a8bb 7cb8 0b3c
00000380: 8099 c33b 9d92 f33c 40ff fc3a 92d1 d63c
00000390: 039c b2ba 7305 10bd fab4 19bc cd11 cdbc
000003a0: 8307 f13c 302a ae3c 24d2 8fbc 0358 e33c
000003b0: f381 a5bb 046c 0d3d 567b 363a af8d 2fbc
000003c0: 30b3 073d f963 aabc 1525 11bc 2e58 0e3c
000003d0: df9c 42bd e585 80bc 4025 5fbc ee70 30bb
000003e0: bda5 6b3a 929d a13b a5e0 9bbc 2d9b 233c
000003f0: 2d93 3f3c e217 ad3c 3538 c33a c891 733b

action_model._continuous_distribution.mu.bias f4 [2]
0.0 0.0
00000000: 0000 0000 0000 0000

network_body.observation_encoder.processors.0.normalizer.running_mean f4 [6]
0.18663105 -0.32631603 0.04912447 -0.17025812 -1.5242986e-06 -0.16656734
00000000: 361c 3f3e e512 a7be be36 493d 2558 2ebe
00000010: 8096 ccb5 a190 2abe

network_body.observation_encoder.processors.0.normalizer.running_variance f4 [6]
275551.16 45.30251 216095.47 330545.38 4.6547003 253105.58
00000000: e58b 8648 c535 3542 de07 5348 2c66 a148
00000010: 4ef3 9440 652c 7748

network_body.processors.0.normalizer.running_mean f4 [6]
0.18663105 -0.32631603 0.04912447 -0.17025812 -1.5242986e-06 -0.16656734
00000000: 361c 3f3e e512 a7be be36 493d 2558 2ebe
00000010: 8096 ccb5 a190 2abe

network_body.processors.0.normalizer.running_variance f4 [6]
275551.16 45.30251 216095.47 330545.38 4.6547003 253105.58
00000000: e58b 8648 c535 3542 de07 5348 2c66 a148
00000010: 4ef3 9440 652c 7748

network_body._body_endoder.seq_layers.0.weight f4 [128, 6]
0.28043172 0.3490016 -0.26515675 -0.3135698 0.054632768 -0.6595591 -0.31842896 -0.9095776
0.31241664 -0.052219354 -0.101266995 0.1336581 -0.83477455 -0.8956753 -0.53232336 -0.2854351
-0.41036245 0.5950538 0.038065765 -0.6555849 -0.13791476 0.73068464 0.40880394 -0.51998633
0.37870115 -0.47858268 -0.67799085 0.3646577 0.009105494 -0.35052684 0.80942494 -0.42144644
-0.40477544 0.6005776 -0.38010287 -0.599569 -0.20366687 -0.7048623 0.78797233 -0.2168991
-0.10830734 0.0061684377 -0.44670448 -0.30242446 0.26904726 0.22732948 0.20699239 -0.3023161
0.07571496 -0.2716659 -0.20472223 -0.42695954 -0.6100446 0.26773983 -0.10380472 0.09067926
0.12523 -0.14214075 0.0029262183 0.24308191 0.17790203 0.24838772 -0.07229446 0.09405148
0.27385452 -0.1841097 -0.091650784 -0.057803743 0.2031156 -0.36110342 0.10690865 -0.7899162
-0.12968644 -0.06469452 -0.34967497 -0.6004834 0.53132534 -0.24088868 0.51372427 -0.6728591
-0.021082696 -0.16308647 -0.2009998 -0.19602379 -0.119378984 0.13216329 0.060117852 -0.5556014
0.19692215 0.45505783 0.058266263 0.11147951 -0.17039666 -0.0013625885 -0.64428836 -0.08738545
-0.4782745 -0.8134235 0.08370728 -0.34837958 -0.46823305 0.62192947 0.24189273 0.05996759
-0.32107732 0.3042887 -0.3426689 0.16456152 1.1791222 0.3135211 -0.17681965 0.26411787
0.4693501 0.7223586 -0.11775072 -0.27765697 0.24342737 -0.109515525 0.7098372 0.38421035
-0.30812764 0.014471148 -0.014823769 0.2009601 -0.2936951 -0.63558954 -0.35468468 -0.029763877
0.48634252 0.11358365 -0.13274404 0.20512083 -0.6977999 0.16192776 0.39508903 0.41206583
0.06628363 -0.14947718 -1.2081369 0.05515461 -0.06108685 0.2100827 -0.58140445 0.5075493
0.2766828 -0.11894659 0.6235946 0.02126592 0.1225812 0.5117059 -0.05663087 -0.86734575
-0.079790935 -0.51284033 0.35499123 0.21003084 0.007948107 0.07004553 -0.4015694 0.16051397
0.40427038 -0.76270944 -0.7613871 0.19599894 0.2242078 0.21466413 0.15506025 -0.6824223
-0.17242582 -0.1958072 0.20276457 -0.20380542 0.5792036 -1.1036944 0.5789935 0.014270348
0.16447353 -0.05578431 0.1043882 -0.57048076 0.79697883 -0.31106153 -0.33079427 -0.09216165
-0.32057592 0.35665485 -0.21099004 -0.29204038 0.35244215 0.4193029 -0.5550792 0.17018239
0.34998193 0.215463 -0.15113479 0.3195493 0.4195294 -0.007765791 0.8817465 0.28594753
-0.1109023 0.49486804 -0.081427045 0.42581245 -0.14026108 -0.11723867 -0.24811497 -0.248142
-0.42308128 0.41054767 -0.050567403 -0.41611415 0.8588919 -0.30826384 0.3789429 0.3093865
0.33664092 -0.0055253203 -0.3089746 0.49607557 1.0882858 0.06317603 -0.056333594 0.65774834
0.45585734 0.25502226 -0.18711048 -0.40029684 -0.2268038 -0.3818163 -0.17437185 0.58658624
-0.13542067 -0.8201251 0.30578595 -0.46675795 0.21795642 0.18206619 0.25272074 -0.28229728
0.34081712 -0.21955071 0.78593045 0.6072484 -0.23674396 -0.8991883 0.32490897 -0.6273566
-0.35655537 0.45035008 0.38109443 0.030467808 -0.6328088 0.45055836 -0.25637564 -0.4307061
00000000: bf94 8f3e 56b0 b23e a0c2 87be 398c a0be
00000010: 9cc6 5f3d ddd8 28bf 1f09 a3be 14da 68bf
00000020: 13f5 9f3e f6e3 55bd 1265 cfbd abdd 083e
00000030: c9b3 55bf fa4a 65bf 5846 08bf 8d24 92be
00000040: 071b d2be 7255 183f d9ea 1b3d 69d4 27bf
00000050: 8739 0dbe 260e 3b3f c04e d13e d31d 05bf
00000060: 1ee5 c13e ca08 f5be cf90 2dbf 6ab4 ba3e
00000070: 362f 153c 4178 b3be 7936 4f3f d4c7 d7be
00000080: ba3e cfbe 74bf 193f d89c c2be 5b7d 19bf
00000090: 0c8e 50be db71 34bf 8eb8 493f cc1a 5ebe
000000a0: 3dd0 ddbd 9b20 ca3b 73b6 e4be 61d7 9abe
000000b0: 90c0 893e 0fc9 683e d0f5 533e 2dc9 9abe
000000c0: 7210 9b3d cb17 8bbe b4a2 51be 719a dabe
000000d0: e22b 1cbf 3215 893e 9297 d4bd 0cb6 b93d
000000e0: 4b3c 003e 588d 11be ccc5 3f3b 77ea 783e
000000f0: f32b 363e 5a59 7e3e 1e0f 94bd 109e c03d
00000100: a936 8c3e 4187 3cbe 68b3 bbbd 9ec3 6cbd
00000110: 89fd 4f3e 8ce2 b8be ecf2 da3d f337 4abf
00000120: 86cc 04be 8f7e 84bd 9908 b3be 48b9 19bf
00000130: f004 083f 86ab 76be 6f83 033f 7e40 2cbf
00000140: 9eb5 acbc 2400 27be e4d2 4dbe 76ba 48be
00000150: f87c f4bd d055 073e 233e 763d e53b 0ebf
00000160: f6a5 493e 57fd e83e 9ba8 6e3d 5f4f e43d
00000170: 767c 2ebe e298 b2ba 15f0 24bf 25f7 b2bd
00000180: 65e0 f4be 863c 50bf b96e ab3d cf5e b2be
00000190: 3ebc efbe c536 1f3f bab2 773e 93a0 753d
000001a0: 3f64 a4be bacb 9b3e 4c72 afbe d182 283e
000001b0: 7aed 963f d685 a03e 3610 35be 753a 873e
000001c0: a84e f03e 7eec 383f 4a27 f1bd 0e29 8ebe
000001d0: 0645 793e ad49 e0bd e4b7 353f 38b7 c43e
000001e0: e8c2 9dbe 6518 6d3c 65df 72bc 7cc8 4d3e
000001f0: 345f 96be ffb5 22bf 3b99 b5be 60d3 f3bc
00000200: e301 f93e 8b9e e83d 0eee 07be 320b 523e
00000210: 04a3 32bf 64d0 253e 1c49 ca3e 4bfa d23e
00000220: b6bf 873d 8c10 19be 3ba4 9abf cde9 613d
00000230: 3436 7abd eb1f 573e ecd6 14bf c0ee 013f
00000240: 5ea9 8d3e 459a f3bd e5a3 1f3f de35 ae3c
00000250: da0b fb3d 28ff 023f c5f5 67bd 5f0a 5ebf
00000260: 6e69 a3bd 8149 03bf 69c1 b53e 5312 573e
00000270: c738 023c 0874 8f3d 819a cdbe c65d 243e
00000280: 87fc ce3e ed40 43bf 44ea 42bf f2b3 483e
00000290: bb96 653e ead0 5b3e 1dc8 1e3e 3ab3 2ebf
000002a0: 6590 30be af81 48be 84a1 4f3e 5eb2 50be
000002b0: b046 143f dc45 8dbf eb38 143f 2dce 693c
000002c0: c06b 283e 177e 64bd 7bc9 d53d 070b 12bf
000002d0: ce06 4c3f 7543 9fbe de5d a9be 3fbf bcbd
000002e0: 8722 a4be 779b b63e c60d 58be 5186 95be
000002f0: 4c73 b43e dfae d63e ac19 0ebf 4b44 2e3e
00000300: d530 b33e 55a2 5c3e 14c3 1abe f79b a33e
00000310: 8fcc d63e 2d78 febb 23ba 613f b767 923e
00000320: bf20 e3bd 585f fd3e 39c3 a6bd 1704 da3e
00000330: 9aa0 0fbe d41a f0bd da11 7ebe f018 7ebe
00000340: 1c9e d8be 4e33 d23e c41f 4fbd ea0c d5be
00000350: 57e0 5b3f c2d4 9dbe ce04 c23e e867 9e3e
00000360: 335c ac3e bf0d b5bb eb31 9ebe 9efd fd3e
00000370: f34c 8b3f 6f62 813d 0ebe 66bd 3262 283f
00000380: 2266 e93e 4792 823e e499 3fbe b5f3 ccbe
00000390: 413f 68be 6d7d c3be 898e 32be 842a 163f
000003a0: b7ab 0abe b8f3 51bf fa8f 9c3e e6fa eebe
000003b0: f82f 5f3e 8f6f 3a3e 9d64 813e 4589 90be
000003c0: 957f ae3e e7d1 60be bd32 493f a274 1b3f
000003d0: 026d 72be 3431 66bf 785a a63e 719a 20bf
000003e0: 6d8e b6be 4994 e63e cf1e c33e a097 f93c
000003f0: c2ff 21bf 96af e63e ab43 83be 8385 dcbe

network_body._body_endoder.seq_layers.0.bias f4 [128]
0.0 0.0 0.0 0.0 0.0 0.0 0.0 0.0
0.0 0.0 0.0 0.0 0.0 0.0 0.0 0.0
0.0 0.0 0.0 0.0 0.0 0.0 0.0 0.0
0.0 0.0 0.0 0.0 0.0 0.0 0.0 0.0
0.0 0.0 0.0 0.0 0.0 0.0 0.0 0.0
0.0 0.0 0.0 0.0 0.0 0.0 0.0 0.0
0.0 0.0 0.0 0.0 0.0 0.0 0.0 0.0
0.0 0.0 0.0 0.0 0.0 0.0 0.0 0.0
0.0 0.0 0.0 0.0 0.0 0.0 0.0 0.0
0.0 0.0 0.0 0.0 0.0 0.0 0.0 0.0
0.0 0.0 0.0 0.0 0.0 0.0 0.0 0.0
0.0 0.0 0.0 0.0 0.0 0.0 0.0 0.0
0.0 0.0 0.0 0.0 0.0 0.0 0.0 0.0
0.0 0.0 0.0 0.0 0.0 0.0 0.0 0.0
0.0 0.0 0.0 0.0 0.0 0.0 0.0 0.0
0.0 0.0 0.0 0.0 0.0 0.0 0.0 0.0
00000000: 0000 0000 0000 0000 0000 0000 0000 0000
00000010: 0000 0000 0000 0000 0000 0000 0000 0000
00000020: 0000 0000 0000 0000 0000 0000 0000 0000
00000030: 0000 0000 0000 0000 0000 0000 0000 0000
00000040: 0000 0000 0000 0000 0000 0000 0000 0000
00000050: 0000 0000 0000 0000 0000 0000 0000 0000
00000060: 0000 0000 0000 0000 0000 0000 0000 0000
00000070: 0000 0000 0000 0000 0000 0000 0000 0000
00000080: 0000 0000 0000 0000 0000 0000 0000 0000
00000090: 0000 0000 0000 0000 0000 0000 0000 0000
000000a0: 0000 0000 0000 0000 0000 0000 0000 0000
000000b0: 0000 0000 0000 0000 0000 0000 0000 0000
000000c0: 0000 0000 0000 0000 0000 0000 0000 0000
000000d0: 0000 0000 0000 0000 0000 0000 0000 0000
000000e0: 0000 0000 0000 0000 0000 0000 0000 0000
000000f0: 0000 0000 0000 0000 0000 0000 0000 0000
00000100: 0000 0000 0000 0000 0000 0000 0000 0000
00000110: 0000 0000 0000 0000 0000 0000 0000 0000
00000120: 0000 0000 0000 0000 0000 0000 0000 0000
00000130: 0000 0000 0000 0000 0000 0000 0000 0000
00000140: 0000 0000 0000 0000 0000 0000 0000 0000
00000150: 0000 0000 0000 0000 0000 0000 0000 0000
00000160: 0000 0000 0000 0000 0000 0000 0000 0000
00000170: 0000 0000 0000 0000 0000 0000 0000 0000
00000180: 0000 0000 0000 0000 0000 0000 0000 0000
00000190: 0000 0000 0000 0000 0000 0000 0000 0000
000001a0: 0000 0000 0000 0000 0000 0000 0000 0000
000001b0: 0000 0000 0000 0000 0000 0000 0000 0000
000001c0: 0000 0000 0000 0000 0000 0000 0000 0000
000001d0: 0000 0000 0000 0000 0000 0000 0000 0000
000001e0: 0000 0000 0000 0000 0000 0000 0000 0000
000001f0: 0000 0000 0000 0000 0000 0000 0000 0000

network_body._body_endoder.seq_layers.2.weight f4 [128, 128]
-0.008692142 -0.11197651 0.07557314 -0.0058737467 0.03373911 -0.055049952 -0.02213324 -0.021667939
-0.05408981 0.030963872 -0.06237765 -0.13389876 0.060712546 -0.054425336 -0.001959776 -0.06891582
0.0048328917 0.005290023 -0.06992131 -0.044867758 0.1015566 0.10761823 -0.15415849 0.023292514
0.055695675 -0.10534554 0.020102916 0.15149114 -0.13796145 0.17722505 0.13203572 0.065840505
-0.04629979 0.060614157 -0.10431941 0.10147515 -0.066487834 -0.0137194935 -0.034848113 0.032507382
0.124290705 0.14185907 -0.063705474 0.16626231 0.07728153 0.015805155 0.102929294 -0.026529673
-0.06820788 0.066316895 0.10671751 -0.038277004 0.090385914 0.04103314 -0.04341675 -0.045475364
0.08905762 0.023460934 0.0061421804 0.10136232 0.047321636 0.048409138 -0.13658439 -0.02445332
0.059028484 0.04478119 -0.12321519 -0.10686963 0.028825343 0.1259046 -0.07365807 0.089667894
-0.16695285 0.030803155 -0.06758546 -0.037230108 -0.1228535 -0.042464476 0.029385077 -0.06397609
-2.1267624e-06 -0.04733416 0.0378975 -0.07997226 -0.099778965 -0.038563862 0.047552865 -0.0011197279
-0.10142455 0.089565106 0.11847074 0.004368337 -0.053629044 -0.13754687 -0.00022318312 0.028641844
-0.26255897 -0.027662113 -0.21814194 0.09129674 -0.098265156 -0.05377775 0.077207625 -0.068660565
0.06755617 -0.073156774 0.1026008 -0.08534931 0.18710203 -0.065802336 0.024177058 0.1404572
0.06741473 -0.08209579 0.1243597 -0.04870896 0.04651777 -0.09023673 -0.04781689 -0.009475149
-0.101186566 0.06678504 0.062270287 0.04784378 -0.08704422 -0.044100795 0.21073967 -0.045307714
0.025320632 -0.08438267 0.04059215 0.007704714 -0.014789278 -0.08773943 0.019452136 -0.00017358776
0.15463457 0.008392753 -0.135126 -0.06393317 0.00926052 -0.10795307 0.02823651 0.12939762
-0.04957897 -0.11489871 -0.026371228 -0.04240286 -0.18229212 -0.03162612 -0.10480249 0.03248216
-0.07777206 -0.000980218 -0.036637027 -0.0117474105 0.18402357 -0.06273384 0.01546875 -0.0048591755
0.008554431 0.100553215 -0.073600195 -0.047162596 0.10176803 0.018399032 -0.0061936816 -0.00609687
-0.11684481 0.12935719 0.065880105 -0.0731103 0.0442068 0.118341565 -0.14796618 0.027268026
0.06578667 0.0412783 -0.07844705 0.004216857 -0.09287633 0.19899105 0.12353107 0.1691152
0.09249831 -0.104912 0.05660188 0.016126856 -0.04183889 0.10002175 0.11045833 0.11088754
-0.041099165 -0.33400628 -0.051506583 0.02272252 -0.17748864 -0.0036829477 0.0007137555 0.02308646
0.014342144 0.088050336 -0.079743445 -0.15128961 0.10462839 -0.046894908 -0.0474222 0.16059482
-0.04477021 0.031881116 -0.0012778151 -0.026996318 -0.008080005 -0.03141967 -0.15665987 -0.059947684
0.09619077 -0.16129908 -0.037703354 0.029412601 0.03910459 -0.029465413 0.18355273 0.045879405
-0.029601926 -0.15019177 -0.09509776 -0.0015885662 -0.18323986 -0.0055612824 0.0639219 -0.08564993
0.08802267 0.04306703 -0.0699301 0.06837302 -0.007166891 -0.010832557 -0.04324555 -0.14060873
0.0152375735 -0.05648368 0.19837008 0.04791904 0.22247206 0.05172255 -0.06983449 -0.02781957
-0.02862526 0.02337536 0.039538976 -0.017726254 0.13895723 -0.05079879 -0.08211157 0.02675206
00000000: 7c69 0ebc f153 e5bd 17c6 9a3d 8f78 c0bb
00000010: 0532 0a3d 0f7c 61bd c550 b5bc f680 b1bc
00000020: 478d 5dbd f2a7 fd3c b57f 7fbd c21c 09be
00000030: b8ad 783d 1aed 5ebd 966f 00bb bd23 8dbd
00000040: 3c5d 9e3b ee57 ad3b e732 8fbd 41c7 37bd
00000050: e8fc cf3d f266 dc3d b9db 1dbe f1cf be3c
00000060: 2621 643d 67bf d7bd dfae a43c 7e20 1b3e
00000070: c445 0dbe 7c7a 353e 5f34 073e 63d7 863d
00000080: d9a4 3dbd 8d46 783d 6aa5 d5bd 34d2 cf3d
00000090: c62a 88bd bac7 60bc e5bc 0ebd 7626 053d
000000a0: 208c fe3d 8143 113e 0478 82bd ab40 2a3e
000000b0: c745 9e3d d079 813c 98cc d23d c254 d9bc
000000c0: 93b0 8bbd 27d1 873d b68e da3d 59c8 1cbd
000000d0: 401c b93d 5e12 283d c3d5 31bd 6044 3abd
000000e0: d763 b63d 2531 c03c 5844 c93b 0c97 cf3d
000000f0: 55d4 413d a948 463d c7dc 0bbe 5452 c8bc
00000100: dac7 713d 7b6c 373d 3f58 fcbd 77de dabd
00000110: 2023 ec3c 23ed 003e 0bda 96bd cda3 b73d
00000120: b0f5 2abe e656 fc3c 3f6a 8abd 997e 18bd
00000130: 9e9a fbbd 3bef 2dbd f9b8 f03c e505 83bd
00000140: 80b9 0eb6 77e1 41bd 693a 1b3d 7fc8 a3bd
00000150: ea58 ccbd 24f5 1dbd cbc6 423d d5c3 92ba
00000160: adb7 cfbd e96d b73d caa0 f23d 4424 8f3b
00000170: 21aa 5bbd 16d9 0cbe 4306 6ab9 4da2 ea3c
00000180: 216e 86be a89b e2bc 9a60 5fbe c9f9 ba3d
00000190: 3e3f c9bd 0f46 5cbd 081f 9e3d e99d 8cbd
000001a0: e45a 8a3d 38d3 95bd 5e20 d23d 9ecb aebd
000001b0: ad97 3f3e 60c3 86bd f70e c63c 03d4 0f3e
000001c0: bc10 8a3d d621 a8bd 4cb0 fe3d 0c83 47bd
000001d0: 6b89 3e3d 09ce b8bd a5db 43bd a83d 1bbc
000001e0: e73a cfbd 98c6 883d 210f 7f3d d7f7 433d
000001f0: 3d44 b2bd 09a3 34bd 24cc 573e 9594 39bd
00000200: 376d cf3c d2d0 acbd f443 263d d377 fc3b
00000210: ba4e 72bc bbb0 b3bd 165a 9f3c 1c05 36b9
00000220: 8658 1e3e c281 093c 785e 0abe 65ef 82bd
00000230: 70b9 173c 8016 ddbd 4150 e73c cf80 043e
00000240: 5113 4bbd 0450 ebbd 7908 d8bc 9fae 2dbd
00000250: c9aa 3abe 648a 01bd b0a2 d6bd 030c 053d
00000260: f546 9fbd a97a 80ba b510 16bd 3678 40bc
00000270: ad70 3c3e 997a 80bd a470 7d3c b839 9fbb
00000280: e227 0c3c d8ee cd3d b3bb 96bd 912d 41bd
00000290: c26b d03d 91b9 963c 5ef4 cabb 41c8 c7bb
000002a0: 554c efbd 3676 043e 26ec 863d daba 95bd
000002b0: 3112 353d 105d f23d 7284 17be 3261 df3c
000002c0: 29bb 863d 6f13 293d d9a8 a0bd 8f2d 8a3b
000002d0: f235 bebd 4fc4 4b3e dcfd fc3d 892c 2d3e
000002e0: c16f bd3d 1adc d6bd 5fd7 673d 781c 843c
000002f0: 425f 2bbd 34d8 cc3d fa37 e23d 0219 e33d
00000300: 9957 28bd df02 abbe 91f8 52bd 9424 ba3c
00000310: 95bf 35be 9c5d 71bb 521b 3b3a d11f bd3c
00000320: 50fb 6a3c bc53 b43d 8850 a3bd aaeb 1abe
00000330: 6947 d63d e014 40bd c83d 42bd f872 243e
00000340: f860 37bd c695 023d 5c7c a7ba 6227 ddbc
00000350: ff61 04bc e9b1 00bd 726b 20be b48b 75bd
00000360: abff c43d 962b 25be d56e 1abd b2f2 f03c
00000370: 222c 203d 7361 f1bc 3ff5 3b3e 0bec 3b3d
00000380: bd7f f2bc dfcb 19be 9dc2 c2bd 7037 d0ba
00000390: 3ba3 3bbe 6b3b b6bb 7ce9 823d 3b69 afbd
000003a0: 3b45 b43d 0e67 303d 8337 8fbd 2707 8c3d
000003b0: 3dd8 eabb 0a7b 31bc 3f22 31bd bcfb 0fbe
000003c0: 04a7 793c 6e5b 67bd 8721 4b3e c146 443d
000003d0: b7cf 633e 06db 533d 6305 8fbd dee5 e3bc
000003e0: 857f eabc af7d bf3c 9ff3 213d a636 91bc
000003f0: ce4a 0e3e 6412 50bd 1c2a a8bd 2327 db3c

network_body._body_endoder.seq_layers.2.bias f4 [128]
0.0 0.0 0.0 0.0 0.0 0.0 0.0 0.0
0.0 0.0 0.0 0.0 0.0 0.0 0.0 0.0
0.0 0.0 0.0 0.0 0.0 0.0 0.0 0.0
0.0 0.0 0.0 0.0 0.0 0.0 0.0 0.0
0.0 0.0 0.0 0.0 0.0 0.0 0.0 0.0
0.0 0.0 0.0 0.0 0.0 0.0 0.0 0.0
0.0 0.0 0.0 0.0 0.0 0.0 0.0 0.0
0.0 0.0 0.0 0.0 0.0 0.0 0.0 0.0
0.0 0.0 0.0 0.0 0.0 0.0 0.0 0.0
0.0 0.0 0.0 0.0 0.0 0.0 0.0 0.0
0.0 0.0 0.0 0.0 0.0 0.0 0.0 0.0
0.0 0.0 0.0 0.0 0.0 0.0 0.0 0.0
0.0 0.0 0.0 0.0 0.0 0.0 0.0 0.0
0.0 0.0 0.0 0.0 0.0 0.0 0.0 0.0
0.0 0.0 0.0 0.0 0.0 0.0 0.0 0.0
0.0 0.0 0.0 0.0 0.0 0.0 0.0 0.0
00000000: 0000 0000 0000 0000 0000 0000 0000 0000
00000010: 0000 0000 0000 0000 0000 0000 0000 0000
00000020: 0000 0000 0000 0000 0000 0000 0000 0000
00000030: 0000 0000 0000 0000 0000 0000 0000 0000
00000040: 0000 0000 0000 0000 0000 0000 0000 0000
00000050: 0000 0000 0000 0000 0000 0000 0000 0000
00000060: 0000 0000 0000 0000 0000 0000 0000 0000
00000070: 0000 0000 0000 0000 0000 0000 0000 0000
00000080: 0000 0000 0000 0000 0000 0000 0000 0000
00000090: 0000 0000 0000 0000 0000 0000 0000 0000
000000a0: 0000 0000 0000 0000 0000 0000 0000 0000
000000b0: 0000 0000 0000 0000 0000 0000 0000 0000
000000c0: 0000 0000 0000 0000 0000 0000 0000 0000
000000d0: 0000 0000 0000 0000 0000 0000 0000 0000
000000e0: 0000 0000 0000 0000 0000 0000 0000 0000
000000f0: 0000 0000 0000 0000 0000 0000 0000 0000
00000100: 0000 0000 0000 0000 0000 0000 0000 0000
00000110: 0000 0000 0000 0000 0000 0000 0000 0000
00000120: 0000 0000 0000 0000 0000 0000 0000 0000
00000130: 0000 0000 0000 0000 0000 0000 0000 0000
00000140: 0000 0000 0000 0000 0000 0000 0000 0000
00000150: 0000 0000 0000 0000 0000 0000 0000 0000
00000160: 0000 0000 0000 0000 0000 0000 0000 0000
00000170: 0000 0000 0000 0000 0000 0000 0000 0000
00000180: 0000 0000 0000 0000 0000 0000 0000 0000
00000190: 0000 0000 0000 0000 0000 0000 0000 0000
000001a0: 0000 0000 0000 0000 0000 0000 0000 0000
000001b0: 0000 0000 0000 0000 0000 0000 0000 0000
000001c0: 0000 0000 0000 0000 0000 0000 0000 0000
000001d0: 0000 0000 0000 0000 0000 0000 0000 0000
000001e0: 0000 0000 0000 0000 0000 0000 0000 0000
000001f0: 0000 0000 0000 0000 0000 0000 0000 0000

value_heads.value_heads.extrinsic.weight f4 [1, 128]
-0.023057655 0.0067892373 -0.14024928 -0.21323471 0.08577487 0.045393467 0.07693863 0.13819775
-0.11859162 -0.09719543 0.028873667 -0.017559454 -0.12377472 -0.17857073 0.11921418 -0.14611483
0.17620468 -0.061777636 0.13895273 0.034062892 -0.16792095 0.18666685 0.008935869 0.20258114
-0.13339695 0.14107785 -0.012871072 -0.032177374 0.01310876 -0.20112741 0.18581024 0.121576965
-0.15240517 -0.0014357865 0.20563933 0.022263572 0.089107364 -0.13968888 -0.08060764 0.15294552
-0.05226572 -0.08512074 0.116380036 -0.12732619 -0.031211525 -0.20688432 0.02551034 -0.08937815
-0.14372185 -0.07125999 -0.15200303 0.06711653 -0.15941226 -0.040305838 -0.08238177 -0.19972329
0.15421739 0.004837364 0.049740225 0.15636584 0.13091895 -0.09292321 0.040770352 0.0025303066
0.12790883 -0.011051312 0.11182612 -0.19708276 -0.043935284 -0.14439657 -0.17560726 -0.19857822
-0.14449805 -0.08274311 -0.09051101 0.08585945 -0.18568762 0.17288923 0.077249706 0.012314796
-0.033815876 0.14221087 0.19655213 0.14688858 -0.0029961616 0.038978785 0.07999778 -0.0912991
0.1532422 0.17445135 0.2088241 -0.15323108 -0.20883018 0.09838617 -0.10948118 -0.04438506
-0.11772396 -0.20389119 -0.12930647 0.115511894 0.1894913 0.037804544 -0.094276726 0.042452812
-0.009441987 0.018567845 -0.11567386 -0.12654084 -0.012025639 -0.040692896 -0.14419058 0.14308593
0.10607797 0.13746718 0.1739529 -0.040219277 0.1571098 -0.19883229 0.16764635 -0.15723468
0.037145793 -0.16504975 0.109549224 -0.15643385 -0.1698612 0.17245251 -0.073350176 -0.15279162
00000000: 68e3 bcbc 4078 de3b 829d 0fbe 335a 5abe
00000010: bcaa af3d 80ee 393d 0092 9d3d b683 0d3e
00000020: 2ae0 f2bd 660e c7bd 7888 ec3c d8d8 8fbc
00000030: 9a7d fdbd 3fdb 36be 9026 f43d 209f 15be
00000040: 006f 343e 8c0a 7dbd a049 0e3e 8885 0b3d
00000050: 78f3 2bbe 9825 3f3e c067 123c 6e71 4f3e
00000060: 3699 08be b676 103e 30e1 52bc 6ccc 03bd
00000070: 20c6 563c 58f4 4dbe 0a45 3e3e 58fd f83d
00000080: 1a10 1cbe 0031 bcba 1e93 523e 1862 b63c
00000090: ec7d b63d 9a0a 0fbe 9e15 a5bd c09d 1c3e
000000a0: 9414 56bd c853 aebd a858 ee3d cc61 02be
000000b0: 50af ffbc 7cd9 53be 10fb d03c e40b b7bd
000000c0: d22b 13be c2f0 91bd afa6 1bbe 6474 893d
000000d0: f83c 23be bc17 25bd c6b7 a8bd 4384 4cbe
000000e0: 2aeb 1d3e c082 9e3b 68bc 4b3d 5e1e 203e
000000f0: 9e0f 063e 864e bebd d0fe 263d 80d3 253b
00000100: 88fa 023e 9010 35bc 1805 e53d 10d0 49be
00000110: 7cf5 33bd b2dc 13be 64d2 33be 1758 4bbe
00000120: 4cf7 13be 3875 a9bd d65d b9bd 14d7 af3d
00000130: e524 3ebe e009 313e 1835 9e3d 00c4 493c
00000140: 8482 0abd ba9f 113e f644 493e f669 163e
00000150: 405b 44bb 38a8 1f3d e0d5 a33d 06fb babd
00000160: 86eb 1c3e 60a3 323e fcd5 553e 9ce8 1cbe
00000170: 94d7 55be b07e c93d ab37 e0bd 1ccd 35bd
00000180: 4219 f1bd dac8 50be ea68 04be 8091 ec3d
00000190: 020a 423e f0d8 1a3d 2814 c1bd 00e3 2d3d
000001a0: 90b2 1abc 981b 983c 6be6 ecbd ec93 01be
000001b0: 3007 45bc 98ad 26bd b2a6 13be 1e85 123e
000001c0: 683f d93d 32c4 0c3e b620 323e f8bc 24bd
000001d0: 64e1 203e b19a 4bbe 7cab 2b3e 2102 21be
000001e0: 3026 183d cd02 29be 585b e03d 3230 20be
000001f0: 18f0 2dbe 6497 303e 9e38 96bd 6875 1cbe
