results/test_movetogoal/MoveToGoal/MoveToGoal-45917.onnx (onnx, 75559 bytes, 8 tensors)

network_body.observation_encoder.processors.0.normalizer.running_mean f4 [6]
00000000: 361c 3f3e e512 a7be be36 493d 2558 2ebe
00000010: 8096 ccb5 a190 2abe
0.18663105 -0.32631603 0.04912447 -0.17025812 -1.5242986e-06 -0.16656734

network_body._body_endoder.seq_layers.0.weight f4 [128, 6]
00000000: ce30 363e 5766 77be d618 1bbe 2eea 18bf
00000010: 1006 303e ac84 bf3c 059e 9f3e 6387 b03e
00000020: 5ced 02bf f871 18bf 2195 bbbe bd38 00bf
00000030: adf9 153f 6de7 823f 331e f3be 3f7a 2dbd
00000040: 2dd3 26bf 76c1 943d 287f 92bd 22e5 14bf
00000050: f26d d5bd 084d be3e 9864 1c3f 25c4 c4bc
00000060: e38a cebd 1d26 0c3e 5d58 86be ac4c 863e
00000070: 8284 a7bd 9bfc 023f e063 2ebf 237e d13e
00000080: a586 f93e bb17 063f cecf d7be 3b16 64be
00000090: 6c32 cc3e 835b bc3e 92d2 d53e 6834 983e
000000a0: 8c98 13bf e4c5 03be c919 47be e572 c2be
000000b0: 84b8 3fbe 1a14 2cbf 47ba fcb9 3642 a1be
000000c0: 6867 723d 6117 7bbd 58d6 58bd b554 02bd
000000d0: 2230 093e 019e cc3e a48f 383f be0c 61be
000000e0: cfce 42be 83ec 1a3e 032c 613f a7d7 e3bd
000000f0: 005c 8f3e 54cf bf3d d23e d4bd 99fc 84bd
00000100: 5bda 143f ce4f 40bd b8db cb3e 097c a9be
00000110: 2044 d23e a4d6 5a3d 6d8c 90bb 6cc1 8abc
00000120: 4ac1 b73a 3c9e 54be 542d 10bf d64a 773e
00000130: 7564 043f 59f6 64be fcb5 93be 140f d73e
00000140: 514b d43e 3aaf c93e 09a4 fc3e d281 5abe
00000150: 70cb e33c 997e 9b3e cb88 1b3e 7863 913e
00000160: a017 8bbe 41b7 66be cba6 083f 0478 27be
00000170: a842 99be 6810 9b3e 872f 02be a436 45bf
00000180: 7dc2 95bd 3b97 ebbe 1785 303e e844 8abc
00000190: 0967 a43e 96fd 093f 069c 323f 4e12 afbe
000001a0: bd84 92be dbd9 07be 78bc 633f 94fe ee3e
000001b0: 26f6 83be 8962 093f c145 bcbd a12b b0be
000001c0: 7125 333e a16e 1b3f 1fec 80bd bdaa b63e
000001d0: 6696 403e cacd c93e 99ca ac3e 1756 bb3d
000001e0: 3684 bc3e 6587 4c3f 5a0e a43f 77de 323e
000001f0: d891 f13e 78b9 0a3f 06e0 673e 7650 e9be
00000200: 984c f1bd 7e60 ecbd de0e 1ebe b612 c93d
00000210: 31c7 c23d 042c a4be 0f44 a53e 3df1 47bd
00000220: 376f acbe 6d05 2ebe 4e4e dabd 58ad 0f3f
00000230: fdca bdbd 82fc ce3e f56e b6be cd46 d63e
00000240: 612a c53c 4962 053f 0cb4 afbe 57ad a3bd
00000250: a5f7 b5be dff5 60be 12b1 b0bf 37b7 663d
00000260: 14f6 3d3e adab 29be 8ec2 ebbe a1cc df3e
00000270: 1f29 633e 8ce8 e7be 4b26 1a3e 2bcf 42be
00000280: 0d2b c53e a4f8 b1be 8594 a8be 6ddf 36bf
00000290: e44f babd aacf 793e b4f4 7a3e a5d0 143f
000002a0: 0eec f5be aaee 863e 90b1 8cbe 84e1 733d
000002b0: 18a8 2a39 b06d c53d 7956 c8be 0833 703e
000002c0: 3349 b53e a7de 63be aa98 52bf 8e19 1e3c
000002d0: 35c7 4a3f e68b f5be 1c70 a0be 405f 3d3f
000002e0: 75f3 5f3f 6279 c93e 2110 1d3e 9314 1f3f
000002f0: 4964 0abe c8ed 4f3f 62d7 813e 1f5c 2a3e
00000300: 0b61 163f 4aaa 423e 20c3 b4be 6b44 603e
00000310: 6c91 97be 8aea 18bf bcbf 98be d50c 243e
00000320: 4b58 cdbe 86eb 04be 8584 63bf 4219 14be
00000330: 184d 03bf bfd3 cc3e 2fa5 7a3e ace3 c83e
00000340: 23af a03e 6262 273e 45c6 9bbe b79e 31be
00000350: ab5a ae3e c82e fbbc 569b 27bf 1fbe d5be
00000360: c282 e53e 306b febe 3e08 eabe 2f1f 4b3e
00000370: 523f acbd 5cb1 c23e cb78 9d3a ed6a 73bb
00000380: 47e9 a33d 0064 db3e 78f9 ea3e 935d 7cbc
00000390: 0085 a03d 0e64 88be 9e9c 323f b7dc 083e
000003a0: 5f1b 9d3e 9a83 5d3f 884f c5be b28d 043f
000003b0: 0ad3 f93e 4639 13bd 3769 8bbe 3afa 853d
000003c0: a0d4 73be db2c d7be a3cd c8be afb1 e8be
000003d0: 9b5a b63e 540b 08bf 7b65 453e ebf5 8a3e
000003e0: 696a a73e 948d 013f 8cd3 29bf 8bd5 97bf
000003f0: 81c7 2fbe 4e66 c53e 4ff4 393d 56b6 763d
0.17792055 -0.24160133 -0.15146193 -0.5973233 0.17189813 0.023378693 0.31175247 0.34478292
-0.5114343 -0.595489 -0.36637214 -0.50086576 0.585841 1.0226876 -0.47483978 -0.04235291
-0.6516598 0.07263462 -0.071531594 -0.5816213 -0.10421361 0.37168145 0.61090994 -0.02401931
-0.10085084 0.13686414 -0.2623929 0.2623037 -0.08179571 0.51166695 -0.6812115 0.40916547
0.48735538 0.5237996 -0.4215073 -0.22274105 0.3988222 0.36788568 0.41762215 0.29727483
-0.57654643 -0.12868458 -0.1944343 -0.37978283 -0.18722731 -0.6721817 -0.00048203973 -0.31495827
0.059180647 -0.061301593 -0.05293879 -0.031819064 0.13397267 0.39964297 0.7209418 -0.21977517
-0.19024204 0.15129285 0.8795778 -0.11125117 0.27999878 0.093657166 -0.103635445 -0.06493492
0.58145684 -0.046951108 0.3981607 -0.33102444 0.410676 0.053427354 -0.0044112713 -0.016937934
0.0014019397 -0.20763487 -0.56319165 0.24149641 0.51715785 -0.22359599 -0.2884978 0.4200369
0.41463712 0.393915 0.493439 -0.21338585 0.027806967 0.30370024 0.15188901 0.283962
-0.27166462 -0.22530843 0.53379506 -0.16354376 -0.29933667 0.30285954 -0.12713443 -0.770365
-0.07312486 -0.46013817 0.1723827 -0.01687856 0.3210986 0.53902566 0.6976932 -0.34193653
-0.28616896 -0.13266699 0.88959455 0.46678603 -0.25773734 0.5366598 -0.09192992 -0.34408286
0.17494752 0.6071568 -0.062950365 0.35677138 0.18807372 0.39414817 0.3374832 0.0914728
0.3681962 0.79894096 1.281688 0.17467676 0.47181582 0.5418925 0.22644052 -0.455692
-0.11782187 -0.11541842 -0.15435359 0.09818022 0.09510649 -0.3206483 0.32278487 -0.048814047
-0.336786 -0.16994257 -0.10659467 0.56123877 -0.092672326 0.40427023 -0.35631528 0.41850892
0.02406806 0.52103096 -0.34317052 -0.07992046 -0.355405 -0.21968792 -1.3804038 0.05632707
0.18550903 -0.16569395 -0.4604687 0.43710807 0.22183655 -0.45294607 0.1505367 -0.19024341
0.38509408 -0.3476001 -0.3292581 -0.7143467 -0.09097269 0.24395624 0.2450741 0.58130866
-0.48031658 0.2635396 -0.2747922 0.05954124 0.00016275083 0.09640062 -0.39128473 0.23456967
0.3540741 -0.22252904 -0.82264197 0.009649647 0.79210216 -0.47958297 -0.31335533 0.73973465
0.8748086 0.3935042 0.15338184 0.6214077 -0.13514818 0.812222 0.25359637 0.16636704
0.58741826 0.19010273 -0.3530512 0.219011 -0.29603136 -0.5973288 -0.29833782 0.1602052
-0.40106425 -0.1298047 -0.88874084 -0.1446276 -0.5128951 0.400053 0.24477075 0.392362
0.3138362 0.16346124 -0.30424705 -0.17345701 0.3405355 -0.030661955 -0.654714 -0.41746613
0.44826323 -0.49691153 -0.45709413 0.19836114 -0.08410515 0.3802594 0.0012014149 -0.003714259
0.080034785 0.4284973 0.45893455 -0.015403169 0.07837868 -0.26638836 0.6977023 0.13365446
0.30684945 0.86528933 -0.3853724 0.5177871 0.48793823 -0.035943292 -0.2722871 0.065418676
-0.23811579 -0.4202641 -0.39219388 -0.45448062 0.35616 -0.53142285 0.19276993 0.27140746
0.32698372 0.50606656 -0.6633842 -1.1862043 -0.17165948 0.38554615 0.045399006 0.060232483

network_body._body_endoder.seq_layers.0.bias f4 [128]
00000000: 0000 0000 0000 0000 0000 0000 0000 0000
00000010: 0000 0000 0000 0000 0000 0000 0000 0000
00000020: 0000 0000 0000 0000 0000 0000 0000 0000
00000030: 0000 0000 0000 0000 0000 0000 0000 0000
00000040: 0000 0000 0000 0000 0000 0000 0000 0000
00000050: 0000 0000 0000 0000 0000 0000 0000 0000
00000060: 0000 0000 0000 0000 0000 0000 0000 0000
00000070: 0000 0000 0000 0000 0000 0000 0000 0000
00000080: 0000 0000 0000 0000 0000 0000 0000 0000
00000090: 0000 0000 0000 0000 0000 0000 0000 0000
000000a0: 0000 0000 0000 0000 0000 0000 0000 0000
000000b0: 0000 0000 0000 0000 0000 0000 0000 0000
000000c0: 0000 0000 0000 0000 0000 0000 0000 0000
000000d0: 0000 0000 0000 0000 0000 0000 0000 0000
000000e0: 0000 0000 0000 0000 0000 0000 0000 0000
000000f0: 0000 0000 0000 0000 0000 0000 0000 0000
00000100: 0000 0000 0000 0000 0000 0000 0000 0000
00000110: 0000 0000 0000 0000 0000 0000 0000 0000
00000120: 0000 0000 0000 0000 0000 0000 0000 0000
00000130: 0000 0000 0000 0000 0000 0000 0000 0000
00000140: 0000 0000 0000 0000 0000 0000 0000 0000
00000150: 0000 0000 0000 0000 0000 0000 0000 0000
00000160: 0000 0000 0000 0000 0000 0000 0000 0000
00000170: 0000 0000 0000 0000 0000 0000 0000 0000
00000180: 0000 0000 0000 0000 0000 0000 0000 0000
00000190: 0000 0000 0000 0000 0000 0000 0000 0000
000001a0: 0000 0000 0000 0000 0000 0000 0000 0000
000001b0: 0000 0000 0000 0000 0000 0000 0000 0000
000001c0: 0000 0000 0000 0000 0000 0000 0000 0000
000001d0: 0000 0000 0000 0000 0000 0000 0000 0000
000001e0: 0000 0000 0000 0000 0000 0000 0000 0000
000001f0: 0000 0000 0000 0000 0000 0000 0000 0000
0.0 0.0 0.0 0.0 0.0 0.0 0.0 0.0
0.0 0.0 0.0 0.0 0.0 0.0 0.0 0.0
0.0 0.0 0.0 0.0 0.0 0.0 0.0 0.0
0.0 0.0 0.0 0.0 0.0 0.0 0.0 0.0
0.0 0.0 0.0 0.0 0.0 0.0 0.0 0.0
0.0 0.0 0.0 0.0 0.0 0.0 0.0 0.0
0.0 0.0 0.0 0.0 0.0 0.0 0.0 0.0
0.0 0.0 0.0 0.0 0.0 0.0 0.0 0.0
0.0 0.0 0.0 0.0 0.0 0.0 0.0 0.0
0.0 0.0 0.0 0.0 0.0 0.0 0.0 0.0
0.0 0.0 0.0 0.0 0.0 0.0 0.0 0.0
0.0 0.0 0.0 0.0 0.0 0.0 0.0 0.0
0.0 0.0 0.0 0.0 0.0 0.0 0.0 0.0
0.0 0.0 0.0 0.0 0.0 0.0 0.0 0.0
0.0 0.0 0.0 0.0 0.0 0.0 0.0 0.0
0.0 0.0 0.0 0.0 0.0 0.0 0.0 0.0

network_body._body_endoder.seq_layers.2.weight f4 [128, 128]
00000000: 7731 213e e7d3 963c c3e1 8fbd d86b 9a3d
00000010: 787b d13b 4623 1dbd 4197 23bd a240 f03c
00000020: 38f1 d63d 1bff 723d 1116 9cbd ca5b 813d
00000030: 5fb2 01be 3014 093e 3046 613e 9de6 003e
00000040: a177 983e 16a2 47bc f956 0e3b e4c1 f4bc
00000050: e853 843d 05cb babc 9f0d d93d 86a4 46bd
00000060: a5b4 00bd e832 cfbc d59a fb3b 7611 d6bc
00000070: 03b3 0cbd b968 3abe dea1 0cbe 450a 653c
00000080: 1794 02bd e516 e53d 31bb 86bd 51bf a9bd
00000090: 6756 bc3a 64bf 9abc 9323 0d3d 89ca cabd
000000a0: 300a 933c c19a 043e 5d9f 9a3d ecbf 5c3c
000000b0: 3b6c 5ebe 0bb8 ea3b 55ff b9ba 1068 23bd
000000c0: 2eee 953c c2df e63c ce28 403d a19e 063e
000000d0: 429e 6b3c d9bd 043e 8ad5 583e a861 82bd
000000e0: 4e76 113e f131 ebbb e339 fabc f88a 5dbc
000000f0: b015 f73d 57b3 24be 6060 5dbd 67ec 243b
00000100: 77ea bf3d 36ed 48bd 7cb6 7a3d 9a10 213e
00000110: 9603 d0bd 72b3 2c3e 7d81 df3d 3e9e 203c
00000120: 8260 373d cf36 183e 2edd 763d fb42 b7bd
00000130: a40b 973d 2168 123c 5b91 4dbd 168e cb3c
00000140: cfd9 5d3d 3c8c 35bd 68db c1bd 86d1 abbd
00000150: 0d7f 7d3d 21dc d2ba b8cc 3f3b 5c94 9ebc
00000160: f86a 853d eb6e 053e 88a9 9bbd 581d 233d
00000170: 46c1 53be 5ecf 793c 468c 9bbc 4708 99bb
00000180: b4e6 a8bc 823a 5abd b50d 93bd 409f e4bd
00000190: 4f25 2cbc 70fd 02be d1ce 05bc 9d68 26bd
000001a0: eda7 c23d e997 c43d bfee ac3d d0b4 27bb
000001b0: 4fa8 19bd 8282 97bd db8f 2f3d e47d 2e3c
000001c0: 552a 883d a42b 423d d5ad 4ebd 0a3f d03d
000001d0: 219d 953c b7f5 01be 06b6 d43d 3364 10be
000001e0: 35c4 09be 9665 e03c 91ba 223e 4ec3 993d
000001f0: 3baf c8bd 4ca7 88bd bfa7 8ebd 00dd 5f3d
00000200: 59bd 343e 5b07 fbbd ba0d d6bc 8348 a9b9
00000210: 7b2b 243c 76ae 4a3e 7f3c 313e c768 05be
00000220: b18d 5a3e c399 0e3c f00e 1bbd 7a06 d23d
00000230: 4003 83bb 2bf0 0a3e 86ce 253d fe4a 9dbb
00000240: 9041 2b3d 6f48 5cbc c6ea 793d 9d0f 26be
00000250: cf5c b83c c7d9 62bd 7fbc 943d 9524 a03d
00000260: 2d4c 2dbd 5c30 923d 2e37 b43c 69d1 933d
00000270: 3bad 8dbd a626 1b3d d788 24be 3d9e f9bd
00000280: 7483 423d 6b3f 9bbc f23e 7f3e 11c6 43bd
00000290: 05dd b9bc f4f8 06bd 1fb5 923b da96 863d
000002a0: 1e49 673c 5eeb 8ebd 8ae4 ab3d ad65 08be
000002b0: 92db 97bd f87b 603d 022a 35be a1a9 c0bd
000002c0: 3c78 0d3e 80d7 5cbe 0c2e 0b3e a82c bdbc
000002d0: 743a afbd 1af9 023d de6e 8cbc 5577 e73b
000002e0: 6372 df3d e902 4d3e 651b 09be f540 d63c
000002f0: cf34 d0bd dbac 8f3d 6a85 6cbd f1b5 5f3c
00000300: 0db8 b8bd 3974 23bd eac0 f93d 0da9 b0bc
00000310: e428 2fbd 5626 ed3d 19a3 24be b69d 0a3e
00000320: 7a30 853d 668f 023d c0c6 46be 51e2 d6bc
00000330: a655 70bd 732b 5d3e ed91 bdbd 56d8 36be
00000340: 8e73 7f3c 9ddc 203d 5035 c03d 093a c03d
00000350: 49f3 a2bc c9b4 253c 73f8 bc3d 964f 513d
00000360: 25b0 a4bd 7d7e 263d e32e 203d 9820 fdbc
00000370: cfe3 2dbe 4ded 9ebd c230 b93c 16a4 0cbe
00000380: bfbf 8abb 638f c3bd 001f a1bd 8a2e a7bd
00000390: acdb f3bc 37cd 373d ca09 353e 2756 a43d
000003a0: 5d2a edbc 0c8a 82bd d7a2 003e 7a06 9a3d
000003b0: 89f5 a63c 8628 8abd 7212 70bd c650 8abd
000003c0: afc5 13bd 1c84 843d 123d 3bbd c257 57bd
000003d0: b420 ae3d d903 f93d f4f1 bfbc 2696 6b3d
000003e0: bc38 78bc 1513 aabd 2762 9b3d b706 d33d
000003f0: a021 03be 9452 ac3d 51b8 ddbb 0be2 df3d
0.15741526 0.01841159 -0.070254825 0.07540101 0.0063928925 -0.038363717 -0.03993917 0.029327694
0.104952276 0.05932532 -0.07621396 0.063163355 -0.126657 0.13386607 0.2199943 0.12587972
0.2977877 -0.01218464 0.002171932 -0.02987761 0.06461316 -0.022801885 0.10598301 -0.048496746
-0.031422276 -0.025292829 0.0076783695 -0.026131373 -0.034350406 -0.18204011 -0.13733622 0.013979499
-0.03187951 0.111860074 -0.06578673 -0.08288444 0.0014369012 -0.01889009 0.034457754 -0.09901912
0.017949194 0.12949659 0.075499274 0.013473492 -0.21720974 0.007163053 -0.0014190475 -0.039894164
0.01830205 0.028182868 0.046913914 0.1314645 0.014380993 0.12963046 0.21175209 -0.06366283
0.14205286 -0.0071775843 -0.03054518 -0.013521902 0.120646834 -0.16084038 -0.05404699 0.002516532
0.093708925 -0.049054347 0.061209187 0.15728989 -0.10156934 0.16865328 0.1091337 0.009803353
0.04476977 0.14864658 0.060269527 -0.089483224 0.07375267 0.008935959 -0.05018745 0.024848025
0.054162797 -0.04432319 -0.094656765 -0.08389573 0.061888743 -0.0016087332 0.002926631 -0.019357853
0.06514543 0.13030593 -0.07600695 0.039822906 -0.20679197 0.015247194 -0.018987786 -0.004670176
-0.02061782 -0.053278454 -0.07180349 -0.11163187 -0.010506942 -0.12791991 -0.008166985 -0.04062711
0.095046856 0.09599287 0.08443975 -0.002558995 -0.037514027 -0.07397939 0.0428618 0.010650132
0.06648699 0.0474049 -0.050458748 0.10168274 0.018263401 -0.12691389 0.10386281 -0.14100723
-0.13453753 0.02739219 0.15891482 0.075079545 -0.097990476 -0.06672534 -0.06965589 0.05465412
0.17650355 -0.12257262 -0.026129592 -0.00032288217 0.010020132 0.19793114 0.17308234 -0.1302825
0.21343113 0.008703652 -0.037856042 0.102551416 -0.00399819 0.1356818 0.04048016 -0.0048001995
0.041810572 -0.013445004 0.061014913 -0.16216893 0.022505192 -0.05538347 0.07262515 0.078194775
-0.042308975 0.0713813 0.021998968 0.07217676 -0.06917807 0.037878655 -0.16067825 -0.12188385
0.047488645 -0.018951138 0.24926355 -0.047796313 -0.022688398 -0.032952264 0.0044771577 0.065717414
0.014116554 -0.069784865 0.083932 -0.13320036 -0.074149266 0.054805726 -0.17691806 -0.09407354
0.13815397 -0.21566582 0.13591784 -0.023092583 -0.08556071 0.031975843 -0.01714271 0.007063786
0.109104894 0.20020641 -0.13389356 0.02615402 -0.101663224 0.070153914 -0.05774442 0.013654218
-0.0901948 -0.03990576 0.121949986 -0.021564985 -0.042763606 0.115795776 -0.16077842 0.13536724
0.06503387 0.031875037 -0.19411755 -0.026230963 -0.05867543 0.21598606 -0.09256349 -0.17855963
0.015591515 0.039272893 0.093851686 0.09386069 -0.019891398 0.010113903 0.092270754 0.05110129
-0.080414094 0.040647972 0.039107215 -0.030899331 -0.16981433 -0.07760105 0.022606257 -0.13734469
-0.0042342837 -0.09548833 -0.07867241 -0.081631735 -0.029767834 0.044873443 0.17679515 0.08024245
-0.028950864 -0.063739866 0.12562118 0.075207666 0.020380752 -0.067460105 -0.05861134 -0.067536876
-0.036077198 0.0647051 -0.045712538 -0.052573927 0.085023314 0.12158937 -0.023430802 0.05751624
-0.015150245 -0.08304421 0.075870804 0.10304015 -0.12805796 0.08414188 -0.006766357 0.10931786

action_model._continuous_distribution.log_sigma f4 [1, 2]
00000000: 0000 0000 0000 0000
0.0 0.0

action_model._continuous_distribution.mu.weight f4 [2, 128]
00000000: 2fe6 86bc 30d1 ab3c 189c 69bc 7d8c cc3b
00000010: 8a02 f63c d5c4 8f3c ddda f83b 8f09 08bc
00000020: 4d33 53bb d393 a03c 7f86 e1bc c252 633c
00000030: 1ff2 be3c 171f 40bc cd5d 5ebc cf52 a23a
00000040: 281e 093d 72a7 e43b 4afb 3abb 368c a5bb
00000050: 1f39 9dbc bb16 8e3c c43d 30bc 75bc acbc
00000060: 8a05 813c 9e5d cb3c 9d48 a13c 5a97 86bc
00000070: 5359 1b3c 58c4 4bbc ebad d53c 2dcb 24bc
00000080: ac96 8fbc 02e2 503c 43ba 483c bdd9 8db9
00000090: bab2 c0bc 3259 9cbc 1fa9 e6bb 3bab edba
000000a0: db67 033d 97d1 0bbc 08f6 ee3b 2769 0c3b
000000b0: 384b fcbc 636a b9bc 47c6 c0bc 9a00 0d3c
000000c0: 23dc ac3b b284 8cbc 18b9 1b3c eb84 703b
000000d0: cf43 bc3c 8a79 683c 3812 f43c 5c80 17bb
000000e0: aae1 1b3c 3fe1 d4bb 318f 8a3b cde0 acbb
000000f0: df79 c23a e38d 043d c36e 283c 5871 ac3b
00000100: 9061 d73b 933e a1bc 3b50 0f3c 3f8b 243d
00000110: 5d8c 8ebb 7214 0e3c 7d3f 5b39 4872 6f3c
00000120: ff07 a1bb ffd4 453c c7f5 843b c597 833b
00000130: 1338 95bb 8c44 17ba 9858 acbc a52e af3c
00000140: f27d 263b 87b6 62bb 6a95 a53b b729 433d
00000150: af82 083c 284a 04bd 0146 ac3c 989b 723c
00000160: 3890 67bb b3cd 313c df51 453c 9d14 283b
00000170: 72b8 f93a ebf4 293b d3f9 76bc 8bff 153c
00000180: 0d85 7ebc d416 0ebd a87e 433b ef5a 063a
00000190: 4f14 f6bb 3a8b 6d3b 15af f53c 5664 183c
000001a0: 72f1 fa3c 858c 7d3c 0a33 3dbc e61f b6bc
000001b0: cb6e c43b e69b c9bc 39eb bd3c 15e9 70bc
000001c0: fee8 873c 2a9e 103b 87b7 893b e605 19bc
000001d0: 8af0 a33b 8788 263b 2f7c 8d3c b5b6 c5bc
000001e0: ddd7 f4bc 83c1 943c 5f64 25bb 9aa6 37ba
000001f0: bfd5 2d3c 6789 83bc 7d63 6cbc 50ab f1ba
00000200: 890a 21bc 4abd 403c 4399 7bbb b361 dfbc
00000210: 35af b5ba 352a 7bbc 6a87 b13b 988c d33b
00000220: 7787 b7bb 97fd 98bc 4f8b 003c 5dc1 5d3c
00000230: 5dcf 25bc 57f7 28bc f350 c93c c7c2 e03c
00000240: cbc3 1ebc dcf3 ca3b e3bb e13c 7185 b3bb
00000250: 5ff8 db3c 8be1 dc3b 1b07 b03c 9d5a bfbb
00000260: f026 7aba df54 6a3c 0364 743b 7811 a63c
00000270: 28fd ff3c b5ec f3bb 583c f83b 5d67 93bb
00000280: e7c8 373c 1934 be3b 5603 3c3c 8dd1 fc3c
00000290: a77c 90bc 2f6d 9dbc 03c2 5fbc 8341 55bc
000002a0: 0500 d5bb 7303 d83a be2b 323c c32b 323a
000002b0: a923 393c cdea 033d 6abe 393c 1a45 0e3c
000002c0: 8520 5abc ab8d 4f3b 8376 703b 779e 6c3b
000002d0: 7b03 9f3c 4fe5 023c 0dd7 3fbb ed45 51bc
000002e0: 3cae 2cbb 4f09 7d3c a46a a0b9 b228 64bc
000002f0: c695 483b cdc8 cabc 929c 96bc 7204 753a
00000300: 6274 33ba 0b1d 313d 034a dbbc 7469 12bc
00000310: e3d3 9b3b 287f 2e3c cf29 273b 58d0 ee3c
00000320: 29cb 8f3c 7872 a73b efe8 93bc 70ea 193d
00000330: bf5d 8bbc d285 563a 8926 393b 412c 9ebc
00000340: 4de2 4dbb 2e6c 08bc e146 01bc 67ee 12bb
00000350: f292 203c 5ab3 e13b 5924 c2bc 1239 a8bc
00000360: 1e3f 2c3b 6a88 10bc 5f79 e23c 9dc2 7ebc
00000370: f71b 00bb 7604 983b 9e54 a8bb 7cb8 0b3c
00000380: 8099 c33b 9d92 f33c 40ff fc3a 92d1 d63c
00000390: 039c b2ba 7305 10bd fab4 19bc cd11 cdbc
000003a0: 8307 f13c 302a ae3c 24d2 8fbc 0358 e33c
000003b0: f381 a5bb 046c 0d3d 567b 363a af8d 2fbc
000003c0: 30b3 073d f963 aabc 1525 11bc 2e58 0e3c
000003d0: df9c 42bd e585 80bc 4025 5fbc ee70 30bb
000003e0: bda5 6b3a 929d a13b a5e0 9bbc 2d9b 233c
000003f0: 2d93 3f3c e217 ad3c 3538 c33a c891 733b
-0.016467182 0.020973772 -0.014258407 0.0062423334 0.030030508 0.017549912 0.00759445 -0.00830306
-0.0032226623 0.019601738 -0.027529953 0.0138747115 0.023308812 -0.011726162 -0.013572169 0.0012384298
0.033476025 0.006977969 -0.0028531128 -0.005052115 -0.019192277 0.017344823 -0.010756914 -0.021085957
0.015749712 0.024824914 0.019687945 -0.016429592 0.009481746 -0.012436949 0.026083907 -0.0100582065
-0.0175279 0.012749197 0.0122514395 -0.00027055843 -0.023522723 -0.0190855 -0.007039204 -0.0018132696
0.032081466 -0.008533857 0.007292513 0.002142498 -0.030797586 -0.022633737 -0.023532046 0.0086061
0.005275266 -0.017153118 0.009504579 0.003670032 0.022981552 0.014189133 0.029793844 -0.002311728
0.009514252 -0.006496578 0.0042284955 -0.005275822 0.0014837346 0.032361876 0.010280314 0.005262535
0.0065729097 -0.019683158 0.008747156 0.040171858 -0.0043502287 0.008671867 0.00020909119 0.014614649
-0.0049142833 0.012074708 0.0040576193 0.004015895 -0.0045538037 -0.0005770407 -0.021038339 0.021384547
0.002540466 -0.0034593658 0.005053212 0.047647204 0.008331939 -0.032297283 0.021029474 0.014807604
-0.0035333764 0.010852265 0.012043445 0.0025647052 0.0019052161 0.0025933336 -0.015074211 0.0091551645
-0.0155346515 -0.03468974 0.0029830132 0.00051252445 -0.007509745 0.0036246316 0.029990712 0.009301266
0.030632708 0.015475397 -0.011547813 -0.022232007 0.005994653 -0.024610471 0.023183452 -0.014704009
0.016590592 0.002206693 0.0042027864 -0.009339785 0.0050030397 0.0025410966 0.01727113 -0.024134973
-0.029888088 0.01815868 -0.0025236828 -0.00070057216 0.010610043 -0.01605673 -0.014428017 -0.0018437896
-0.009829172 0.01176388 -0.0038390912 -0.027268266 -0.001386142 -0.015329887 0.005417754 0.006455969
-0.0056008655 -0.018675609 0.007845714 0.013534871 -0.01012024 -0.010312877 0.024574732 0.027436627
-0.009690235 0.006193621 0.027555412 -0.005478554 0.026851831 0.006740754 0.021487763 -0.0058396594
-0.00095425453 0.014302461 0.0037291057 0.020272002 0.031248644 -0.007443989 0.007575553 -0.004498406
0.011217332 0.0058045504 0.011475405 0.03086164 -0.017637564 -0.019217102 -0.013657096 -0.0130161075
-0.0065002465 0.001648052 0.010874687 0.0006796682 0.011300006 0.032206345 0.011336902 0.008683467
-0.013313417 0.0031670134 0.0036691732 0.0036105195 0.01941084 0.007989242 -0.0029272467 -0.012773019
-0.002634897 0.015444114 -0.00030597032 -0.013925718 0.003060685 -0.024753952 -0.018385205 0.00093466707
-0.00068456505 0.04324059 -0.02676869 -0.008936275 0.0047554835 0.010650434 0.0025507098 0.02915208
0.017552929 0.0051100813 -0.018055407 0.037577093 -0.017012475 0.0008183393 0.0028251729 -0.019308211
-0.0031415403 -0.008326573 -0.007890434 -0.002241993 0.0098006595 0.0068878355 -0.023698973 -0.020535026
0.0026282738 -0.008821586 0.027645765 -0.015549329 -0.0019547918 0.0046392037 -0.0051370403 0.008527871
0.0059692264 0.029732997 0.0019302145 0.026222978 -0.0013626817 -0.035161447 -0.009381527 -0.025032902
0.029422527 0.021260351 -0.017556258 0.027751928 -0.0050508915 0.03452684 0.00069611275 -0.010714932
0.03312987 -0.020799624 -0.008858939 0.008688016 -0.047512885 -0.015688846 -0.013619721 -0.002692278
0.00089892355 0.004932114 -0.019028017 0.009985727 0.011692804 0.021129552 0.001489407 0.003716575

action_model._continuous_distribution.mu.bias f4 [2]
00000000: 0000 0000 0000 0000
0.0 0.0

onnx::Div_51 f4 [6]
00000000: 95c7 1c40 e7a7 003d c5d6 0a40 9db6 2b40
00000010: 57f5 243c 3442 1640
2.4496815 0.031410124 2.1693585 2.6830208 0.010068259 2.3477907
